models/model_cv_digs (7000).npz (npz, 815236 bytes, 4 tensors)

weights_input_hidden f8 [784, 128]
0	0xbfb1b26d0085ce95	-0.06912881148110224
1	0xbfa9e988e6f9826b	-0.050609853930613756
2	0x3fb8ed74c1a1ff41	0.09737329223025616
3	0xbf95903ec087d23e	-0.021058063984997093
4	0x3fada4e328e85ca3	0.05789861559258582
5	0x3f878a8a12b91409	0.011494711586360411
6	0xbf9900cd35fddc36	-0.024417120380771894
7	0xbfad66ff1f8cf281	-0.05742642650736674
8	0xbfaf21c0db9bd8af	-0.060804392631255914
9	0xbfb2e1b9ae7a85b4	-0.0737567950223113
10	0x3f5479c8a6d33856	0.0012497386444923118
11	0x3fb1046cca4cb12a	0.06647376955942677
12	0xbfaaf84ad7afc380	-0.052675570324828946
13	0xbf7a80f9c49cb808	-0.006470657020868138
14	0xbfa9a437b10e8eb2	-0.05008100544298823
15	0x3fb3b7b4e094ac75	0.07702188952377916
16	0xbf827d39fa7b5c72	-0.009027913052177736
17	0x3f7db86353833e28	0.007255924218227551
18	0xbf973b604b4de628	-0.022687439533433246
19	0xbf9e091818a1cb13	-0.029331566337030667
20	0x3f8be71f7fa68012	0.01362442596729355
21	0xbf9da50e532b911a	-0.02894995100622664
22	0x3faca33fe0efd745	0.055932995041003276
23	0xbf749ec747458032	-0.005034235411898224
24	0xbf9873e7b62bb7c6	-0.02387964295751723
25	0xbf9ba183971519e7	-0.02698331460603667
26	0x3f56c3153768f983	0.0013892848197794856
27	0xbfb2b15cd89786be	-0.07301883972061327
28	0xbf97a7b269bfb2e0	-0.02310065050544352
29	0xbf577db104e669c0	-0.0014337757780596844
30	0x3fa36229f1dbf0ba	0.03785830571539024
31	0xbf9ab8f8698c012e	-0.026096230928488832
32	0xbf6d55909ea2e2d7	-0.003580839596079559
33	0x3fb9f84b931f41e8	0.10144493429039125
34	0x3f8f1576bbd46c69	0.015177657706365548
35	0xbf6a9f937fa674fe	-0.0032499199707688433
36	0xbfb00aee4019c8d2	-0.06266678872069356
37	0xbfa5ab16839ea305	-0.0423209224384831
38	0x3f90c623c288100b	0.01638084292245882
39	0x3fa81ec68870e2dc	0.04710979857958872
40	0xbf9ac437aba68d7c	-0.02613913521930787
41	0xbfb0d879170386b7	-0.06580311595782971
42	0xbf8e4d18b4c9a437	-0.014795487420274351
43	0x3fa77aae34d6da2b	0.04585785288820817
44	0x3fa7568d275aad84	0.045582209638577204
45	0x3fb07d451f5beef1	0.06441146865466486
46	0xbf6b7d8e3831dff3	-0.003355767986757735
47	0x3f9c96d3a69f8bd4	0.02791910843360397
48	0x3f71d64fc987cf75	0.004354774159299403
49	0xbfa0e6583f225f43	-0.03300739069635352
50	0x3fc0145526b83318	0.12562050238229783
51	0x3f9fc269c89274fb	0.031015065066289243
52	0xbfb1461ce07bc078	-0.06747608643104452
53	0xbf9eeb664fed5ae4	-0.030194853428237148
54	0x3f93ca830a2306f0	0.019327208989813494
55	0xbf8a4eeac2e7fb68	-0.01284583480173547
56	0xbfb0576df8b91864	-0.06383406946506082
57	0xbfaa3be7ac96e68e	-0.05123828870587231
58	0xbf51831870aa48a2	-0.001068853251727599
59	0xbfb53d3f9066bc20	-0.08296582484648285
60	0xbfa523180db7ab39	-0.041283370661253156
61	0x3f769cdd95d79017	0.0055206924130040335
62	0xbf89b3d21795902a	-0.012550011963590253
63	0xbfa7a2d36f994f95	-0.04616413819590474
64	0xbf9295458770fb64	-0.018147550956423855
65	0x3fa163a9e273c8cd	0.03396349801359264
66	0x3fb40738c45d75c0	0.07823519510335242
67	0xbf900fc7807987cd	-0.015685193268275378
68	0xbfa1d6f124a4f694	-0.0348430020553511
69	0xbf748eafb4185c20	-0.005018888799461357
70	0xbfb782cb00e17db4	-0.0918394925260973
71	0xbfa02ca90a17df92	-0.03159073112686807
72	0x3f9009d51149896b	0.01566250722897548
73	0xbfb3d5b60998b85d	-0.0774797223500356
74	0xbfa145d6882ac0f0	-0.0337359467715731
75	0x3faa285c1c3ee824	0.05108917088314538
76	0xbfb879ce3182659d	-0.09560860356068308
77	0x3fa8a43c5d8961ef	0.048128019731567544
78	0x3fb199e0f539b25c	0.06875425326297474
79	0x3f6b5178dff781af	0.003334747394305469
80	0x3fb87fd993f4df5d	0.09570083486766863
81	0xbfbbda2cbad81b2e	-0.10879783212304225
82	0xbfa610394f7ecff7	-0.04309252829935411
83	0xbf8e993906c4ad06	-0.014940686720896778
84	0xbfa02e5383087e35	-0.031603440995465006
85	0xbfb5601182850c36	-0.08349713741795103
86	0x3f74669e12bdcd82	0.004980676148864107
87	0x3f6541061e6e4333	0.0025944823750666756
88	0xbf924f9cfe6cc93a	-0.01788182547461157
89	0xbf9b4de23c571b92	-0.026664290364148586
90	0x3f7d04d0042661d9	0.0070846677430371425
91	0x3fa3b19de4ed46fa	0.0384644834472407
92	0xbfb0c590f1f4b367	-0.06551462084889935
93	0x3fa4637ee42fbaae	0.03982159171561271
94	0xbf97d572e18ad835	-0.023275179878247527
95	0xbf85b7665746701c	-0.010603713549066689
96	0x3fbe572ad20fbdc4	0.11851756695226984
97	0x3fb48e394e68396e	0.08029516376720888
98	0x3faf480fa51755ee	0.06109665766022575
99	0x3fa431445cdb0338	0.03943837769975861
100	0x3f9b8e2ebf8eeb6a	0.026909571115293053
101	0xbfa75c810a421a09	-0.045627624990675804
102	0xbf944c852c28308f	-0.019823151416901438
103	0xbf743a67087c7375	-0.0049385094387418465
104	0xbf8d40e052cbc060	-0.014283897902231668
105	0x3facf3a5a86917b8	0.05654637985985239
106	0xbf81ccc2a47a0aa3	-0.008691330570632266
107	0x3f74fa8c900dbb2f	0.005121754715999668
108	0x3fa2bd4a4dbaf1d0	0.03660041998725527
109	0x3f8ef0960da582a7	0.015107319156130684
110	0x3fb1dba346a74732	0.0697576568120695
111	0x3fbc901e56296c95	0.11157407382545366
112	0xbf79c3e54cf7a1ce	-0.006290336328199376
113	0xbfa25fffcc6f13e0	-0.035888665871915526
114	0xbfb923cb97119794	-0.09820244253350402
115	0xbfabe7a921445953	-0.05450180560198938
116	0xbf8394c9f8948672	-0.009561136148991543
117	0x3f8b71843fc3775e	0.013400109477909868
118	0xbf9cd4f14e07fb83	-0.02815606154217277
119	0x3f92393b0e4b3013	0.01779644274465404
120	0x3f9d73b23ff65398	0.028761658815330188
121	0xbf7e840a736e7b7d	-0.007450142692419057
122	0x3fa34e2e788ea31e	0.03770585271496983
123	0x3f7d614f4af5e56b	0.00717287992244429
124	0xbfb4c0ff9d11f536	-0.08106992325516135
125	0xbf9c2f638bccf53e	-0.02752452412390948
126	0x3f9366d0610b21e6	0.018946891711296397
127	0x3f69b64c3cd90b41	0.0031386841790505275
128	0xbfa91ff8b46314d7	-0.049072048206235834
129	0xbf9d5ac519367372	-0.028666572250233675
130	0xbfb1f06cff369d5f	-0.07007485609812168
131	0x3fb2a21941d5429c	0.07278592927219524
132	0xbfb3f891172d269a	-0.07801157775716164
133	0xbf9115e449c084b1	-0.01668507290026317
134	0xbfbc7847d108718b	-0.11121033528656292
135	0x3fb08279bb3ade79	0.06449089833301426
136	0x3fa1d67e49177ea6	0.034839579031311005
137	0xbfad363f5c639758	-0.05705450060649636
138	0xbfa5c70f50247248	-0.04253433087635422
139	0xbfadcc903a758bd8	-0.05820131982434135
140	0x3f9c2ace73a6a999	0.02750704365613785
141	0xbf56c8814cc41d9f	-0.001390577573205799
142	0xbfae1a587dbf61a2	-0.05879475150112802
143	0x3fa2fda0beea52f3	0.037091277413457656
144	0xbfb533c6eb8ed80f	-0.08282130480697013
145	0xbfa8f74ded2579db	-0.048761782835515986
146	0xbf8eee036f9fcd44	-0.01510241207504371
147	0x3f9016468710905b	0.015709974282927735
148	0xbfb9a88c332c3f95	-0.10022808312737504
149	0xbfb63d6c58287d74	-0.08687474396037037
150	0xbf64a745f14c6b52	-0.0025211683336129687
151	0xbfbd5e2bbd6241e1	-0.11471818326595652
152	0xbf8e92bc5a30e77e	-0.01492831373444736
153	0xbfb2ae7c4e3b8d34	-0.0729749384877792
154	0xbfbc45490af85220	-0.11043221013853399
155	0x3f6eb93aea042b1d	0.0037504339853787886
156	0x3fa35059601bd993	0.03772239015772807
157	0x3fa0f0aacd549d99	0.03308614498592561
158	0xbfb928f02f5a2e65	-0.0982809177023057
159	0x3f9ac3d83f29e7e2	0.026137713294225658
160	0xbfa14ec18d10b674	-0.03380398604381876
161	0xbfa0d5e0613df9db	-0.03288174807584073
162	0xbfb6484b52d96760	-0.08704062245069855
163	0xbfa5f961b62ff84b	-0.04291825627295561
164	0x3fb311727606aaa0	0.074484971823646
165	0x3f8fa23b092f1ef4	0.015446149080062345
166	0x3fad2ca3d993e9da	0.056981201467312295
167	0x3f53aa5ef4034220	0.0012002875592324116
168	0xbf9d9eef1baa749a	-0.028926597655858012
169	0x3fac5187adf5a3ce	0.05530952452210834
170	0xbfb8a91f9d2421d1	-0.09633061968282354
171	0xbfb553c34e9f6085	-0.08330937070366147
172	0x3fa7bbe5b3d69173	0.04635541744508744
173	0xbf98cf1496550cad	-0.02422744910769541
174	0x3facfa6c4ade57ab	0.05659807599947383
175	0xbf9ea70305a5eed5	-0.029933974475610043
176	0xbf904f7237c70c2d	-0.01592806306304
177	0xbfa65c71bba9adf0	-0.04367404380613127
178	0x3fa1c9f78bc3a546	0.03474401074511006
179	0xbfa282d083f25cac	-0.03615428553273978
180	0x3f7337f16f9ea4d9	0.004692023381644727
181	0x3fb27e7b76caf841	0.07224246645179823
182	0xbfa07bce4bbf95c6	-0.03219456362402755
183	0x3f9cd9ee92fbcb09	0.028175094338574378
184	0x3fae8823e838e023	0.05963241777175223
185	0x3fa3555c644bcff8	0.03776062702482358
186	0xbf8cbbc8de6ac657	-0.014030045783644569
187	0x3f7074cb8d6aff6b	0.0040176345125358765
188	0x3f7d69ea4cb243fb	0.007181086762231277
189	0x3fa2f138ddc19fc6	0.03699662882792114
190	0x3f67e57d38437f59	0.002917046136744189
191	0xbfc1cde7cdadb149	-0.13909623663801998
192	0xbf6e4f1e9be1e37c	-0.0036998365240460945
193	0x3f9e84e4085ceb33	0.02980381299060326
194	0x3f9b8a36d6bb1087	0.02689443288433371
195	0xbfad1bfc6003e110	-0.05685414001522038
196	0xbf76cdc2ab45ae59	-0.005567322183519596
197	0x3f86b54ac8c26030	0.011087974788367289
198	0x3f92281225254a2a	0.01773098327368864
199	0x3f92f00742ef4a00	0.01849376054799201
200	0x3f9147bee8093f11	0.016875250732765915
201	0xbfad05a6698befc3	-0.05668373144541718
202	0x3f8d8eb78642f9d8	0.014432367119636177
203	0xbfa1665313090eb3	-0.03398379905095563
204	0xbf87a160c3e6e107	-0.011538272837114961
205	0x3f85c235c3cf43f8	0.01062433246434756
206	0x3fb1a28c232bdf96	0.06888652666736869
207	0x3fa620cf5c000ab4	0.043219070415962874
208	0xbfad1c7eb08aa328	-0.05685802369163745
209	0xbf9b4ac396a56e18	-0.026652389592852627
210	0xbf9803f2806fa78c	-0.023452557648773673
211	0xbf9e592279ef9df6	-0.029636896793730792
212	0x3f6fbc087c203264	0.0038738408775372147
213	0xbfacbedc3e177f0f	-0.05614364870029764
214	0xbf9a519d627ff15b	-0.025701960694264652
215	0xbf9668e6e8a3b7cc	-0.02188454432410207
216	0xbfae08a1818a9198	-0.058659598410744695
217	0x3f92ffd39ad28812	0.018554025959595384
218	0x3f865f6d5ce803cc	0.010924200437331687
219	0xbfb717d729b3c9dc	-0.0902075268566373
220	0x3fa628207fe1b8c5	0.04327489434295865
221	0xbf60bb9f5c9f43f9	-0.002042590383077411
222	0x3f976e9680dce3fd	0.022882796874203127
223	0x3fbb8090042022ea	0.1074304590293981
224	0x3f954ab82f528fae	0.020792844665848235
225	0xbfb1d207ffaefe6a	-0.0696110724666085
226	0x3f9d6191abca67d4	0.02869250880267045
227	0x3f8d0e5bf40e073d	0.014187544236623157
228	0xbfaf79d28ab3f5f6	-0.06147630637313377
229	0xbfa415f91d8e7514	-0.039230141504257215
230	0x3f8ddc7a9f856cf9	0.01458068656272936
231	0xbfb3c59b967d54d0	-0.07723400520383739
232	0xbf9c4791397969ef	-0.027616757519675458
233	0xbfaace357f8c6f21	-0.052354499645131954
234	0xbf9b513686d442e2	-0.026676990489309278
235	0xbf9e1cb2283c2ab3	-0.029406341272116786
236	0x3f74ed8d0b5ecc87	0.0051093587443801275
237	0xbfafc6e3ed24893e	-0.062064287851415476
238	0x3f968f5e0d99e32d	0.022031278209826134
239	0x3f9441adb3661ef4	0.01978179366554307
240	0x3fb6568b93acb5a7	0.08725807528818184
241	0xbfc3784997c520b9	-0.152108382326565
242	0x3fa5e5f51e37e467	0.04277006143451772
243	0xbfab6a730dd8e373	-0.05354651969941573
244	0x3faa528c1e5f24e2	0.05141103621242295
245	0x3fba1517bf44eb95	0.10188435001047787
246	0xbfbac0c888ab7cc2	-0.10450414024988944
247	0x3fb87b2eaf9634a5	0.09562961375032104
248	0xbfaa6200671a1bf8	-0.05152894266671376
249	0xbf956be023a0658e	-0.020919325041267416
250	0xbfa02e2a3dfbf505	-0.03160221106188924
251	0xbfaa8c19abf5ef3a	-0.05185013031129278
252	0xbfc15545afa57d2d	-0.13541480137335196
253	0xbfb1995e05b40956	-0.06874644889106682
254	0x3f9e3b6aeef26e73	0.02952353557030425
255	0x3f6fcbdcb56df87c	0.003881388732621947

weights_hidden_output f8 [128, 10]
0	0xbfcd34ceed3e9c57	-0.22817408165176076
1	0x3f62c5d3467279ab	0.002291596075863119
2	0x3f889c566115d573	0.012016939962203854
3	0x3fb681389b058a77	0.08790925774295909
4	0xbf5ce70068092df0	-0.0017640594452527046
5	0x3fac3b2e734a939d	0.05513901860584911
6	0x3f9b1d3a567b5757	0.026478683021955742
7	0xbfccf36d3e860942	-0.2261787944117462
8	0x3fbf64752ea458ba	0.12262661350937068
9	0x3fba1940e79a7bef	0.1019478383482093
10	0xbf9deb0844bb368b	-0.02921688956739969
11	0xbf8bab1f58a81876	-0.013509983914456774
12	0xbfc457c6bd0b2135	-0.1589287207664342
13	0xbfa05d01a288aca8	-0.03195958241516311
14	0x3f8079f8a999fd66	0.008045141864612314
15	0x3fcd3673765e5887	0.22822421340669427
16	0xbfc94ab0a11a4a78	-0.19759185663550105
17	0x3fdebe3c36db0340	0.48036103589042867
18	0xbfe12a0929948021	-0.5363813221083583
19	0x3fbaa63e7a00e77d	0.10409918287851201
20	0x3fa66083f9fa842f	0.043705105080569566
21	0x3fbfc88a365094df	0.12415374589962223
22	0x3fbc2fba8aba49c7	0.11010328184992267
23	0x3fc13256048f8ecc	0.13434863302892663
24	0x3f971ba9184fa4cb	0.022566454037506383
25	0xbf49a6b8e830d8ee	-0.0007828142992199175
26	0xbfe1d44ca0f9d8b6	-0.5571654457151201
27	0x3fc14e73d2c97a85	0.1352066783174061
28	0x3fb3d637a38ebf91	0.07748744719606139
29	0x3fbe4c277a41920e	0.11834952101487081
30	0xbfb5824f3d65ad30	-0.08401961564020577
31	0x3fbac3ac3ed2247a	0.10454823049271225
32	0xbfafb77524703d43	-0.06194654531293022
33	0x3fb1f041d20b7f72	0.07007228258180279
34	0x3fdba7c0339dd013	0.4321136955325084
35	0x3f921d84b6b6f33a	0.017690728809373037
36	0x3fc0a99f702a7cd4	0.13017647721151226
37	0xbfc761fa6968cdb3	-0.18267755648558434
38	0xbf6c31f1177fa5d8	-0.0034417828392079124
39	0xbfb6c0afa46ff5a9	-0.08887765659888792
40	0x3f97fe5af8d0c7a0	0.02343122619294713
41	0x3fba9c21dbed074e	0.10394488925251474
42	0x3fd1c7d586d4eae7	0.2778219048229133
43	0x3fd07b4a410725f4	0.25752502775557606
44	0xbfa79ad9be8fc951	-0.04610329104606826
45	0x3fabf01a6878d667	0.05456621671002609
46	0xbfcc0a856ebe5605	-0.21907108218572105
47	0x3fd9d9178443f9ec	0.40387523571544537
48	0x3f9ea318f4a82242	0.029919042523063995
49	0xbfe33c189a8449fe	-0.6010859506516792
50	0x3fba8b57cc5c8218	0.10368870486536996
51	0x3fad83162dde7a02	0.0576407366745464
52	0x3fb2bc62d2e90528	0.07318704270530374
53	0xbfa6fa71eb39de1a	-0.04487949367915807
54	0x3fc1b2935259386d	0.1382621910183305
55	0xbfc3519b15babc28	-0.15092791138656136
56	0x3fa7f432206a6e27	0.04678494115543357
57	0x3fb172fdf37aa1c8	0.0681608886176327
58	0x3fb543fdc510bc96	0.08306871472517438
59	0x3fc3122216d3772c	0.14899088015129658
60	0x3fb38d8fcc2b1cf1	0.07637881025867778
61	0x3f81ffbea196a4f8	0.008788575464523593
62	0x3fa45c1db0073952	0.03976528905660594
63	0x3fc597cafb13d220	0.1686948514904012
64	0xbfc0ee98799ecd97	-0.1322813600396386
65	0x3fc48d4982309327	0.16056174141808663
66	0x3fba01714b1ca2ce	0.10158451160226464
67	0xbfcd3eddb05c6144	-0.22848101722116543
68	0xbf8a385296eea4e7	-0.012802739363751715
69	0xbfd4b5c86d049df6	-0.3235951485280276
70	0x3fd22fd801628c04	0.2841701520466702
71	0x3f8e02ab44041dc9	0.014653528226076145
72	0x3faf2100f2754c89	0.060798673245380526
73	0xbf43b73bd9c8bca2	-0.0006016771545257658
74	0x3f8733991e78a56f	0.011328884355935568
75	0xbfd8e56de7c58387	-0.38900325426043775
76	0x3fb750723348d312	0.09107125999510071
77	0x3fa236281ceebd5c	0.03556943276577826
78	0xbf927f37021b39cf	-0.018063411239205792
79	0x3fa44dafa2e799fa	0.03965519774992639
80	0xbfa0be9bac4de75c	-0.03270422437976947
81	0x3f919dda69f90005	0.017203724592263842
82	0xbfa580a520b958e0	-0.0419971086927704
83	0xbfd041942674ded3	-0.25400260692138693
84	0x3fb68d0385c1ba11	0.08808919921441595
85	0xbf7b8e1244777e2e	-0.00672728667947768
86	0x3fbc23446ef40802	0.10991313656634819
87	0x3fa7a0e4f42fa24c	0.04614940148150434
88	0xbf82cee92ab4d276	-0.009183713546556432
89	0x3fb325697da7f9f9	0.07478961293961807
90	0x3fbd2118ee3cc683	0.11378627601950524
91	0x3f9ccc91cade1105	0.028124120719000185
92	0x3f6314a765a0c20a	0.0023291844818447193
93	0x3fbe4967dc83ac70	0.1183075822224724
94	0xbfb8cf2d7be1bb80	-0.096911280388424
95	0x3fb5eaf2c03b9781	0.08561627572234266
96	0x3fbb69d34eadc753	0.10708351775045104
97	0xbfcf68e2abd37135	-0.24538834943712975
98	0x3fc06c0538aa84a3	0.12829652087115048
99	0x3fac7d819d2de5f1	0.05564503711407188
100	0x3f9e59a2ace5d511	0.029638807108729518
101	0x3fd17b676da06e4c	0.2731569834302021
102	0xbfad5f14e83cd73a	-0.05736604056293833
103	0xbf92221eb04af193	-0.0177082820034556
104	0x3fb1f0209c84da68	0.07007030316604246
105	0xbfacc8ff035a05f5	-0.05622097888864267
106	0x3f8ab7876070a7f4	0.013045365934960508
107	0x3fb6fedd4810bf58	0.08982642182740841
108	0xbfd54b5363da7662	-0.332722518456512
109	0x3facda237902ca7b	0.05635176517661918
110	0xbfdb136fc9c587fe	-0.42306132034548216
111	0x3fc795c791f7b43a	0.18425840976070323
112	0x3fc1d413ccba99f6	0.13928458687333006
113	0xbfb2951b1ea647dc	-0.07258767603187216
114	0x3fb32284a532f8fd	0.07474545510465087
115	0xbfd9f0cc4a5ca6a9	-0.4053221441450697
116	0x3fc8c9ef971f58b1	0.19366259459520088
117	0x3fb08962fa990130	0.06459635370356831
118	0x3fc60646459c9a4d	0.1720664825345061
119	0xbf928fd9bb765cf4	-0.018126871172708683
120	0xbfa22a2df75ef79c	-0.03547805447259053
121	0x3fd2109b421f6c58	0.28226357896136767
122	0x3fa0be253ff7d6aa	0.032700695093735035
123	0xbfc7f1b24371734b	-0.1870634869873363
124	0x3fbd6e00740fcbfa	0.11495974381959675
125	0xbfa645593eb7e145	-0.04349783793071763
126	0x3f9968f26d7e413e	0.02481440346997598
127	0x3fbc9d8520fae853	0.11177856497934728
128	0xbfbff213a37a2a4d	-0.12478754750387928
129	0x3fb3077c324d6ec7	0.07433296421134648
130	0xbf999d0df579f8e5	-0.025013177974408846
131	0xbf9b0f65577f7931	-0.02642591806931555
132	0xbfd8757060a37377	-0.38216790616370794
133	0xbfb3c57b16e94d00	-0.07723206815107986
134	0x3fa1945eb09b6801	0.03433509736869667
135	0x3fa75c72ff094cc6	0.045627206451763366
136	0x3fb795f8a6ccfc39	0.09213213035853664
137	0xbfa751c379828529	-0.04554568155550449
138	0xbf9460d4d2fc2d52	-0.019900632264620306
139	0x3f9b3a433d60e3e9	0.02658944189190385
140	0x3fa7f091db467277	0.04675727655123734
141	0x3fcbb515da0ffbe2	0.21646378657894078
142	0x3f5a39083df69a47	0.0016005115975105276
143	0xbf8597faf7d80cf4	-0.01054378575191215
144	0x3f6bae262b5faacb	0.003378939199128216
145	0x3faeeb56cd8273d1	0.06038924463903295
146	0x3fcb60a97f31333b	0.21388739309841207
147	0x3fa25df2e2bfb679	0.035873022250467686
148	0xbfd9edb134c501d5	-0.4051325812652327
149	0xbfd7a31fec411524	-0.3693313414735988
150	0xbfb10a85000aaef4	-0.06656676531809663
151	0x3fc4d2dd1034d143	0.16268504420589566
152	0x3fc99affcbc052a7	0.20004270027916002
153	0x3fc88a3b4052620f	0.19171848908150976
154	0xbfcf68944ff146d4	-0.24537900832597492
155	0x3f8ab625c17fac31	0.013042731254207936
156	0xbfc054c64adc5ec8	-0.12758711486161745
157	0x3fd1a28dccecd924	0.2755465031836073
158	0x3fb9cc8d5df9024f	0.10077746910338557
159	0xbfe4561527b56339	-0.6355081344182515
160	0x3fbc488fc2d9da05	0.11048220164398266
161	0xbfc63764ae9ffdc8	-0.1735654690419166
162	0x3fbc10c4634ad240	0.10963084625365926
163	0xbf296c5815b7ea24	-0.0001939637685238342
164	0x3fbad28e84afb9c4	0.10477534045614961
165	0xbf8fef055f7f32ec	-0.015592615105469908
166	0x3fb913e07492522d	0.09795954557405002
167	0xbfc9e5277616f11f	-0.20230572954268042
168	0xbfb0664f5369e27a	-0.06406112467255723
169	0x3fbaeddb0b8b31c6	0.10519188911275199
170	0x3fc0d1bebe429ae0	0.131400912189938
171	0xbfa20c9b4d7e89ce	-0.03525243111586783
172	0x3fc0a816d21c83b5	0.130129673570108
173	0x3fc6fb7a9619da06	0.17954952553891718
174	0xbfe0878c6a449564	-0.5165464473290453
175	0x3fc750b19cd47690	0.1821500793238795
176	0xbfc8d4b59261f718	-0.19399137160865432
177	0x3fbdc893c19c69a2	0.11634181477385266
178	0x3fbb095e6dbf7307	0.10561170749083369
179	0x3fb3dd7e9843b386	0.07759848801988597
180	0xbfd163f59c1e14f2	-0.27172603841638854
181	0x3fc93a2bb39dc995	0.19708772917108477
182	0xbfb7394e35d55820	-0.09071816267291455
183	0xbfb92cbc1725b942	-0.09833884778138205
184	0xbfde104dd198d0f9	-0.4697451159329514
185	0x3fd92336a6f574d4	0.3927742605645339
186	0x3fd266ca78ecc7c5	0.28752385911058936
187	0x3fc59aecdcec4544	0.16879044329884085
188	0x3fc2b201e6c1d3eb	0.14605735557020635
189	0x3fbd5d0e49620a77	0.114701168933644
190	0x3fa1378961efefe2	0.033626836018782816
191	0x3f9bed854bfc8828	0.027273257029385573
192	0x3fc2fe399098fb39	0.1483833271067512
193	0x3fca09c2965e798a	0.20342285482633954
194	0xbfd6687546e8678c	-0.3501256172618177
195	0x3fc98f719eabf753	0.19969005820888217
196	0xbfdafc53b903358e	-0.42165082042341673
197	0xbfab2ef6963a82b6	-0.05309267600865068
198	0x3fba17ab308316ee	0.10192365583779026
199	0x3fc6a04901646877	0.1767665154264397
200	0x3fcbe3220f1eaad5	0.21786905039092255
201	0x3faa6378d5165619	0.051540161143901204
202	0x3fbbb1d9781a8e84	0.10818251783580918
203	0x3f81e3d47767d6bf	0.00873533238789592
204	0xbfe424b748a27dfd	-0.6294819277426879
205	0xbfc21b8022e1ae64	-0.141464249641433
206	0xbfa38b05f43b55cd	-0.03817003828377672
207	0x3fa054847ffb91cc	0.03189481794632662
208	0xbf792ac1feee91ee	-0.00614429263706427
209	0x3f9ed23a67f73f94	0.030098831744737334
210	0x3fb79513f560be02	0.09211849919005746
211	0x3fccc9aa848b287a	0.2249043605027657
212	0xbfc4a474e3f72dd9	-0.16126881724481626
213	0xbfd5d575373c7c67	-0.3411534346977931
214	0x3fc3f0f312c50777	0.15579069534765796
215	0x3f96971b71f56c4d	0.022060803251730033
216	0x3fb322afb4a1bdbf	0.07474802169757931
217	0x3fb0426589a3ca03	0.06351313219401082
218	0xbf9643b194ae1ad8	-0.021742605876648863
219	0xbfb40568a0f3b117	-0.07820753030290849
220	0xbf9c1be51f41aa45	-0.027450161011453273
221	0x3fc764148d6f03cb	0.1827417078584673
222	0x3fc6384ca9258373	0.17359312304600003
223	0x3fc2545fc7cb81c4	0.1431998944817804
224	0x3fcfa6a0dd4b7d16	0.24727259450353561
225	0xbfd6aa97d1e2b78b	-0.35416217323915394
226	0xbfe321d55136b569	-0.597880037899512
227	0x3fc912a582eea47c	0.19588154690908144
228	0x3fab63065ba61d77	0.05348987454186276
229	0x3fc7f8329bbf2d4b	0.18726189236472587
230	0x3f8105b2770e085b	0.008311647661461466
231	0x3fc560ff116d26b2	0.16702259398362213
232	0xbfd0098145e8abee	-0.2505801375106661
233	0xbfccb41796cdb175	-0.2242459760995065
234	0xbfc948001fba8ad4	-0.19750978039981837
235	0x3fc166c5d2efc683	0.13594887542381082
236	0x3faa70ea5e4fe4f5	0.05164272691031072
237	0x3fa30a605135b9f8	0.03718853942233474
238	0xbf699ec5d37bcca8	-0.0031274665633361405
239	0x3fa0b81a8c92efd5	0.032654599819096276
240	0x3fbe98dd65d06a91	0.11952003226944387
241	0xbf904a16bef940c1	-0.015907626539331646
242	0xbfb67f687332c804	-0.0878815919157035
243	0x3fa47c907bbf693b	0.040012850862427084
244	0xbfc48a6d01ea039d	-0.16047442048514152
245	0x3fbb18cc9d21da97	0.10584715687023515
246	0x3fbd28638dbcb8ba	0.1138975354230948
247	0xbfc99e09417bf80d	-0.20013538072083784
248	0x3fbb8624d2e41c00	0.10751562260348635
249	0x3fb3d620c44d9497	0.07748608391337296
250	0x3fb43d9bfdbc9f4a	0.07906508393045644
251	0xbf8e0c62b6ebaf1f	-0.014672061164183568
252	0x3fe2b8799825ecb8	0.5850189181941436
253	0xbf9f71cb1fb63c53	-0.030707525072611052
254	0xbfa26f70b66a2586	-0.03600647188893462
255	0xbfa5a585531fcebc	-0.04227844848346993

bias_hidden f8 [1, 128]
0	0x3fb637c5148964d7	0.08678848029503015
1	0x3fc7eeac3393a800	0.18697121160886354
2	0x3fcac41d13f2f23e	0.2091099116713781
3	0x3fa505f022c45df1	0.04106092857744759
4	0xbfb8281a7945685e	-0.09436192951889796
5	0xbfcd0b7fd4eaa25f	-0.2269134320861381
6	0x3fbf214a0043493f	0.12160170084397225
7	0x3f9634123f5b2381	0.021683011166519165
8	0x3fbbcf44350f3997	0.10863138480565336
9	0xbfbf0322c50cdf67	-0.12114159880445428
10	0x3fd04b85616e0723	0.25460943712833933
11	0x3fc329842afad438	0.14970447634337503
12	0x3fd0d562adb070c3	0.26302401506269407
13	0x3fc631f0d4a544cb	0.17339907057843215
14	0x3fe3f2a0fd4d0095	0.6233677813798005
15	0xbfd9737f0b2bb91c	-0.39767433253190787
16	0x3fc8358b8ed20ab3	0.18913406823783915
17	0xbf92c4bb52f00869	-0.018328597008811096
18	0x3f98134ab025d052	0.023511092187121392
19	0xbfaeef8b3e362fa9	-0.06042132505817161
20	0x3fb434e665fe3e09	0.0789321898466754
21	0x3fcda51fcc1a6946	0.23160169092154542
22	0xbfb3e2632f3ef9ea	-0.07767314818827456
23	0x3fd7c190000792d6	0.37118911745919314
24	0xbf7f222ebc4bd85c	-0.0076009584051829025
25	0xbfc181b348fcca5c	-0.13677064002839046
26	0xbf9640af3fd6fb68	-0.02173112704417282
27	0xbfc7372b80942312	-0.18137115267043008
28	0x3fced42283a1fc50	0.24084884097462345
29	0xbfadd2e00977e968	-0.05824947467404479
30	0x3fc74492500f8596	0.18178013714991142
31	0xbfce8cb089e2e24d	-0.23866850598075687
32	0xbfa5d577ec464564	-0.042644260017491914
33	0x3fe2141613295370	0.564951932358424
34	0xbfab101f53862c1c	-0.05285737890798023
35	0x3f84038b14edb303	0.009772383285701297
36	0x3fcb85eb4846072b	0.2150243857286623
37	0xbfc87de07836468a	-0.1913414561245655
38	0x3fcc5d31b0fb9503	0.2215940584348247
39	0xbf90a2146187de89	-0.016243284657291333
40	0xbfaabddefa9f2962	-0.052229850858185115
41	0x3fc1a0e5ef93a248	0.13772272298889932
42	0x3fc97c2753f549c2	0.1991013679458558
43	0x3fc8942036840806	0.19202044164563875
44	0xbfb20c1ac393799c	-0.07049720072561744
45	0x3fdd22493dbe2293	0.45521765737115877
46	0x3fd30bb428e23740	0.2975893401388596
47	0xbfb8dd646cfac797	-0.09712817822108231
48	0x3fc6a46a82b86c49	0.1768925798686232
49	0x3fd73ebdca78f37c	0.36320442936612785
50	0x3fde064a7e142c00	0.46913397133238277
51	0xbfc942d722fd8b66	-0.197352306447182
52	0xbfa56ced3ef299e7	-0.04184667008785308
53	0xbfc34f5c1d626b48	-0.15085936960971424
54	0x3fc275395ca98d44	0.1442023947193808
55	0x3fc38e2204a57841	0.15277505137322758
56	0x3fd37c71bb11e2d6	0.3044704748968291
57	0xbf6a52ff76e4d7c8	-0.003213404611552815
58	0xbfaa2158b89b6e92	-0.051035664115002835
59	0xbfbaf14b1c5309df	-0.1052443451072018
60	0xbfd1cd213a986ca7	-0.2781451294155865
61	0x3fd2e43d58b7a2e7	0.29518064178277686
62	0x3fd1db2dcfbbd0bb	0.2790026215218508
63	0xbfd209cd89723c08	-0.2818483202217412
64	0x3fc655a155aed20a	0.17448822673544867
65	0x3fbf3458fa06bd1b	0.12189251045377995
66	0x3fd67fa5be9040cb	0.35154098138538065
67	0xbfd311d4d3392d50	-0.2979633391120915
68	0xbfaa2571e0270b13	-0.05106693135487297
69	0x3fd6effe8231584e	0.35839808191429234
70	0x3fc3e17cd9d15622	0.15531883845930944
71	0xbf92971881e0c7e8	-0.01815450947487554
72	0x3f871821e18710dc	0.011276497550064261
73	0xbf65fe515a023c27	-0.0026847447298403884
74	0x3fb69a4988835ed8	0.0882917364391419
75	0x3fccfd309fbf11cd	0.22647674369922158
76	0x3fc4d4404c63a963	0.1627273915285726
77	0x3fb13e22f0e50e17	0.06735437756747618
78	0x3fda3c0faa7b8811	0.4099158444279292
79	0x3fbe0e05d72cab9e	0.11740147116931474
80	0x3fd471f2a4461dd1	0.31945482294437705
81	0x3fa710878afaf941	0.04504798480546635
82	0x3fbfd3ba97aa0a57	0.12432447626819375
83	0x3fcf6e9a3442b91d	0.24556281616009637
84	0x3f14a4d45d41e66c	7.875009697668752e-05
85	0x3fcf50f53f87448f	0.24465814210865175
86	0x3fe28cdedf5374fc	0.5796961175762188
87	0x3fd43536e15c82c9	0.3157479477686534
88	0xbfa60ccd989b7032	-0.043066429976278534
89	0x3fce50ba619f3b36	0.23683862463664135
90	0x3fbaf369499ca370	0.10527666136898772
91	0x3fa449d7fb8fb7b5	0.039625882585695583
92	0x3fabc959b398fdd5	0.054270556615388856
93	0x3f8b75424afb9596	0.013407247460643739
94	0xbfae1b41db1b457f	-0.05880170631065606
95	0xbfa4f4a3b8ad817d	-0.04092895154349472
96	0x3fb673b7ef75cd27	0.08770322414584496
97	0xbf8a183e12609c59	-0.012741551338036826
98	0x3fbddc03ebd55ee3	0.11663841731694506
99	0xbfd4245b41d6fa2e	-0.3147190230337483
100	0xbf8ec4d17f653c9c	-0.015023838711071762
101	0x3fb33896e72f248d	0.0750822367109711
102	0xbf6ebb95ba3594d8	-0.0037515568125622116
103	0xbfd46f3427f3ef0e	-0.3192873373188697
104	0xbfb502941626b317	-0.08207059422302297
105	0x3fca5578fc1eb8a6	0.20573341665789718
106	0x3fcf590098f674c4	0.24490363568194173
107	0x3fc4aef12d153c9e	0.16158880902591916
108	0x3fce0ffd048a1dfd	0.23486292573601011
109	0x3fa504723fff6dd8	0.04104954749319817
110	0xbf8f6fd96f719532	-0.01535005446766977
111	0xbfcaa147d5020178	-0.20804689312718572
112	0x3fc8fd0bd8a0d3b2	0.1952223594431906
113	0x3fabadb41da1e7b7	0.0540596281216063
114	0xbfaa96dbe6a83308	-0.05193221274030263
115	0xbfb2c5be45545d1f	-0.07332982246986262
116	0x3fc43519fad4c629	0.15787052867521936
117	0x3f8f701b093dfa14	0.015350543231531545
118	0x3fc58cb4140d8da1	0.16835642794749808
119	0xbf91672f7aa0c5d4	-0.016995183810825612
120	0xbfc2b1e5172d568e	-0.14605392104811127
121	0x3fc91be7be0f349e	0.19616410045856453
122	0xbfd95f628c9118f6	-0.39644683577752404
123	0xbfaab61ee75feb50	-0.05217072080991747
124	0x3f922c62a56090c8	0.017747441619705012
125	0x3fc9a2d0f0820705	0.20028125518370402
126	0x3fc5c91fff6955f1	0.17020034762633388
127	0x3fb76fa53546cb5d	0.09154732275673667

bias_output f8 [1, 10]
0	0xbfd7e8a71beefeb2	-0.37357499816787787
1	0x3fae26140e6e377a	0.058884264718570514
2	0xbfd3f9750caea6cf	-0.3121006606912546
3	0xbfd33fb834015283	-0.3007641322958891
4	0x3fd56642271f1a5b	0.334366357998453
5	0x3fd7cd285a2dc8ce	0.37189682776000843
6	0xbfb36cbd6d48edf7	-0.07587798994148175
7	0xbfc0f35c4722eed6	-0.13242677186450774
8	0x3fe4802f54a504f0	0.6406475690093014
9	0xbfcb03b3a1c403ec	-0.21105046652522164
