models/model_cv_digs (250).npz (npz, 815236 bytes, 4 tensors)

weights_input_hidden f8 [784, 128]
000000 81 9f 7b f3 c9 cc b2 3f 9b 51 5b 33 ba cc bf bf
       0.07343733019263078 -0.12421764139009499
000010 75 0d 5a e8 f4 3b b6 bf 05 3c 34 6c 08 7f af 3f
       -0.08685236618662436 0.06151605912065609
000020 19 f7 36 04 78 73 b9 3f 6a 15 14 62 4a 82 b4 3f
       0.0994181642808737 0.08011307615750743
000030 5a 65 59 4e 7f 59 94 bf 2d 0a b4 8d c6 f5 84 bf
       -0.01987265506463607 -0.010234404754105498
000040 12 70 46 61 1d 52 b9 bf 0b cc 25 00 f4 3f 8d 3f
       -0.0989092218864587 0.014282137159829863
000050 57 6c 16 5b 76 25 a5 3f 40 1e 13 2e 2d d7 b1 bf
       0.041301439875689176 -0.06968958258504987
000060 da 00 d0 85 a5 8d 78 bf 66 e8 08 75 63 05 62 bf
       -0.005994459698740873 -0.0021998350642010054
000070 9f 50 9d 07 4a 1d 98 bf d7 e6 df 92 58 64 91 3f
       -0.02354922934985437 0.01698435207797541
000080 c1 67 71 98 0c 81 b4 bf 5f b2 bc 21 5a 2a c0 bf
       -0.08009413453819915 -0.12629248282736946
000090 c2 4f 48 49 a7 f4 92 3f fe b5 18 99 9c 79 90 bf
       0.018511403892332863 -0.016088911861677595
0000a0 9e 0f c0 8c 0d 61 93 bf 80 71 f6 24 f3 7a a8 bf
       -0.01892491504260329 -0.04781303240017376
0000b0 05 a8 bb 55 09 74 98 3f 36 55 30 9b c5 f4 7f 3f
       0.02388014398358253 0.007801792048686187
0000c0 cd bd d8 7e 3b 04 a2 bf 60 f9 73 bd 65 e6 92 bf
       -0.035188540682039006 -0.018457021415991703
0000d0 b3 b3 73 eb 55 33 a3 3f f3 fe cd b3 c9 ac b1 3f
       0.03750103472871249 0.06904278411638724
0000e0 a3 1d 45 00 22 d4 91 3f 47 83 e7 8a 3f d2 a1 3f
       0.017410784975508197 0.03480719156846717
0000f0 fe 06 60 52 74 f7 a1 3f 75 7e 17 2c 2a 27 97 3f
       0.03509105210834028 0.022610339108608508
000100 a4 60 96 fb a0 bf 76 3f 68 c7 d6 ed 1f e6 48 3f
       0.005553845251960041 0.000759854879723171
000110 0f 7c f3 eb 4b 73 9a 3f 98 3d 73 c0 c7 e4 b2 3f
       0.025830446506798718 0.0738034100388546
000120 34 82 fc ee e4 29 7e 3f 2a 55 fb ea 81 a5 aa bf
       0.007364172240869982 -0.05204397195272244
000130 2e b3 36 53 d1 20 b0 3f df 62 74 4b 4b c3 a9 3f
       0.06300075799545077 0.05031810089184829
000140 bc fc 06 6a 41 0e a5 bf 7e cf e6 b5 21 d4 87 bf
       -0.041124386017594244 -0.011635077823349379
000150 f3 e9 55 3b 3a 38 96 bf 90 f0 9f 53 6d 9f a2 3f
       -0.021698865768010788 0.036372581918812874
000160 42 d6 b8 17 cc d3 79 bf cd b4 59 23 18 52 b7 bf
       -0.006305501210183419 -0.0910964094452595
000170 33 a4 3e e5 6b c6 ad 3f 55 2f 78 e7 6f ec 56 3f
       0.058154460653277694 0.0013991444410547855
000180 43 98 b6 5c b2 a0 b2 3f 6f c0 8b a8 d8 ee b2 bf
       0.07276453746325821 -0.07395700564279804
000190 ef 18 ff a5 cd e2 b2 3f 6a 7a 1b e2 18 9d 90 3f
       0.07377324392936989 0.01622427825975096
0001a0 1d 90 a9 61 0b 8c ac bf 11 64 23 76 3a 8e aa 3f
       -0.05575595442931578 0.05186636631123787
0001b0 f4 4b 19 f1 85 2b b1 3f 4c e2 9a 02 66 e1 b1 3f
       0.06707036148263495 0.06984555781935703
0001c0 ff ac e6 85 9e 42 9f bf 6f e8 29 3b 48 96 b7 bf
       -0.030527569697068376 -0.09213687366892186
0001d0 f2 3f f4 6b 4b 48 c4 3f 60 b4 41 fe 2e cd 95 bf
       0.15845625659176182 -0.021290525692553408
0001e0 d4 96 48 2e bc 86 98 3f c3 10 e4 3d 4c 19 af 3f
       0.023951473545955462 0.06073988204482952
0001f0 06 83 36 47 5e 01 85 bf 79 25 d3 1c e4 2e a2 bf
       -0.010256516025778161 -0.03551400043358916
000200 9c 4c 5e b4 e7 0b ad bf ae c9 d9 61 11 19 a0 3f
       -0.05673145367395557 0.03144125289408649
000210 dd 01 ec fc 2b c3 88 3f 6d 7e 0f 79 93 05 af bf
       0.012091010719360301 -0.06058941700734697
000220 f5 e7 3e 8b 20 20 b1 bf b7 e4 a3 62 ce 66 ad 3f
       -0.06689647101930503 0.057424974003831
000230 d9 11 fd 6a 7a 4a b0 3f 45 ae 67 cf cf 5e a8 bf
       0.06363644706750139 -0.04759835631179191
000240 b5 e9 0e 25 10 9e 99 3f ff 24 a8 7b a6 79 88 bf
       0.02501702524362211 -0.011950779579836366
000250 7e ad 43 d6 40 bf 7e bf ab 5b 8c d4 d6 af 82 3f
       -0.007506612080969586 0.009124449120958852
000260 8d cb 6b ec f0 0a b0 bf 98 79 86 12 73 b4 74 3f
       -0.06266694805144209 0.00505490255491594
000270 5c 0c 73 ed 8a 41 92 3f 97 6a e8 10 ab 49 a4 bf
       0.017828150503884962 -0.03962454396624542
000280 ff ca b9 ab a4 08 ad bf 15 1c 7a 8e 96 ee aa bf
       -0.05670656772863047 -0.052601532833300414
000290 6e 13 a0 13 09 b3 b4 3f 63 e7 41 0c 8d f4 64 3f
       0.08085686425336089 0.0025580172387521956
0002a0 84 9b 76 8d d6 bf b1 3f b0 ba f4 42 b6 a5 54 bf
       0.06933346704191307 -0.0012602119348447509
0002b0 c0 e8 22 c7 59 54 9b 3f 31 5c eb 84 0a ce ac bf
       0.026688959864920703 -0.05625946877051325
0002c0 f3 1a de 67 23 bf 9f bf 08 96 2a f5 5d bd 92 bf
       -0.031002572264266125 -0.018300502861754026
0002d0 8e e0 a7 26 d2 3c 81 3f 88 00 fe 56 92 f6 90 3f
       0.008416787914925086 0.016565596160490276
0002e0 d7 af 23 51 41 e7 ab bf df 5d 49 67 a1 4c a3 3f
       -0.05449871173354353 0.03769401918242087
0002f0 1b f3 f1 33 4a 9b 9c bf 74 dd 4b f3 eb 2b a0 3f
       -0.027936133785703903 0.03158509583402749
000300 3e 98 dc 16 d0 f5 99 bf b4 af cd dc b9 10 84 bf
       -0.025351764102332412 -0.009797527361761961
000310 de 0c a9 e2 8c 9e 9e bf c9 dc f4 7a 2e 5b 8a 3f
       -0.029901696523904835 0.012869227530798348
000320 15 75 a0 ee 15 9e 92 bf d6 73 d2 b8 a1 38 9b bf
       -0.018181173982260896 -0.026583220391888172
000330 3b 30 96 0a 7b 5f 8f 3f 85 57 8c 4b 72 c6 85 bf
       0.015318833599643358 -0.010632412844227232
000340 72 20 b9 db 12 28 9b bf 9a e5 91 a7 d5 c7 a8 bf
       -0.026520056401097176 -0.048399616914092294
000350 57 e8 a8 30 77 c8 a6 3f bb 0a 0e 3f df 64 7c 3f
       0.04449818104735986 0.006932136588946032
000360 ab 8f cf 1e 25 58 a1 3f 9d 25 75 6f d7 2f b8 3f
       0.03387561799152591 0.09448000403531016
000370 e9 6e e4 93 54 a2 93 3f bb 24 94 63 0c a5 88 3f
       0.019173928763037393 0.012033554829502404
000380 7e 21 fb 6b aa dc a8 3f ff a8 96 05 f5 27 9d 3f
       0.04855854576232142 0.028472736803146322
000390 88 06 6b 11 56 3f 92 3f 6a d2 c8 cc 93 96 9a bf
       0.017819733441462066 -0.025965031980563692
0003a0 07 df b7 75 21 6b a2 bf f6 c3 44 71 8a 95 a2 3f
       -0.03597359239569014 0.036297155691848035
0003b0 10 6a 93 a8 f1 99 9c bf 90 6c ae bd 88 a7 94 3f
       -0.02793099967389351 0.020170342042189093
0003c0 6e ae 7a b6 07 1f 5b 3f 04 6b 5a 9d 9a 2b b1 3f
       0.0016553473778157207 0.06707159368162868
0003d0 29 ed 52 9b 93 ab b6 bf ae 15 77 f8 63 a7 aa 3f
       -0.08855555097664038 0.05205833824178839
0003e0 d1 de 36 52 ee 74 97 3f 87 e2 23 42 ce 0f b0 bf
       0.02290699364468091 -0.06274117579222081
0003f0 9c 6d e6 a5 ba 54 c2 3f d1 fb ee f9 a4 c9 91 bf
       0.14321072674361524 -0.017370774988872576
000400 dd cb 88 3a d5 c4 ae bf cc 94 f0 28 74 3f 82 3f
       -0.06009546603709002 0.008910090922720569
000410 65 95 94 ee bc 23 9e 3f 28 c3 cf d4 31 cc 82 3f
       0.02943320470980861 0.009178532893174898
000420 c2 51 6b 42 38 a2 b9 3f 2d 14 4f ff fb dd 6c 3f
       0.1001315271526613 0.0035238191435120942
000430 5b 0b b1 41 44 1d bf bf 1c a5 8e bf ca 74 5d bf
       -0.12154032329366997 -0.0017978649104669125
000440 3f 4b a9 a0 0b 54 84 3f 97 b9 b3 b2 2a 52 88 bf
       0.00992592891740218 -0.01187547071318988
000450 d9 59 67 19 54 97 94 3f 1b d7 31 5f b8 a7 a3 3f
       0.02010852246334047 0.038388978596158384
000460 e5 68 a7 12 63 00 c1 3f d5 b9 cf bb 46 f1 b5 bf
       0.13282431040608525 -0.08571283421745275
000470 5e 32 bb 29 b0 29 a5 3f b3 35 3b 83 8d 3e b0 3f
       0.041333680242676904 0.06345447973145361
000480 29 a9 0d be 27 3a a8 bf 4a da 96 7d 88 b4 64 bf
       -0.04731868929850897 -0.002527491171999051
000490 9a 5a 8a 38 9f f1 4b bf 55 b7 d3 41 fc 23 7f bf
       -0.0008527781911478905 -0.00760267770713859
0004a0 91 5d 2b 36 27 9c a3 3f 1f 87 3a f0 20 2f 86 3f
       0.03830072914359584 0.010832078295894441
0004b0 30 c1 19 72 f1 77 90 bf 33 b1 f8 ca e9 08 b3 3f
       -0.016082546795986363 0.07435475545270691
0004c0 94 98 d5 b0 d1 1e 92 3f 03 3d 8a 95 ae d1 99 bf
       0.017695690553772694 -0.025213935734936587
0004d0 b9 7e 4b fb b5 cd 81 bf 09 a1 6f 1a 82 6d 91 3f
       -0.00869314358845884 0.017019303191689015
0004e0 10 dd 0c a3 64 d3 ae bf 11 7d 06 3e 63 96 a6 3f
       -0.06020655145987963 0.04411611683030448
0004f0 24 e0 85 ce 4f 70 98 bf 66 fa d8 d1 da 95 a5 3f
       -0.023865935306702238 0.042158926120909254
000500 05 45 8a fc 1f ed 89 3f e1 d9 0a 6e d9 95 90 bf
       0.012659311193859777 -0.016196629849867143
000510 9c 7c 43 71 31 5a b7 bf d7 c1 48 93 3c fe aa 3f
       -0.09121998801446057 0.05272092149641921
000520 7f 18 c1 2a eb 4a 5c 3f a8 b9 87 55 7d f4 b0 bf
       0.001726846366197715 -0.066230615025893
000530 3c 51 c0 d8 5c 04 ac 3f 1b 58 e3 4e 1a 45 66 3f
       0.054720784624949975 0.0027184976416760992
000540 51 89 c6 bb a0 47 b0 3f 0c 54 90 78 16 ae 94 bf
       0.06359295448649972 -0.020195342167500782
000550 22 fe 3b f6 89 19 88 3f 55 83 53 a1 fa 2d 62 3f
       0.011767461611724764 0.002219190132209207
000560 48 0a 84 53 9a 43 a8 bf 3a 35 cc c6 e2 0f 7c 3f
       -0.04739076871375808 0.0068510874232406375
000570 21 d6 2a 64 ed 7c a7 3f e8 09 57 dc 8e 16 9f bf
       0.045874994733292825 -0.030359489630208986
000580 60 c5 c6 d4 66 bc b1 bf 17 d0 cd e7 c1 fc a8 3f
       -0.06928103155839471 0.048803386255628016
000590 4c f8 f5 9c 27 fe 9a 3f 65 65 2f b0 a3 9d 66 bf
       0.026360148387077495 -0.0027607152019128328
0005a0 ce a8 02 40 96 46 94 bf 3a 18 f3 84 d6 43 97 3f
       -0.0198005177086678 0.02271971880397692
0005b0 a8 ea 05 bd e6 94 98 3f 52 f7 d5 31 41 4d 5d bf
       0.024005513464980283 -0.001788438479109773
0005c0 0b 4a e3 c8 3b 7a 8d bf 9f cf 4d 65 57 b5 62 bf
       -0.014393298214064229 -0.00228373593784599
0005d0 fd 42 88 73 a0 0a 9f bf c7 94 2d 94 6f a7 b3 bf
       -0.030313975383310588 -0.07677361838939865
0005e0 3c bc 22 a3 8d 67 85 3f ee ce a4 e7 f6 e6 99 3f
       0.010451418438917164 0.02529512204019018
0005f0 11 6f c9 5b 9c f9 9a bf eb b5 58 ce 40 73 b3 bf
       -0.026342814542984764 -0.07597737348324755
000600 ad 0e b8 c4 2f 57 9f bf b4 92 00 ec 5c 62 ad bf
       -0.030606027967236816 -0.057391074951998716
000610 86 17 49 5a 24 8c a3 3f 13 0c cc 2e ab c9 b0 bf
       0.038178573628598264 -0.06557721989160852
000620 10 28 60 c7 1a 07 b1 3f ae 9d 8f b6 1f 5a 85 3f
       0.06651465766495357 0.010425803908176014
000630 13 28 be 04 d5 85 8c 3f 89 76 db 46 5b 9b 95 3f
       0.013927139479864825 0.021100450706276894
000640 c1 f4 ca 28 89 3d 92 3f fd 40 bf 51 c0 33 78 3f
       0.017812865366739986 0.00590872883545068
000650 2d db 19 eb d5 70 b9 bf 4c 06 be c0 42 8a 9d 3f
       -0.09937798490305445 0.02884773541837253
000660 29 85 ec 1e 3f 9a b8 bf fb f3 05 10 1f bf ae 3f
       -0.09610361580827899 0.06005189009281505
000670 3f 17 6c 70 24 40 53 3f e5 cc 38 cd a9 ea 9b bf
       0.0011749606944148753 -0.027262356901883406
000680 a2 bb 71 ef 5d 03 9f bf f3 bb 36 fd 13 ee b1 3f
       -0.030286281337278738 0.07003903324105902
000690 a3 f1 ac 73 14 20 9a 3f fb 3b 1e 82 ea 44 7f bf
       0.02551300006892777 -0.007634082839913066
0006a0 1a 8c ec 98 61 35 a4 bf 18 9a b8 30 05 06 7a 3f
       -0.03946976653812602 0.0063533976313352655
0006b0 cf fe 10 aa ab 4a a8 bf bf b6 29 78 53 48 a1 bf
       -0.047444691190774095 -0.03375492898781606
0006c0 0a 4c b8 fa fb cc a6 bf 2b e8 e4 cc 8d 24 ad bf
       -0.04453265605493335 -0.05691950918340213
0006d0 5c 88 c0 8a 10 5e 9c bf 4b e8 11 d2 85 be b8 bf
       -0.027702578037981915 -0.09665714625035197
0006e0 e9 17 c8 54 8f 80 92 bf f8 11 1b e3 bf 14 aa 3f
       -0.01806854205099021 0.0509395565727892
0006f0 ba 65 3b 72 13 61 a7 3f 0f 36 75 b4 c1 e6 9c 3f
       0.0456625058120141 0.02822401679923386
000700 f0 37 45 24 73 7f b9 bf 49 33 ff da 6b 0e ab bf
       -0.0996009791899437 -0.05284440086652482
000710 7a 07 15 03 a8 fd a3 3f dc a3 ec a0 93 1e a2 bf
       0.039044618965376324 -0.03538953151139143
000720 c4 6a 9a d6 7a fb b2 3f 71 29 9f 04 75 c9 99 bf
       0.07414977778754933 -0.02518256035527017
000730 c1 cd bf 48 00 66 b7 bf e2 ea 37 72 02 4f 91 bf
       -0.09140016342262582 -0.016902960034694277
000740 0f 24 fc 71 6c 0a 6c bf 80 9b 0f 5d e0 6b ae 3f
       -0.0034229391166076327 0.05941678176878096
000750 41 de 76 a7 d2 4c a0 3f 8d 4f bb bf f3 f5 b0 3f
       0.03183611196749015 0.06625293189000399
000760 19 96 1d d8 64 2c 91 3f e1 28 e4 ac ee db 9c 3f
       0.016770911875388792 0.028182725241131194
000770 0e 2f 30 c8 5b 8e ae 3f ad 46 19 1d 9e 16 ac bf
       0.059679859339750604 -0.05486005883416332
000780 91 af ea c7 9b 92 b2 bf 7a 93 10 04 c7 f7 99 3f
       -0.07254956846980877 0.02535925829228656
000790 cc 11 35 e8 ab b7 7a bf 67 4a b6 54 b8 ef 93 3f
       -0.006522819053604367 0.01946914689103565
0007a0 b6 ab 01 80 f3 7a b7 3f 98 26 24 1b e1 c3 98 3f
       0.09171983599814734 0.024184720307892066
0007b0 72 f2 a1 3b 3d dc 86 3f 91 7c 1e bd 5d 35 8f 3f
       0.011162260420172408 0.015238506635624456
0007c0 72 97 dc 20 8d 01 81 3f b5 40 ae fe 10 4a ae bf
       0.008303740086897913 -0.05915883168120343
0007d0 7b ce 20 86 43 bd 99 bf c1 30 83 46 d2 d0 97 bf
       -0.025136046468289024 -0.023257527879466226
0007e0 1d 54 b9 5f ef a1 93 3f 77 3f 8f f8 b3 bb a7 3f
       0.01917242070915758 0.04635393532919257
0007f0 42 38 bc 91 19 d9 98 bf 7d fc 9c 45 68 fa b0 bf
       -0.02426567031857752 -0.06632091235677424

weights_hidden_output f8 [128, 10]
000000 9e d8 f5 c3 07 1c d1 bf 7c 5d b8 9c e8 a1 d3 3f
       -0.2673358358073389 0.3067571192236398
000010 07 fc 50 51 92 00 bc 3f 1e 4b 27 0c 52 e5 d8 bf
       0.1093837212110743 -0.3889966124235559
000020 35 fa 1c a9 80 5a c3 bf b8 b1 65 87 c2 c3 c4 bf
       -0.1511994195697796 -0.16222411738580234
000030 36 26 28 3d 96 9d b0 3f e2 5f 5a 4b 25 76 98 bf
       0.06490458481871361 -0.023888190006431283
000040 ed 2e aa 88 c0 aa 8f bf 07 a2 7b 36 a2 17 c5 3f
       -0.015462402506521278 0.1647837415723787
000050 b5 6d 1c 77 82 73 59 3f 99 cc d3 8c 8c 0d b5 bf
       0.0015534185481048516 -0.08223799169700143
000060 00 7f f6 d9 7b e7 72 3f d6 0c 36 a3 eb 57 c1 bf
       0.00461529139957384 -0.1354956194810259
000070 1f 69 e9 6b 34 34 a4 3f db 4f d9 a6 f2 70 83 3f
       0.03946079079897146 0.009492774693320818
000080 64 ab 2e be 4f 5d 93 bf 09 f2 4f 54 1c 89 b3 bf
       -0.018910642607504427 -0.07631089266210024
000090 05 cc 69 6e c8 e1 c6 3f f5 da 50 99 86 9f 87 bf
       0.1787653483512203 -0.011534740022495419
0000a0 b5 61 ed 36 df b2 ac bf a6 fb a1 6d 91 75 d1 bf
       -0.05605218453883102 -0.2728007860786711
0000b0 32 2d 28 53 fd 37 a8 3f 5e 15 8f 4d 49 a6 94 3f
       0.047302166367524726 0.020165582045384205
0000c0 52 04 ba 02 1d 67 b9 3f 8a bf 23 ff 72 6d b4 bf
       0.09922963444297864 -0.07979506234164382
0000d0 0f f8 2e 00 11 97 d4 bf aa ba 70 23 18 05 8d 3f
       -0.3217203618804669 0.014169872838548276
0000e0 aa 71 d4 20 2e 03 a6 3f 7f 80 3d 12 1c a1 c5 3f
       0.04299301291232223 0.16897917643200697
0000f0 fc c4 ad 0c 31 e4 c5 bf 80 96 63 1d ac 85 c3 bf
       -0.17102635497170826 -0.15251685557375438
000100 06 6d 71 40 9b 75 b3 3f 17 e2 11 c9 58 90 db bf
       0.07601328204457411 -0.430685230595857
000110 62 b8 87 41 d4 f0 d2 3f 3f c5 dd 8d ee d2 d8 bf
       0.29594904326848426 -0.38787425855760554
000120 95 fb 58 46 e2 b5 a6 bf db 22 8e 33 3c 9a e2 3f
       -0.04435641392455306 0.5813275343835714
000130 78 16 0f bd 0e f4 d1 bf e6 c6 83 ae dd e7 c8 3f
       -0.280521092059963 0.19457598706463058
000140 3d 3a cd c0 ab f3 a5 bf 74 72 35 ac 3f 06 9d 3f
       -0.042874686513290496 0.0283441494806191
000150 77 b9 f1 7a 05 3d c4 3f 75 34 f3 8d ad db b8 bf
       0.15811222556244406 -0.09710201945854798
000160 c0 30 94 ff 64 9e b3 bf ff 84 f3 d0 08 16 a2 3f
       -0.07663565864294508 0.035324359423393396
000170 1d 79 f1 15 70 1b ba bf 7f 45 3e d6 80 14 be bf
       -0.10198116813396436 -0.11750035505817456
000180 b1 84 f6 39 4f 05 c9 bf ed 1b 6b d4 71 4b ae bf
       -0.1954745324156071 -0.05916934698102936
000190 f3 2c 1e 4a d9 bf b5 3f e1 67 f1 2c e4 28 b1 bf
       0.08495863017576592 -0.06703020188561438
0001a0 b6 21 42 71 27 76 d8 3f e0 6e 04 96 54 42 c0 bf
       0.38221155224212155 -0.12702424359382913
0001b0 f3 d7 5e 23 5b 4b c3 bf ae 9f 14 84 ee dd b2 3f
       -0.1507371828753886 0.0736989090406712
0001c0 5d bd 4f 31 51 81 c4 bf a2 63 06 96 f0 7f d2 3f
       -0.16019644649302736 0.2890588250243643
0001d0 c5 60 0f a8 0f c7 b4 bf 88 79 13 98 bd ec b5 bf
       -0.08116243222264348 -0.08564362490458255
0001e0 40 bf 1b 9d bf eb a9 3f 5b 21 f3 cd 88 c5 9d bf
       0.05062674324824323 -0.029073846407102404
0001f0 0b 88 7a 82 6b fc af 3f 36 18 27 ab 42 01 b2 bf
       0.06247268646008316 -0.07033173254521405
000200 b3 42 01 bc 5a 83 d9 bf 39 b6 73 e2 88 d6 c0 bf
       -0.398642238234099 -0.1315470796320584
000210 3b dd 64 52 31 f1 87 bf 32 c2 10 db 78 f4 dd 3f
       -0.011690507246938089 0.46804639237510337
000220 c6 fa f2 8d 81 75 d5 bf 62 b3 49 6e 21 61 cb 3f
       -0.3352970014783917 0.2139016903414826
000230 ce 6a 4b cc 34 7b b5 bf 29 24 cf 80 c7 ea d5 bf
       -0.08391122806225867 -0.34245479182260624
000240 23 70 63 9f a7 e3 bf bf 5d e1 94 0a 97 e9 d1 bf
       -0.1245674862033757 -0.27988220246654355
000250 4f 00 69 59 e6 cf d3 3f be dc a1 6f b8 0d b4 3f
       0.30956419688664466 0.0783343575038655
000260 66 8f e3 96 1a f8 bc bf b8 33 29 51 2c 6a 2c 3f
       -0.11316076453982546 0.000216787252229981
000270 f3 e7 23 76 1b 8b d5 3f bf 3b 78 ca 33 46 d2 3f
       0.336615434047075 0.28553480884960075
000280 1f 71 01 16 85 ae c9 3f 35 6f 8f 3d f7 e3 d4 bf
       0.20063842367643134 -0.32641392719027645
000290 e8 1b f3 40 f4 fb d4 bf b6 30 fb 85 35 49 c7 3f
       -0.327878058841121 0.18192166368533486
0002a0 b4 8b 3b f3 6b 29 c1 bf a6 ab 45 af ad 37 b9 3f
       -0.13407658936111277 0.09850583581071123
0002b0 36 c8 76 28 46 af c0 bf c0 3f 02 ed ec 1e d2 3f
       -0.13034893966465838 0.28313754220380005
0002c0 2e 65 5c 2f 93 be c2 3f 47 f5 ea f1 30 02 b0 3f
       0.14644088566346042 0.0625334349269525
0002d0 1b 22 c4 e8 f2 40 c5 3f b6 c3 fa 27 67 15 ab bf
       0.1660445820382542 -0.052897666578594224
0002e0 b0 d1 f6 73 3a 02 a2 3f 78 cd 98 a5 fe 08 b9 bf
       0.035173250823763325 -0.09779349844830232
0002f0 b2 a5 96 39 cb 82 78 3f 2e 8d 1e 71 3b da c1 3f
       0.005984109733085873 0.13947241805463179
000300 0e fe c3 91 9c 82 b4 bf 81 bd 7e c3 89 9e ae bf
       -0.08011797484140734 -0.05980330001272716
000310 74 3e ef 34 8c 0f ae 3f 31 08 63 c4 81 35 a7 3f
       0.05871236940549532 0.04533010027218188
000320 42 09 c6 52 bd ba cd 3f 07 fc 28 27 42 d6 c2 3f
       0.23226133863142634 0.1471636477672009
000330 6d e5 e6 4b b2 1f c8 3f 20 78 fd 87 77 69 b3 3f
       0.18846729952000932 0.0758280474669566
000340 ce db 8e 5e 5d 3b b4 3f 77 f1 c6 81 dd c7 ca bf
       0.07903083380266127 -0.2092244037320474
000350 d5 28 7b 22 af 5b cc bf 83 7d 07 1b c6 47 a1 bf
       -0.22154797729155598 -0.03375071601817139
000360 a0 c2 a3 18 c1 b7 db bf 3a 40 ee b2 59 f1 c2 3f
       -0.4330904713270147 0.14799042927598
000370 f9 9c 7c f4 3d 34 a8 3f 44 f2 a7 3e b9 0c 87 3f
       0.047273574919296686 0.011254737114534959
000380 7d 0d e5 75 4e d6 c9 bf 64 79 33 f8 df 55 a5 bf
       -0.20185261494235 -0.04167079834745627
000390 ba 88 f6 fc c2 f8 bd 3f 0f d0 1c a5 38 6c c9 3f
       0.11707705188613007 0.1986151510442373
0003a0 ec 9b 36 2e e7 8f d4 3f d8 44 2d 09 3b 27 b1 bf
       0.32128314507502753 -0.06700486158412688
0003b0 23 be a7 25 3b c4 aa bf a5 be a5 dc 74 97 cf 3f
       -0.05227837404879334 0.24680958532143396
0003c0 2a 58 aa 0e f7 eb a0 bf c9 5c 27 da 02 b9 b5 3f
       -0.03305027059575168 0.0848542959787323
0003d0 d9 47 96 db a0 76 b1 bf 42 3a 23 80 0c 4a 96 bf
       -0.06821637497912948 -0.021766848870180995
0003e0 fe e7 b4 f2 33 9b c0 bf 27 93 cc 13 e3 d8 c0 bf
       -0.12973641730224011 -0.1316188666034119
0003f0 2c 9d 09 2e c5 b3 b1 bf 52 26 56 31 ac 2c 86 3f
       -0.0691493260761617 0.010827393775588199
000400 dc 6e b7 d5 6a 4f b8 bf 14 cd 6d ad 5e 61 95 3f
       -0.09496181218804217 0.02087924893880906
000410 20 bd fd 8e dc cc e0 3f e3 69 61 48 5e fc b2 bf
       0.5250075142666084 -0.0741633345327624
000420 7d 10 68 16 56 87 b8 bf 8e de 48 47 75 cf c2 bf
       -0.09581506773980837 -0.14695611935325242
000430 d2 25 57 21 bc 6d ad 3f b1 60 cf 00 4d 03 d5 bf
       0.05747783572185096 -0.3283264644537765
000440 30 b7 d1 dd d6 90 6e 3f af 07 85 ee 91 94 ad bf
       0.0037311741457902933 -0.05777412449471286
000450 fa f3 46 af 2b 51 c7 bf 3d 5d 4b 7e 33 6c c9 3f
       -0.18216463144736378 0.198614536921676
000460 e5 83 23 2a ff fa 9c 3f 4d 41 ae 2f 21 25 88 bf
       0.028301226565307664 -0.011789569156264302
000470 e0 d7 4c 74 41 c6 a4 bf 8b ec 35 34 fd 47 bb bf
       -0.0405750708072643 -0.10656721615480273
000480 92 bd d1 03 5c e5 b8 3f 00 68 0a 5b 13 6c b4 bf
       0.09724974721188165 -0.07977410290405373
000490 01 5d 62 66 1a ff c2 3f 0a cb 37 01 9b e4 a7 3f
       0.14841012953977642 0.04666599645488219
0004a0 07 50 1c 1c 19 96 8a 3f d0 e4 70 f2 5d 12 c2 bf
       0.012981601877562822 -0.14118551576556237
0004b0 dd 80 a4 37 64 b6 94 bf 95 5f d4 e9 07 4d c2 3f
       -0.02022701825728822 0.1429757968660367
0004c0 fd 37 6d 4b fd b1 c1 bf 29 fe 17 36 18 fc a2 bf
       -0.13824430640164556 -0.03707957897495035
0004d0 13 d2 7d b3 66 34 90 3f 3a cf 8b 19 b3 9d c0 bf
       0.01582489462403387 -0.12981261012429873
0004e0 0e fb 64 25 6d 06 bf 3f 5e 14 ad fd 49 13 8e bf
       0.12119180834723073 -0.014685228399352986
0004f0 b5 f6 3c f2 81 d4 a3 bf 2f a7 1f e6 7b 7d d2 3f
       -0.038730679340443976 0.2889089343358248
000500 50 d9 57 a0 18 5d c8 bf 87 15 15 e6 dd 40 d3 3f
       -0.19034107045417636 0.3008341547868771
000510 c7 d8 65 07 c7 ab d0 3f 49 5e 0e 8c 74 09 c4 bf
       0.2604844639057657 -0.1565385516994289
000520 02 29 a8 a4 43 0c b4 bf f9 0d 99 e7 b0 12 d3 3f
       -0.07831213731711631 0.29801581017474593
000530 08 02 25 a2 1a e0 a0 bf bf 2c f9 37 fa c8 c7 3f
       -0.032959778111493476 0.1858208440120048
000540 bb ac f1 cb 73 a5 c1 bf 49 70 92 0a ec 31 c8 bf
       -0.13786170442776843 -0.18902349964344214
000550 44 55 73 a1 ed 00 95 bf e7 63 87 95 d7 53 c4 bf
       -0.020511353472860053 -0.15880865861143365
000560 d0 39 14 e9 8f 1f c6 3f e1 39 d9 3c d7 4b b9 3f
       0.17283820038615128 0.0988134883457188
000570 0c 6d 89 d6 0a b8 b7 bf 77 72 25 15 eb 29 7a bf
       -0.09265201318469368 -0.006387632647911637
000580 80 38 1b 8d a0 e7 cc bf 5b a8 c4 59 a3 cb c4 3f
       -0.2258186997409588 0.1624645412751445
000590 9b 39 76 6d db 14 ba bf 06 2b 19 74 07 95 c1 bf
       -0.101880754684521 -0.13736050766814162
0005a0 97 0f cb 16 95 05 cd 3f f6 de aa 48 51 ef b4 bf
       0.226732860688682 -0.08177669548137687
0005b0 6a a2 88 25 ff 77 b4 3f 29 f3 89 aa 8f 5e c1 3f
       0.07995600382185733 0.1356982786855039
0005c0 6e 66 f0 43 12 95 c3 bf 0c e2 e8 41 03 13 d4 3f
       -0.15298679654442843 0.31366044460767806
0005d0 cb 9f ea 7f b8 f2 d6 3f 78 a3 89 52 e0 fe d3 bf
       0.3585644959625795 -0.312431412318396
0005e0 df 40 58 bb f3 64 ce 3f fa 45 66 81 61 fd db bf
       0.23745581290905357 -0.43734014164610324
0005f0 b7 94 4b e6 c8 67 9e 3f 86 17 02 97 fd 1f 88 bf
       0.029692782455545266 -0.011779767199424428
000600 c2 27 6a cb f2 b3 cb bf 7e ad 61 d7 b8 52 ca 3f
       -0.21642908985478299 0.20564947621037882
000610 5c 14 c5 4b a1 36 ca bf 1a 5f 0d b1 4c 41 c0 3f
       -0.2047921771974498 0.1269927849305013
000620 96 8a 1a df 7c d8 c7 bf be ae 1f d6 d7 d1 97 bf
       -0.1862941827176498 -0.023261425441815524
000630 f7 85 30 f6 94 09 b7 3f 59 89 0e 83 b0 31 d5 bf
       0.08998995790945928 -0.3311578063823127
000640 ed 6d d1 73 cf 49 90 bf 4c 0e 90 77 24 c4 d2 3f
       -0.01590656418225749 0.29322158504530615
000650 e6 b3 52 ef df fe d3 bf 18 51 d8 d2 3a bb cd 3f
       -0.31243131991760575 0.2322762994305172
000660 16 fa 2b 0d 6b 4a b9 bf 1a b8 f4 02 6d e0 c4 bf
       -0.09879178115441109 -0.16309893268902514
000670 5f e9 03 9f eb a3 b0 3f 01 8e bc 4a 02 2c ca 3f
       0.06500122673233964 0.20446804665799337
000680 3d a0 3d ea c8 08 a3 bf 42 19 aa 99 25 d7 a8 3f
       -0.037176397889937075 0.04851644039904325
000690 ee f5 ba e0 e7 52 a5 3f 4f ba 47 c4 e7 65 81 3f
       0.04164814585008601 0.008495150258537225
0006a0 07 91 72 7d 82 29 c1 bf a7 01 14 35 3e 35 b1 bf
       -0.1340792763268228 -0.06721867366650845
0006b0 ad 1b 94 af bf ba c0 3f 17 c5 7e 3a 63 c7 c6 3f
       0.13069912026568656 0.17795982700548826
0006c0 94 e2 e1 ae 90 dc ba 3f b7 44 71 c1 c7 e1 ca bf
       0.10492805738057093 -0.2100152678054081
0006d0 78 8f 74 c4 5e 7b b1 3f a5 f0 ce 2d 74 4e ac 3f
       0.06828872963211363 0.05528605517562938
0006e0 50 a9 79 d8 46 d0 b4 bf 23 39 25 3a 71 5a c5 3f
       -0.08130305085220368 0.1668225797570325
0006f0 5a 12 66 2b 33 80 db 3f 1a ce 17 6b 55 b3 8f bf
       0.4296996997657395 -0.01547877057144036
000700 32 98 cc de e6 9c d3 bf 32 1f 13 e5 2a d1 d0 bf
       -0.3064515281461154 -0.26276657457900676
000710 74 d8 73 79 8b 99 c0 3f 77 0e ed 9f a4 6d d2 3f
       0.1296858161001101 0.28794208162091856
000720 88 b8 cc db fc d7 85 3f e4 81 c9 0b b7 87 d5 bf
       0.010665870149378046 -0.3364083876713535
000730 52 4a 2a 45 fb ce c4 bf eb e9 ce ea 9c 14 c5 bf
       -0.1625665748329817 -0.16469155755278506
000740 e9 dd b4 1b 5d 16 d0 3f 8b 4e 13 48 4e b1 d0 3f
       0.2513649721690557 0.26082188643088305
000750 bd 69 d3 8e 82 4b c4 bf 50 a6 d2 ee 6b ff cb bf
       -0.15855438207547748 -0.2187323490264128
000760 fe c8 56 05 11 f7 c4 bf 9c 81 09 8a 56 fe c3 3f
       -0.16378987084096502 0.15619928112120085
000770 3e c1 8a 86 af 2b 8c 3f a4 39 7e cc 3b a7 d2 3f
       0.01375519875850328 0.29145712823892667
000780 ad 93 a9 4d ba fe b5 bf 79 72 7d 9d ab cc b7 bf
       -0.08591808696799204 -0.09296677203151117
000790 b1 89 cf 8a ad 95 9f bf 72 de 75 c0 19 46 c6 bf
       -0.030844413373310512 -0.17401430032235826
0007a0 79 3c d9 b3 fb 37 c1 bf 87 40 93 46 33 f0 c0 3f
       -0.13452097207707306 0.13233033128790714
0007b0 81 b1 28 63 c1 90 b0 bf 4b 3a e9 b3 d1 b8 b1 3f
       -0.06470879240868578 0.06922636644706263
0007c0 4e 99 26 5c a0 eb c5 3f 47 c6 8b e0 1e fa bb 3f
       0.17125324725675245 0.10928528768615663
0007d0 ce 66 9e 23 29 e2 c2 3f 49 b3 a8 0a 48 d1 c2 bf
       0.14752687682339743 -0.14701176186044965
0007e0 89 3c 57 1a 00 16 d3 3f cb d1 c2 8a 6c f8 a1 3f
       0.29821779796925135 0.035098449648475936
0007f0 a9 05 f3 6a 1f 4b d5 bf e7 97 97 7e 09 06 d6 3f
       -0.33271012729900434 0.3441184746028498

bias_hidden f8 [1, 128]
000000 fe 24 34 12 6e 05 b2 3f 0e 25 74 f3 66 56 75 3f
       0.07039535469461453 0.0052093526385388455
000010 cc 2b 5e 0b 0f 6e 7f 3f ce 0d 1a 87 4a 0f bd 3f
       0.007673319594583238 0.11351457403548368
000020 2a 9a a3 35 9c 46 93 3f ee d9 7a 5d a1 65 9e 3f
       0.018824044011944853 0.02968456395202595
000030 76 e5 fb b1 06 a0 b0 3f ad c9 ef ff c3 87 a0 bf
       0.06494180531799096 -0.03228580950953428
000040 bd 30 3a fa 97 09 7a 3f 2a 7b be c3 cc 33 83 bf
       0.0063568054789692715 -0.009376144145617344
000050 26 ea 2d a4 29 73 6b bf b4 86 a7 34 46 c3 86 3f
       -0.003350812273706499 0.011114643556484928
000060 8e c9 67 d8 4a c5 76 3f e8 6b 8d 48 01 f3 a7 bf
       0.005559246410927433 -0.046775856119630366
000070 54 3e c7 a1 6e c1 69 bf 88 b8 39 5b b2 bd 86 bf
       -0.0031439934520916344 -0.011104005249958485
000080 31 ef 75 e5 a5 04 b9 3f 22 87 19 81 f6 f5 48 3f
       0.097727173348116 0.0007617429384476385
000090 68 81 e1 35 c8 0f a2 3f e0 3e 80 1d a4 ac a6 3f
       0.03527665765500637 0.044285896874610264
0000a0 1a 9d e9 da 37 78 7b 3f d4 8c 76 67 1b a2 6e 3f
       0.006706445869532085 0.0037394080388409665
0000b0 94 d0 97 f1 d0 b0 87 bf 54 85 73 5f 34 10 99 bf
       -0.01156771886142164 -0.02447587807262626
0000c0 ab f5 a5 c2 b5 83 54 3f a2 c6 6b cb 50 8f 7f 3f
       0.001252105236374627 0.007705035785635113
0000d0 e7 ef 86 a2 30 de 9e 3f 19 91 18 4a 17 dc a9 bf
       0.03014446250902827 -0.050507285876195414
0000e0 18 20 53 82 5f ca 98 3f ea 82 7d 63 37 8a 98 bf
       0.024209492043866104 -0.023964753577618327
0000f0 a6 34 e2 51 d6 0a b3 3f f4 e4 52 48 69 97 b3 3f
       0.07438411234962192 0.07652910247533723
000100 48 09 b5 65 83 55 a7 bf 88 73 17 da 51 25 83 3f
       -0.0455742894796623 0.009348525493743556
000110 bb ca ed c1 73 c2 a2 3f 62 82 86 fa 1a 65 a6 3f
       0.03663980238242944 0.04374012287303654
000120 19 88 9a 8b 61 b7 81 bf 22 6f 88 57 27 34 94 3f
       -0.008650552819123235 0.019730200498187085
000130 1e 11 9e eb c3 1b be 3f 9f 9d 92 71 0b d6 84 3f
       0.11761116506938094 0.010173882869209559
000140 3a fb 65 3d 5d c7 b8 3f 07 73 bc 0a 2d 00 a8 3f
       0.09679205655082238 0.046876342354357496
000150 8a e3 e4 5f 1c 25 3d bf 9b 08 cc bf b5 2e a3 3f
       -0.0004447168611423849 0.03746574369689989
000160 d6 37 79 56 81 fa a1 bf 88 fe c1 00 ea 07 b1 bf
       -0.035114328199241804 -0.0665270091867517
000170 de a8 9e c6 f7 86 60 3f cf 78 bc a1 70 b4 aa 3f
       0.0020174826977000645 0.05215789770430634
000180 54 20 e5 53 6d 24 b4 3f 78 5c 28 1b b4 52 b4 3f
       0.07868083284586308 0.07938695586232025
000190 20 a3 41 84 04 bb 9c bf 64 a2 bd 4a 38 32 95 3f
       -0.028057165691652064 0.02069938617879287
0001a0 26 d1 87 b8 53 ba b1 3f 78 13 1d 82 d9 86 84 3f
       0.06924937491550462 0.010022830279589931
0001b0 18 fa 25 b3 17 fe 3a bf 62 73 8e 49 f5 41 b6 3f
       -0.00041187361343722603 0.08694394155322763
0001c0 0c be 3f c9 b2 a1 95 3f 24 8f 31 2d 18 e5 a5 bf
       0.02112464288069131 -0.042763476864619926
0001d0 1d 21 08 c0 2f 50 92 3f 88 32 fd 3d 43 0b 79 3f
       0.017884012313545406 0.0061142565389899
0001e0 e3 57 e7 e5 58 ef a0 3f 2e ee c5 49 ba 9a 8f 3f
       0.03307607466165032 0.015431838394525856
0001f0 f1 e4 fd c8 84 83 91 3f 0d 5b 52 f4 a1 14 a1 3f
       0.017103266494335526 0.033360539507318966
000200 b7 a6 af c5 a1 94 99 3f 9f 70 c5 9b ef 3b b4 3f
       0.024981048289112375 0.07903955033310915
000210 f2 8d f6 19 42 2f b3 bf 87 66 1f 98 24 eb 9f 3f
       -0.07493985303749875 0.03117043665392896
000220 16 32 c8 34 50 cb 99 3f f6 79 a3 be 2a f4 4e bf
       0.02518964121013497 -0.000944634314944014
000230 35 89 3b ff 4d 85 93 3f f4 9d f5 56 7f 4a 90 bf
       0.019063204482230495 -0.015909185106833548
000240 1b 12 c0 bb 4a 11 97 3f 12 b9 01 80 60 9f a1 3f
       0.022526900967948387 0.03441907465536266
000250 1a 17 02 5c 45 f3 a1 bf b5 ac 7d 7a a1 65 97 3f
       -0.03505913494249864 0.02284862814069007
000260 c3 76 48 e3 1d 8f 75 bf c5 f7 8e b9 2f fa 9f 3f
       -0.0052634398930686025 0.031227822971906755
000270 81 35 1e e9 dd 07 a8 3f 1e 1f 83 2e d4 54 a1 3f
       0.04693501921347388 0.033850317647703174
000280 44 98 d8 68 ba 70 55 bf 3b ef 84 b0 31 e1 99 3f
       -0.0013086147695360465 0.02527310981643825
000290 79 f5 29 09 74 a4 95 bf 15 e0 24 04 32 cd 91 3f
       -0.02113515191967028 0.017384320738727938
0002a0 b2 23 63 14 36 f8 b7 bf 68 f2 48 f2 ed 56 a0 3f
       -0.09363115308509753 0.031913219285773675
0002b0 cf 82 b6 5d 02 cf b4 3f 47 30 be 64 23 29 69 3f
       0.08128371036446967 0.0030713740615677973
0002c0 f7 77 83 b3 7d 8e b5 3f c9 65 8d 17 4e 23 b0 3f
       0.08420549042372714 0.06303871226318515
0002d0 b4 90 f5 74 e3 3d 20 bf ac 73 64 cc 57 9b b9 3f
       -0.00012391473363060834 0.10002659549759468
0002e0 23 87 e3 0d 9b c0 75 bf 42 1c 9c b3 79 47 a2 bf
       -0.005310636215854622 -0.03570156400206105
0002f0 cc 17 96 86 07 fa 8c 3f fb 9c 78 13 b3 47 64 bf
       0.014148768229244178 -0.0024755952433853624
000300 1a 45 a1 52 d1 c2 a8 3f 06 5a 02 9d 62 29 b4 bf
       0.04836134084383499 -0.07875648816330036
000310 08 8d 42 17 32 ec 7f 3f 80 ca db b2 9b ea a4 3f
       0.007793613116663829 0.04085241850215926
000320 05 85 50 80 77 11 a5 3f 7e 02 c2 37 4a 65 84 bf
       0.04114888612117266 -0.009958820177645263
000330 52 fa 9b cd dd e2 9e 3f 8f 53 c0 fe 2e 8d 8d 3f
       0.030162301706690826 0.014429442548171937
000340 d9 9e 5b 2b a1 85 b1 3f 87 87 e3 07 73 47 91 3f
       0.06844527538816737 0.01687412009858449
000350 1e c0 8f 7c f5 1a 91 bf ab 62 51 6a 2c 89 b8 3f
       -0.016704402663833766 0.09584310146000045
000360 61 61 98 8e fe b6 88 3f 04 87 e5 23 0e c9 9d 3f
       0.012067784048711063 0.02908727735610396
000370 f9 02 76 c7 9d b6 9f 3f 69 b1 1a 3a 7b 8d 9f bf
       0.03097006349480844 -0.03081314603939359
000380 39 1d 36 33 32 16 ac 3f 0d 8b 56 5f a8 ae a8 bf
       0.054856842757596565 -0.04820753253740948
000390 45 03 82 e0 77 65 95 bf 7f 43 68 99 af 9d ba bf
       -0.02089488323008772 -0.10396859641356392
0003a0 6e e4 bc b1 65 a0 ab 3f 6a 11 ed 0d 9b 7e a1 3f
       0.053958108850971395 0.03416904969211283
0003b0 19 e4 3d 7d ce fe a7 3f 99 80 ba 16 ce 02 8d bf
       0.046865895069409365 -0.014165506428355722
0003c0 8d 77 33 ed 7f bb 99 3f 5a 9e 64 e6 aa fb a6 3f
       0.02512931714306137 0.0448888212434297
0003d0 27 f4 68 72 e5 25 a7 3f 7e 5d aa 77 69 dd a2 3f
       0.04521100064855715 0.03684548936615338
0003e0 0d b2 1b b0 8b 37 83 bf ac 76 c4 53 13 46 83 3f
       -0.009383288680930435 0.009411002153281466
0003f0 58 e9 f8 2a e8 c1 69 3f 6b 54 71 2a 0f 62 92 3f
       0.003144219830372535 0.01795219131993912

bias_output f8 [1, 10]
000000 1b 3e ea 17 c4 ca cb bf 59 d7 08 59 aa 58 c5 3f
       -0.21712542693829637 0.16676835391416026
000010 38 d2 0b 91 e1 76 a5 bf 37 60 6f f3 05 57 a9 bf
       -0.04192261596282204 -0.04949205967540176
000020 8b 02 4c 8a 53 78 b2 3f 4a 4f 99 18 d1 af cf 3f
       0.07214853407277581 0.24755300236813077
000030 40 50 96 b8 61 82 5e 3f 51 8f 40 a2 75 28 ae 3f
       0.0018621401125971243 0.05890243154160991
000040 fc f1 16 3a ed 7d c7 bf d7 f1 a5 be 70 3e ac bf
       -0.18353047691734037 -0.055163882515418976
