models/model_cv_digs (100).npz (npz, 815236 bytes, 4 tensors)

weights_input_hidden f8 [784, 128]
0	0x3fb2ccdc6eaebe90	0.07343843176090048
1	0xbfbfccd97613e714	-0.12421950466878356
2	0xbfb63c0ac3d0aa4f	-0.08685366898195322
3	0x3faf7f27628c3930	0.061516981868509624
4	0x3fb97391093ac266	0.09941965556459706
5	0x3fb4825e8b5cf0e1	0.08011427786272264
6	0xbf9459934f883695	-0.01987295315671263
7	0xbf84f5db2883e0c8	-0.010234558271335806
8	0xbfb95236458058ec	-0.09891070553598852
9	0x3f8d4010c129212a	0.014282351393504717
10	0x3fa5258b24c71c4f	0.041302059401964734
11	0xbfb1d73eb7d36448	-0.06969062793668102
12	0xbf788dbda8e6b339	-0.005994549616315231
13	0xbf6205752c36e7a5	-0.0021998680619761007
14	0xbf981d61bc402254	-0.023549582590961585
15	0x3f916469abbdead4	0.016984606845180064
16	0xbfb48120c081dcbf	-0.08009533595928796
17	0xbfc02a6a05eef5c5	-0.1262943772289146
18	0x3f92f4b9ebabc2e4	0.018511681565487673
19	0xbf9079accb3576f6	-0.016089153197177596
20	0xbf93612099b355f7	-0.018925198918472188
21	0xbfa87b0b35abe73b	-0.047813749601074616
22	0x3f9874215fa54f3f	0.023880502188446725
23	0x3f7ff4e5054688d9	0.0078019090764504745
24	0xbfa2044d34e3cb4c	-0.035189068514134364
25	0xbf92e67851d3bf30	-0.0184572982734032
26	0x3fa33368cb75c0de	0.03750159724848044
27	0x3fb1acdb13e2c098	0.06904381976596807
28	0x3f91d43387076b65	0.01741104613925461
29	0x3fa1d2510fcf8979	0.03480771368028263
30	0x3fa1f785fbdb5c70	0.035091578478095964
31	0x3f972740eec699ea	0.02261067826625577
32	0x3f76bfb7587da06a	0.005553928560267799
33	0x3f48e63867e7e635	0.0007598662776324207
34	0x3f9a7365ec74ed68	0.025830833966421635
35	0x3fb2e4da533c0b11	0.07380451709836346
36	0x3f7e2a0295f98098	0.007364282704287593
37	0xbfaaa59c1cd8dd0f	-0.05204475261819585
38	0x3fb020e12e0988d1	0.06300170301395559
39	0x3fa9c3649ef1072c	0.05031885566906022
40	0xbfa50e561ce7727d	-0.04112500288804186
41	0xbf87d439229ecdc4	-0.011635252350834409
42	0xbf963850132208f2	-0.021699191253454715
43	0x3fa29f7fa23b4cee	0.03637312751166087
44	0xbf79d3e57b6ea7cb	-0.006305595793415673
45	0xbfb7522f103c789c	-0.09109777590171791
46	0x3fadc6892a724b8b	0.05815533297677352
47	0x3f56ec86706be4c9	0.0013991654283798552
48	0x3fb2a0c4ac917b1d	0.0727656289395608
49	0xbfb2eeeb4539c697	-0.07395811500625836
50	0x3fb2e2e036d6605f	0.07377435053638369
51	0x3f909d29371a83de	0.01622452162576226
52	0xbfac8c2771d10e08	-0.05575679077494661
53	0x3faa8e54911e7e46	0.05186714431260646
54	0x3fb12b96d21b4883	0.06707136754565295
55	0x3fb1e1779667a032	0.0698466055106344
56	0xbf9f42bd40daf3b1	-0.03052802761407109
57	0xbfb7965f6b14d70e	-0.09213825573246145
58	0x3fc4485f5c39d707	0.158458633453556
59	0xbf95cd446cd32483	-0.02129084505284996
60	0x3f9886d44a93f05b	0.023951832820771162
61	0x3faf196ad03963b8	0.06074079314993902
62	0xbf850172ed6bc3c3	-0.010256669874680107
63	0xbfa22ef5fccdaefe	-0.03551453314761764
64	0xbfad0c0442373789	-0.056732304652185546
65	0x3fa01921350e4ffb	0.03144172451644064
66	0x3f88c34454a0e08f	0.012091192085890405
67	0xbfaf05b1f801a380	-0.06059032585546387
68	0xbfb12031610cf3c4	-0.0668974744739464
69	0x3fad66eb49d8fe6b	0.05742583538494447
70	0x3fb04a8a6ec4323f	0.06363740162141428
71	0xbfa85ee7c473ebe8	-0.047599070292527135
72	0x3f999e2953f1fb77	0.025017400501833955
73	0xbf8879be8b169520	-0.011950958842883497
74	0xbf7ebf5f101460b0	-0.007506724681000929
75	0x3f82afe93349ff06	0.009124585988729016
76	0xbfb00b00b1bd2b59	-0.06266788806275993
77	0x3f74b4876d1e56b6	0.0050549783790267335
78	0x3f92419cdfc3747b	0.01782841792816157
79	0xbfa449bf0287b089	-0.039625138338892425
80	0xbfad08c1365dd537	-0.05670741833356845
81	0xbfaaeeb1082f1e89	-0.052602321862250064
82	0x3fb4b31d6cd414a9	0.08085807711548178
83	0x3f64f4a1a5dd8d41	0.002558055609300475
84	0x3fb1bfe8004589fd	0.06933450705177076
85	0xbf54a5ca8f0fbdb6	-0.0012602308381664934
86	0x3f9b5474a4e18138	0.026689360202341222
87	0xbfacce26d5f392d7	-0.05626031266891623
88	0xbf9fbf429d3ade6a	-0.03100303730636115
89	0xbf92bd706134a485	-0.0183007773713695
90	0x3f813ce318ab00dd	0.008416914167697015
91	0x3f90f6a303f23063	0.016565844646308735
92	0xbfabe75cbf4c46d9	-0.054499529220391536
93	0x3fa34cb46029202e	0.037694584596977485
94	0xbf9c9b665316199d	-0.027936552830874473
95	0x3fa02bfbd9092292	0.03158556961404203
96	0xbf99f5e99c02c96e	-0.025352144381665047
97	0xbf8410cd9672e090	-0.009797674325781963
98	0xbf9e9eaafc53b98f	-0.02990214505273908
99	0x3f8a5b4863c18502	0.012869420570668758
100	0xbf929e283bea3ebc	-0.018181446701929657
101	0xbf9b38bc7b5149e0	-0.026583619143204618
102	0x3f8f5f99e1e9ba7a	0.015319063383882215
103	0xbf85c687b37e51e5	-0.010632572331624022
104	0xbf9b282d8df0f575	-0.026520454204946604
105	0xbfa8c7ee03dc3299	-0.048400342913827284
106	0x3fa6c88d96400383	0.04449884852511501
107	0x3f7c64fb28b366bd	0.0069322405717799325
108	0x3fa158362baf12f2	0.033876126129632214
109	0x3fb82fef3654db68	0.09448142124607062
110	0x3f93a267e10370e0	0.019174216374140296
111	0x3f88a5249dac2558	0.012033735334187654
112	0x3fa8dcc2dcbfcb6f	0.04855927414600713
113	0x3f9d2811af03273b	0.02847316389742292
114	0x3f923f6801902608	0.017820000739481784
115	0xbf9a96adeff90781	-0.025965421458983954
116	0xbfa26b3390ea52f6	-0.035974132003650114
117	0x3fa2959cb62825a7	0.03629770015329408
118	0xbf9c9a0dc664dc78	-0.027931418642051814
119	0x3f94a79d0b9401db	0.02017064459960403
120	0x3f5b1f225fce9d9b	0.001655372208213857
121	0x3fb12bab7e70ba1f	0.06707259976312983
122	0xbfb6aba9e483d2cc	-0.088556879319934
123	0x3faaa77e2c2e7ef4	0.05205911912275765
124	0x3f9775056158a1d4	0.02290733725217982
125	0xbfb00fde0c3d7b78	-0.06274211691696319
126	0x3fc254ccab134a01	0.14321287492073512
127	0xbf91c9b67661c7de	-0.017371035552464657
128	0xbfaec4f379d5ac4f	-0.06009636747588642
129	0x3f823f861933493a	0.008910224575093485
130	0x3f9e23da8f844b00	0.029433646211212583
131	0x3f82cc444f6d57b9	0.009178670572207769
132	0x3fb9a251756476c5	0.10013302913690854
133	0x3f6cde186003942c	0.0035238720011983218
134	0xbfbf1d62d7ed28c0	-0.12154214641228389
135	0xbf5d74e7b4836976	-0.001797891878644179
136	0x3f84541f9c7c17d7	0.00992607780746006
137	0xbf8852429b51bb23	-0.011875648846595482
138	0x3f949768575e9f62	0.02010882409345472
139	0x3fa3a7cbb19d4044	0.03838955443518491
140	0x3fc10073c941bb84	0.13282630278578378
141	0xbfb5f15c4ddc4459	-0.08571411991967305
142	0x3fa529c4f7935a15	0.04133430025256161
143	0x3fb03e9d7b492f86	0.06345543155583586
144	0xbfa83a3f8f10eafc	-0.04731939908420732
145	0xbf64b49cd843c586	-0.0025275290846528712
146	0xbf4bf1bab0e3db71	-0.0008527909829173353
147	0xbf7f241adeaaac4c	-0.0076027917481652045
148	0x3fa39c3a7d37d0b8	0.03830130365887058
149	0x3f862f36bf14d7d3	0.01083224077829562
150	0xbf907801a29298f3	-0.016082788036009665
151	0x3fb308fc8146b94f	0.07435587078245941
152	0x3f921ee381037634	0.017695955991135118
153	0xbf99d1c7f72bba71	-0.025214313946828108
154	0xbf81cdc77bbda653	-0.008693273986597172
155	0x3f916d933c4f6950	0.017019558483164332
156	0xbfaed382f0a9f598	-0.06020745456496995
157	0x3fa696797262fa63	0.044116778577053116
158	0xbf987067d4c62a57	-0.023866293298434673
159	0x3fa595f00a065ca8	0.04215955850957559
160	0x3f89ed397926102a	0.01265950108496135
161	0xbf9095e9bbe9e3ae	-0.01619687280114917
162	0xbfb75a48661c687a	-0.09122135632461151
163	0x3faafe571c5fdf8d	0.052721712316212345
164	0x3f5c4b06fae30296	0.0017268722690887742
165	0xbfb0f48e006ff13c	-0.06623160849261905
166	0x3fac047863861d44	0.054721605442916516
167	0x3f6645303357aa25	0.0027185384194485956
168	0x3fb047b0bcc0593b	0.06359390838801897
169	0xbf94ae2acce7331c	-0.02019564509992043
170	0x3f8819a1a72f0505	0.011767638124981614
171	0x3f622e0c806886a2	0.002219223420312514
172	0xbfa843b22dd0e140	-0.047391479580655815
173	0x3f7c0ffe5ce5ed07	0.006851190190327878
174	0x3fa77d047b28f716	0.04587568286340919
175	0xbf9f16ad6bfadf32	-0.03035994502599166
176	0xbfb1bc784434e507	-0.06928207078171421
177	0x3fa8fcda781eafde	0.04880411831194896
178	0x3f9afe4225f87aa2	0.02636054379228859
179	0xbf669db9ebacdc28	-0.002760756612953514
180	0xbf9446aa2e9a7d30	-0.01980081471867584
181	0x3f9743ed63d21c78	0.022720059602332005
182	0x3f9894fee73e582e	0.024005873550400895
183	0xbf5d4d5dffecc413	-0.0017884653058895014
184	0xbf8d7a58c3317a26	-0.014393514115167493
185	0xbf62b569c97422c1	-0.002283770194143692
186	0xbf9f0abef771772e	-0.030314430096374405
187	0xbfb3a782e6516ed4	-0.07677477000236915
188	0x3f8567a2adcbe0ed	0.010451575211377373
189	0x3f99e7105e324182	0.02529550146988547
190	0xbf9af9b6e054689d	-0.026343209688186254
191	0xbfb37353ed304156	-0.07597851315245427
192	0xbf9f574e93e451c6	-0.030606487061122477
193	0xbfad6279ced77e34	-0.05739193582462257
194	0x3fa38c3791982b43	0.038179146311526434
195	0xbfb0c9bbaf9bf31d	-0.06557820355733353
196	0x3fb1072b8495081f	0.06651565539235137
197	0x3f855a34b4051dea	0.010425960296415366
198	0x3f8c85f10eca3f08	0.01392734838853428
199	0x3f959b7084716d49	0.021100767215427117
200	0x3f923d9b172afbe9	0.017813132561737808
201	0x3f7833d81c76e15e	0.005908817467052378
202	0xbfb970eeed86fadd	-0.09937947558408262
203	0x3f9d8a5fcacd9ff0	0.028848168137670827
204	0xbfb89a574e662200	-0.09610505737339992
205	0x3faebf3d49b57382	0.060052790877967346
206	0x3f5340375d051511	0.0011749783189583566
207	0xbf9beac53ebb1587	-0.027262765840324412
208	0xbf9f037c6c37ed72	-0.030286735634928737
209	0x3fb1ee259d7a6d59	0.07004008383448958
210	0x3f9a202e226010c8	0.025513382766818166
211	0xbf7f45093f548724	-0.007634197352020231
212	0xbfa43575769a64fa	-0.03947035858909405
213	0x3f7a061ec5cd8e9c	0.006353492933019258
214	0xbfa84ac38b50800e	-0.04744540286651509
215	0xbfa14864757c3a4c	-0.03375543531557365
216	0xbfa6cd1264c094f8	-0.044533324049817524
217	0xbfad24aa72f8f2b0	-0.05692036298248604
218	0xbf9c5e2c6db4bb2b	-0.02770299357978982
219	0xbfb8be9e2534c94b	-0.09665859611849219
220	0xbf9280a1850b6afe	-0.01806881308116725
221	0x3faa14d986aacc96	0.05094032067190672
222	0x3fa7612a6dd873b7	0.04566319075477259
223	0x3f9ce6de1dc95925	0.028224440162682236
224	0xbfb97f8c35102468	-0.09960247321591142
225	0xbfab0e8673ff5b71	-0.05284519353852247
226	0x3fa3fdbba9fb2129	0.03904520463908263
227	0xbfa21ea570dd7ec5	-0.03539006235837187
228	0x3fb2fb8d7fb3cb16	0.07415089004261363
229	0xbf99c98e5e2ac7cf	-0.025182938096527437
230	0xbfb7661749345265	-0.09140153443542827
231	0xbf914f13761c6716	-0.016903213581009068
232	0xbf6c0a8802b73b9b	-0.0034229904610820323
233	0x3fae6bfe44e9ad85	0.059417673027236474
234	0x3fa04ce2ad8c0e30	0.031836589512775126
235	0x3fb0f6046c13986a	0.0662539256914855
236	0x3f912c75b9fab252	0.01677116344096625
237	0x3f9cdc0b0b943e47	0.02818314798520152
238	0x3fae8e79d1f0066c	0.059680754544399445
239	0xbfac16b9b9d11dbd	-0.054860881741258784
240	0xbfb292ae09ec21af	-0.07255065672155213
241	0x3f99f7e08b252b3d	0.025359638684032893
242	0xbf7ab7c62bedc28c	-0.006522916896628882
243	0x3f93efcbede930f4	0.019469438930443908
244	0x3fb77b0a950e7bff	0.0917212118060746
245	0x3f98c3f9738b117b	0.024185083081435615
246	0x3f86dc53b4a94809	0.011162427855342843
247	0x3f8f357c6b0b7eb3	0.015238735214949761
248	0x3f81019dd89beac0	0.008303864643939618
249	0xbfae4a2ec54baf6f	-0.05915971907037842
250	0xbf99bd5cd3afd933	-0.025136423511832717
251	0xbf97d0e9affa1d62	-0.023257876745018342
252	0x3f93a202ac74d91f	0.019172708297639503
253	0x3fa7bbcb4d4384bf	0.04635463064347211
254	0xbf98d931feff819d	-0.024266034306380403
255	0xbfb0fa78f6567589	-0.0663219071779705

weights_hidden_output f8 [128, 10]
0	0xbfcf9e918042bdf9	-0.24702662241678278
1	0x3fd2bc161c26244c	0.29272988079953133
2	0x3f9c1362d28e8963	0.02741770181786175
3	0xbfd34847817e1e98	-0.30128657956854843
4	0xbfc2be1bc7789923	-0.14642665138053088
5	0xbfbe203377554d00	-0.11767884887131075
6	0x3faf663af9e0cc2a	0.061326830866527196
7	0xbfa647592ca96f53	-0.04351309461773547
8	0xbf8b0cbe866dd6f1	-0.013207901456307765
9	0x3fbfd786ce811a72	0.12438242475136876
10	0xbf7e2e05b3c19865	-0.007368109010803624
11	0xbfb257ac4903ef34	-0.07165028364755416
12	0x3f8004bc8b50224a	0.00782153415822608
13	0xbfbbe550047cec8b	-0.10896778211183482
14	0x3f9f1235473facc0	0.030342895959546423
15	0x3f7b397fdd0bbbd9	0.0066466326395433145
16	0xbf7ee41bb5d718d7	-0.00754175972310219
17	0xbfb145846fe7b9f1	-0.06746700031337817
18	0x3fc13e9e17b2e5d9	0.1347234359471219
19	0xbf7d422c4a18b42a	-0.007143185620901918
20	0xbfabb4aba6ab665d	-0.05411278161564035
21	0xbfd007ce18545eb3	-0.2504763829797227
22	0x3f8a0a4f95b5f61f	0.012714978939352637
23	0xbf93c919adc633f9	-0.019321824294411958
24	0x3fb5aa28164c654b	0.08462763351817164
25	0xbfa15ee144e43413	-0.033927001628491514
26	0xbfd22f3c2678705a	-0.284132993286908
27	0x3f976eb386dffd3d	0.02288322935782826
28	0x3f9596c71debade6	0.02108298416253076
29	0x3fc4e16210082f78	0.16312814505397077
30	0xbfc42519174bb17a	-0.15738214147075863
31	0xbfc6076e8d5bb364	-0.17210180189376978
32	0xbfa7cafca9a0d933	-0.04647054262788899
33	0xbfd3a5a6de7fc858	-0.3069855854838628
34	0x3fd27fd831daa17d	0.28905300968701636
35	0xbfd4532fff04584b	-0.31757736114503093
36	0xbfb507f333050212	-0.08215255733103558
37	0x3fdfe658efe470d2	0.4984342901896187
38	0xbfcd118e5bd6d7d2	-0.22709826931321558
39	0x3fca0134d0d9f956	0.20316181371522174
40	0xbfa8ce5a6603c3f8	-0.04844934935852757
41	0x3f72923ce4f22b3f	0.004533994549215602
42	0x3fbbb648fbc348e1	0.10825019976190077
43	0xbfb3069ffe63825d	-0.0743198391023809
44	0xbfb2e9b859a8c192	-0.07387878598161127
45	0x3f948761c815436c	0.02004769118986209
46	0xbfb730a59913a16b	-0.09058604228233029
47	0xbfbeccd35208eaa3	-0.12031288864901994
48	0xbfc1ee7b8b89a40b	-0.14009041131365083
49	0xbfabbaae447b2b80	-0.05415863595916104
50	0x3fb47e2ba075cf35	0.08005020778165035
51	0xbfb089e1ff25a36a	-0.06460392455268296
52	0x3fd009ec486bbc63	0.2506056506380842
53	0xbfb3fede4ca577db	-0.07810773249863649
54	0xbfbfe88190d7377a	-0.12464151178502716
55	0x3fa404442462d53a	0.039095048371942956
56	0xbfc28f2ea6687d58	-0.14499457478903355
57	0x3fd0cf830ed8b842	0.26266552400455023
58	0xbfabc1c6e0e72e29	-0.05421277518652474
59	0xbf7f9ec0132d9e9f	-0.007719755451809056
60	0x3f9b22e413238fc2	0.026500285785814766
61	0xbfad65564fe62aab	-0.0574137661488597
62	0x3f8caea1c4db04e0	0.014004958934835832
63	0xbfae280b845f8734	-0.05889926901705991
64	0xbfd38f8e9ef4ca31	-0.30563703082148935
65	0xbfc14e8127c3680a	-0.13520826760833443
66	0x3f51b208d2e7c95b	0.0010800443811801095
67	0x3fdbc5a71d7b2bf3	0.4339387691404106
68	0xbfd38c550d56a686	-0.3054401998766497
69	0x3fca4f0823e8877e	0.20553685906730473
70	0xbfb024b80c98bd53	-0.0630602865937722
71	0xbfd3699fa4341a21	-0.3033217528867756
72	0xbfbaef2217c641f3	-0.10521138267927892
73	0xbfcedb795f5e4fab	-0.24107281834278402
74	0x3fd294d25d4ac4f3	0.29033335791162
75	0x3f9b910fc0c8333c	0.02692055334232467
76	0xbfb7bf2d22fff4f2	-0.09276086906898565
77	0x3f969f0d0b5728fc	0.022091106240432076
78	0x3fd06a245c42b040	0.2564783955556358
79	0x3fd1a83e7a85f36b	0.27589380231056876
80	0x3fc6a66701519d95	0.17695319713969285
81	0xbfd1d33a48a8ab80	-0.27851731391518086
82	0xbfd2cc0d14705383	-0.2937042903516202
83	0x3fc26ab11963aed6	0.1438809751483549
84	0xbfb5ba1f05305c50	-0.08487123371774996
85	0x3fb4b79b5721ee98	0.08092661740550466
86	0xbfb469a22df133a0	-0.07973683950076671
87	0x3fd0807b078ebb98	0.2578418325237464
88	0x3fb7cd51585bb44b	0.0929766503065405
89	0x3fa3d1fe26f30fdc	0.03871149278123173
90	0x3fc565d419b8316d	0.1671700597365872
91	0xbfabf76810961b01	-0.05462193682165229
92	0x3fa8aa505dff3083	0.048174392198775194
93	0xbfb5ea6bf70a71ca	-0.08560824185628416
94	0x3f7792edc9750a9b	0.005755356650584044
95	0x3fbce2ae33532d8f	0.11283386948632866
96	0xbfb51abf74b1f285	-0.08243939017297393
97	0xbfae991989cdbc27	-0.059761808463797465
98	0x3fb2db4f6a8efea0	0.07365890838172584
99	0x3fa1e4632f504c33	0.03494558289107665
100	0x3fca045eb53c0a8e	0.20325836037962514
101	0x3fb77e198f4d6557	0.09176788090316755
102	0x3fbc8c0077652b5c	0.1115112582676096
103	0x3fb3d4e2e9b0092c	0.07746713834061286
104	0x3fa4aaffd7745a08	0.040367121744726175
105	0xbfc2820bb1ce3c2d	-0.1445936792556223
106	0xbfc5c1e88456c498	-0.16998011075842068
107	0xbf9d687f635e4966	-0.028718939247093365
108	0xbfd2a37e7de14556	-0.2912288884445692
109	0x3fb551ac525571b0	0.0832774830827876
110	0x3f987bc8fcb46a5d	0.023909702705262926
111	0x3f80c3b2ba642f66	0.008185764611446888
112	0xbfbc92baa4ac082c	-0.1116139080077409
113	0xbf9b9c876f6799e6	-0.02696429841480521
114	0x3fc5046538681c4c	0.16419663671715268
115	0x3fbc1d3ea9b4cdd3	0.10982123988360763
116	0x3fd1c3f594e3fda8	0.2775854066857968
117	0xbfa815dcc0f76536	-0.047041796260325716
118	0xbfa41bd9579a21ce	-0.03927497095452602
119	0x3fcc40465b3d2149	0.22071151213664056
120	0xbfa037cc92447ef0	-0.03167571340077113
121	0x3fabeb23c57bcf1a	0.05452834878624753
122	0xbfb5f36eda3ea304	-0.08574574306716093
123	0xbf9a37de9f4c2371	-0.025603750679724372
124	0xbfbd23e31ba9bd32	-0.11382884431235565
125	0xbfbbb80d487faf12	-0.10827715892781622
126	0xbfac89aaff2acc59	-0.05573782315095661
127	0x3f5f60093a480490	0.0019149866212731272
128	0xbfb4a13ebdc67a45	-0.08058540471254456
129	0x3f8ac2294ae6496c	0.013065645788434131
130	0x3fde8ed4e2eca16c	0.47746774826602834
131	0xbfb195c2176da946	-0.06869137832624003
132	0xbfb4a7035c2054e4	-0.08067341803719646
133	0xbfb747fccaa5ca82	-0.090942191576497
134	0xbf6d9b322bf83156	-0.0036140422741991847
135	0xbfcbb0e68e924b13	-0.21633607827660536
136	0xbf7b827c9319ec5f	-0.006716238612734931
137	0xbfaa1440c83d4058	-0.050935768550176064
138	0xbfc1f3be26ea1cd3	-0.1402509393703669
139	0x3fb48ffd8f9f379a	0.08032212025065491
140	0x3f9912a1fc79b6cc	0.02448514083373858
141	0xbf8954e37ee2a35c	-0.01236894350980016
142	0xbfa45bb89f32ba06	-0.03976227706276707
143	0xbfbb4702f0076b3f	-0.106552299118829
144	0x3fb9386fc4d69748	0.09851740413304555
145	0xbfb399f2e93c6e93	-0.07656782335510064
146	0x3fc3005792065eca	0.14844793920632632
147	0x3fa2c66e837c15f9	0.03667016367948501
148	0x3f92091e78a831d7	0.017612911333388794
149	0xbfc18189b4fa28db	-0.13676568352486282
150	0xbf9709ec303c6360	-0.02249878925713078
151	0x3fba6cc45e89ec5d	0.10322215374064699
152	0xbfb9f5aadffc77b6	-0.10140483826077581
153	0xbf98e7f484b420aa	-0.024322338676058188
154	0x3f9c093b31c66e8f	0.02737896434119463
155	0xbfba5717cff2e9e3	-0.10289143397213922
156	0x3fbc3593d1b0342f	0.11019252652495547
157	0xbf842742363486d0	-0.009840504912577513
158	0xbf730d81148f9ea7	-0.004651550502763924
159	0x3fcb832d11edf8fb	0.21494067550151627
160	0xbfc0b93d64c68763	-0.1306530706470382
161	0x3fcd872049004646	0.23068622173791392
162	0x3fc395cce74b12c1	0.1530090455400082
163	0xbfb62e3785c5474e	-0.08664271369823703
164	0xbfb292b7c939602e	-0.07255123770426117
165	0x3fc9efdc10e9faeb	0.20263243509176418
166	0xbf745967206ec9b6	-0.00496807369101975
167	0x3fc95b4716b2ff03	0.1980980740390735
168	0xbfc2c61a551eb7a1	-0.14667061954736219
169	0xbfb533893c2af9e6	-0.08281762808744694
170	0xbf6e177a39be393b	-0.0036733042924829407
171	0xbfc10b5784eac428	-0.13315862646189314
172	0x3fc0ce42fa600fa7	0.13129460549691638
173	0x3faa4661985dd397	0.05131821618025539
174	0xbfb1b7aa1c3dfd69	-0.06920874776368681
175	0xbf869465a48eea52	-0.011025232395572324
176	0xbfc9d83d6f24c749	-0.2019116203969651
177	0x3fb5fceca3cb40f2	0.08589056967617006
178	0xbfb3aad5889a0827	-0.07682547173502084
179	0xbfb4fe80f0dd6189	-0.08200841789710557
180	0x3fcd1e600e767f2a	0.2274894781703492
181	0xbfbaf4a508b5f9b1	-0.10529548132578871
182	0x3fba52f5c85a31cf	0.10282837048925518
183	0x3fbbfcc2afc87051	0.10932556907249703
184	0xbfc3c258f60037bd	-0.1543685151268032
185	0x3fd3c478f6804a59	0.3088667304265634
186	0x3fd4c108ec3ceef6	0.324281912518685
187	0xbfd04e24d9df17ab	-0.25476952816495196
188	0x3fc8e4dbd01cf2e4	0.19448421155711693
189	0xbfd8a8d3b7f616e2	-0.38530438389748956
190	0x3fa57d8c3ba4a7cc	0.04197347858492115
191	0xbf7a917b76c88d80	-0.006486398965111717
192	0xbfc6e432900c3e27	-0.1788390353544724
193	0x3fc543aadf451d70	0.16612754728178514
194	0xbfc318dc1e82dbb5	-0.14919616212656953
195	0x3fb94e1e645047ea	0.0988482470422977
196	0xbfc6d09c8e1716a3	-0.17824131906507032
197	0xbfa1c46ee5e87855	-0.03470179134841148
198	0x3fa0758c44cdb742	0.03214681949508115
199	0xbfd408a9559f8ef3	-0.31302865373275707
200	0xbfa5b6832a75831d	-0.04240808385180215
201	0x3fced29fabb82d5a	0.240802725646385
202	0xbfccdc47aaefa228	-0.2254724106453676
203	0x3fc9a56c14054c12	0.2003607843167577
204	0xbfb26ca76a131ce7	-0.0719704278918588
205	0xbfbee106663c2a2e	-0.12062110897037634
206	0x3fa3964a81575475	0.03825600460883375
207	0x3fc3b4c35c05509e	0.1539539527244686
208	0x3f96d8eb90125c5e	0.02231185976833349
209	0x3f955e908b7fc4af	0.020868547930096678
210	0x3fa340e633f3fd7d	0.037604516832284475
211	0x3f88b26657874a89	0.012059020563275584
212	0xbfb9c5531d99da43	-0.10066718552284563
213	0xbf9bc5685a02774a	-0.027120237821342465
214	0x3fb81080cb91be04	0.09400181741670371
215	0x3fc465ba4cb89bd4	0.15935448404454056
216	0x3fb2d37603f8d4b8	0.07353913876507334
217	0xbfc721f275acb260	-0.1807234835227005
218	0x3fb087f296815104	0.06457439588968233
219	0x3fa634dc33818f6b	0.043372041022648876
220	0xbfb50e1b5067045c	-0.08224650109242887
221	0x3fc5fbe02ec2ccba	0.1717491367649922
222	0x3fdaa313e111c4a5	0.41620347003397234
223	0xbfacedffcde57b0d	-0.05650329006561181
224	0xbfcc8a3a676b85d7	-0.2229683880787394
225	0xbfd02e17a23e6b98	-0.2528132519161601
226	0x3fb7223a140ed988	0.0903660105676406
227	0x3fb89f21c2929152	0.09617815971666246
228	0x3fa9c4983a859525	0.05032802309396293
229	0xbfc80ca01bb8b481	-0.1878852973326595
230	0xbfc8990036dce9a6	-0.19216921500067236
231	0xbfc0db251ba9c648	-0.13168777323476122
232	0x3fca751c4e43e637	0.2066989309458209
233	0x3fc82de5ee561a16	0.18890070092693695
234	0xbfb89a161fc45586	-0.09610117221412481
235	0xbfc3f62ded6bc8ca	-0.15595029919456344
236	0xbfc300c14eca6860	-0.1484605440826412
237	0x3fc2ed97013a70c0	0.14787566719031098
238	0x3f9050e68d9210b7	0.015933611288816176
239	0x3fd14b5f7ef80766	0.27022540473273293
240	0xbfb0b5548ca10fcf	-0.06526688035324855
241	0xbfb4a7b6fdbdbe31	-0.08068412489750966
242	0xbf9f2f4216c9bbee	-0.030453713074560733
243	0xbfc2dfbed2c4e3d3	-0.1474531678339007
244	0xbfc065fae007839a	-0.12811218203480906
245	0x3fb5c453053f8060	0.08502692106367382
246	0xbfa0aa65d01cb787	-0.03255003133231953
247	0x3fb4f00f0835a56b	0.08178800535610768
248	0x3fc05c39750e299e	0.12781446662513657
249	0x3fb6c96e435b8772	0.08901108879538613
250	0x3fc2fc9d9e60ffc9	0.1483342192968833
251	0xbfc109088997c1b7	-0.1330881759490816
252	0x3fce260c2aa3b1fc	0.2355361183357586
253	0x3facd0f489cf035f	0.05628170187220038
254	0xbfd020a402b029c2	-0.2519922281504955
255	0x3fd02b564a4fc26d	0.25264508492458654

bias_hidden f8 [1, 128]
0	0x3fac54f1631924fc	0.05533556303687168
1	0x3f6c15061f778e22	0.0034279937351458104
2	0x3f86a9c4d6abdabd	0.011065995980499616
3	0x3fb7b925e676a68d	0.09266888500737931
4	0x3f8dd2746b44ebd2	0.014561566852185157
5	0x3f93e4c4eefed1a7	0.019427373015518914
6	0x3fab83f0d1ffc081	0.05374100268807159
7	0xbf9d7588bee0d3db	-0.02876866974857593
8	0x3f80e9d46e2ce2e3	0.00825849496105619
9	0xbf8527d630288694	-0.01032988867251853
10	0x3f84de2fd1a31fc0	0.01018941267501805
11	0x3f86ec2fefdc876b	0.011192678935518527
12	0x3f3fb1d012bcf1b1	0.0004836209288787931
13	0xbf9c2ab61c4b418f	-0.02750668094341929
14	0xbf7981da9c8f9c4a	-0.006227354003363559
15	0x3f759a2c7f366b24	0.0052739847336862634
16	0x3fb587a7076d02aa	0.08410114222807388
17	0x3f6da80dab9f1eb7	0.003620173168176279
18	0x3f958067b5a7929b	0.020997639143291207
19	0x3fa31f31ceaa591b	0.037347370603287376
20	0x3f8e2e57d76a7fb6	0.014736830007052375
21	0x3f7be46920f85ee7	0.006809626254401491
22	0xbf874cb471a649a6	-0.01137677165823876
23	0xbf9069cf70110b46	-0.01602863427639114
24	0x3f45d90f46f3615c	0.0006667446704354085
25	0x3f7cf6666aa25a49	0.007070922913178076
26	0x3f8e01bd691c777b	0.01465175606750412
27	0xbfa09e067bfabba0	-0.03245563758297654
28	0x3f8341a2c0043b3f	0.00940253399360602
29	0xbf911a77be414a24	-0.01670252894138903
30	0x3fb0681dfba67f68	0.0640887011891188
31	0x3fae5dc6b1d5e7f7	0.059309205254024215
32	0xbf97f6748897feb1	-0.023401089512843757
33	0x3f90553676fc76d2	0.01595006085619028
34	0x3fa7d6da1e31c6ce	0.04656106585106344
35	0x3f99cc6468ab2537	0.02519375695081757
36	0xbf7a41d171867948	-0.006410425318249154
37	0x3f8cb1269ebe4f4a	0.014009763450111418
38	0x3fb4c79902422d84	0.08117061905993778
39	0x3f7f5f789a18a747	0.007659407712290739
40	0x3fb327a38c42d545	0.07482359098761034
41	0x3f9d5407847269b5	0.028640859087866583
42	0xbf65102cd983a7a6	-0.002571189496042475
43	0x3fa0aab09ae2efb4	0.032552260310210995
44	0xbfa2b9b3b83ec90f	-0.03657304405295935
45	0xbfaca4419bbd159b	-0.05594067598444071
46	0x3f62f744b281cc30	0.002315172361755845
47	0x3fa47d7cf14a891e	0.04001989789436976
48	0x3fa60f229e104db4	0.043084222597964766
49	0x3fae8cf62fa21483	0.059669202150908006
50	0xbf9678598f8219f8	-0.021943473228498406
51	0x3f7f225c2aff828f	0.007601127654169772
52	0x3fb06a64fbe72d06	0.06412345075584733
53	0x3f8947ccfc387ccb	0.012343980261958617
54	0xbf81553d71d681f2	-0.008463363682325007
55	0x3fac6dbbcb2d06c7	0.05552470069097875
56	0x3f91ddef273c0b40	0.017448174256979643
57	0xbfa198ed550e7613	-0.034369866021034444
58	0x3f81863a44c839d2	0.008556800102295013
59	0x3f452808f12a3a66	0.0006456416761738248
60	0x3f93ece32f1ea3cd	0.01945834136100526
61	0x3f8512ea1a201d5c	0.010289982721600914
62	0x3f8d8d483d66d082	0.014429630636051852
63	0x3fa223ecb7bcf62d	0.03543033354661094
64	0x3fa462e21f53e0ac	0.03981691963594022
65	0x3fac3e0578b7691f	0.055160685525793555
66	0xbfac800351ca2468	-0.055664161428531866
67	0x3f97e883b527653b	0.023347909862285503
68	0x3fa6171680cc7692	0.043144896719451556
69	0xbf7c33a7ecbda98a	-0.006885200458649607
70	0x3f96bd718af6e211	0.022207044703209947
71	0xbf8d65901d5349ac	-0.014353872198999827
72	0x3f90b69c465d5402	0.01632160357924662
73	0x3fa00501993cb271	0.031288194614124694
74	0xbf4007ce60414d5f	-0.0004892118163390239
75	0x3f94bee3d52ff26d	0.020259437453193408
76	0xbf7440107d85efa9	-0.004943909087497569
77	0x3f9c4bd96a25b9db	0.027633092025490896
78	0x3f9e1e2800d5880b	0.029411912012967927
79	0x3f947fbc607bddbc	0.020018523587138168
80	0xbf6bf1d83313a00e	-0.0034112188956108075
81	0x3f970170c8382bdb	0.022466432781623396
82	0xbf8d57f0d434a6c2	-0.014327889896395777
83	0x3f94c0f8f837fca8	0.020267381811205937
84	0xbfb096d3809041b2	-0.06480142487294563
85	0x3f9381d7399dd263	0.019049990550643502
86	0x3fae138ab7e33563	0.05874284262390963
87	0x3f75efe0fb03e6dc	0.005355719404400463
88	0x3fb18da2d12ebf38	0.06856744391438674
89	0x3fa36853a27abf29	0.03790532453910906
90	0xbf52dfa6ff21703d	-0.001151955683346819
91	0x3fb5094e6c98374d	0.08217325354800416
92	0x3f6b1febbc61bcba	0.0033111194816722563
93	0xbf9ca156cb8129f6	-0.027959209605151934
94	0x3f92b8eee53d69a9	0.018283589116757124
95	0x3f609a8e7c11223a	0.002026823320680185
96	0x3fa09ca352cb7a03	0.03244505296401103
97	0xbfa97262947025cb	-0.04970081388462296
98	0x3f8398e203a21e9a	0.009568944679144754
99	0x3fa3405f55fecdc1	0.037600497481800506
100	0x3f9c0b528c8d56a6	0.027386941746348946
101	0x3f6322748dcad0f6	0.0023357654993906253
102	0x3fa19456c7d4fd2d	0.034334861653855554
103	0x3f84e7634585cf65	0.010206962165035536
104	0x3fa8ee4f798d0e5b	0.048693164432304946
105	0x3f896dde04457df2	0.012416586404184724
106	0xbf9470df6f65702d	-0.019961825536810963
107	0x3fb2bee8e5743476	0.07322555162336805
108	0x3f7862db4e880ef4	0.005953652064366589
109	0x3fa087f59f363d2c	0.032287288365404926
110	0x3f9787e1d56f24d6	0.02297928681563096
111	0xbfa07cc237b771dd	-0.03220183305868194
112	0x3f9e84dd8837c4cd	0.02980371612460857
113	0xbfa538bedfba3fb7	-0.04144855958031662
114	0xbf90b4854645a2cd	-0.016313631452620925
115	0xbfb4192021980c5e	-0.07850838489689368
116	0x3fa3e963dcc094fd	0.03889000005464458
117	0x3f97948e3f2a8f31	0.023027632336961538
118	0x3fa5cb5262e60ece	0.04256684739359927
119	0xbf91e1970f1f112a	-0.01746212034028464
120	0x3f91b4a2bf9b1810	0.01729063314885343
121	0x3fa6affffdd26afc	0.04431152318394102
122	0x3fa61dbb19708b1e	0.04319557843725462
123	0x3fa50bd3310b8e2e	0.041105842339473106
124	0xbf8d147ed9813c99	-0.014199248326035184
125	0x3f69621a9fefc286	0.003098537446469432
126	0x3f83cb5df18ce5b4	0.009665235456497757
127	0x3f9064e00edc3ce1	0.016009808451653455

bias_output f8 [1, 10]
0	0xbfc87cbaffa748ff	-0.1913064716632746
1	0x3fc2d3d2147741ed	0.14708925246533458
2	0xbfa959798b8c9df6	-0.04951076343996512
3	0xbf9d49989abc9c91	-0.02860105938375718
4	0x3fb53735f713adf2	0.08287369997167796
5	0x3fc9d7c9e4600b75	0.2018978467095526
6	0x3f67515e3011d94b	0.0028464164357117397
7	0x3fa37e534df35938	0.03807316137833755
8	0xbfc5c6b29ee46bcb	-0.17012627371226893
9	0xbfa10448af5f4c2c	-0.03323580876135454
