models/model_cv_digs (2000).npz (npz, 815236 bytes, 4 tensors)

weights_input_hidden f8 [784, 128]
0	0xbfb1b4b10aa44d5f	-0.06916338453111369
1	0xbfa9ecda35010504	-0.05063516518613123
2	0x3fb8f0a5c97b4f5f	0.09742199105249714
3	0xbf959301852947cd	-0.021068595650213063
4	0x3fada8aec7c25362	0.057927572140363606
5	0x3f878d8da9c078bc	0.011500460379519566
6	0xbf990400b7e9c9dd	-0.024429331994221804
7	0xbfad6ac2d1dbadf4	-0.05745514690155665
8	0xbfaf25bd3dcc7a98	-0.060834802430908386
9	0xbfb2e4248d9a2ca4	-0.07379368264280345
10	0x3f547c67c48d8d1c	0.001250363670089189
11	0x3fb1069a8d556a29	0.06650701475647537
12	0xbfaafbbed01e7f2f	-0.052701914696852696
13	0xbf7a845e764c2231	-0.006473893158507369
14	0xbfa9a7801f219572	-0.05010605220813148
15	0x3fb3ba3b2531ed2d	0.07706041009980842
16	0xbf827f97fba2cc8f	-0.009032428137606878
17	0x3f7dbc3171856d38	0.007259553087659847
18	0xbf973e59bfaa2b1f	-0.02269878609017006
19	0xbf9e0cf08be16763	-0.029346235787989793
20	0x3f8beab20c0b4cfc	0.013631239883955086
21	0xbf9da8d9f78c5168	-0.02896442960180093
22	0x3faca6ea8366a60c	0.05596096853271257
23	0xbf74a16b218af0da	-0.005036753159114416
24	0xbf9877092e0ab40e	-0.02389158576504618
25	0xbf9ba50d39f51b56	-0.026996809637491147
26	0x3f56c5ff4503c59f	0.0013899796359136752
27	0xbfb2b3c186927ff8	-0.07305535827117626
28	0xbf97aab9bc73c0e3	-0.023112203719336654
29	0xbf5780b2f6d32189	-0.00143449284523642
30	0x3fa364a542b582de	0.03787723960227195
31	0xbf9abc64468683e3	-0.02610928230717836
32	0xbf6d59521599bb17	-0.0035826304636467176
33	0x3fb9fb9ec4f145cc	0.10149566944280436
34	0x3f8f19718b3713c4	0.015185248433121752
35	0xbf6aa2fc1c4dc10b	-0.0032515453371432293
36	0xbfb00cfc11a93cfa	-0.06269812995127558
37	0xbfa5addcb80e4f36	-0.04234208819175793
38	0x3f90c8498c175c8a	0.016389035392276464
39	0x3fa821dd1a166624	0.04713335936976318
40	0xbf9ac7a4f9443144	-0.0261522080555079
41	0xbfb0daa139785317	-0.06583602574421508
42	0xbf8e50f9dce53f5a	-0.014802887014098754
43	0x3fa77dafc4134303	0.04588078754898641
44	0x3fa7598a166a554b	0.04560500644326256
45	0x3fb07f61948732fb	0.06444368244337888
46	0xbf6b8113407cdb56	-0.003357446290375969
47	0x3f9c9a7cb1ea969b	0.027933071478989473
48	0x3f71d8986bda2b1e	0.004356952090925485
49	0xbfa0e88228409357	-0.03302389851913883
50	0x3fc016642c70b484	0.12568332834181117
51	0x3f9fc67abc94c6cb	0.03103057647712752
52	0xbfb148530c83cf5f	-0.06750983291186462
53	0xbf9eef5bbc9c206d	-0.03020995463069236
54	0x3f93cd0bb71e341b	0.019336875011095694
55	0xbf8a52490bdc3d4c	-0.012852259325454661
56	0xbfb0598595a06ac5	-0.063865994481982
57	0xbfaa3f4386668f35	-0.05126391425736047
58	0xbf5185566b79fb64	-0.0010693878120091255
59	0xbfb53ff7b4b6378c	-0.08300731813343826
60	0xbfa525ccd8c9cb3e	-0.0413040175088981
61	0x3f769fc2bed428b4	0.0055234534495502315
62	0xbf89b71c8511d6d8	-0.012556288538898938
63	0xbfa7a5da22a63316	-0.04618722603763652
64	0xbf9297a69cb3f28d	-0.018156627001177972
65	0x3fa165e3d70c0279	0.03398048400959381
66	0x3fb409c9372f537c	0.0782743224838906
67	0xbf9011d5f0f47bfc	-0.01569303782627783
68	0xbfa1d939db9ff440	-0.03486042791335153
69	0xbf7491517eedcf2e	-0.005021398871452294
70	0xbfb785cd9a0367bd	-0.09188542375650761
71	0xbfa02ebb2d2edb3a	-0.031606530442721284
72	0x3f900be2bed8e2e3	0.015670340441121488
73	0xbfb3d84025a52da4	-0.07751847189972821
74	0xbfa1480cab312bb4	-0.03375281896349894
75	0x3faa2bb57570c816	0.051114721857075704
76	0xbfb87cf06ac53a73	-0.09565641981792243
77	0x3fa8a7640580e17e	0.048152089759642344
78	0x3fb19c21dac922d6	0.0687886389870401
79	0x3f6b54f8435fd4f2	0.003336415184998936
80	0x3fb882fc935514fe	0.09574869725209464
81	0xbfbbddbd9ed76629	-0.10885224464382105
82	0xbfa6130c76c846c5	-0.04311407995204556
83	0xbf8e9d23ee014423	-0.01494815893252805
84	0xbfa03065dcb99e81	-0.03161924666784178
85	0xbfb562ce1c19c12d	-0.08353889642763042
86	0x3f74693abc452962	0.004983167109751415
87	0x3f6543bebe7dbba0	0.002595779940683454
88	0xbf9251f5288d198a	-0.017890768623396926
89	0xbf9b51612a21efcc	-0.0266776258435895
90	0x3f7d0887245bf1dc	0.007088210962816945
91	0x3fa3b42361f0ff9e	0.03848372049878822
92	0xbfb0c7b6a8b7f888	-0.06554738635165525
93	0x3fa4661b2764f2a6	0.039841507490995284
94	0xbf97d8800fd10862	-0.02328682037865127
95	0xbf85ba2e1f3effeb	-0.010609016731791562
96	0x3fbe5b0d44402050	0.1185768405558758
97	0x3fb490db0a151043	0.08033532138966941
98	0x3faf4c10eedd21e7	0.061127213628939185
99	0x3fa433da31c296c4	0.03945810182021384
100	0x3f9b91b5e8d2b7dd	0.02692302926578082
101	0xbfa75f7ebc6cf3fe	-0.045650444508716234
102	0xbf944f1e7e510b3a	-0.019833065471412704
103	0xbf743cfe08d0bed9	-0.004940979311001314
104	0xbf8d449f23aa2860	-0.01429104163732492
105	0x3facf75a96004ef1	0.056574660120672145
106	0xbf81cf0a0dbddbdd	-0.008695677322732404
107	0x3f74fd3c2a37a392	0.0051243162338118365
108	0x3fa2bfb082a6a3a5	0.03661872477397957
109	0x3f8ef48c24529533	0.015114874704816294
110	0x3fb1ddec978b9c0c	0.06979254436338084
111	0x3fbc93c685956ffc	0.11162987481424119
112	0xbf79c731c954c90e	-0.00629348228294392
113	0xbfa2625a0fa120ff	-0.035906614692580156
114	0xbfb9270393f31ab4	-0.09825155603457852
115	0xbfabeb3bbf482e1d	-0.054529063320014816
116	0xbf83974bc4ba718d	-0.009565917912646405
117	0x3f8b7507bd772f25	0.013406811208276867
118	0xbf9cd8a24d3ebc0b	-0.028170143093742477
119	0x3f923b905acdef8d	0.01780534319139764
120	0x3f9d777792849e5c	0.028776043241263913
121	0xbf7e87f2a467ae09	-0.007453868695374685
122	0x3fa350a73a7670a0	0.03772471035628766
123	0x3f7d651242e00bd5	0.007176467259344362
124	0xbfb4c3a7d8f1d9d8	-0.08111046835424618
125	0xbf9c32ff58caebfc	-0.02753828982779892
126	0x3f93694c4a4e9c3c	0.018956367526382176
127	0x3f69b996fb8632df	0.003140253913619481
128	0xbfa9233033f073be	-0.049096590366594736
129	0xbf9d5e873ac6e193	-0.02868090912099459
130	0xbfb1f2b8f974b5e8	-0.07010990228874159
131	0x3fb2a47bfb84568a	0.07282233133840968
132	0xbfb3fb1fa9a955e5	-0.07805059330106408
133	0xbf9118144947ed4e	-0.016693417523112423
134	0xbfbc7becf32311f9	-0.11126595436059707
135	0x3fb08496db03fbad	0.06452315184649988
136	0x3fa1d8c6f15de3c1	0.0348570031773714
137	0xbfad39fcd0e332ec	-0.05708303499122799
138	0xbfa5c9d91963dc65	-0.04255560336053391
139	0xbfadd060edbd91eb	-0.05823042776208694
140	0x3f9c2e69aa730eba	0.027520800617607512
141	0xbf56cb6c0c17018e	-0.0013912730358783573
142	0xbfae1e33266f9d88	-0.05882415622891829
143	0x3fa3000f30947103	0.03710982769027462
144	0xbfb5367dd96fb951	-0.08286272581583388
145	0xbfa8fa8037c925d1	-0.04878616982439222
146	0xbf8ef1f931f9e7e7	-0.015109965169575147
147	0x3f901855cc772c73	0.01571783123453625
148	0xbfb9abd52f2bf546	-0.10027820970204457
149	0xbfb6404548e86a62	-0.08691819219567656
150	0xbf64a9eae1ff1379	-0.002522429233041409
151	0xbfbd61ee4e6aff17	-0.11477555670262195
152	0xbf8e96a66cceea61	-0.014935779758038227
153	0xbfb2b0e09de987ff	-0.07301143508223616
154	0xbfbc48e7a5a523a9	-0.11048744005269263
155	0x3f6ebd29ea553840	0.003752309671347681
156	0x3fa352d2690f4f89	0.0377412560698352
157	0x3fa0f2d608c7bb64	0.03310269219570364
158	0xbfb92c28d4cca9d3	-0.09833007045077773
159	0x3f9ac745808feac9	0.026150785419285314
160	0xbfa150f8d463cf6c	-0.03382089226388882
161	0xbfa0d8082e981baf	-0.03289819306160468
162	0xbfb64b25a7e8ccf9	-0.08708415364599266
163	0xbfa5fc31f0cb64b7	-0.04293972076784185
164	0x3fb313e37149dd85	0.07452222362359436
165	0x3f8fa647de5ea465	0.015453874086079187
166	0x3fad3060132e1c12	0.057009699193308574
167	0x3f53ace3838911c4	0.0012008878531030035
168	0xbf9da2b9f763cd8b	-0.02894106457183691
169	0x3fac5527d9f7ebde	0.055337186200595787
170	0xbfb8ac47e54ecb42	-0.09637879703840915
171	0xbfb5567e54e06cd8	-0.08335103580650427
172	0x3fa7beef9ca1d025	0.04637860095036243
173	0xbf98d241ba952065	-0.02423956586179123
174	0x3facfe22168c47cd	0.056626382114827935
175	0xbf9eaaefb0d65936	-0.029948945205967102
176	0xbf905188cf03e55e	-0.015936029086309637
177	0xbfa65f4ea52a1bff	-0.04369588628929221
178	0x3fa1cc3e997951bf	0.034761387095076916
179	0xbfa2852f3c415bd9	-0.03617236719644951
180	0x3f733a6758a26ca1	0.0046943699800535985
181	0x3fb280d9a11b7b64	0.07227859671864462
182	0xbfa07dea90ed760a	-0.032210664931636115
183	0x3f9cdda035ba92f5	0.028189185408922197
184	0x3fae8c0c9f8f411d	0.05966224143742436
185	0x3fa357d61183aae8	0.03777951206014568
186	0xbf8cbf76a50c8a73	-0.014037062560935376
187	0x3f7076e6ecd002da	0.004019643832180642
188	0x3f7d6dae5eaa9872	0.007184678203577476
189	0x3fa2f3a5b8ce7e9e	0.03701513176860981
190	0x3f67e88c7447d863	0.0029185050245770657
191	0xbfc1d02f5c7a35cc	-0.13916580214974628
192	0xbf6e5300064c6000	-0.003701686904957313
193	0x3f9e88cc55319e4b	0.029818718623941625
194	0x3f9b8dbd7ded3747	0.026907883463813034
195	0xbfad1fb677c1979a	-0.056882574194602145
196	0xbf76d0ae16d8a73b	-0.0055701065407818785
197	0x3f86b833125b09a8	0.011093520162266682
198	0x3f922a653f392380	0.017739850982511296
199	0x3f92f273f6db992a	0.018503009740834
200	0x3f9149f54996b894	0.016883690468312354
201	0xbfad095da534963d	-0.056712080399205146
202	0x3f8d92804e733597	0.014439585107903592
203	0xbfa1688d5ed817a6	-0.03400079520001435
204	0xbf87a467477e97c3	-0.011544043416346633
205	0x3f85c4feee19747d	0.01062964595910842
206	0x3fb1a4ce24db927d	0.06892097854467667
207	0x3fa623a4a2ead4aa	0.043240685355536115
208	0xbfad2038d8f790d2	-0.056886459813343074
209	0xbf9b4e421e2fa435	-0.02666571912041978
210	0xbf980705a2c13c37	-0.023464286860243013
211	0xbf9e5d052c9bebd9	-0.02965171894809857
212	0x3f6fc0189f0533c3	0.0038757782823836975
213	0xbfacc28a69886091	-0.05617172754517797
214	0xbf9a54fc03e03529	-0.02571481488853525
215	0xbf966bc56a75312e	-0.02189548933283552
216	0xbfae0c79e59b3e67	-0.0586889355450893
217	0x3f930242548d0670	0.018563305292678967
218	0x3f86624aa82d5390	0.010929663903576331
219	0xbfb71acc1156b5aa	-0.09025264190014207
220	0x3fa62af6b69eeb05	0.043296537201476006
221	0xbf60bdc3cd77ffec	-0.002043611933686398
222	0x3f97719683bfef13	0.022894241134038994
223	0x3fbb84156efa1f3e	0.10748418769264576
224	0x3f954d720d2ab5e8	0.020803243688240075
225	0xbfb1d45015b59356	-0.06964588670741753
226	0x3f9d6554ac342e94	0.028706858644950886
227	0x3f8d12144d2a8d04	0.01419463978283498
228	0xbfaf7dda337653d9	-0.06150705221367731
229	0xbfa4188b73dea7b0	-0.039249761480575684
230	0x3f8de04d5c749b64	0.014587978729265046
231	0xbfb3c823a2bb9370	-0.07727263186423072
232	0xbf9c4b301ef17bf4	-0.027630569351796155
233	0xbfaad1a414a5ef21	-0.05238068344166736
234	0xbf9b54b5e1bdf208	-0.026690332320400884
235	0xbf9e208d1df4b8a8	-0.029421048119893684
236	0x3f74f03afb815177	0.005111914062656423
237	0xbfafcaf573e50eaf	-0.06209532775622272
238	0x3f9692417c2b494d	0.022042296603850976
239	0x3f944445a23592a8	0.019791687036007005
240	0x3fb65967bbd3f71e	0.08730171523708605
241	0xbfc37ac7bdbf8863	-0.15218445553824997
242	0x3fa5e8c2dc2c9e2b	0.04279145181345386
243	0xbfab6df5a3ea1435	-0.05357329965503547
244	0x3faa55eade503269	0.05143674815926575
245	0x3fba186ea0f6b27a	0.10193530492569805
246	0xbfbac43565ba5f7e	-0.10455640538782338
247	0x3fb87e5115fa6647	0.09567744051528236
248	0xbfaa656121931a01	-0.05155471358152753
249	0xbf956e9e40336447	-0.020929787319662798
250	0xbfa0303c92646b44	-0.031618016119145526
251	0xbfaa8f7fca44cbd8	-0.051876061860091915
252	0xbfc1577dcc8bb501	-0.1354825257070971
253	0xbfb19b9eda7fe779	-0.06878083071197051
254	0x3f9e3f49d39c6cdd	0.029538301029884962
255	0x3f6fcfeedf23745b	0.0038833299123397897

weights_hidden_output f8 [128, 10]
0	0xbfddfefbdf98e373	-0.46868798099199366
1	0x3fc054b1731fbf55	0.1275846302155467
2	0x3fa3661060bbe57a	0.037888061340661985
3	0x3fc545cb944eef57	0.16619248143785612
4	0xbfb61a42e8195be2	-0.0863382164619533
5	0x3fc0709462b29cf9	0.12843565768455514
6	0x3f99bd9ee973f9b1	0.02513740825542649
7	0xbfd899c0b9493d7b	-0.38438432783455995
8	0x3fcd2ad1642c78a1	0.2278691996697875
9	0x3fc6db748333b513	0.1785722389826466
10	0xbf97f89f78853672	-0.023409358721713187
11	0xbfba9a2e5df3c3ad	-0.10391511720423692
12	0xbfb96344aed46ef4	-0.09917096393877128
13	0x3f93f6571f10a455	0.019494401236589038
14	0x3f9d81fd0a4d4d04	0.028816179040700454
15	0xbf773708d0e92ebd	-0.0056677193047779935
16	0xbfa37874b712cad6	-0.03802838072569663
17	0x3f94be41c518a888	0.020257022528462204
18	0x3fa46d56bbeb398c	0.039896688880264625
19	0x3f8e4cd9d8fdaadc	0.014795019087349308
20	0xbf950f18f2ca63f4	-0.020565404719125227
21	0x3fc57ba3ab85066f	0.1678356730936232
22	0x3fc647e932de806a	0.17406954749913278
23	0x3fc7b2e3c5e1bdaf	0.18514678156087203
24	0xbf9dde68d38a4ba1	-0.029168737326994102
25	0xbfb07448ff0cc12d	-0.0642743704490882
26	0xbfe0b48510a8184f	-0.5220361066174152
27	0x3fc6619b7ac52820	0.17485373968730844
28	0x3f96f287fcbd9733	0.022409558106480886
29	0x3fbeab9a19153fc1	0.11980593788507489
30	0xbfb85a59c06118d7	-0.09512864062080283
31	0x3fb331dfd458821d	0.07497977194044166
32	0xbfa881a48fc226bb	-0.04786409621108364
33	0x3fcd870b1a4eeb5a	0.23068369659980698
34	0x3fe09b370382abbe	0.5189471310198923
35	0xbfa234ff46e02213	-0.035560586358830325
36	0x3fb19733e54eeac7	0.06871342037531313
37	0xbfd4a43ecd00f17e	-0.3225247385014639
38	0x3f930c04987f8b7a	0.01860053234839707
39	0xbfb3b8fbbd249b19	-0.0770413719916231
40	0x3fb659234332a17d	0.08729763403483122
41	0x3f9840c467879263	0.023684567278808532
42	0x3fdbd8a24d86c697	0.435097289761964
43	0x3fd670549b517db2	0.3506061093121061
44	0xbfc8eddf74ce46a5	-0.19475930407911793
45	0x3fb1fd00ec26728e	0.07026677861581218
46	0xbfd0b05de9563409	-0.26076457773962197
47	0x3fe5728c170c0b4a	0.6702328157556192
48	0xbfbb8aa0d654604e	-0.1075840495362865
49	0xbfe94066f6cc9cb2	-0.7891115970895923
50	0x3fc05a34f7b14cb3	0.1277528962551507
51	0x3f94e101440a1198	0.020389575746337124
52	0x3fb96c2bcd943642	0.09930681008355527
53	0xbfb13cf511ed5da0	-0.06733638465572378
54	0x3fc8fc7b47158ac4	0.1952051255312509
55	0xbfcd37f950115f84	-0.22827068719447763
56	0x3faa191f70dc88e4	0.0509729218740789
57	0x3fb39671eed3b6b9	0.07651435929048035
58	0x3fa2d3f6fdf5b029	0.03677341318220357
59	0x3fcb4150545b60e2	0.21293071860305363
60	0x3fc144e7cceee4a7	0.134915328087833
61	0xbf7860b468bcb502	-0.0059515998107546614
62	0x3faeb50e24f197e2	0.05997509194348517
63	0x3fd12f83a14dbd18	0.26852503540335837
64	0xbfc72c1cb73c1e36	-0.18103369662297703
65	0x3fd0420e83d52d47	0.2540317809513976
66	0x3fc219d24a2b8470	0.1414130079420235
67	0xbfd71412783ff050	-0.3606001066507405
68	0xbfaad00bf23322e2	-0.052368520083808226
69	0xbfd99f8e4e055644	-0.40036351794455904
70	0x3fd086858b3772d8	0.25821055026407924
71	0x3fa5a382b62a658a	0.04226311181737248
72	0x3fb2cb74234c31c1	0.07341695653685233
73	0xbf91a35c3222d833	-0.017224731979432483
74	0x3fb06c38a9a84fae	0.06415132658031439
75	0xbfdf48a23a9c05ba	-0.48880820964412985
76	0x3fb6df6b2b092813	0.08934659767797397
77	0x3fae4551c21d0802	0.059122614808543986
78	0xbf9e771b19b0f59d	-0.029751227801389047
79	0x3fb433e0e548629e	0.07891660306666856
80	0xbfa71cbcae7210e8	-0.045141121191621114
81	0x3fa12ed2df148001	0.03356036160607801
82	0xbfbb56fba34173b4	-0.10679600463613675
83	0xbfda34f984178715	-0.4094833173713693
84	0x3fcd0618b5ee0bd3	0.22674855120939572
85	0xbfb1e36e9f5db316	-0.06987658873340438
86	0x3fbb389a2edccd57	0.10633243221382337
87	0x3fbe0264127059c9	0.11722398233573651
88	0xbf9ffc1730f4487a	-0.03123508678715623
89	0x3fc5c8dfc2a61c11	0.17019268993701123
90	0x3fc035d08973d7e9	0.12664229117916584
91	0x3f9bdb16ddd8ee13	0.027202946939935368
92	0xbf953cc40065a4b3	-0.020739614986642518
93	0x3fc2c2197e31edbb	0.14654844915263063
94	0xbfc5260769645c34	-0.1652230515107661
95	0x3fb571c3b58b91dc	0.08376715833907816
96	0x3fb98a88f86f7cb2	0.099770126965711
97	0xbfc8c7a8991b9aee	-0.19359309650391004
98	0x3fc02e559f15a732	0.12641401546289327
99	0x3fb0f5a3619ca624	0.06624814160445475
100	0x3fac4e1410fcf5d5	0.05528319079756342
101	0x3fc237f71fec55d2	0.14233292635678524
102	0xbfb1dbbad403373e	-0.06975906063163692
103	0xbfab941c59e56160	-0.053864370320925614
104	0x3fc929616473b743	0.1965753307808261
105	0xbfb0fc0feaf3f6c6	-0.06634616361767617
106	0x3f8fd416bb3feebf	0.015541246022613973
107	0x3fc3476c1a6b9d19	0.15061713495308807
108	0xbfdbbbcd66ff4fa7	-0.43333754595118495
109	0x3fc0c6ada9d99cbe	0.13106318276843426
110	0xbfd55c96bea9994e	-0.3337761747301514
111	0x3fcdcca6caa7e3b5	0.23280796904853465
112	0x3fca2bf186f36964	0.2044660481395325
113	0xbfcfa7313114a8a9	-0.24728979965704426
114	0x3fba30d135650bed	0.1023073916776835
115	0xbfe2aa9d744fe540	-0.5833270332069915
116	0x3fcd2e72d6225d66	0.22797999816678355
117	0x3fb96a941091518f	0.09928250698550854
118	0x3fcf1ee43b2ec4d6	0.24313023462085565
119	0xbfa27d141b5a4062	-0.03611052354710932
120	0xbfac6592aaee4114	-0.055462439885675036
121	0x3fd8b35950e2c5ed	0.3859465875530919
122	0x3fa7760818fa5a80	0.04582238488108192
123	0xbfd65994aa283708	-0.3492175733270959
124	0x3fc56f2d9888dba7	0.16745538661936374
125	0xbfb13c765bb4f810	-0.06732883204401241
126	0x3f8da46973e02014	0.014473747109164527
127	0x3fc6fc0a76313b2d	0.17956667681797836
128	0xbfc8b53ab794cb67	-0.19303068126609021
129	0x3fbf3655516944f1	0.12192280995920492
130	0xbfab68f1b85ddd54	-0.05353503585404931
131	0xbf6c9d71ee5b32e9	-0.0034930443970096936
132	0xbfe1658626432568	-0.5436430690107672
133	0xbfcbad0c750785e1	-0.21621852602315442
134	0x3fbd5fffbdfa92ed	0.11474607837824254
135	0x3fc764318344c40f	0.18274516019440099
136	0x3fd1f419b6c9a9d7	0.28052370882383343
137	0xbfc5be7445de993f	-0.16987470065687124
138	0xbfa4d6accac7bc55	-0.04070034003586246
139	0x3fb2584571257d89	0.07165941250194953
140	0x3fd0573f89d19d5b	0.25532520731799985
141	0x3fdad19e0374ef07	0.4190440210111181
142	0x3fc1c4e5886c7aa9	0.1388213077670646
143	0x3f900ee75b0e0488	0.015681853230038928
144	0xbfc3e9a575535c28	-0.15556781986990242
145	0x3fc29fba6942696d	0.145499516864969
146	0x3fc15292e1068011	0.13533245074813796
147	0x3fc2f4aa4115a6c4	0.14809158494909103
148	0xbfe4eac46eea49f9	-0.6536581198036507
149	0xbfe4f8787d53dda7	-0.6553308913998322
150	0xbfb41d153b87aab0	-0.07856877044074895
151	0x3fc9224232bfbeb1	0.19635798910120664
152	0x3fd3d428681b9587	0.30982408682606216
153	0x3fd0b7a9df5925bf	0.2612099343428688
154	0xbfcee0a343a8bb45	-0.24123040012042388
155	0xbfaadde7c730e53a	-0.05247425371676191
156	0xbfcb9ad0a6334bfe	-0.21566207995655867
157	0x3fdd9d7547bc033b	0.4627354813128936
158	0x3f9cdec8a2fd1b55	0.028193602512398403
159	0xbfe9a75b5c369a4b	-0.8016793061295372
160	0x3fc0e4adce1a80a4	0.13197872699402524
161	0xbfc51a215c60dbdf	-0.16485993395482887
162	0x3fcebd828c958680	0.24015838493783193
163	0x3f8c4cc58b7b0c5c	0.013818305319892747
164	0x3fc4bdfeddb03ec2	0.16204820465690345
165	0xbfa7c1c7ed98ecf5	-0.04640030646666019
166	0x3fc4665cd17a0a2a	0.15937385776858665
167	0xbfd8077f08764ce8	-0.3754575331342509
168	0xbfc540b25f209cfb	-0.1660368885506854
169	0x3fbe23d5537a1b3a	0.11773427284252316
170	0x3fad016dd5eb22c8	0.05665152775106247
171	0xbfa563980d83d6a2	-0.04177546658494903
172	0x3fc923d28a906053	0.1964057137090572
173	0x3fd162a91177bf4c	0.2716467543204899
174	0xbfe7871a66c8eaec	-0.7352420814052869
175	0x3fd2dad8cce3066c	0.2946073532913036
176	0xbfd03863a52612a9	-0.25344172599606424
177	0x3fc75c529d083759	0.18250496547301046
178	0x3fc007be01893c40	0.12523627352718059
179	0x3fb49ace61f04fe7	0.08048715487558376
180	0xbfd2a74eceaa8bb1	-0.2914616602158118
181	0x3fd3ff6164400590	0.31246218481109
182	0xbfb2cabb26db9a11	-0.07340593050648915
183	0xbfd77da7af113d76	-0.36704437347812957
184	0xbfdec19560b18b4b	-0.480565399577405
185	0x3fe7713f62ea8d5a	0.732574170299283
186	0x3fdad106c1e39a2e	0.4190079587409937
187	0x3f88b5f4b005f96a	0.012065803167158069
188	0x3fbe35ab75cf6a25	0.1180064356443969
189	0xbf74a95162ce6843	-0.005044286645807419
190	0x3fb093940d9757c7	0.06475186664405817
191	0x3fa91dbef5cff25f	0.049055068498977
192	0x3fcb1b85a762e90a	0.21177740739023704
193	0x3fd2111149a581a8	0.2822917193607517
194	0xbfd299a93d534945	-0.2906287287597887
195	0x3fd1e8ad8e9c9956	0.2798265354816939
196	0xbfe406b70d1107ab	-0.6258197074132473
197	0xbfc6a94743d74075	-0.17704096615353007
198	0x3fb0e5bc081d4a7b	0.06600547025781538
199	0x3fca5f405c957648	0.20603184242911454
200	0x3fd4db9e2169ef96	0.3259044004732855
201	0x3fc0757bccac6342	0.1285853146917138
202	0x3fc7be2bf742814c	0.18549108098251066
203	0xbf975d55c12be356	-0.02281698218846214
204	0xbfeaae9bd79c2f57	-0.8338145457396234
205	0xbfc67b159907a73d	-0.17563123676455375
206	0xbfa83a999b7c49b1	-0.047322082739032274
207	0x3fab57250af04b71	0.05339923628357369
208	0xbfa0ec3b0eb43d97	-0.03305229715817431
209	0x3faab14807ea3c5b	0.05213379952066851
210	0x3fcdfd97370e04f9	0.23430147350521915
211	0x3fdb33eb99d9a58f	0.4250439646189869
212	0xbfd468fd2a583cf5	-0.3189080155870692
213	0xbfe16f3216f32318	-0.5448236892926586
214	0x3fd35a3de8297b0d	0.3023829238135683
215	0x3f9b3a1e0ff34d65	0.026588887904677522
216	0x3fc6b1c8c55abdeb	0.17730054508636725
217	0x3fc1b7478f66d5b1	0.13840574743305248
218	0xbf81465d84d39469	-0.00843499242405184
219	0xbfd9ab44779ee8af	-0.40107833558762257
220	0xbfa8a52374bcd121	-0.04813490676898114
221	0x3fc747864c62f39f	0.18187025766192463
222	0x3f9b3ca4cde8b04b	0.02659852511185105
223	0x3fc5fde120eca7a3	0.17181028468740775
224	0x3fd68a5e9f40fa1a	0.3521954112256097
225	0xbfd9fc47c444638a	-0.40602296988213793
226	0xbfde066b636730c6	-0.4691418143018037
227	0x3fc3ab473cd43740	0.15366449804462867
228	0xbfb5f8c2e1491cfa	-0.0858270454419773
229	0x3fd4ee30e1070929	0.3270380208524722
230	0xbf88e39dec104a35	-0.012152894751158086
231	0x3fd35c4eacf4867c	0.3025089921012307
232	0xbfd7ecba8b010a0d	-0.37382377218833157
233	0xbfc9604c7965dff2	-0.19825130393633078
234	0xbfd9c786bd707d53	-0.4028031206125508
235	0x3fd34dadee7ec6d4	0.3016161755614182
236	0xbf723d6235e74b54	-0.004453071246149094
237	0x3fbc423211119969	0.11038506428449114
238	0xbf9bcd9bd60d8b9e	-0.02715152257895747
239	0x3faf63fc1bc5eaf0	0.0613096984770517
240	0x3fc635e2224fd1d9	0.17351938891773847
241	0xbfa06e1705ab6794	-0.032089919511874815
242	0xbfd10715141ce43b	-0.2660572716154694
243	0x3f9b468f5a3b85fb	0.026636352426867998
244	0xbfcbd98e06fb4e30	-0.21757674542333083
245	0x3fc73fa7d94a44c7	0.18163011655682323
246	0x3fca44fb84e3adeb	0.20523017872561353
247	0xbfd2124c4a8af509	-0.2823668220479055
248	0x3fc051ab82e2e6b6	0.12749236956533644
249	0x3fc77d56fd7f167a	0.18351256730800342
250	0x3fa61c6a911b8ea7	0.04318554898580134
251	0x3f928056d9cb9ac1	0.018067700427219394
252	0x3f93c23265d228f9	0.019295489754349558
253	0x3f98e2eec68cb303	0.024303179615503556
254	0x3f9e08c08e0574d0	0.029330261867802687
255	0x3f6c07141dbd71e0	0.003421344079397523

bias_hidden f8 [1, 128]
0	0x3fa53836b45afb75	0.0414445014152908
1	0x3fb4ff2d0f6d4936	0.08201867701180707
2	0x3fbb047eb8c21c38	0.10553733835887236
3	0x3fad530316f431c8	0.057273956825244776
4	0xbfaa1c3bf8a68dc5	-0.05099666033063558
5	0xbfc510de15c0f145	-0.1645772558421276
6	0x3fbf941d8d5ed047	0.1233538122313017
7	0x3fa106a32dcf5be5	0.033253764478722116
8	0x3faf997f0e0e23c4	0.06171795889446899
9	0xbfaeae3a05cb442a	-0.05992299385764739
10	0x3fc01f4a3c9dd7c4	0.12595489463609344
11	0x3fc77c7e415db134	0.1834867304963922
12	0x3fc2cb57497b4086	0.14683047378503405
13	0x3fc483a4bd71715b	0.16026744127419587
14	0x3fd0fb5bd9628c7e	0.26534172276496537
15	0xbfcb217c58d21107	-0.21195940339033134
16	0x3fc3b2c702f0e206	0.15389335292435663
17	0xbf6b344084c8e38d	-0.0033208141451521235
18	0xbf6124214528147e	-0.002092423420665456
19	0x3f8273aaf6d1446e	0.009009681374808145
20	0x3fc02d324bd27569	0.1263792867875211
21	0x3fb525dd12b860e4	0.0826090021804507
22	0x3f9b56d38f8367c9	0.026698403963429294
23	0x3fc884ff7b5b0d1a	0.19155877612329492
24	0xbf9e57b004247c0a	-0.029631376507605757
25	0xbfc1f71f445f6533	-0.14035406912334167
26	0x3f7e8859a9ff61ae	0.007454252481658248
27	0xbfb0139b60375755	-0.06279917811420195
28	0x3fc39fad5066f978	0.15331045556917977
29	0xbf9d47c2a02aa0c3	-0.028594056154049207
30	0x3fb68689da4bf1ab	0.08799039439686022
31	0xbfc238059cb9ea9e	-0.14233465340278867
32	0x3f730eb978d1fa08	0.004652714252300523
33	0x3fd5167caf529cb5	0.32949750062330035
34	0x3f9908475e4c5053	0.02444564354944163
35	0xbf97797eaf05cd5f	-0.022924403603110984
36	0x3f9ae1da10641bf5	0.026252181291990657
37	0xbfbb2aae513c28b6	-0.10612000926281237
38	0x3fc787cd045949bb	0.183831812976292
39	0x3fb008991e161b0b	0.0626311968281749
40	0xbf6ca7ecc1a6dec0	-0.003498041548677694
41	0x3fc50eb07cacd7b0	0.1645107849851093
42	0x3fc1464f4e31394c	0.13495818441374252
43	0x3fc613291c255375	0.17245973467165823
44	0xbfae12c0ccd3c027	-0.05873682499247961
45	0x3fcb29b02e24c605	0.21220972302539579
46	0x3fc65c028e7e882b	0.1746829219601421
47	0xbfa9a34a9a7aa3d1	-0.050073939664180174
48	0x3fbff9f1a0ea60b6	0.1249075906620217
49	0x3fc5cf30d0422449	0.17038545769563232
50	0x3fd0b27bf626b16b	0.2608938125438473
51	0xbfb5c156d3e4537e	-0.08498137162344041
52	0xbf9ec934136b5a3a	-0.030064405141127383
53	0xbfb4390adc21f7ba	-0.07899539827664528
54	0x3fc2773092a91919	0.14426238213690892
55	0x3fab236485645714	0.05300439956969974
56	0x3fc23696db0b1310	0.14229093261214887
57	0xbfa03cdf23a2a469	-0.03171441373826484
58	0x3fb1f36003991b9d	0.07011985862582866
59	0x3f74e31cd99d7ca0	0.005099404044670269
60	0xbfc3c2213d68450a	-0.15436187265780915
61	0x3fbf1261dd3efac4	0.12137424136652003
62	0x3fb0160a926a8817	0.06283632349598665
63	0xbfb3b27bbb3de84d	-0.07694218942006721
64	0x3fa61e8b6cc88ad5	0.04320178702280023
65	0x3fb6de4c054395c7	0.08932948235049941
66	0x3fca57adcb2c3eb3	0.20580074711368965
67	0xbfc3b200d1993829	-0.15386972650816347
68	0x3f8ab8c89d93994b	0.013047759350638307
69	0x3fc7d517c75b08cd	0.1861905787864714
70	0x3f7955eb1db02562	0.006185453817132954
71	0x3fa2a8909692cf1c	0.036442297344733116
72	0x3f8a2a7c3ee97813	0.012776346845551989
73	0xbf5546094a761c7d	-0.001298436234579175
74	0x3f9255a8b734a331	0.017904888326629013
75	0x3fc518f43f4fca71	0.1648240384234501
76	0x3fb40fb103a53a0e	0.07836443270682755
77	0x3f9222b70147b141	0.01771055169403835
78	0x3fc6da06b36bb2d9	0.1785286308362604
79	0x3f8570a5128da762	0.010468759182646618
80	0x3fc164c3ec4019ae	0.135887613636624
81	0x3fb2f35c0f3fe031	0.07402587292006114
82	0x3fb62b332a6f7307	0.08659667764682065
83	0x3fb24a0dc1e12ca1	0.07144247039211617
84	0xbfb408c94e49c461	-0.07825906907398085
85	0x3fb6bf80c4992609	0.08885960387956272
86	0x3fd18bdf00746e86	0.2741620544854658
87	0x3fc978faab0fbe52	0.19900449135410497
88	0x3f963689204d9484	0.021692411991712138
89	0x3fd01a56b7c9d137	0.25160758922654075
90	0x3f89c1f5ee4d0c4f	0.01257698186385006
91	0x3f997a418b798f14	0.02488043226038801
92	0x3fa93cde0537a2f5	0.04929250539482225
93	0xbf60365afdb3a979	-0.001979043690529977
94	0x3f7d5302fe43bafd	0.0071592442438788125
95	0xbfaa90043e9d9329	-0.05188000931119625
96	0x3fb1303de6b19fe6	0.06714236147092797
97	0xbfb3d9ce558a037e	-0.07754220569951362
98	0x3f9d50dc3f0a1608	0.02862877020608859
99	0xbfc513f9ac13ad40	-0.16467209722700638
100	0x3fb1e027f52e9341	0.06982660041701384
101	0x3fa532af7b1cdb9c	0.04140232446518796
102	0xbf9e1bad63bc1a2c	-0.029402455532386337
103	0xbfc94c1695882f79	-0.1976345281731218
104	0xbfbb643a27d503cb	-0.10699809524977792
105	0x3fbdb1f238304375	0.11599649307050959
106	0x3fc71980b8070654	0.18046578393664225
107	0x3fb67a1e5fd5bd60	0.08780088271827458
108	0x3fb1b4605fbee5e0	0.06915857636968026
109	0x3fa9c3c7c746bd5b	0.05032181079456662
110	0x3fb5e43955774237	0.08551367127007202
111	0xbfb80eb3584389fa	-0.09397431282881277
112	0x3fcf6a7e9f547dfe	0.24543745784556842
113	0x3fa4046c08262a6b	0.039096237177621194
114	0xbfb53dd86238b054	-0.08297493360504521
115	0x3f861502786f3041	0.01078226022755058
116	0x3fbee9f3e7ed9b0e	0.12075733578022271
117	0x3fbbb9347c7031ec	0.1082947543911314
118	0x3fc12615000471e1	0.13397467137191568
119	0x3fa9557901bbc3bd	0.04948022981796594
120	0xbfb756dee538944d	-0.09116929146019111
121	0x3fbae1393937aeab	0.10499913832580414
122	0xbfc308faa9364173	-0.14871152174283572
123	0x3f9ba4517300e7e3	0.026994011539706163
124	0x3faa466aa791d963	0.05131848617104386
125	0x3fa9e864a944509d	0.050601144468744176
126	0x3fc2f638a797a986	0.14813907798027176
127	0x3fb4f7d8b454b9a8	0.08190683748828198

bias_output f8 [1, 10]
0	0xbfd181a9d7da96ff	-0.27353902892569687
1	0x3fc4f68b5191b36f	0.16377393229359025
2	0xbfc04f257cf8d04d	-0.12741535761017744
3	0xbfbb8eaf40650f82	-0.10764594385278595
4	0x3fc5ebe9b14d3183	0.17126198918630217
5	0x3fd5f45bb8c1525e	0.3430394462823524
6	0xbfa73b753df94562	-0.04537550336375308
7	0x3fc7f8b35d3a9b97	0.18727724125093623
8	0xbfc09df553c322fe	-0.12982050504640336
9	0xbfc73d3c617a2927	-0.18155627021435203
