models/model_cv_digs (11000).npz (npz, 815236 bytes, 4 tensors)

weights_input_hidden f8 [784, 128]
000000 d0 4b df 2d 9d b0 b1 bf 01 2d 9b c3 e1 e6 a9 bf
       -0.06910116548469536 -0.05058961403627827
000010 7d f1 08 6d e7 ea b8 3f 90 31 8c 97 09 8e 95 bf
       0.09733435070024217 -0.021049642443402627
000020 d2 3a 8d 36 da a1 ad 3f 37 b6 31 14 21 88 87 3f
       0.05787546077646301 0.011490114620950382
000030 42 23 5d e6 3d fe 98 bf cb b0 4c 83 fc 63 ad bf
       -0.024407355485240652 -0.057403460529117455
000040 e3 31 13 eb 90 1e af bf 21 40 9a ce ca df b2 bf
       -0.060780075736690774 -0.07372729820258474
000050 76 57 14 00 b0 77 54 3f 53 84 10 c8 ae 02 b1 3f
       0.0012492388489752904 0.06644718536746667
000060 d2 56 fd fb 87 f5 aa bf 54 03 1b 20 43 7e 7a bf
       -0.05265450430912967 -0.006468069275513983
000070 c9 45 6f a6 97 a1 a9 bf a7 be 6f 18 b0 b5 b3 3f
       -0.050060977045756135 0.07699108692735966
000080 e5 8d 98 64 55 7b 82 bf 5a a0 0f 62 58 b5 7d 3f
       -0.009024302608913135 0.007253022428791745
000090 13 8f 93 67 ff 38 97 bf af c4 f0 e3 04 06 9e bf
       -0.02267836637191951 -0.029319836056121925
0000a0 0c e4 66 30 44 e4 8b 3f 2c 1d 65 5c 05 a2 9d bf
       0.013618977286443033 -0.028938373340932674
0000b0 e4 2a 0d 4f 51 a0 ac 3f 90 75 ed d6 aa 9c 74 bf
       0.05591062631591173 -0.005032222120317967
0000c0 07 3e 52 d3 66 71 98 bf ea 4e 3a 68 af 9e 9b bf
       -0.023870093009973583 -0.02697252343803217
0000d0 01 ba 77 a4 c0 c0 56 3f d0 8a 42 ec 72 af b2 bf
       0.0013887292169517675 -0.07298963802399361
0000e0 49 42 06 6f 46 a5 97 bf d9 62 1a 57 49 7b 57 bf
       -0.02309141209258517 -0.0014332023824065647
0000f0 3e 9e b7 eb 2d 60 a3 3f 6a 53 77 09 3c b6 9a bf
       0.037843165420607935 -0.026085794523015883
000100 66 18 41 cb 8f 52 6d bf a4 18 e5 ec a2 f5 b9 3f
       -0.003579407546598512 0.10140436442915984
000110 33 0a 65 0d 48 12 8f 3f 3b 42 21 b9 d9 9c 6a bf
       0.0151715878570303 -0.0032486202626744987
000120 6a c0 e6 c8 49 09 b0 bf 53 e7 1b 9b de a8 a5 bf
       -0.06264172701662721 -0.042303997453884044
000130 a6 b9 bd 20 6c c4 90 3f 17 4c c4 5c 4e 1c a8 3f
       0.0163742918952551 0.04709095842749649
000140 d3 ef ca 24 7a c1 9a bf 94 f4 b8 94 bf d6 b0 bf
       -0.026128681655549556 -0.0657767999736783
000150 5c 96 cf 89 fe 49 8e bf dd 2d f5 d5 46 78 a7 3f
       -0.014789570408491652 0.04583951341427526
000160 d6 e5 62 7b 29 54 a7 3f a5 f4 6b f3 94 7b b0 3f
       0.04556398039990099 0.06438570921814575
000170 33 1b c8 b7 bd 7a 6b bf 13 f8 53 5a e6 93 9c 3f
       -0.003354425947921591 0.02790794302290329
000180 73 62 57 4a 7c d4 71 3f 45 f8 46 51 9d e4 a0 bf
       0.004353032597884099 -0.032994190379654266
000190 b5 51 1a b9 af 12 c0 3f 8d 3f 47 65 29 bf 9f 3f
       0.12557026422713383 0.03100266152051705
0001a0 eb 15 a0 24 58 44 b1 bf 6f 3e f5 ef 3b e8 9e bf
       -0.06744910139249043 -0.030182777901528398
0001b0 90 f3 1e 55 7c c8 93 3f 32 d3 64 3e 39 4c 8a bf
       0.019319479651801752 -0.012840697495087736
0001c0 94 32 8d ac c1 55 b0 bf 7a 01 5e 1a 38 39 aa bf
       -0.0638085409420433 -0.0512177974878822
0001d0 56 ac 80 76 4d 81 51 bf eb 09 b2 e6 12 3b b5 bf
       -0.0010684257959024022 -0.08293264515126679
0001e0 21 ac 7e 11 ee 20 a5 bf 5a 0f 8b ec 8c 9a 76 3f
       -0.04126686061439267 0.005518484577524985
0001f0 54 66 04 74 30 b1 89 bf f6 17 8a f4 67 a0 a7 bf
       -0.012544992962420988 -0.046145676232342156
000200 8d 5e 5a 7b 5e 93 92 bf b0 a0 17 20 e2 61 a1 3f
       -0.018140293387288998 0.033949915330425795
000210 c5 c6 31 d8 2b 05 b4 3f 3a 57 32 8a 22 0e 90 bf
       0.07820390728172828 -0.015678920445302703
000220 db 88 ef 94 1d d5 a1 bf a3 e9 82 e9 94 8c 74 bf
       -0.034829067640900845 -0.005016881645298818
000230 c2 b6 60 cd 62 80 b7 bf d2 47 de 1e 01 2b a0 bf
       -0.09180276407343071 -0.03157809736070728
000240 06 12 e0 b6 30 08 90 3f 6c 0a 0f 2f ae d3 b3 bf
       0.015656243478604302 -0.07744873665709812
000250 24 c5 82 d3 11 44 a1 bf 89 36 49 8a ae 25 aa 3f
       -0.033722455090705844 0.05106873930035955
000260 b4 76 04 b4 4c 77 b8 bf 45 0e fb 87 b6 a1 a8 3f
       -0.09557036776501598 0.04810877237244119
000270 d1 b2 ee a5 13 98 b1 3f ae 21 f1 e2 ac 4e 6b 3f
       0.06872675705990196 0.0033334137620253034
000280 88 4a 0b 78 57 7d b8 3f 7f cc f5 be 52 d7 bb bf
       0.09566256218685443 -0.1087543216906841
000290 9c 13 4c 0c f7 0d a6 bf b1 22 96 10 17 96 8e bf
       -0.043075294734115505 -0.014934711641005323
0002a0 b7 6a 25 6c ab 2c a0 bf fb 53 35 48 e1 5d b5 bf
       -0.03159080214637327 -0.08346374524019488
0002b0 48 38 54 62 87 64 74 3f 4c fa c4 11 d9 3e 65 3f
       0.004978684276705954 0.0025934447895957
0002c0 3c ed 05 14 bd 4d 92 bf 26 7e 5d 9d 16 4b 9b bf
       -0.017874674174419555 -0.026653626780328697
0002d0 49 25 38 75 d7 01 7d 3f 80 fb 63 bc 99 af a3 3f
       0.007081834442496168 0.03844910072984131
0002e0 27 41 32 5f d9 c3 b0 bf e5 07 98 85 68 61 a4 3f
       -0.06548842023972111 0.039805666263432994
0002f0 ff 77 b3 37 02 d3 97 bf a5 f9 14 2c 2d b5 85 bf
       -0.02326587166759708 -0.010599472911619065
000300 3e 7a 23 9f 0f 54 be 3f 5a de f1 8f 1e 8c b4 3f
       0.11847016940326058 0.08026305212285348
000310 bb 0a 8b c8 db 44 af 3f 99 89 b6 22 33 2f a4 3f
       0.061072223883021214 0.039422605502539905
000320 85 1c 5d 8b 5c 8b 9b 3f d9 8a 46 c2 1c 5a a7 bf
       0.026898809438787658 -0.04560937758949075
000330 a1 65 bb 27 71 4a 94 bf e4 63 e9 de 54 38 74 bf
       -0.019815223741579072 -0.004936534429895698
000340 ad 6e a5 9d e1 3d 8d bf 0b 4b 5f db ae f0 ac 3f
       -0.01427818548534473 0.05652376582988524
000350 ba cd 9e 1f f0 ca 81 bf 69 76 7a ba 66 f8 74 3f
       -0.008687854733444012 0.005119706423696615
000360 b0 67 c9 28 5f bb a2 3f fa 6b be 25 6b ed 8e 3f
       0.03658578274617186 0.01510127743659061
000370 5d f5 de 3b cf d9 b1 3f f0 35 af b9 31 8d bc 3f
       0.06972975932781851 0.11152945311842877
000380 1a 50 16 04 42 c1 79 bf e3 e9 91 34 1e 5e a2 bf
       -0.006287820696702107 -0.0358743132755597
000390 7f 48 49 b2 38 21 b9 bf ca 89 ed c3 cd e4 ab bf
       -0.09816316940967516 -0.05448000923822212
0003a0 fd cf 98 c3 c8 92 83 bf 1c 8d e1 fa b4 6e 8b 3f
       -0.009557312459129714 0.013394750505716639
0003b0 3a 6d bb a5 fd d1 9c bf 81 2f 85 6e 5d 37 92 3f
       -0.02814480136917761 0.017789325590725994
0003c0 69 c6 dc 56 ae 70 9d 3f 46 16 69 a8 ea 80 7e bf
       0.028750156451855 -0.007447163231125103
0003d0 30 95 22 7e 34 4c a3 3f 16 bb c1 43 4d 5e 7d 3f
       0.03769077338919613 0.007170011344085811
0003e0 f9 e5 d8 ab df be b4 bf 30 a9 86 d6 80 2c 9c bf
       -0.08103750176896786 -0.02751351651537809
0003f0 23 87 06 e1 d3 64 93 3f 79 75 5b 58 aa b3 69 3f
       0.018939314469782375 0.0031374289563774163
000400 bb 89 d2 33 66 1d a9 bf d7 82 69 bd c3 57 9d bf
       -0.04905242331121281 -0.028655107913780533
000410 e3 76 98 d3 96 ee b1 bf 3d e5 8e e5 30 a0 b2 3f
       -0.07004683175952268 0.07275682072112928
000420 0a c1 19 ab 85 f6 b3 bf e0 24 ba 7d 24 14 91 bf
       -0.07798037936459337 -0.016678400205397348
000430 13 26 54 a5 5d 75 bc bf 59 55 dc 06 c9 80 b0 3f
       -0.11116586004586564 0.06446510713097577
000440 5c 63 24 c5 aa d4 a1 3f 53 69 cf bd 41 33 ad bf
       0.03482564598579671 -0.05703168336886457
000450 ec 31 83 8a d4 c4 a5 bf 24 30 3a 38 83 c9 ad bf
       -0.042517320545446186 -0.05817804395073292
000460 5d 2e 7a 36 ec 27 9c 3f 45 5e b6 2b 2c c6 56 bf
       0.02749604303839558 -0.0013900214533800897
000470 8f 5b e8 84 43 17 ae bf 83 58 bc 03 af fb a2 3f
       -0.05877123830230523 0.03707644386865729
000480 b8 06 16 3a 9b 31 b5 bf 58 ad 6e 96 bf f4 a8 bf
       -0.08278818290821277 -0.04874228202182945
000490 af 84 26 cb d8 ea 8e bf 25 de 86 e6 a0 14 90 3f
       -0.015096372317943666 0.015703691549530902
0004a0 d9 e4 0f b7 eb a5 b9 bf ee af 52 74 25 3b b6 bf
       -0.10018799990929796 -0.08684000101010245
0004b0 28 42 50 a2 28 a5 64 bf 89 8a 72 08 2a 5b bd bf
       -0.0025201600678957 -0.11467230516658779
0004c0 83 3c 07 0e 9b 8f 8e bf 7c ac 4e ad 92 ac b2 bf
       -0.014922343602761018 -0.07294575434814193
0004d0 b5 aa ce 17 64 42 bc bf c5 b8 f2 ac 15 b6 6e 3f
       -0.11038804608566972 0.0037489341117043795
0004e0 11 37 e0 2c 5f 4e a3 3f 82 0e ee d0 ee ee a0 3f
       0.037707304218299716 0.03307291317380835
0004f0 56 07 c7 c3 5c 26 b9 bf 6c 44 13 c2 1a c1 9a 3f
       -0.09824161319468536 0.026127260299123753
000500 b8 b7 ac ee fb 4c a1 bf 8c e5 00 23 27 d4 a0 bf
       -0.0337904671526838 -0.03286859800614214
000510 ef 0d 18 52 03 46 b6 bf 1d e2 a9 c9 21 f7 a5 bf
       -0.08700581316229948 -0.04290109240259119
000520 ac e0 66 b3 7e 0f b3 3f 38 8f 5e f1 fd 9e 8f 3f
       0.07445518379143107 0.015439971855648701
000530 db 72 cd 36 a7 29 ad 3f ca 68 62 89 5b a8 53 3f
       0.056958413543474605 0.0011998075401949298
000540 02 70 57 c5 e6 9b 9d bf 59 cb df 79 a1 4e ac 3f
       -0.028915029330036653 0.05528740513536574
000550 97 a2 7b 47 99 a6 b8 bf 65 d2 d3 56 94 51 b5 bf
       -0.09629209513844682 -0.08327605361757547
000560 24 fb ad a7 77 b9 a7 3f a4 d9 da 5d 8a cc 98 bf
       0.04633687898512154 -0.02421776006550548
000570 8b 3a 3d cc 74 f7 ac 3f ed 2c 11 a6 df a3 9e bf
       0.05657544129518496 -0.02992200327962007
000580 35 37 d8 bc c6 4d 90 bf b1 c1 ca aa 27 5a a6 bf
       -0.015921693111571506 -0.04365657768119336
000590 83 7c 1e 50 25 c8 a1 3f 55 62 9a 5b eb 80 a2 bf
       0.03473011591926769 -0.03613982670976116
0005a0 4b 3f 0c bc f9 35 73 3f b7 4b fe bf 96 7c b2 3f
       0.004690146947510086 0.0722135752423999
0005b0 5e 7f 2f 46 1e 7a a0 bf ed 14 eb 67 fa d6 9c 3f
       -0.032181688373156034 0.028163826553982686
0005c0 83 1d c2 b1 03 85 ae 3f e0 65 b5 ad 61 53 a3 3f
       0.059608569573408786 0.03774552579370627
0005d0 84 a1 7c c9 d7 b8 8c bf aa a0 99 3f 1c 73 70 3f
       -0.014024434887304656 0.004016027780018453
0005e0 12 25 f3 63 e7 66 7d 3f 20 c7 b8 67 48 ef a2 3f
       0.007178214901793172 0.03698183313498604
0005f0 83 6f 04 ea 0a e3 67 3f de f3 ce 2a 15 cc c1 bf
       0.0029158795515637505 -0.13904060926679923
000600 38 0a e2 3b 04 4c 6e bf 5f e3 10 27 c4 81 9e 3f
       -0.0036983568853099745 0.02979189384879832
000610 d0 63 8b 0a 65 87 9b 3f 4e 81 bb 71 01 19 ad bf
       0.026883677261910155 -0.05683140290580245
000620 6c f0 7a 00 6d cb 76 bf ae c9 42 9f f7 b2 86 3f
       -0.005565095699861283 0.011083540485150003
000630 ad c8 1d 47 36 26 92 3f 3d 16 30 ec 16 ee 92 3f
       0.017723892298314215 0.018486364522706678
000640 e6 60 61 01 fa 45 91 3f e8 8e aa c4 ad 02 ad bf
       0.016868501981975557 -0.05666106248579955
000650 33 79 f9 d8 b0 8b 8d 3f 4c 7d ef 0a 8b 64 a1 bf
       0.01442659532693522 -0.0339702082489973
000660 cb a0 ca 6e f5 9e 87 bf 9b f2 49 7d fb bf 85 3f
       -0.01153365845068812 0.0106200835809827
000670 0f 0c ae f0 bd a0 b1 3f ad ef 17 66 8b 1e a6 3f
       0.06885897756551194 0.043201786243997155
000680 0d d4 ea b4 83 19 ad bf 17 b0 6f 49 f8 47 9b bf
       -0.056835285029059525 -0.026641730768389573
000690 d0 63 e8 13 7d 01 98 bf a1 f5 72 13 07 56 9e bf
       -0.023443178501199757 -0.029625044405056426
0006a0 25 5f 0c c0 c8 b8 6f 3f f6 f2 8c d8 ea bb ac bf
       0.003872291650974707 -0.0561211957305882
0006b0 72 20 48 97 eb 4e 9a bf a4 2e 43 91 9b 66 96 bf
       -0.025691681965355824 -0.02187579225646509
0006c0 72 b1 fd 58 8e 05 ae bf f5 7d 04 a6 e1 fd 92 3f
       -0.05863613926234991 0.01854660583296482
0006d0 e2 fe da fd 22 5d 86 3f be 9b 55 e9 79 15 b7 bf
       0.010919831630757885 -0.09017145105973065
0006e0 04 30 34 ca db 25 a6 3f f7 6a 7a ce e8 b9 60 bf
       0.04325758784588632 -0.0020417735102687923
0006f0 ae fd ea 5e 30 6c 97 3f 71 a5 e6 34 bf 7d bb 3f
       0.022873645585375683 0.10738749543692962
000700 02 6a 8c 24 8a 48 95 3f 26 43 ae f0 34 d0 b1 bf
       0.020784529190772012 -0.06958323360437343
000710 af 85 ca 9d 8f 5e 9d 3f 13 41 ea 6a 62 0b 8d 3f
       0.02868103409367045 0.014181870353497083
000720 fa e3 f3 95 99 76 af bf 79 db c3 ae ea 13 a4 bf
       -0.061451720766804344 -0.039214452584864064
000730 3f 9b 27 fc 6b d9 8d 3f 18 97 01 62 95 c3 b3 bf
       0.014574855454112188 -0.0772031177781084
000740 91 d9 80 0a ac 44 9c bf f4 4d d2 f2 76 cb aa bf
       -0.02760571302516152 -0.052333562032028796
000750 0d d1 98 90 6a 4e 9b bf e1 fb cb f1 9c 19 9e bf
       -0.026666321826454942 -0.029394581087213715
000760 b0 fc 76 8a 68 eb 74 3f 0b e3 81 14 a3 c3 af bf
       0.005107315409474442 -0.0620394670995151
000770 10 fa 13 c6 0e 8d 96 3f 01 1c 20 cb 9a 3f 94 3f
       0.0220224674603689 0.019773882530014223
000780 04 b6 69 1d 42 54 b6 3f 0e 5a c9 4d 4b 76 c3 bf
       0.08722317903603743 -0.15204755113764218
000790 9d 4d c9 2e b7 e3 a5 3f f1 73 30 82 a4 67 ab bf
       0.04275295683023759 -0.053525105373615996
0007a0 6c 50 b6 3a da 4f aa 3f 72 51 48 26 6c 12 ba 3f
       0.05139047590924481 0.10184360441809817
0007b0 ca 4d d1 5b 0b be ba bf 9a bd 01 0e ad 78 b8 3f
       -0.10446234695091686 0.09559136955225825
0007c0 54 66 66 ee 4c 5f aa bf be 1a dc b3 ae 69 95 bf
       -0.05150833521038281 -0.02091095898415562
0007d0 8a 86 52 2b 82 2c a0 bf 29 11 e3 e3 61 89 aa bf
       -0.03158957270467251 -0.05182939440558904
0007e0 74 13 79 66 7f 53 c1 bf 42 c0 d0 c3 90 97 b1 bf
       -0.1353606462818352 -0.0687189558091186
0007f0 bd 13 51 93 52 38 9e 3f 05 c4 7c 5a 9b c8 6f 3f
       0.02951172851705385 0.0038798364875209956

weights_hidden_output f8 [128, 10]
000000 7e fe f5 59 aa 08 cc bf 12 0d 17 46 cf 8f 85 bf
       -0.21901444809553888 -0.010528201414564484
000010 25 03 3a f4 6a f4 84 3f 6e 3d 0a b9 cb 7b b5 3f
       0.010231814935879388 0.08392022388055917
000020 59 eb 24 0b ae 79 8f bf ea cd 98 5f db fd a8 3f
       -0.015368804659933554 0.0488117746539521
000030 d5 06 b9 88 f5 38 ad 3f 2b c0 16 43 88 1e cd bf
       0.05707518857935915 -0.22749427104781836
000040 25 e9 9a b8 74 f2 bd 3f 95 9a 39 45 18 92 bb 3f
       0.11698083407364786 0.1076979798323044
000050 0f ec 92 3c 4f 17 b1 3f e2 42 bb 0a 3a da b1 3f
       0.06676192501883825 0.06973612558364153
000060 8e 4d 6f 10 23 6a c4 bf d1 92 8c 7f 8a 7f a3 bf
       -0.15948904325942376 -0.03808243567462955
000070 4d 90 ed 4c cc 84 ac 3f dd 76 70 30 48 ef d2 3f
       0.055700668707488 0.29585461359407167
000080 45 a2 43 d1 fa 4f db bf c3 ac 4c e7 87 38 db 3f
       -0.42675657688099405 0.42532537067263493
000090 fd f1 b0 e1 50 d9 e3 bf b7 ca 36 e1 4e 9b c7 3f
       -0.6202778251677611 0.1844271278074154
0000a0 37 3c a9 2d 08 0c ad 3f d4 29 c3 7b 8e 82 bf 3f
       0.05673242146860285 0.12308588525335235
0000b0 ef 16 31 1f f7 fb b8 3f 15 af cb dd 5b 38 c1 3f
       0.09759468566434369 0.1345324357019925
0000c0 8e 2d f4 94 b0 e6 86 3f 54 ee f9 eb 10 a1 73 bf
       0.01118219332285866 -0.004792276478493191
0000d0 44 38 9c 85 73 50 e1 bf e6 bf 31 6f 36 0f c1 3f
       -0.5410707101416468 0.13327675275240763
0000e0 18 26 bb c4 f9 ec b3 3f d7 15 ba 08 6d 98 be 3f
       0.07783471158031607 0.11951333487566927
0000f0 7b b3 b3 06 2a 95 a6 bf a0 fe 20 d9 4b b4 b9 3f
       -0.04410678226290706 0.10040735293386627
000100 81 3d 15 e2 0e f6 af bf 99 a6 07 9d 30 da b2 3f
       -0.06242414960672261 0.07364181359994361
000110 a6 c6 db 8f b6 cf d6 3f 45 b6 bc a9 64 cb a2 3f
       0.356427803503815 0.036708017082088186
000120 82 40 d2 18 d3 70 bd 3f 92 b9 43 65 b6 63 c2 bf
       0.11500281673420612 -0.1436679834800541
000130 d8 68 13 3c 14 02 90 bf 04 ff 2c 47 bb 35 b5 bf
       -0.015632930914628 -0.08285112846078496
000140 3a e4 7f 48 64 5e a0 3f cd 87 07 cb 9f 85 bf 3f
       0.031970151758237766 0.12313269335530137
000150 b0 f9 b7 13 b9 1c cf 3f 58 89 71 a5 3f 37 cd 3f
       0.24306405508828055 0.2282485540227508
000160 2e 9f 49 8b 25 35 9b bf f8 0c 58 66 92 a2 ac 3f
       -0.026569925905646823 0.055927824967534734
000170 cf e8 7e ae c4 69 ce bf 7c ad a1 6c bd 34 d6 3f
       -0.23760279197978781 0.3469689904074682
000180 2c 0f a0 81 5c ce ae 3f b7 1b bd 04 95 4c e1 bf
       0.06016816217746021 -0.5405984013130966
000190 bd c5 de 36 d3 b5 bb 3f b4 e9 84 cc 1a b2 ad 3f
       0.1082431801758252 0.05799945589611202
0001a0 c8 b5 f3 45 15 3d b4 3f 4f 70 18 a6 a4 71 a2 bf
       0.07905705411732022 -0.03602327849895969
0001b0 ac f7 d4 eb 07 0a c1 3f 9f 05 54 f4 5c 47 c5 bf
       0.13311862006406494 -0.16624032907570283
0001c0 3e 9b a3 87 82 e3 aa 3f e7 0b e6 35 50 8a b2 3f
       0.05251701265097218 0.07242299381145721
0001d0 1b ca 65 75 f2 a1 b5 3f d5 33 78 8e 8e af c1 3f
       0.08450236669686044 0.13817007023354103
0001e0 ca c1 19 8c c6 99 b2 3f ea ac 2b 42 5a 99 73 3f
       0.07265892906594398 0.0047849202844460845
0001f0 71 7a 6c 34 0a b9 a6 3f 5d 2e 5d 76 2a be c0 3f
       0.044380492114432075 0.13080340175143848
000200 89 43 eb 72 bf 9d bf bf 39 a7 f8 8f b0 93 c2 3f
       -0.12350079112662916 0.14513213186119758
000210 62 2f 79 17 60 e9 b9 3f 98 3f ad 9e ec 44 c9 bf
       0.10121727536278294 -0.1974159025944544
000220 3f 37 62 f3 f7 2e 89 bf 79 b7 4c ae 6c a7 d3 bf
       -0.01229661666391346 -0.30709378262951464
000230 f0 6d 31 f5 53 71 d0 3f ba fa 15 07 49 7b 7a 3f
       0.2569169897521695 0.006465230240222547
000240 b7 b9 bc 99 75 11 b2 3f c0 4f 30 56 35 ab 8a 3f
       0.0705789089522345 0.013021866505404378
000250 4c ba 00 a6 32 cb 83 3f 96 9f 3e a2 68 dc d7 bf
       0.009664912882809372 -0.3728276810093062
000260 a6 37 c1 dd b3 91 b6 3f af f0 8c b0 e5 10 a2 3f
       0.08816074527677972 0.03528516559751559
000270 58 0a 71 9b b0 ef 97 bf c4 ed 4b b0 9d 5d a7 3f
       -0.023375281798744346 0.04563610817964617
000280 61 b0 db c5 23 c0 90 bf 27 7c 4c 67 b7 19 95 3f
       -0.016357954932502475 0.020605912856918842
000290 84 f9 45 d2 98 63 a1 bf 09 db 85 e8 a9 49 d1 bf
       -0.03396298949063506 -0.27012107569991933
0002a0 7c 77 73 83 1f fe b4 3f 4c d8 98 7b 7c 06 7b bf
       0.08200261077169374 -0.006597982655469247
0002b0 30 da cd 08 ad 16 bd 3f 02 4b 9e 7c 78 71 a2 3f
       0.11362725701278786 0.036021962368201
0002c0 d5 74 51 17 20 05 7c bf 1b 7b b0 32 64 ba b2 3f
       -0.006840825420195891 0.07315660703214315
0002d0 1c 93 77 39 08 4c bd 3f 9f 80 32 d9 ae 57 99 3f
       0.1144414081860074 0.024748546606702445
0002e0 50 e2 ec a4 b2 58 94 3f 44 4b 46 c8 b3 a6 c0 3f
       0.019869605365985088 0.1300873496917011
0002f0 8f ab f5 97 d9 6a b9 bf 84 34 d7 94 11 cd b7 3f
       -0.09928665122940415 0.09297284969143688
000300 12 d6 93 ac 25 7b bb 3f c8 76 18 53 a6 e5 d0 bf
       0.10734782660787115 -0.264016705654154
000310 3d f2 df 5c 50 f7 be 3f 16 b0 64 26 08 6b a9 3f
       0.12096121089411667 0.04964471310299261
000320 86 e1 2b 7c ba 32 9a 3f be 28 fb 39 8d 5a d6 3f
       0.025584138706990632 0.34927683508125174
000330 65 ef d7 b9 c4 01 b0 bf 80 b2 fc a8 c3 9b 91 bf
       -0.06252698456949941 -0.017195756138948415
000340 a8 3e 13 f4 c4 bd a6 3f 89 55 d2 d1 7e 27 ae bf
       0.044416575235684264 -0.058895075905790746
000350 22 0c c0 ef df 59 88 3f 08 7a 16 7d f1 ef b6 3f
       0.011890172485442167 0.08959874442960125
000360 35 82 ed 34 55 21 d7 bf be 5e 3c ce 6a 38 a8 3f
       -0.36140947502829884 0.04730542914893253
000370 20 b7 49 fc 0b ae da bf 1d 25 98 63 ad db c5 3f
       -0.41687297475333374 0.17076651919368482
000380 68 93 7a 34 ba 3f be 3f cd 6c df 1d 9c 2f aa bf
       0.11815990239354124 -0.05114448418290749
000390 b6 59 8b 2f b2 f4 b0 3f 39 3f f1 b9 c5 9b d8 bf
       0.06623376522779875 -0.38450759085116065
0003a0 b6 be 83 02 47 ce c6 3f 6a b9 0b f6 94 c5 b1 3f
       0.17817008612427337 0.06942111021974076
0003b0 1e 9b 05 41 82 15 c5 3f 40 1a 46 c6 26 17 76 bf
       0.1647188966264474 -0.0053931727055727685
0003c0 ab f4 2a 4e 62 aa a4 bf c5 f9 b4 fb f2 a9 d0 3f
       -0.0403624267978356 0.26037287312274443
0003d0 cf bd 96 97 02 03 a7 3f 19 cc 5d 0c db 1d c7 bf
       0.04494484043550139 -0.18059862235858828
0003e0 2d c0 90 3a 7f e9 bc 3f 42 f2 6d a5 ac 4d a8 bf
       0.11293788127727629 -0.04746760863688283
0003f0 64 a2 ba e3 1d 52 95 3f 98 53 82 f3 ea 74 be 3f
       0.020821063065030634 0.11897152371450515
000400 b4 07 b6 4c a9 9a be bf 02 08 fd b8 1c 71 b4 3f
       -0.11954744456127636 0.07985095516508525
000410 9e 17 27 f2 5d 1f a3 bf 79 05 ec 1b 76 c2 94 bf
       -0.03734868603673579 -0.020273061231824017
000420 ed 28 d4 52 a4 7a da bf 94 ea aa e5 91 e9 ad bf
       -0.41373546684975687 -0.05842262199935991
000430 90 09 2f 26 38 0d 9f 3f 42 18 d6 cc e1 2e aa 3f
       0.03032386525206615 0.05113893151705941
000440 dc 60 a3 5f e2 48 b6 3f 6d 20 e4 a7 c9 1e a3 bf
       0.08704962572972214 -0.03734426664783617
000450 cf 1c 79 a7 fa 41 88 bf 74 11 ff 1f 22 e6 a0 3f
       -0.01184459518039063 0.033005777746015236
000460 98 ce f7 8f 2a 08 8d 3f 9e 7e 6a c4 80 24 c9 3f
       0.014175732153467721 0.19642648306488736
000470 88 e2 06 e9 47 2d 7f 3f 20 61 76 f0 02 35 67 bf
       0.007611542605837081 -0.0028328950317694362
000480 8b 24 47 80 72 cd 95 3f 8f bd 98 c9 fd b1 9c 3f
       0.021291531638585808 0.028022733144266673
000490 37 0e ab 0e ce 27 c9 3f 12 b6 22 66 8c 27 9a 3f
       0.19652724949092867 0.025541490301000343
0004a0 a7 28 e5 67 5a a4 d7 bf da a6 09 1c 4f bb d4 bf
       -0.3694063200570192 -0.323932435398644
0004b0 9c 5e e7 ae e0 f7 b0 bf ac 4b d8 64 3f 97 c2 3f
       -0.06628231306182858 0.14524071144168482
0004c0 a9 21 17 a4 3c 62 c7 3f 4b e9 ed 4e 9c fe c5 3f
       0.1826854516241501 0.17183259824725847
0004d0 5c 41 7b 96 44 75 ce bf 95 4a 13 f9 24 27 79 3f
       -0.23795373294570765 0.006140846658314066
0004e0 3b 93 13 23 06 74 bc bf 9b 5a 61 2d 53 5a ce 3f
       -0.11114538532599465 0.2371314975341264
0004f0 50 81 55 46 2b 54 bf 3f e2 0a e9 c2 37 99 e2 bf
       0.12237806765688686 -0.5812033469049676
000500 da f2 e9 30 50 34 be 3f 51 b1 93 24 25 69 cc bf
       0.11798573679147797 -0.22195877347929607
000510 7d fb 0b 52 c5 7d bc 3f b7 39 2a db eb b6 83 bf
       0.11129410985084394 -0.0096262384661515
000520 3d 46 ea e8 3a 02 bf 3f e8 28 7f 22 c5 b4 8f bf
       0.1211277788773026 -0.015481510272270474
000530 f7 a3 3e 35 c1 31 b9 3f d5 11 ca 11 ac d9 c7 bf
       0.09841544675749946 -0.18633032673473218
000540 78 35 16 57 e9 5e b2 bf d4 85 7c 5d d5 76 c0 3f
       -0.0717607343305725 0.12862650933042963
000550 36 e1 86 dc d7 09 c3 3f 3c 4c 4c e5 0a b2 a7 bf
       0.14873789089120643 -0.04628023194359129
000560 0f e6 5a 18 17 25 c1 3f de 48 12 da 39 43 c6 3f
       0.13394440354549927 0.1739265742112996
000570 93 f9 8f 18 73 25 e0 bf 55 7e 60 31 57 f7 c5 3f
       -0.5045714835867322 0.17161073599798962
000580 1d 1c d8 40 8a 5e c8 bf dc 8b 38 ae e1 8c be 3f
       -0.19038513342113186 0.11933718207778504
000590 15 9c b7 ac a2 93 b8 3f 72 ab be 04 e3 18 b3 3f
       0.09600273815850387 0.07459849229659968
0005a0 0b 9d a8 11 66 55 cb bf 9a 42 b7 57 61 8e c3 3f
       -0.21354366171110714 0.15278260024071671
0005b0 fd 20 38 25 32 c7 b6 bf f8 04 b7 98 8f 33 a9 bf
       -0.08897698792145899 -0.0492215036315517
0005c0 bb 1b ab ef 80 d3 d8 bf 1a 82 f5 dc 26 c9 d4 3f
       -0.3879091587554588 0.32477733209637594
0005d0 5c 53 6e 30 5e 11 cf 3f b4 52 80 b9 38 43 c3 3f
       0.2427175270537657 0.15048893983534628
0005e0 2c 34 9b 1b 0f e5 c0 3f 2c 56 79 d4 71 f7 bc 3f
       0.13199032638513708 0.11315070569374858
0005f0 9e e7 fb 56 d7 62 b2 3f 0e 56 f5 31 0b 30 aa 3f
       0.0718206965792931 0.051147794578963
000600 b6 47 f4 42 2a 9d c2 3f 49 61 b1 5f 8a 90 c8 3f
       0.14542129773377405 0.19191102669243268
000610 67 f6 de f7 84 a1 de bf 49 2b 29 d0 a0 0c c8 3f
       -0.4786083622565002 0.187885381356262
000620 1b de bf 4e 55 ef d5 bf bf 07 75 ae 4e a8 a4 bf
       -0.3427327412641447 -0.04034658317188144
000630 94 62 34 6c 84 8e bc 3f bc 9c e6 ae b3 85 c5 3f
       0.11154964105333881 0.1681427577979998
000640 49 b8 d7 97 bc 09 c6 3f dc fe f0 89 21 80 a7 3f
       0.17217214025680708 0.04589943703512997
000650 6f ae bf dc 76 9a b9 3f 66 fd bb 31 b8 32 77 3f
       0.1000131882607833 0.005663604267965061
000660 da 53 6d 78 06 fd e1 bf 4b 91 e5 28 fb 07 c2 bf
       -0.5621368743983297 -0.14086856362258468
000670 b9 2a e4 4e 5a 60 a5 bf 36 f4 9c 70 ba 7a a2 3f
       -0.04175073826816828 0.03609259247466705
000680 7e 73 f4 bc e3 9d 76 bf 82 6e 29 c1 16 36 98 3f
       -0.005521669008229034 0.023643832721389042
000690 a5 fb 47 24 a8 27 b3 3f 5d ce ef 0f 88 e2 c9 3f
       0.07482386480113108 0.20222569254075298
0006a0 74 59 bc 30 6f 9f c3 bf 74 f4 ab 66 e1 95 d3 bf
       -0.15330304984736254 -0.3060229780820187
0006b0 38 5a 7e 74 90 e5 c2 3f 08 7f 59 21 33 c0 8b 3f
       0.14763074577486335 0.01355018563771139
0006c0 ed 41 67 db 6c b3 af 3f 4a 2e 5e d8 47 eb b0 3f
       0.061915780813823186 0.06609009773654254
0006d0 b2 c2 81 1f da e5 93 bf 7c fc 4f 4f 74 0b ad bf
       -0.01943150346091 -0.05672801464242469
0006e0 fa f6 c3 9a f4 61 a2 3f 05 1b 6f cc 4a f5 c2 3f
       0.03590359105326786 0.14811072332505418
0006f0 ad 51 37 cf 5e e3 c2 3f 7b d6 f8 d5 55 ed c0 3f
       0.147563792400104 0.13224289844372436
000700 23 51 30 2d ca 36 cb 3f fd 39 0e 9a 3c f0 d2 bf
       0.2126095505378852 -0.29591288609017835
000710 26 4d 2a e1 0c b6 e1 bf 59 ee 5b bd 54 89 c4 3f
       -0.5534729383238399 0.16044100996065216
000720 90 9d af f3 ec 53 b0 3f e5 08 99 8d 68 88 c3 3f
       0.06378060292592225 0.15260035432772337
000730 d7 e6 5e 54 8e f8 91 3f 42 12 9d f8 d5 d8 c1 3f
       0.017549728297786196 0.13942980422338463
000740 27 c4 39 df 7f a8 cf bf b0 36 f3 10 d4 57 cf bf
       -0.24732969665231616 -0.24486780955924337
000750 95 1f 79 57 76 09 c7 bf 7e 66 f7 2e 12 4a bd 3f
       -0.1799762656321461 0.11441148420944988
000760 5d ed 55 47 0b a5 b8 3f 50 71 3f f2 62 31 9b 3f
       0.09626837245553106 0.026555582080491746
000770 73 e6 34 58 47 1d 81 3f ba a4 5f 2f 29 a7 9b 3f
       0.00835662591872508 0.02700485564847519
000780 79 f8 ef 74 87 b0 be 3f 1e 71 1d 9e 70 4b 9f bf
       0.11988112072865133 -0.030561217928480315
000790 a6 b9 0a a4 87 5b b2 bf 11 9d 87 26 38 d6 a5 3f
       -0.07170913462571224 0.04264998884519334
0007a0 9e 12 96 a2 97 eb c2 bf be 1a af a0 8a 04 b9 3f
       -0.1478147071722064 0.09772554800938857
0007b0 74 5b 1d 7b 23 3c bd 3f 1e b3 1b b4 62 6b ca bf
       0.11419889217118656 -0.2064021472391681
0007c0 cb ab 24 96 2c b1 ba 3f d2 53 26 d4 fc dd b3 3f
       0.1042659632263813 0.07760601214825094
0007d0 b6 31 0a 70 94 e3 c2 3f 97 a6 91 7a 03 61 95 3f
       0.1475701853818358 0.020877889972700982
0007e0 59 51 ed 9a 32 f4 e4 3f a7 b0 d2 b8 b1 43 c7 3f
       0.6548092866819771 0.18175336384354532
0007f0 aa 9e f5 ae d4 2d d3 bf 35 ea 33 f1 a6 6b 73 bf
       -0.2996722897137071 -0.004741336935007602

bias_hidden f8 [1, 128]
000000 18 50 36 5b 1f 09 bc 3f f6 b7 2a 3f 22 41 da 3f
       0.10951419808253637 0.410225450216671
000010 07 47 7d e7 9a 61 cf 3f b8 d0 63 29 e5 94 93 3f
       0.24516617110435154 0.019122677470435362
000020 fc b6 05 d4 71 29 b1 bf ba 87 3a c8 53 89 d1 bf
       -0.06703864504171614 -0.2740067916257619
000030 8f 5f 0c 27 2b d2 c2 3f 4e 7e 45 cc 9c 86 95 3f
       0.14703883558899775 0.02102131840490378
000040 01 bf bf 96 bf 7d b7 3f 61 e8 a6 fe 01 67 c5 bf
       0.09176251821895322 -0.16720604833773492
000050 00 5d 2c 6d 55 65 d1 3f 12 88 9c b7 b7 06 c3 3f
       0.27180991803602694 0.14864250626948255
000060 4f e6 4b 8b 85 e8 d1 3f c3 93 30 39 40 01 c2 3f
       0.27981699565097967 0.14066317360371103
000070 b4 6f 3b 91 f4 17 e9 3f 90 be 13 9c bc c6 db bf
       0.7841742359701045 -0.4340049289885224
000080 29 97 3b a6 2c 32 c4 3f 7a bb 85 55 c2 49 72 3f
       0.15778120152315836 0.004464873425930155
000090 5a 23 6f a7 73 7b 96 3f b3 de fb b6 90 1f a8 bf
       0.021955306143158416 -0.04711582406701833
0000a0 2d d2 45 ff 79 32 ab 3f b4 9c 3a f4 4b c2 d0 3f
       0.05311948052522939 0.2618589291618705
0000b0 13 95 ee 22 73 2f c5 bf b9 f9 56 55 a7 bb dc 3f
       -0.16551055150663582 0.44895346960029375
0000c0 6c 24 a8 62 d8 1b 64 bf b5 6e f8 84 10 0b a4 3f
       -0.0024546839024464553 0.03914691565679843
0000d0 ea 84 6a a8 1c fe c2 3f 63 01 be 23 4e fa bc bf
       0.14837988112871098 -0.11319435474979893
0000e0 dd 97 b3 01 0a aa d0 3f eb fe e4 13 ec ba 81 bf
       0.2603783623329699 -0.008657307011730583
0000f0 04 14 9d 04 61 cb c8 3f 15 1f c8 f1 b4 52 d3 bf
       0.19370663380883013 -0.3019230233335162
000100 b0 f9 db 04 6a 48 c1 bf b9 75 99 76 97 a4 e4 3f
       -0.13502240407247035 0.6450917545695837
000110 65 8e d0 7d 34 73 c2 bf 22 28 4d 1d 18 fe c0 3f
       -0.14414077895445412 0.1327543395112239
000120 34 f5 7c d9 e8 82 de 3f 9c dd db 1b f6 28 cd bf
       0.47674008597444417 -0.22781254158301756
000130 71 fb e4 98 02 29 d1 3f 7c a4 26 07 e3 69 a0 bf
       0.2681280606374719 -0.03205785238544309
000140 c3 ce c0 f2 de 0b ba bf 1f a6 0a 28 ff c8 bc 3f
       -0.10174363543120095 0.1124419663198286
000150 7b 15 d3 03 72 90 d0 3f 05 7a c3 b4 0f 36 c4 3f
       0.2588162457799041 0.1578998215326949
000160 d3 1a b4 49 44 8f ba bf 84 fd 36 b3 df 36 e2 3f
       -0.10374857711222356 0.5691984653748681
000170 c6 1e 62 ef 02 4b d4 3f 0c d6 6b 25 72 7f cd bf
       0.3170783364989628 -0.23045183970650418
000180 35 23 7a 01 04 0c c4 3f b6 29 53 ed 3e 55 dc 3f
       0.15661668846248636 0.44270299125914947
000190 87 35 82 5e a1 14 e1 3f 58 36 4d 11 ef 29 d0 bf
       0.5337683530685106 -0.2525594395600357
0001a0 81 56 9e 10 bc 02 b4 bf 31 1b 27 8f ed 2c c8 bf
       -0.07816672712064056 -0.1888710926998214
0001b0 54 de a1 2b 83 12 be 3f dd 24 9a bc 27 8e c8 3f
       0.11746997657052677 0.1918382330807508
0001c0 c7 40 9e d1 c2 af d8 3f 1d 22 2b 60 88 40 9f 3f
       0.385727600770235 0.030519610280665178
0001d0 de 72 12 f1 89 0e b5 bf 77 1d 3f bd 6b 19 c5 bf
       -0.08225309501217334 -0.16483828297189593
0001e0 66 c0 8f 5e fd 6c d6 bf b8 e7 4a 31 b2 2d d5 3f
       -0.3504022048427998 0.3309140664456396
0001f0 96 14 57 11 b8 81 d8 3f 70 df 18 a9 db 20 da bf
       0.38291742032408516 -0.4082554961528251
000200 78 85 9d 29 e4 4c cb 3f 03 d6 ad 0f e3 f0 d0 3f
       0.21328403503416005 0.2647025731197063
000210 f4 3a 9d a5 3c 6f d8 3f 24 99 ee fd 76 8d d8 bf
       0.38178936169872135 -0.3836343269162106
000220 a3 e0 48 23 70 16 c0 bf ad b7 f6 33 0e 17 dc 3f
       -0.12568475458988812 0.4389071948488617
000230 77 22 4b 05 fe c9 d0 3f 10 70 44 f9 81 bc a2 bf
       0.26232862965529286 -0.03659444969000003
000240 23 7d 45 20 f0 e4 a4 3f f2 1e 49 9b 83 1b 8b bf
       0.0408091582673882 -0.013236072708550737
000250 e7 25 9f d7 d4 9a b7 3f bf 12 41 93 a6 f5 cc 3f
       0.09220628990365008 0.22624666395326717
000260 64 36 4b 11 b5 54 d7 3f 6e d4 f5 86 40 e7 d1 3f
       0.3645451229939225 0.2797395055743611
000270 fe 8a 8f ef 85 1f dd 3f 20 16 6f 33 31 ab bf 3f
       0.455049022623072 0.12370593553267684
000280 90 e2 d0 1d 93 ad da 3f 88 4d f2 fb ee c1 14 3f
       0.41684415733065183 7.918378013221071e-05
000290 59 e2 03 cd 70 3f bf 3f 9d 4e 2c 46 f9 ee d4 3f
       0.12206177716496693 0.32708579876746474
0002a0 77 78 04 c9 25 c5 90 3f 6d 73 91 fd a6 26 d4 3f
       0.01637705840504863 0.31485914957538946
0002b0 08 fe 18 b1 86 5f e4 3f 5d 0e d9 b0 9d 12 d6 3f
       0.6366609057367336 0.3448862292318376
0002c0 70 66 18 b7 93 e1 b2 bf a0 b5 4b 1e c3 1e cd 3f
       -0.07375453205204408 0.22750128726276575
0002d0 e0 3b c1 5b 17 d2 c0 3f 70 51 05 3d 96 b9 98 3f
       0.1314114759465772 0.024145457720196217
0002e0 94 92 d1 ff 8a 8b 9b 3f 2e af 1d b9 3f d9 a4 3f
       0.026899501670771445 0.04071997770992507
0002f0 a1 9c e1 89 bc 1f a7 bf 38 f1 a2 3e bc 07 b6 bf
       -0.04516400511857311 -0.0860555317803503
000300 18 53 19 33 eb bc bc 3f df fe 0c bb 14 6e d6 3f
       0.11225767133266762 0.35046880976368117
000310 19 41 1a 17 c1 51 c1 3f 18 7c 78 9f ea 18 e2 bf
       0.13530744197897418 -0.5655415644322401
000320 08 28 4f 51 b9 12 b2 bf 70 7a d1 8c 26 0b b5 3f
       -0.07059820399368288 0.08220139444299845
000330 35 84 6a 97 76 e6 60 3f 95 46 e7 65 2b de d9 bf
       0.002063018440211307 -0.40418515159135754
000340 40 5d 1b f6 92 f7 86 3f 69 51 90 16 52 01 cf 3f
       0.011214397559725087 0.2422278032469294
000350 c0 6e 94 44 fd 3b d0 3f cf e3 d8 90 2e f7 d0 3f
       0.2536614579891925 0.2650867857478802
000360 20 ba 3e 77 36 a9 d2 3f 7e e7 36 a1 56 da a0 3f
       0.29157792706510754 0.032915789775372226
000370 5f be d1 31 79 62 b1 bf c2 7e 2b 4e 40 96 cf bf
       -0.06790883508960509 -0.24677280251397887
000380 52 61 80 93 f1 78 c5 3f 93 cd 11 7e 42 2f a0 bf
       0.16775340749951312 -0.031610563172672766
000390 36 f6 76 80 e8 b4 ba bf 50 dc 4d bb 3b 9d c1 bf
       -0.10432294021935537 -0.13761088033399682
0003a0 a2 4a 7b ac e6 f5 b4 3f cb b2 fc 4a cc b1 b1 bf
       0.08187715254761455 -0.06911923247089218
0003b0 00 b0 15 7c 9f 49 c6 3f b8 ae 57 0b 9e 6b a8 bf
       0.17412179526161253 -0.04769605530222293
0003c0 58 a8 30 a5 0d 26 ca bf 76 4e e2 fa 04 0b cf 3f
       -0.2042862946121342 0.24252378702350413
0003d0 f0 b1 3a c5 8f 3f de bf 9e 93 af 62 2c 82 87 bf
       -0.47262949238464014 -0.011478754769948026
0003e0 e1 a5 21 36 f0 ea a9 bf 98 f2 c2 12 bc c6 ca 3f
       -0.05062056217941425 0.2091899005516964
0003f0 2f 03 df 47 d3 36 ca 3f da 97 43 14 6e 84 ba 3f
       0.20479813584645387 0.1035832213852638

bias_output f8 [1, 10]
000000 3b c5 73 15 1b 8b da bf 0f 96 a6 13 5c be a6 bf
       -0.4147403439993302 -0.0444210790622429
000010 10 2e 66 e8 90 f4 d6 bf c3 91 9c e0 01 f7 cb bf
       -0.35867712683895636 -0.21847556559909095
000020 d6 dc b4 53 fe 5e d9 3f fc 5b 92 f6 9d a3 d0 3f
       0.39642294096433994 0.2599863918234744
000030 ad be d5 95 1b 36 b0 bf 31 36 61 b7 e0 6e da bf
       -0.06332561882094963 -0.41301744373490396
000040 f4 7b 90 18 dd c3 f0 3f e8 c1 2a 3e 61 85 c8 bf
       1.0478182754084147 -0.19157043014048658
