models/model_cv_digs (30).npz (npz, 815236 bytes, 4 tensors)

weights_input_hidden f8 [784, 128]
0	0x3fb2cce50e999e55	0.07343894583174777
1	0xbfbfcce80cb8d33d	-0.12422037420840311
2	0xbfb63c14f70f5f00	-0.08685427695979442
3	0x3faf7f35d58c804f	0.0615174124889114
4	0x3fb9739cb644f274	0.09942035150465661
5	0x3fb48267f3fd30b9	0.08011483866465853
6	0xbf94599ca571975b	-0.019873092267878572
7	0xbf84f5e4c61f0057	-0.010234629913498034
8	0xbfb95241e33d5887	-0.0989113979133852
9	0x3f8d401e2c567dda	0.014282451370319405
10	0x3fa52594d842b102	0.0413023485174069
11	0xbfb1d746e710e2df	-0.06969111577280838
12	0xbf788dc8ec81f208	-0.00599459157831151
13	0xbf62057d70a7a9d2	-0.0021998834611072016
14	0xbf981d6ccc4fd321	-0.023549747438624927
15	0x3f916471a64d68e3	0.016984725737850048
16	0xbfb4812a289052bf	-0.08009589662863002
17	0xbfc02a7170722992	-0.12629526129269358
18	0x3f92f4c29de070ac	0.018511811147718646
19	0xbf9079b45a1521b8	-0.016089265821649795
20	0xbf9361297da2bd5c	-0.018925331395334907
21	0xbfa87b1670b358e3	-0.047814084298509994
22	0x3f98742c9780d5b7	0.023880669352555475
23	0x3f7ff4f3ae4a65ab	0.007801963690007889
24	0xbfa2045578ccc6f0	-0.03518931483848842
25	0xbf92e680fd7e2872	-0.01845742747494978
26	0x3fa333719a6bfe75	0.037501859760593094
27	0x3fb1ace32fae0476	0.06904430307442219
28	0x3f91d43bb4df751d	0.01741116801701025
29	0x3fa1d2593cca3df9	0.034807957335143365
30	0x3fa1f78e39e7a8a4	0.03509182412001735
31	0x3f97274b8decc668	0.02261083654156551
32	0x3f76bfc1c8244422	0.005553967437905734
33	0x3f48e643d41a41ae	0.000759871596715247
34	0x3f9a73720edc3703	0.025831014782901295
35	0x3fb2e4e2fe28886a	0.07380503373181715
36	0x3f7e2a106c798aa9	0.007364334254449525
37	0xbfaaa5a856490e7c	-0.052045116932757346
38	0x3fb020e8942cfdb6	0.06300214402744228
39	0x3fa9c370709a1d49	0.05031920790230033
40	0xbfa50e5fc5bd8f05	-0.041125290764084034
41	0xbf87d444111eae5f	-0.01163533379789
42	0xbf96385a44aac5f0	-0.021699343148332717
43	0x3fa29f882d56c2d6	0.03637338212445733
44	0xbf79d3f154a9e98a	-0.006305639932742921
45	0xbfb75239c3146844	-0.09109841358841303
46	0x3fadc696d34ffb08	0.05815574006554952
47	0x3f56ec90f4a0f063	0.0013991752225726232
48	0x3fb2a0cd38420e10	0.07276613830077161
49	0xbfb2eef3f4c472cb	-0.07395863271490126
50	0x3fb2e2e8e0daaf97	0.07377486695867073
51	0x3f909d30d641b185	0.016224635197816823
52	0xbfac8c348a75756c	-0.055757181073867595
53	0x3faa8e60bfe0b92a	0.05186750738390551
54	0x3fb12b9eb2995afd	0.06707183704689253
55	0x3fb1e17fca559e5c	0.06984709443860865
56	0xbf9f42cb982415f9	-0.030528241311023028
57	0xbfb7966a3d34f13c	-0.09213890070254122
58	0x3fc44868aa3ee3c7	0.15845974266792792
59	0xbf95cd4e6d405b6f	-0.02129099408929441
60	0x3f9886df8b037ae5	0.02395200048419612
61	0x3faf1979148da029	0.060741218337000476
62	0xbf85017c90585ce2	-0.010256741671624107
63	0xbfa22efe54489d48	-0.035514781750232205
64	0xbfad0c119583eb03	-0.05673270177972791
65	0x3fa0192897a39d4c	0.03144194460929359
66	0x3f88c34fb0ca45c1	0.012091276724535473
67	0xbfaf05c03349b2f3	-0.060590749989250535
68	0xbfb120393c50a32d	-0.06689794275793011
69	0x3fad66f8c6d95d41	0.0574262373672192
70	0x3fb04a91e804605a	0.06363784708480705
71	0xbfa85ef2f292c29d	-0.04759940348720202
72	0x3f999e3514868daf	0.025017575624259155
73	0xbf8879c9c5856a22	-0.011951042499892376
74	0xbf7ebf6d2b198a22	-0.007506777228260238
75	0x3f82aff1c5ecf0d5	0.00912464986105769
76	0xbfb00b080dd76205	-0.06266832673953367
77	0x3f74b490ecc163a4	0.005055013764001002
78	0x3f9241a53fcce1e2	0.0178285427275301
79	0xbfa449c8512e0f58	-0.03962541571584549
80	0xbfad08ce882b7415	-0.05670781528690597
81	0xbfaaeebd632618e7	-0.05260269007981027
82	0x3fb4b326ebd10fd9	0.08085864312403092
83	0x3f64f4ab42e8d9dc	0.0025580735157533074
84	0x3fb1bff024ce1c46	0.06933499239504312
85	0xbf54a5d407eff998	-0.0012602396598136775
86	0x3f9b54812e87c11d	0.026689547028525874
87	0xbfacce340cdeccaa	-0.05626070649250299
88	0xbf9fbf512da3db8c	-0.031003254328392724
89	0xbf92bd78fa0c5551	-0.018300905477265875
90	0x3f813ceb01189022	0.00841697308630535
91	0x3f90f6aacc257c7f	0.01656596060763293
92	0xbfabe7698c576150	-0.054499910718450395
93	0x3fa34cbd3aba1001	0.037694848460006376
94	0xbf9c9b7372b8f6da	-0.027936748387438516
95	0x3fa02c034444ad08	0.03158579071381423
96	0xbf99f5f584d8edbc	-0.025352321847305723
97	0xbf8410d6caf9cd5f	-0.00979774290974572
98	0xbf9e9eb908582a7c	-0.029902354368497516
99	0x3f8a5b547b18ad0f	0.012869510656932563
100	0xbf929e30c6682b76	-0.01818157397250838
101	0xbf9b38c8f84025dd	-0.02658380522919922
102	0x3f8f5fa846706c35	0.015319170617706582
103	0xbf85c691b0d44fa2	-0.010632646759894563
104	0xbf9b283a034731e5	-0.026520639848785072
105	0xbfa8c7f962293336	-0.048400681717430435
106	0x3fa6c89809f476f4	0.04449916001816048
107	0x3f7c65082f5f4af4	0.006932289097636202
108	0x3fa1583e20a5a63c	0.03387636326335694
109	0x3fb82ffa4ee76330	0.09448208261836721
110	0x3f93a270e2e53459	0.019174350594131393
111	0x3f88a52fec03c39b	0.012033819570634033
112	0x3fa8dcce449b4293	0.04855961406213285
113	0x3f9d281f0f2e5bee	0.028473363210277762
114	0x3f923f70609670d1	0.017820125479929786
115	0xbf9a96ba228fc931	-0.025965603217579406
116	0xbfa26b3c0407f5c4	-0.0359743838234681
117	0x3fa295a53cba89b6	0.03629795423809716
118	0xbf9c9a1ae569a97c	-0.027931614162676408
119	0x3f94a7a6854a3e56	0.020170785794617473
120	0x3f5b1f2ed0fec122	0.0016553837958604507
121	0x3fb12bb35ef84873	0.06707306927299488
122	0xbfb6abb44af77908	-0.08855749922028988
123	0x3faaa78a667bd608	0.0520594835378852
124	0x3f977510242be0e6	0.022907497604109837
125	0xbfb00fe56a93019e	-0.06274255611334076
126	0x3fc254d513ea0513	0.14321387741441835
127	0xbf91c9be9f6a090f	-0.017371157150145197
128	0xbfaec501976a1feb	-0.06009678815195215
129	0x3f823f8e78476216	0.00891028694688693
130	0x3f9e23e863315334	0.029433852247467487
131	0x3f82cc4cef126e20	0.009178734823129864
132	0x3fb9a25d37e13579	0.1001337300706008
133	0x3f6cde259e3f39c3	0.003523896668389899
134	0xbfbf1d711e1380b6	-0.1215429972103291
135	0xbf5d74f537ee4fc2	-0.0017979044639320073
136	0x3f845428efe53060	0.009926147290251375
137	0xbf88524dc3a382b0	-0.011875731976432519
138	0x3f949771c9a5a039	0.020108964855723086
139	0x3fa3a7d4b5f8027b	0.03838982316301994
140	0x3fc1007b95f5c5bf	0.13282723257320403
141	0xbfb5f1665ed84f3f	-0.08571471992064249
142	0x3fa529ceacff3923	0.04133458959369054
143	0x3fb03ea4ef10d035	0.06345587574543361
144	0xbfa83a4aac5eb786	-0.0473197303211768
145	0xbf64b4a657f0a5df	-0.002527546777419273
146	0xbf4bf1c782b07785	-0.0008527969524754075
147	0xbf7f242927e615bf	-0.007602844967896371
148	0x3fa39c437c441c50	0.038301571768947995
149	0x3f862f40ec70fe54	0.010832316604250249
150	0xbf90780930ae4dc9	-0.016082900615925575
151	0x3fb309053cc6c461	0.07435639127540263
152	0x3f921eebd11edba9	0.017696079863266743
153	0xbf99d1d3cf6e8ff9	-0.025214490447652314
154	0xbf81cdcfa6a379fa	-0.008693334839731105
155	0x3f916d9b3b12f0ad	0.017019677620496654
156	0xbfaed39114ec660f	-0.06020787601864807
157	0x3fa69683cf1e24ac	0.04411708739559947
158	0xbf9870730aec3fe5	-0.02386646036308084
159	0x3fa595f9f1119cef	0.04215985362753282
160	0x3f89ed455dffdfdb	0.012659589701783538
161	0xbf9095f157bddbe4	-0.01619698617966127
162	0xbfb75a531cab7e91	-0.09122199487637263
163	0x3faafe637e84a788	0.05272208136950868
164	0x3f5c4b13f5a6dc40	0.0017268843572375708
165	0xbfb0f495c7aeb7b5	-0.06623207211552436
166	0x3fac04853debaf6f	0.054721988495514455
167	0x3f66453a6ac88337	0.002718557449285088
168	0x3fb047b834b1c73a	0.063594353546958
169	0xbf94ae34499f1cb7	-0.020195786469937995
170	0x3f8819acb58644dd	0.011767720498740914
171	0x3f622e14d778581f	0.002219238954931604
172	0xbfa843bd4f743ac9	-0.047391811322190565
173	0x3f7c100b3c94ceed	0.0068512381488294695
174	0x3fa77d0f41a75393	0.04587600399432925
175	0xbf9f16bbaf0d5791	-0.030360157546361292
176	0xbfb1bc806729e276	-0.06928255575793138
177	0x3fa8fce5eeb31786	0.04880445994198994
178	0x3f9afe4e8813a4c3	0.026360728316750192
179	0xbf669dc44bbbb071	-0.0027607759383184096
180	0xbf9446b37bd6fb51	-0.01980095332487092
181	0x3f9743f8101fbf13	0.022720218643313816
182	0x3f98950a2e2d9b64	0.024006041592112295
183	0xbf5d4d6b71344be1	-0.001788477825191086
184	0xbf8d7a66491b7262	-0.014393614870123975
185	0xbf62b5725e9d4644	-0.002283786180591803
186	0xbf9f0acd350ab17a	-0.030314642298138385
187	0xbfb3a78bea8acc08	-0.07677530742766703
188	0x3f8567ac7f995b8f	0.010451648372663573
189	0x3f99e71c4038907a	0.025295678539024348
190	0xbf9af9c34059eaff	-0.0263433940913087
191	0xbfb3735cd9792455	-0.07597904500393445
192	0xbf9f575cf49cf09e	-0.030606701307292476
193	0xbfad628749ce0a45	-0.05739233756959953
194	0x3fa38c40894c11d2	0.03817941356649936
195	0xbfb0c9c36335b90b	-0.06557866260638805
196	0x3fb10733545e013e	0.06651612100359203
197	0x3f855a3e7fa9697f	0.010426033278396528
198	0x3f8c85fe24950dec	0.013927445880319099
199	0x3f959b7a6e02d28d	0.02110091492132198
200	0x3f923da3755dd458	0.0178132572541084
201	0x3f7833e336d493a8	0.005908858828921483
202	0xbfb970fa995beb04	-0.09938017124288129
203	0x3f9d8a6d5811dfce	0.02884837007556467
204	0xbfb89a6297c927b5	-0.09610573011118968
205	0x3faebf4b64ab1e66	0.060053211248995805
206	0x3f53404031db60cc	0.0011749865438357874
207	0xbf9bead20d5672f1	-0.027262956680362774
208	0xbf9f038aa67c8aa4	-0.03028694764283081
209	0x3fb1ee2dd7398c05	0.07004057411681693
210	0x3f9a203a1e9a2994	0.025513561361131545
211	0xbf7f451797ab67f9	-0.0076342507915914065
212	0xbfa4357ebbf234d9	-0.039470634882585016
213	0x3f7a062ab613247b	0.00635353740762767
214	0xbfa84aceb031e720	-0.04744573498551419
215	0xbfa1486c6330fbae	-0.03375567160445968
216	0xbfa6cd1cda87b8db	-0.044533635784192525
217	0xbfad24b7d19478cc	-0.056920761426441396
218	0xbf9c5e397141237f	-0.0277031875014333
219	0xbfb8bea97f3c2e06	-0.09665927273106698
220	0xbf9280aa01fdc148	-0.018068939563307823
221	0x3faa14e57db23b41	0.050940677255417295
222	0x3fa76135278fe045	0.0456635103982426
223	0x3f9ce6eb600b3cae	0.028224637734464757
224	0xbfb97f97e79967e4	-0.09960317043569905
225	0xbfab0e92dd90e966	-0.052845563456190445
226	0x3fa3fdc4d5c2744f	0.03904547795648538
227	0xbfa21eadc0dc6b72	-0.03539031008968764
228	0x3fb2fb96350a2e16	0.0741514091006866
229	0xbf99c99a32a7a9fe	-0.02518311437771991
230	0xbfb76622052e2b28	-0.09140217424844066
231	0xbf914f1b66e21631	-0.016903331903924183
232	0xbf6c0a94dfe49dae	-0.003423014422100321
233	0x3fae6c0c39aed693	0.059418088952424196
234	0x3fa04cea27df99a4	0.03183681236969285
235	0x3fb0f60c33fe232d	0.06625438947061175
236	0x3f912c7d9adf070a	0.016771280839527093
237	0x3f9cdc1848dee4a5	0.02818334526793777
238	0x3fae8e87d686db48	0.05968117231116438
239	0xbfac16c69c9698f2	-0.05486126576879426
240	0xbfb292b68f262607	-0.07255116457795206
241	0x3f99f7ec74e20897	0.02535981620213387
242	0xbf7ab7d26db32f4c	-0.006522962557209255
243	0x3f93efd5134bce07	0.019469575217000237
244	0x3fb77b155aa4c342	0.09172185385683654
245	0x3f98c404d0078dab	0.024185252377618188
246	0x3f86dc5e316fff68	0.011162505992615215
247	0x3f8f358abc40273f	0.01523884188647495
248	0x3f8101a5a5d8b16b	0.008303922771198477
249	0xbfae4a3caa8e1ab5	-0.05916013318988204
250	0xbf99bd68a294b6b8	-0.025136599467421944
251	0xbf97d0f49cf538ef	-0.02325803955073352
252	0x3f93a20bae282ef4	0.01917284250707403
253	0x3fa7bbd6308e6d5a	0.046354955127038536
254	0xbf98d93d653830e7	-0.024266204169223562
255	0xbfb0fa80c04c3a62	-0.06632237143296885

weights_hidden_output f8 [128, 10]
0	0xbfcc2da70b7ff77f	-0.22014320432202436
1	0x3fd121634d011664	0.26766283531137547
2	0xbf906e454bdab62d	-0.01604564929464496
3	0xbfcfcf3ef87ba874	-0.24851214535675903
4	0xbfc0f549bad4ef2a	-0.13248559591908676
5	0xbfb58f23cc664364	-0.08421539058896382
6	0x3fb0bcb4b364640d	0.0653794229477997
7	0xbfb0e7f9af9ea171	-0.06603966271962293
8	0xbf92a9e12d1bbc17	-0.01822616422481013
9	0x3fb6deff0333a6d4	0.08934015110176158
10	0xbf8af3924a4fb044	-0.01315988816528358
11	0xbfb146721aaa7472	-0.06748116637250393
12	0x3f742c02e5afd474	0.004924784962885832
13	0xbfbab6bf0f754a34	-0.10435098769566126
14	0x3fa1722cb9167813	0.03407420882579983
15	0x3f8576160d792291	0.010479137693566261
16	0xbf6d8c15c96757dd	-0.0036068368456012427
17	0xbfb0bd3793db1b2b	-0.06538722381365562
18	0x3fbf69c0365ab8fa	0.12270737959872582
19	0xbf8207a7cc7f08c2	-0.008803664139012905
20	0xbfa719fe23864ae4	-0.045120183788773166
21	0xbfcdcce7ec7a7d90	-0.23281573340225892
22	0xbf7b1d979e0b4c71	-0.006620018248855706
23	0xbfb2ef629f799eac	-0.0739652289718104
24	0x3fb704d0da790f56	0.08991723378954694
25	0xbf74d8c9eabfb4d4	-0.005089558351739149
26	0xbfd0575d67422b70	-0.2553323276885555
27	0x3fa523d26163a330	0.04128892363389125
28	0x3f997d1a23175e50	0.024891289130975658
29	0x3fc00a21fee28127	0.12530922837778144
30	0xbfbdd23e61eefcc4	-0.11648931399303125
31	0xbfc4e85459b37c88	-0.1633401334756608
32	0xbfb75757e120f725	-0.09117650266940965
33	0xbfd17db82949875a	-0.27329830200152616
34	0x3fd2d92927e0a84e	0.2945044412068726
35	0xbfd14fe554e1dbdb	-0.2705014542511301
36	0xbfb880f50b8a9bb1	-0.09571773082517045
37	0x3fdab70b3844baf0	0.4174221086022234
38	0xbfc92241a6251063	-0.19635792362726354
39	0x3fc681b5baf523e9	0.1758334315184407
40	0xbfa81f0c0b081dd2	-0.04711187014259689
41	0xbf689738c901fa50	-0.0030017956815407212
42	0x3fb3bcac43e574a2	0.07709767015099314
43	0xbfacfbb664f6242c	-0.056607913803482596
44	0xbfb25a025ced012a	-0.07168593186088815
45	0x3f12c8f1fe952b80	7.165886895170274e-05
46	0xbfb5651e33081854	-0.08357418771638098
47	0xbfc16d0a6975dea2	-0.13614015721735934
48	0xbfba4019faa50810	-0.10254061097387557
49	0xbfa7486556a99617	-0.04547421152964775
50	0x3fb1b6f116900018	0.0691977195820076
51	0xbfa571f12f8e7523	-0.04188493447802901
52	0x3fc7bd1a2358029f	0.18545843816538807
53	0xbfad1d17f766a523	-0.05686259169608323
54	0xbfb4e856933cbeef	-0.08167019934330332
55	0xbf7a0d29a8cf0b7f	-0.006360209209506417
56	0xbfc034922b61f374	-0.12660433882038158
57	0x3fd00fe855cec5da	0.2509709203687557
58	0xbfa069369c1fd716	-0.03205271392645963
59	0xbf60d548ed741350	-0.0020548271528490272
60	0x3f91b6b4008a60d8	0.017298519642822224
61	0xbfb1e4d82d5d7cd6	-0.06989813907192696
62	0xbfa0d211ac9b5234	-0.032852699585110307
63	0xbfb1f895be383a64	-0.07019935506853298
64	0xbfc8520d2b16c399	-0.1900040111918571
65	0xbfc451650a3053c6	-0.15873396871088924
66	0x3fa2a57f23321dca	0.036418889089926035
67	0x3fd897618d98efcd	0.3842395670687864
68	0xbfd0240cb3cc349d	-0.25220029409758543
69	0x3fc3c3230a989906	0.15439260499369584
70	0xbfa47bd8c83586cf	-0.040007376136384935
71	0xbfd11fdc6ffd5d6c	-0.26756964622969437
72	0xbfb5d32889674f8a	-0.08525327066973723
73	0xbfcf7e90f0eac22e	-0.24604999316717752
74	0x3fd11d3277b83c62	0.26740705195783765
75	0x3f89066344ee2c1a	0.012219214955413494
76	0xbfb178e61452c437	-0.06825101848768687
77	0x3fb05403fa6c9b68	0.06378197540162278
78	0x3fc9289d0cf661be	0.1965519250195608
79	0x3fcde212be991d26	0.233461707177619
80	0x3fc40f8730ba361d	0.15672387961642267
81	0xbfcd7c539a85e008	-0.2303566460138884
82	0xbfd1b2feb6b58012	-0.27654998629259453
83	0x3fb9d3994fce345d	0.10088499258400092
84	0xbfa45d92ac0db023	-0.039776404860134805
85	0x3fb6f3c7b6060777	0.08965728944715844
86	0xbfa06d12d3835f25	-0.03208216506908305
87	0x3fcc96010812405e	0.22332775968652901
88	0x3fb0162dd1d4cf92	0.06283842442354473
89	0xbf2af54a45b6a900	-0.00020567447323333737
90	0x3fc5b76cb1991250	0.16966017410062983
91	0xbfad4d559ce6b04e	-0.05723063984200448
92	0x3fabb7f4cf7480ff	0.0541378501168328
93	0xbfb397068ca95018	-0.07652321752658542
94	0x3f6c64c2a763d557	0.0034660150369016196
95	0x3fb7b7fec41ee0e3	0.0926512936411004
96	0xbfb52a91fdb5691d	-0.08268082088526225
97	0xbfae7ff78b639212	-0.059570060506107705
98	0x3fb59a779dc5de0c	0.08438823320272365
99	0x3fa04947cb647525	0.03180908544366393
100	0x3fc5d01afb6a6230	0.17041337276602198
101	0x3fb304be7ef1ca37	0.07429113959532506
102	0x3fb5599e448f06cc	0.08339871572300267
103	0x3fb459a26d1b8fb2	0.07949271358262314
104	0x3f9593c5e1a5bf4e	0.021071521661212338
105	0xbfba3ef1e39488c5	-0.1025229626289131
106	0xbfc19c8f5a3733d4	-0.1375903311258343
107	0xbfa16712c09da219	-0.0339895115019468
108	0xbfcc248b3a50b688	-0.21986523005891834
109	0x3fa3acd602e42c8b	0.03842800889295813
110	0x3f970d701c652c23	0.022512199147325284
111	0x3f898ef933d039db	0.012479731458395918
112	0xbfb44e87de44690a	-0.07932328392454138
113	0xbf9e30db4da2bb42	-0.029483248342042197
114	0x3fc864b4fe7ddd48	0.1905733339915321
115	0x3faccbf77f5c3be6	0.05624364309016254
116	0x3fd003cf859fa2d4	0.250232582561279
117	0xbfa6a54c92bea451	-0.04422988215748858
118	0xbf8d6ee642344a79	-0.014371680159944266
119	0x3fcb8161ffefec1f	0.2148859500592559
120	0xbf9f6cb723da884b	-0.03068815380414262
121	0x3fa144726c0cffa8	0.03372533387164306
122	0xbfb868bbc61bf3f1	-0.09534810625696345
123	0xbf95a61f83375c04	-0.021141521819881617
124	0xbfbb7f38ea8ff8fc	-0.10741000868435785
125	0xbfbb46aa208d7926	-0.10654700560323657
126	0xbfa8cdf7092e76e4	-0.04844638812140348
127	0x3f35edb6de8f95a8	0.00033460344871935133
128	0xbfb20c330856838e	-0.07049864724696261
129	0x3f8cd179276fdf66	0.014071413532277876
130	0x3fd9ec302c9ad625	0.40504078250828207
131	0xbfb099586f7bf8dc	-0.06483986589225615
132	0xbfab4cd4a12754a2	-0.05332054583747349
133	0xbfaab7fcdf75eaa6	-0.052184965398699476
134	0xbf9ba6a4898e465c	-0.02700287904332864
135	0xbfbdbcb6cab9fbb2	-0.11616079759003986
136	0xbf8f6611f6977a34	-0.015331402147180297
137	0xbfb07c1be0fa1058	-0.06439375155065485
138	0xbfbd79bc4eb96c11	-0.11513878747921093
139	0x3f6842585b49faf1	0.0029613233294293263
140	0x3f97190f1ee7f91c	0.022556530248032933
141	0xbf89e4025e8088c2	-0.012641924389815155
142	0xbfa4b4a2086912d4	-0.0404406199709563
143	0xbfbb72973868f7d8	-0.1072172653884701
144	0x3fb96e72f8d0fa66	0.09934156965844351
145	0xbfb38c1c5d7c93bf	-0.07635667116535581
146	0x3fc2fe98a47b907c	0.14839466124897516
147	0x3f9fe8352ab07bcc	0.031159239512017753
148	0x3f9795d73eada300	0.023032534790590198
149	0xbfc12a93b41a9d9c	-0.1341118459142593
150	0xbf9591ac36057320	-0.021063509747693776
151	0x3fb6b0102fc8a402	0.08862401167483827
152	0xbfa9aa409828cc03	-0.05012704713262652
153	0xbfa161d2e31ea5d2	-0.0339494611974477
154	0x3fa53ad26641b806	0.04146440027476221
155	0xbfb6c1a30d0c25ec	-0.08889216488400792
156	0x3fba216af83caf26	0.10207241592860025
157	0xbf82c9f262fff2c7	-0.009174245496973111
158	0x3f917d6d5fddc8cc	0.017080029464928967
159	0x3fc27199586a74fd	0.14409176652126368
160	0xbfb7384f70c8b108	-0.09070297721399723
161	0x3fc9623f22f11135	0.19831074911247418
162	0x3fb94805357b5a24	0.09875519328793608
163	0xbfa959267318e671	-0.049508287000617275
164	0xbfaff45f1e049dbd	-0.062411281980810675
165	0x3fc0b9d5f741836b	0.13067125866930537
166	0x3f8e41976b415407	0.014773543320339767
167	0x3fc9ecf28cea730d	0.20254356270461252
168	0xbfc29dfe38b2fba8	-0.14544656532777123
169	0xbfa2df6ff5fbf353	-0.03686094167458145
170	0x3f8d525f23707cef	0.014317267674469806
171	0xbfbb57dc5521cbbf	-0.10680939749162997
172	0x3fb547435a7a2e60	0.08311863860051849
173	0x3fa5beafda84adf4	0.04247045080623116
174	0xbfa72799d5be362f	-0.04522400602500586
175	0xbf9ea1d0abe6d5e5	-0.029914150707289883
176	0xbfc73546407308c6	-0.18131330630246206
177	0x3fa983636c83fd12	0.049830538746386335
178	0xbfb293530d8f608e	-0.072560492334903
179	0xbfb02f8fdbc56889	-0.06322573771959318
180	0x3fcd7bd8bd191f4d	0.2303419993715984
181	0xbfbbacfe47af86df	-0.10810841798913938
182	0x3fbe080a728b125b	0.1173101930281261
183	0x3fbd7fc749cecc34	0.11523099471996617
184	0xbfbd34a3b4ee5c1a	-0.1140844647146512
185	0x3fcfcdfa7b9ff749	0.24847346340532742
186	0x3fd2bfaed64a0b6a	0.2929493992489173
187	0xbfcb06cf78c26f17	-0.21114533802471477
188	0x3fc4af82e016f455	0.1616061777293988
189	0xbfd75cb3aab347d4	-0.3650330702777158
190	0x3fb0c70a49996fa3	0.06553711220607154
191	0x3f54adb68bcc8586	0.001262119548478631
192	0xbfc2cc6337b8db34	-0.1468624136047879
193	0x3fc38a5e256f253f	0.15266014888610788
194	0xbfbc3ce76b9275df	-0.11030432106277697
195	0x3fb7468166719d96	0.09091957808560944
196	0xbfc6aa6e7d0a72f3	-0.17707615952976816
197	0xbfac5d77aa1e0a53	-0.055400599972035856
198	0xbf903d500be16bb2	-0.015858889317637632
199	0xbfd4e1bafeb3a25d	-0.32627749322140237
200	0xbfa68348f016003f	-0.04397037440048778
201	0x3fcc33ad1339ba06	0.22032702864403592
202	0xbfc416b1b1231c86	-0.15694256924891564
203	0x3fc833034785044e	0.18905678741615123
204	0xbfb2fbb6d7240f62	-0.07415335419142147
205	0xbfbac596d7cbfb9a	-0.10457747238613849
206	0x3f9516d201a0cf46	0.020594865178466003
207	0x3fbb1d94cbf8c112	0.10592012386110053
208	0x3fb1d5bd425785b8	0.06966765279459863
209	0xbf8426a4b676959f	-0.009839331453643406
210	0x3fa16454e2e88909	0.03396859426381311
211	0x3f8578e49555c3df	0.010484491164534702
212	0xbfb5817b95618e32	-0.08400699994086194
213	0x3f96313c86345147	0.021672197047409438
214	0x3faa2601e226d2dc	0.05107122312202758
215	0x3fc05934748c2228	0.12772231760779218
216	0x3fb09571cac3379e	0.0647803421045112
217	0xbfc2716e17dfb572	-0.14408661046710908
218	0x3fb2a9f42260db66	0.07290578688922053
219	0x3f960001886bc7f8	0.02148439784190967
220	0xbfb162939460b6b3	-0.06791040775780281
221	0x3fc85be897619cf9	0.1903048266569625
222	0x3fd8d90e74f10843	0.3882480756766464
223	0xbfb2c306a4861188	-0.07328835980121629
224	0xbfc24f1aa896f3ee	-0.14303906661908122
225	0xbfd0bc3b8a636b91	-0.2614888049553708
226	0x3fb01796a511be09	0.06285993127834656
227	0xbf946ebfbe110761	-0.019953723884334255
228	0x3fb8ca0a5835fef5	0.0968328919752784
229	0xbfc3385955f0a92e	-0.150157134020739
230	0xbfcba4429aacd824	-0.21595032265185055
231	0xbfb62d0c0c3bfd03	-0.0866248636120766
232	0x3fc62c17bb44f324	0.1732206024552393
233	0x3fbbcbd8ff742519	0.1085792182604063
234	0xbfaa95506c350881	-0.05192042656791874
235	0xbfbcc47be4b3b7f6	-0.11237310727639724
236	0xbfbc36194d2cf152	-0.11020048269432905
237	0x3fc48189fa4b508a	0.16020321580311175
238	0x3fa284fe8e5ee31a	0.03617091644213684
239	0x3fca21f519230949	0.20416129805932773
240	0xbfa84b12d602c9a9	-0.047447765945793315
241	0xbfb24f94d73c0126	-0.0715268159365264
242	0xbf9a6ff510414692	-0.02581770812714141
243	0xbfc477efa3d48b08	-0.1599101591064811
244	0xbfba33f3141c8716	-0.10235518685342657
245	0x3fa8ce3fe7c1c88a	0.048448559799809734
246	0xbf8b9ea29fd9c6f8	-0.013486166480308523
247	0x3fb7215ee8e1e5c3	0.0903529470978333
248	0x3fbca3102d003537	0.11186314676907193
249	0x3fb1a9e83091355b	0.06899882493708757
250	0x3fc179908527a2e5	0.13652235509586955
251	0xbfba8b4999f61944	-0.10368785866567004
252	0x3fc8461b6452c527	0.18963949583625458
253	0x3f9d67ca848f2853	0.028716244068882023
254	0xbfc9c0737ddfb32e	-0.20118564268286704
255	0x3fca3825b196c299	0.20483847781499234

bias_hidden f8 [1, 128]
0	0x3fa970d32302092e	0.04968890955298587
1	0x3f7c0cb8240cf713	0.006848067569817723
2	0x3f8e9eb9ce8b1fdb	0.014951182952600497
3	0x3fb300399d3844ec	0.07422218407033981
4	0x3f89413870f634ac	0.012331429431265604
5	0x3f838755e31192bf	0.009535475723347784
6	0x3fa018d1a8446266	0.031439353743000706
7	0xbf76895961d10268	-0.005502080105600805
8	0x3f80a9c69bdef9b5	0.008136321670346594
9	0xbf8217cdf8b3dec1	-0.008834466125775877
10	0x3f7e18a3388651e2	0.007347714978454852
11	0x3f917b30776d70ad	0.017071492471004635
12	0xbf60a9b1ef4bb4fb	-0.002034041909033333
13	0xbf8e5fbb54e386b7	-0.014831031349277308
14	0xbf77a387ee8f66c6	-0.005771189674271765
15	0x3f8109f078b49340	0.008319739040027252
16	0x3fae768d03ca5768	0.05949822112340436
17	0x3f3ed2a1dad0f8ac	0.00047031833202372075
18	0x3f9460de59c9a84e	0.01990077422161845
19	0x3f9f14f5801a60ee	0.030353389686383396
20	0x3f90bc447cf58cee	0.016343183638480356
21	0x3f8bb050c2e23e5a	0.013519888827686777
22	0x3f8855017f063ecb	0.011880885781266134
23	0xbf7a2ecbc50adf68	-0.006392284369830616
24	0x3f4f27a741281840	0.0009507719681216623
25	0x3f612cd188669164	0.0020965664327425183
26	0x3f8882b43f3660cd	0.011968048266496467
27	0xbf6884b3875975ec	-0.002992964403161427
28	0xbf601378bfa01755	-0.0019624098176817353
29	0xbf73b4bea98741da	-0.00481104352407199
30	0x3faab95ba2f98a35	0.05219541897237826
31	0x3fa72a530cd660d3	0.04524478465754247
32	0x3f5a0bb04e5bc173	0.0015897008647095228
33	0x3f8fc385b84eeedc	0.01550964802469628
34	0x3fa7464e922c879c	0.0454582742152205
35	0x3f7bc4b7349a3653	0.006779399534605784
36	0xbf6c4cb563316d0b	-0.003454546234520022
37	0x3f72fea41a0a352b	0.004637375852906171
38	0x3fa614cec5515b42	0.04312750013985191
39	0x3f825dcf3aa21b74	0.008967989899486752
40	0x3fb072eea191fac2	0.06425372547708277
41	0x3f9938c6e1a52125	0.024630649111061182
42	0xbf5d326591f8212c	-0.0017820350548181747
43	0x3fa1f7a6056a0c47	0.035092533265036745
44	0xbf80bc2329a0f654	-0.008171343524845977
45	0xbfa27fd36df46c9e	-0.03613148419591393
46	0x3f924943ca37d220	0.017857608048830298
47	0x3f9b2d83edbbf33c	0.02654081476702007
48	0x3f9bfcdc31702b38	0.02733177234407977
49	0x3fa5c9da431155eb	0.042555638014771656
50	0xbf7fbd7d5e1b9953	-0.007749070851536938
51	0x3f195113de59a420	9.657558219945727e-05
52	0x3fa4a927f3c12228	0.040353058343104486
53	0x3f7691bfa0c73510	0.005510090395955972
54	0xbf805ffb02bdcf17	-0.007995568295633455
55	0x3f988936faa17eac	0.02396093277672999
56	0x3f87175b7839ab74	0.011275019270404953
57	0xbf89b59b900f39cb	-0.01255342038521414
58	0x3f30c9dc02984f3b	0.0002561723837015588
59	0xbf5113124788c23b	-0.0010421446332992263
60	0xbf6f1126af0455ae	-0.0037923579731209056
61	0x3f7fe91978ef1b7c	0.007790660382801625
62	0x3fa0ba62fe91d50e	0.032672017646215065
63	0x3fa552aed62a6e45	0.0416464458878321
64	0x3fa8f7d5f421281b	0.04876583676430376
65	0x3fa37e4460bf4787	0.03807271653171456
66	0xbf90306a979525f2	-0.015809693815105726
67	0x3fa06b87795337f0	0.032070382652463425
68	0x3fa5951951fd609d	0.04215315938807971
69	0xbf8212f7c43984d7	-0.008825240779687977
70	0x3f982d1b65a6a503	0.0236095696251697
71	0xbf8a091aa55ffcb0	-0.012712677165835323
72	0x3f713000c8e34ad7	0.0041961699154906195
73	0x3f9d426414bec018	0.028573573843175465
74	0x3f913cccea307386	0.01683349780443024
75	0x3f90cbe25f0204e0	0.01640275673753855
76	0xbf4f44d34153d328	-0.0009542495269259975
77	0x3f8e5b5b910933fb	0.01482268844952194
78	0x3f964cd4979d4db6	0.021777459863484082
79	0x3f91d27b760c9916	0.017404488639976533
80	0xbf783018d0c172de	-0.005905243811949316
81	0x3f970dde64c7c332	0.02251384248842498
82	0xbf2b497aabd65ae8	-0.0002081835026898828
83	0x3f9ca510ac79e113	0.027973423506837024
84	0xbfa0d6de53f069e0	-0.032889316317056716
85	0x3f4338fc37537a0e	0.0005866271518718007
86	0x3fa72edd3fc1bad0	0.04527942088394854
87	0x3f5f8a752c466cca	0.001925100733479112
88	0x3facfbf394c3dd99	0.05660973731022096
89	0x3f8bd4a499a1452b	0.013589178026594503
90	0x3f7a02c2283d9c8b	0.006350286890529531
91	0x3faffce8c1952fb0	0.06247641909666812
92	0x3f95ba095226088c	0.02121748508353298
93	0xbf8b3eb9c41d739e	-0.013303233430343838
94	0x3f8915a9139bdabc	0.012248345290101319
95	0xbf71d63ffbccc6e1	-0.00435471528617068
96	0x3f93d8691c4b3c80	0.01938022837822162
97	0xbf9a2a6afa46450f	-0.02555243637613552
98	0x3f90646c85262b47	0.016008086802268975
99	0x3f9bcf2d4b76cf96	0.027157504778827134
100	0x3f96b27dd26df438	0.022165266007039913
101	0x3f8eadd08a6bdbd2	0.014979962562831437
102	0x3f9352fd28f90d56	0.01887126505449762
103	0x3f8f2802dd07101a	0.015213034029223183
104	0x3fa1f46560c6b7a3	0.03506771856642323
105	0x3f8183cc03a3f34f	0.008552163945290707
106	0xbf8541dd1b3b80f8	-0.010379531282012952
107	0x3fa6e17d074102d9	0.0446890899043006
108	0x3f8a9bc5c1836006	0.012992424934438428
109	0x3f9b43b5844d5bca	0.0266254770279735
110	0x3f98b3cd5f7f526b	0.02412339110726906
111	0xbf8e0b62b1b1d766	-0.014670153663455653
112	0x3f84d2bead50e7e4	0.010167588867364637
113	0xbf9233635c583ece	-0.017774155150674535
114	0xbf8aa2f399cf7b02	-0.01300611794607454
115	0xbfa187c0aef66efb	-0.034238835675948175
116	0x3f9a2aea5be5f4d7	0.025554334506058787
117	0x3f91240eca2a0d76	0.01673911198532837
118	0x3fa3379b61dd07b1	0.03753362245198789
119	0xbf7ad67a117e5c37	-0.006552197293692655
120	0x3f90f04c30ca2409	0.016541662671929944
121	0x3fa23953724ebc7a	0.03559361238819121
122	0x3fa3148a128c1600	0.037266077770294004
123	0x3fa6849715f4bf53	0.043980332784825514
124	0xbf8f54b05ad4f7f1	-0.015298249980897767
125	0xbf7553cf16211e14	-0.005206879550378147
126	0x3f94641b9dfcd4ca	0.019913131254004658
127	0x3f913dc23b628e09	0.016837153315135498

bias_output f8 [1, 10]
0	0xbfc48ee4f59e1bac	-0.16061079018637991
1	0x3fc121c89dcaa7ae	0.13384349541348456
2	0xbfa7a1ccdb51feb4	-0.0461563127255408
3	0xbf90b5f04abe1138	-0.016319040834347848
4	0x3fb67624cf6237c1	0.08774023116185871
5	0x3fb9fad66582795c	0.10148372629416741
6	0x3f9110d3ccecf82c	0.016665753729505337
7	0x3f71fd1d57e86fff	0.004391779539698603
8	0xbfb66a76024328d4	-0.08756196551545098
9	0xbfa123e196b7c54f	-0.03347687687699851
