models/model_cv_digs (16000).npz (npz, 815236 bytes, 4 tensors)

weights_input_hidden f8 [784, 128]
000000 02 89 55 a9 59 ae b1 bf 06 2b 2b 39 91 e3 a9 bf
       -0.06906662353643259 -0.05056432555064387
000010 f4 61 58 21 b7 e7 b8 3f 85 dc ae 75 47 8b 95 bf
       0.09728569568722617 -0.021039120252421845
000020 62 ff 75 77 0f 9e ad 3f 1b 13 dc 2e 1e 85 87 3f
       0.057846530277855704 0.01148437099937776
000030 69 fc 2b 21 0b fb 98 bf fe 85 ed ae 39 60 ad bf
       -0.02439515485729907 -0.05737476597165524
000040 47 29 e0 73 95 1a af bf bf b5 00 7e 60 dd b2 bf
       -0.06074969329354701 -0.07369044376601773
000050 a7 3e e8 7c 11 75 54 3f e9 20 7b 85 81 00 b1 3f
       0.0012486143856484196 0.0664139700776364
000060 f0 d9 21 cf 14 f2 aa bf 72 36 7a 36 df 7a 7a bf
       -0.05262818363637567 -0.006464836049088528
000070 97 86 e8 f9 4f 9e a9 bf df c8 a7 68 2a b3 b3 3f
       -0.05003595281256173 0.07695260100425426
000080 ac a3 00 ef f7 78 82 bf 75 5e 63 24 8b b1 7d 3f
       -0.009019791585233104 0.007249396823872813
000090 ca 80 93 a2 06 36 97 bf 00 46 68 53 2d 02 9e bf
       -0.0226670300224903 -0.029305179801729864
0000a0 ff 15 a0 76 b2 e0 8b 3f f4 5d c8 97 3a 9e 9d bf
       0.013612169499547909 -0.028923907770232973
0000b0 33 61 c0 84 a7 9c ac 3f e1 7f 4d 98 07 9a 74 bf
       0.05588267798902038 -0.0050297066380551045
0000c0 7e 83 06 14 46 6e 98 bf 9c df ea 95 26 9b 9b bf
       -0.023858160946136568 -0.026959040546642762
0000d0 06 24 ad 42 d7 bd 56 3f 9f a0 60 cb 0e ad b2 bf
       0.0013880350258708165 -0.07295315232534215
0000e0 73 0c e0 ce 3f a2 97 bf 08 72 7e 16 48 78 57 bf
       -0.02307986927190737 -0.0014324859602999913
0000f0 c0 a4 2d 2d b3 5d a3 3f 43 17 32 f6 d0 b2 9a bf
       0.037824248566559415 -0.0260727548852835
000100 e4 3c b6 31 cf 4e 6d bf ba ff 19 7f 50 f2 b9 3f
       -0.003577618290087169 0.10135367491784467
000110 60 38 a3 28 4e 0e 8f 3f 53 8e 6f e5 71 99 6a bf
       0.015164003958855143 -0.0032469963584718458
000120 d3 63 6f 70 3c 07 b0 bf 3f f9 3a 0a 19 a6 a5 bf
       -0.06261041398046467 -0.04228285074121851
000130 ec 9d cb d5 46 c2 90 3f 6b 76 2f 81 38 19 a8 3f
       0.016366106795343713 0.047067418832494955
000140 03 78 37 a1 0d be 9a bf 5b bb 6b f1 97 d4 b0 bf
       -0.02611562057960982 -0.06574391979277776
000150 4e 65 6c 46 1e 46 8e bf cf d1 f2 f7 45 75 a7 3f
       -0.014782177471306081 0.045816599385407046
000160 c0 94 7c 3c 2d 51 a7 3f af d7 b7 fa 78 79 b0 3f
       0.04554120410311091 0.06435352440880025
000170 ab 45 fe 7e 39 77 6b bf 49 2d d5 26 3e 90 9c 3f
       -0.0033527491540971863 0.027893992538605947
000180 c8 a2 a8 2e 34 d2 71 3f 40 0c b9 e7 73 e2 a0 bf
       0.004350856625514772 -0.03297769740722645
000190 bd df c0 2c a1 10 c0 3f 14 3a ff 60 19 bb 9f 3f
       0.12550749478555004 0.03098716406366904
0001a0 73 30 fb 7a 22 42 b1 bf fb cb a9 6c 47 e4 9e bf
       -0.06741538526984119 -0.030167690284041964
0001b0 eb 03 87 3d f4 c5 93 3f 2e 54 05 bc db 48 8a bf
       0.019309822326025666 -0.01283427875083917
0001c0 51 67 ff 8a aa 53 b0 bf 65 99 93 06 dd 35 aa bf
       -0.06377664464471634 -0.051192194989016206
0001d0 e3 72 e0 ff 0f 7f 51 bf 1e 34 b4 62 5b 38 b5 bf
       -0.0010678917165087224 -0.08289118919147184
0001e0 7e c6 f8 e5 39 1e a5 bf ae 33 3e 6e a8 97 76 3f
       -0.04124623234055223 0.005515726024793928
0001f0 dd 2d 8a c8 e6 ad 89 bf 53 48 e6 f3 61 9d a7 bf
       -0.012538722033489097 -0.046122609160321425
000200 9e 6c 5c f2 fd 90 92 bf f4 9e c1 ae a8 5f a1 3f
       -0.018131225507300834 0.03393294461494448
000210 00 67 8d fc 9b 02 b4 3f e4 13 f4 92 14 0c 90 bf
       0.07816481509999207 -0.015671082944226714
000220 2a e9 9c 64 d5 d2 a1 bf 8e 79 d9 b9 f3 89 74 bf
       -0.03481165745911803 -0.005014373831356512
000230 a5 15 b6 e5 60 7d b7 bf 49 fd dd 75 ef 28 a0 bf
       -0.09175687416253327 -0.0315623122578424
000240 b5 85 60 82 23 06 90 3f 59 5b ba a8 24 d1 b3 bf
       0.015648417313178082 -0.0774100219663131
000250 d9 70 dd 32 dc 41 a1 bf 2b 0f 89 f6 55 22 aa 3f
       -0.03370559807692226 0.051043211311961954
000260 29 6d 81 33 2b 74 b8 bf 26 a0 03 9a 8f 9e a8 3f
       -0.0955225945230508 0.048084723997647225
000270 f5 b4 3a 45 d3 95 b1 3f b6 33 bd 4d 2e 4b 6b 3f
       0.0686924022690681 0.0033317474716682794
000280 27 80 98 31 35 7a b8 3f d2 c3 32 ad c2 d3 bb bf
       0.09561474285919812 -0.1086999581191457
000290 db c0 8c 8b 24 0b a6 bf 16 94 50 10 2d 92 8e bf
       -0.04305376246918665 -0.014927246151339484
0002a0 87 8e 97 8c 99 2a a0 bf 3b 19 f9 4f 25 5b b5 bf
       -0.0315750106927029 -0.08342202379671886
0002b0 4a 6c ca 52 eb 61 74 3f 34 a7 23 12 21 3c 65 3f
       0.004976195556675009 0.0025921483912626723
0002c0 1f d6 1c 74 65 4b 92 bf 33 f9 ab 7d 98 47 9b bf
       -0.01786573907084776 -0.026640303297420686
0002d0 36 08 0d 30 21 fe 7c 3f 43 96 07 d4 14 ad a3 3f
       0.007078294410179755 0.03842988098385238
0002e0 ad d8 07 27 b4 c1 b0 bf 70 cf 48 dc cc 5e a4 3f
       -0.06545568421265342 0.039785768404185684
0002f0 89 78 54 bd f5 cf 97 bf a3 16 08 08 66 b2 85 bf
       -0.023254241638931226 -0.010594174499611702
000300 14 86 f7 11 2e 50 be 3f d2 8c 6d 6f 7d 89 b4 3f
       0.11841094912190214 0.08022293062599609
000310 1f 00 e4 6a db 40 af 3f 4f d2 39 e6 9d 2c a4 3f
       0.06104169540230963 0.03940289912580807
000320 04 f7 17 32 d6 87 9b 3f 48 f6 71 c0 1f 57 a7 bf
       0.026885363395186893 -0.04558657859977849
000330 de 1d cb 6e d8 47 94 bf 90 e9 44 77 be 35 74 bf
       -0.01980531860570333 -0.004934066779521365
000340 a1 d9 96 a9 23 3a 8d bf ef f4 50 c8 fa ec ac 3f
       -0.014271048176721037 0.05649551100985117
000350 08 80 b6 3c a9 c8 81 bf d4 bd aa be b7 f5 74 3f
       -0.00868351189166107 0.005117147210213575
000360 2c cd 50 81 f9 b8 a2 3f 95 d2 9b f8 75 e9 8e 3f
       0.0365674944263453 0.015093728684840083
000370 76 70 c6 71 86 d7 b1 3f e2 cf dc 61 8a 89 bc 3f
       0.06969490316117963 0.11147370232794132
000380 a8 8d 34 4a f6 bd 79 bf 3a c5 12 7c c4 5b a2 bf
       -0.006284677572043242 -0.03585638060156744
000390 42 b0 2a 73 01 1e b9 bf 00 c3 8b f8 3b e1 ab bf
       -0.09811410009086877 -0.05445277604110821
0003a0 d7 9e 40 8b 47 90 83 bf b0 1b 54 4c 32 6b 8b 3f
       -0.009552534997126312 0.013388054804193888
0003b0 2c ca 25 80 4d ce 9c bf 19 b6 90 ab 08 35 92 3f
       -0.028130732485303664 0.017780433150781236
0003c0 a3 e8 9d e2 e9 6c 9d 3f 71 09 c7 5d 03 7d 7e bf
       0.028735784966081323 -0.00744344058006373
0003d0 77 8b f3 4d bc 49 a3 3f 67 38 9c 29 8b 5a 7d 3f
       0.03767193271212126 0.00716642723433667
0003e0 f8 c8 a0 0c 38 bc b4 bf 33 2c 48 de e5 28 9c bf
       -0.08099699314405828 -0.027499763195049275
0003f0 0f bf 35 8a 58 62 93 3f dc 0e c3 5b 60 b0 69 3f
       0.018929847179094014 0.003135860633934102
000400 df 38 eb 71 2f 1a a9 bf 27 5b 6c 79 02 54 9d bf
       -0.04902790322886274 -0.028640783940399175
000410 39 18 c3 60 4b ec b1 bf ef a8 85 b8 ce 9d b2 3f
       -0.07001181709628747 0.07272045140203763
000420 4a 71 5c af f7 f3 b3 bf eb e9 29 ff f4 11 91 bf
       -0.07794139891888566 -0.01667006308933054
000430 b4 33 1f 5a b9 71 bc bf 1f aa b1 63 ac 7e b0 3f
       -0.1111102910064819 0.06443288263259504
000440 42 f9 82 a3 62 d2 a1 3f 29 66 cf 25 85 2f ad bf
       0.03480823751441388 -0.057003174653527396
000450 5b a9 a5 65 0b c2 a5 bf 4f 61 e0 65 b3 c5 ad bf
       -0.04249606719789042 -0.05814896219834741
000460 2a ac 4a d4 51 24 9c 3f 0a 9e 5c 18 42 c3 56 bf
       0.02748229845262188 -0.0013893266163423922
000470 8a 75 71 bf 69 13 ae bf 8e f4 6a 21 41 f9 a2 3f
       -0.05874186002686617 0.037057910279579706
000480 41 4d 3f ec e4 2e b5 bf 5e 18 3e 08 8e f1 a8 bf
       -0.08274679916148832 -0.0487179169713705
000490 e9 77 43 f2 e3 e6 8e bf d3 fb 8d 1a 92 12 90 3f
       -0.015088826018139616 0.01569584166599809
0004a0 0f 26 bd 7c a3 a2 b9 bf fe 13 72 2b 4d 38 b6 bf
       -0.10013791842825291 -0.0867965918606188
0004b0 6f 33 83 4d 84 a2 64 bf ad bf 16 55 68 57 bd bf
       -0.0025189003027662952 -0.1146149833427887
0004c0 5d 4b 2f e2 b1 8b 8e bf 28 09 a4 ea 2e aa b2 bf
       -0.014914884295569026 -0.07290929058584494
0004d0 a0 9a 86 52 c6 3e bc bf b9 4d 8a 94 27 b2 6e 3f
       -0.11033286585607494 0.003747060113093528
0004e0 84 e1 b5 b5 e6 4b a3 3f 76 23 59 15 c4 ec a0 3f
       0.03768845527787604 0.03305638084982025
0004f0 d6 48 3e dc 24 23 b9 bf 2e 9d b4 4a ae bd 9a 3f
       -0.09819250466378845 0.026114199933684627
000500 0d 06 fe 29 c5 4a a1 bf 6c bd ba d4 ff d1 a0 bf
       -0.033773576141367646 -0.03285216781420783
000510 f7 07 3a a5 29 43 b6 bf ad 2e ec 34 52 f4 a5 bf
       -0.08696232112745848 -0.042879647217060814
000520 84 01 12 48 0e 0d b3 3f 45 69 f6 0a f2 9a 8f 3f
       0.07441796550302199 0.015432253799009596
000530 16 54 6a d9 eb 25 ad 3f ff 3a 4d 8e d7 a5 53 3f
       0.05692994145389478 0.0011992077863458015
000540 79 e2 33 c9 1c 98 9d bf 9c b1 9e 23 02 4b ac 3f
       -0.028900575428425477 0.05525976834119037
000550 70 ef 75 b9 71 a3 b8 bf 7a 5d 8e f1 d9 4e b5 bf
       -0.09624396112297773 -0.08323442599645672
000560 c8 0e 09 72 6e b6 a7 3f 17 3e de f4 5d c9 98 bf
       0.04631371633561582 -0.02420565421158302
000570 10 51 4b db bf f3 ac 3f 5e e0 3f e2 f3 9f 9e bf
       0.05654716064387533 -0.029907046016859666
000580 65 a1 b8 a0 b0 4b 90 bf 22 cc 13 6a 4b 57 a6 bf
       -0.015913734254497842 -0.04363475484742475
000590 d0 3d af c8 de c5 a1 3f e6 16 05 2f 8d 7e a2 bf
       0.03471275520098127 -0.0361217613122287
0005a0 e8 5e 19 64 84 33 73 3f ec c8 46 21 39 7a b2 3f
       0.0046878024600897975 0.07217747747816688
0005b0 eb b8 6d 7d 02 78 a0 bf 8d 13 f3 9e 49 d3 9c 3f
       -0.032165601550205945 0.028149748159893618
0005c0 c8 d3 e1 e0 1b 81 ae 3f d9 7f 6c 92 e8 50 a3 3f
       0.05957877273696216 0.03772665774727075
0005d0 e7 14 be db 2a b5 8c bf d3 cb 6b 5c 01 71 70 3f
       -0.014017424422272785 0.00401402026794791
0005e0 2d 69 00 30 24 63 7d 3f 03 fe a6 1b dc ec a2 3f
       0.007174626691290248 0.03696334683945326
0005f0 c9 5a 60 62 fc df 67 3f ca 97 66 22 ce c9 c1 bf
       0.0029144219761393125 -0.13897110633587167
000600 13 3d 3f b6 23 48 6e bf 53 c0 99 c0 dc 7d 9e 3f
       -0.003696508168992482 0.029777001624495657
000610 cd ef 39 33 df 83 9b 3f 8b 28 b7 35 48 15 ad bf
       0.026870238782507095 -0.056802994305671005
000620 5c c6 08 41 82 c8 76 bf b5 3d 12 01 10 b0 86 3f
       -0.005562313847393332 0.011078000099842148
000630 b5 ae 16 b6 e3 23 92 3f 22 da 35 c7 aa eb 92 3f
       0.017715032566839557 0.018477123650393897
000640 4c 64 43 22 c4 43 91 3f a6 ad 12 64 f7 fe ac bf
       0.016860069838774458 -0.05663273903459336
000650 a2 9f e4 ef e8 87 8d 3f 40 c2 76 42 51 62 a1 bf
       0.014419383831935143 -0.03395322738959239
000660 e0 0f 91 9d ef 9b 87 bf 25 08 3d f7 32 bd 85 3f
       -0.011527893062641625 0.010614774866216046
000670 a6 3a 1b 74 7c 9e b1 3f ee 7b 34 c6 b6 1b a6 3f
       0.06882455668094653 0.04318019074911904
000680 c4 1b 3b 68 ca 15 ad bf ec 3c e7 8f 7a 44 9b bf
       -0.05680687448835145 -0.02662841323200109
000690 38 fb dc a6 6a fe 97 bf c5 ef d9 45 25 52 9e bf
       -0.023431459841272345 -0.02961023558462707
0006a0 72 81 b1 8c b9 b4 6f 3f 3b 80 16 86 3d b8 ac bf
       0.00387035598900825 -0.056093142145301
0006b0 32 fc 90 bc 8d 4b 9a bf 5d 36 99 b8 bd 63 96 bf
       -0.025678839334656263 -0.021864857093808577
0006c0 fa a2 a0 d7 b6 01 ae bf 2c 52 b3 7b 73 fb 92 3f
       -0.058606828519549084 0.01853733484752433
0006d0 ce ab 75 5b 46 5a 86 3f 37 ab 02 b0 85 12 b7 bf
       0.010914373079421138 -0.09012637660150068
0006e0 fc 8e b5 3a 06 23 a6 3f e0 7c ef db c4 b7 60 bf
       0.043235964457180004 -0.002040752878641791
0006f0 44 b8 e6 0c 31 69 97 3f 89 81 a4 99 3a 7a bb 3f
       0.02286221162074066 0.10733381510772778
000700 62 98 6b e7 d0 45 95 3f 07 fb 2a 61 ed cd b1 bf
       0.020774139523290443 -0.06954845068228731
000710 ba 57 27 7b cd 5a 9d 3f 97 3d 20 ed aa 07 8d 3f
       0.02866669716043877 0.014174781190404313
000720 ad e3 c7 da 92 72 af bf b0 7f 10 f0 58 11 a4 bf
       -0.06142100258507042 -0.03919485025858138
000730 cc c6 9e 20 9a d5 8d 3f 51 91 01 eb 0d c1 b3 bf
       0.014567569847574367 -0.0771645258660716
000740 89 c2 7e fa 0d 41 9c bf f2 64 0e 28 09 c8 aa bf
       -0.02759191361809824 -0.05230740179031014
000750 7b 92 e1 03 ec 4a 9b bf 1f 81 5e df c2 15 9e bf
       -0.02665299199761016 -0.029379887469645923
000760 50 8a 4c 38 bb e8 74 3f 3c 75 9d 7d 92 bf af bf
       0.0051047623899501265 -0.062008455118056166
000770 b2 6d cc 01 2c 8a 96 3f 4a 65 37 75 03 3d 94 3f
       0.0220114589784381 0.01976399805957855
000780 0a 66 df 9d 66 51 b6 3f 8f 89 c5 ba cd 73 c3 bf
       0.08717957834542048 -0.15197154636105067
000790 b5 ae 1f 16 ea e0 a5 3f 54 31 10 bb 22 64 ab bf
       0.04273158569398331 -0.053498349509114945
0007a0 6d 6c 75 41 7c 4c aa 3f 70 d4 76 09 16 0f ba 3f
       0.051364787092745036 0.10179269534167346
0007b0 0a ab b2 48 9f ba ba bf e8 bb 67 60 8b 75 b8 3f
       -0.10441012883044834 0.0955435858120236
0007c0 eb 38 12 fb ec 5b aa bf ca b5 fa 38 f1 66 95 bf
       -0.051482587478959584 -0.02090050611757536
0007d0 f6 1c 0c 51 70 2a a0 bf 85 ca f6 8d fc 85 aa bf
       -0.0315737818655694 -0.05180348618468592
0007e0 63 72 68 cc 47 51 c1 bf 1f 78 dc 73 50 95 b1 bf
       -0.13529298287257338 -0.06868460491793414
0007f0 cb 0d da 92 74 34 9e 3f eb e6 c8 20 8a c4 6f 3f
       0.02949697634040919 0.003877897054079029

weights_hidden_output f8 [128, 10]
000000 b8 a9 6c 41 e7 1c cc bf 7a 21 e7 e9 70 55 a5 bf
       -0.21963205999902669 -0.04166748862513976
000010 74 c0 5c f6 82 73 88 3f 28 c2 cc eb c2 b3 bb 3f
       0.011939070838337985 0.10821169144470189
000020 64 45 85 20 4b ba a6 bf 1d 8d d3 95 52 f2 ac 3f
       -0.044390056342886536 0.0565362747090836
000030 de 3b 89 f9 55 2b b2 3f 31 e7 a3 65 1f 11 d1 bf
       0.07097375242413714 -0.26667008329205816
000040 0e 4a 6d 43 c7 84 bf 3f 15 01 6f f0 7c b3 c3 3f
       0.12311978717961145 0.15391504039690376
000050 cc d3 25 65 13 e5 b7 3f 8f ef 35 9d 1c 51 bb 3f
       0.093339168733862 0.10670641744758157
000060 b7 58 78 0b 3f de b5 bf 56 64 df 88 9e 53 b4 bf
       -0.08542245893508747 -0.07940092889420333
000070 a2 30 62 7c 18 6b bb 3f 5b 13 94 87 3f ec d1 3f
       0.10710289990146518 0.2800444435127269
000080 20 91 6a 29 a6 37 e3 bf 2e 53 4d 1b 79 39 d8 3f
       -0.600543099299589 0.3785078779813372
000090 28 d7 c0 28 3f 46 e2 bf 3a d3 a3 0d 7e ac cc 3f
       -0.5710750385248717 0.22401405015957626
0000a0 f3 ef 3f 35 40 0f bc 3f 0b 97 49 ac 06 d6 bf 3f
       0.10960770893137788 0.12435952860104409
0000b0 be 21 6d 0c e7 64 bc 3f 3a 4a d4 70 71 0e c4 3f
       0.11091465047241564 0.15669076928368658
0000c0 25 60 6c ed 24 ed a8 bf 77 10 51 4f b0 bd 8b bf
       -0.04868426702722698 -0.013545396252205173
0000d0 81 6d 84 7d 6f 23 e3 bf fb ba 14 07 2a da c4 3f
       -0.5980756236562429 0.1629078421187485
0000e0 a9 8a f5 a5 1f 98 b0 3f 86 20 d2 30 d7 c3 c1 3f
       0.06482122232186306 0.13878908046558908
0000f0 9d be e3 36 e0 23 93 bf d6 d5 1a 59 05 ba be 3f
       -0.01869154295940111 0.12002595353518272
000100 96 b4 b1 e0 5c 35 ab bf c8 31 b0 17 da 0d b6 3f
       -0.05314150088165907 0.08614886358572627
000110 e7 ea 17 b8 44 e5 d3 3f 77 7c 38 74 e5 d1 a8 3f
       0.3108684346949943 0.04847638171872231
000120 ae 60 34 fd 66 bc bc 3f d1 89 7f 69 ec 95 c0 bf
       0.11224979097130713 -0.12957530165938505
000130 1f 16 be d0 6b c6 96 bf e8 5f 3f 26 8c eb be bf
       -0.022241291633255608 -0.12078166898515941
000140 32 5f ef 59 5d 53 aa 3f 63 aa 57 0d 05 27 c4 3f
       0.051417271831893166 0.15744078780638224
000150 16 7d 3f 8a a8 a4 cd 3f 66 bf 79 fc 3c 3c ce 3f
       0.2315874743498873 0.23621332481297513
000160 39 08 0e 45 00 bf a1 bf 25 84 53 d9 d8 e3 b0 3f
       -0.034660347394507025 0.06597667032066619
000170 34 4b b3 c7 1c 2f cc bf 83 db 81 77 0f 2e d5 3f
       -0.22018775702471205 0.3309363047659916
000180 67 ff 4a 66 ba 7c b6 3f e5 36 c7 2a 67 e7 e3 bf
       0.08784070012461385 -0.621997436095367
000190 47 41 60 2d a9 80 c0 3f ba 52 88 72 a1 c6 a4 bf
       0.12892641749977882 -0.0405779316244312
0001a0 1f 76 dc c0 79 61 b8 3f 9e c8 d3 46 b3 b2 a3 bf
       0.09523735960507239 -0.038472750087650484
0001b0 4b d5 23 17 6f a1 c6 3f 13 77 49 00 8e 98 ca bf
       0.1768015730846549 -0.2077805997277485
0001c0 95 07 f8 74 23 64 a9 3f a0 55 16 b5 b5 4c bb 3f
       0.04959212115137671 0.10663924857211393
0001d0 1c 30 1d 56 e1 1f b6 3f 84 b2 3d a2 f2 56 c5 3f
       0.08642395355599358 0.16671593591617662
0001e0 f7 36 50 66 23 37 b3 3f 3f c4 90 84 68 37 a2 3f
       0.07506009338268514 0.03557898157340177
0001f0 0e 9c bc fa 0d 6f a6 3f bb 81 27 81 24 49 c1 3f
       0.04381602941275996 0.13504463487971727
000200 13 3c 86 b4 74 5d b5 bf 28 6b 91 19 93 32 c3 3f
       -0.08345727355320802 0.149980914577861
000210 68 ec 74 a3 88 42 bb 3f 10 65 9c 89 8c 15 c8 bf
       0.10648397436755064 -0.1881576225212389
000220 dc 06 4d 68 aa db 65 3f 6d 7a f2 ef 0d c5 da bf
       0.0026682213087106787 -0.4182772486910043
000230 60 e2 3d 14 10 77 d1 3f aa 89 a5 9a 54 16 8a 3f
       0.2728920171426008 0.01273790451950137
000240 8b 71 2b e6 bc c6 b7 3f af bc d2 95 48 99 83 3f
       0.09287624949815247 0.009569708893052057
000250 1c 76 24 32 f9 8d 72 3f 06 38 f9 5d 7f 45 dc bf
       0.004529927655565948 -0.4417417924604482
000260 c0 32 11 28 f2 24 ba 3f 41 c3 2f f8 2b c7 b0 3f
       0.1021262500591531 0.0655391198086024
000270 c5 84 b0 53 6a d4 b0 bf 69 aa 4a d0 e8 a0 b3 3f
       -0.06574120085908237 0.0766740330242698
000280 c7 ba 39 b6 97 d1 9f bf 92 12 a0 46 55 6f 94 3f
       -0.031072969910776373 0.019955952106118398
000290 47 c9 3d c2 77 e7 b1 bf d8 71 53 f8 65 8d d2 bf
       -0.0699381684515049 -0.2898802685793078
0002a0 ee 97 58 04 4e 0c b8 3f 95 c0 3e 74 1e 32 7f 3f
       0.09393775564294035 0.007616156541118487
0002b0 b7 d5 8e 72 0a 9f bb 3f 6c f4 16 72 4f d5 aa 3f
       0.10789552017998615 0.05240867870041019
0002c0 41 84 9b 8f 93 34 75 3f 53 e8 89 01 a0 6e b8 3f
       0.005177093896890973 0.09543800389829586
0002d0 16 68 6c bd f3 f6 c7 3f 1d 05 a7 1f f4 96 b4 3f
       0.18722388028328457 0.08042836926235393
0002e0 c4 7c 6f c8 d3 ad a6 3f 29 41 06 10 b0 ba c9 3f
       0.044294946877693 0.20100975782816846
0002f0 6a 74 2b 45 ab 35 c5 bf bb 0a 4c a5 9c 9e c4 3f
       -0.16570034863881072 0.16109045096535177
000300 b4 31 59 c8 24 70 c6 3f 9b d6 32 2a 89 05 da bf
       0.1752973535789245 -0.4065878784270837
000310 70 e7 43 61 12 78 c6 3f 97 4f 45 f8 f4 f6 c3 bf
       0.17553930043487354 -0.15597402689547543
000320 38 15 ff 30 03 00 a4 3f ba 0f e6 07 d4 b5 d7 3f
       0.03906259511090088 0.37047291537623617
000330 e1 69 c6 61 a1 af b4 bf fe ff 8a ba 88 d6 9e bf
       -0.08080490719877488 -0.030115257630995977
000340 5d 79 4a b1 0c 13 b0 3f d1 87 b3 86 0f cb b3 bf
       0.06279067352668251 -0.07731720961194745
000350 78 91 1f 09 8d ac 8b 3f 9c 8c bb 40 74 5b bb 3f
       0.013512708512231283 0.1068642290152177
000360 0a 21 ac bd dd 5d dc bf 94 38 db 1c 8a 55 bb 3f
       -0.4432291366833999 0.10677397922992987
000370 60 55 3a ec 84 90 dc bf d9 85 60 86 78 e0 c8 3f
       -0.44632075375678504 0.19435030518893262
000380 3d 31 cc 5f d1 0a c4 3f 44 c3 5a 20 97 f2 a0 bf
       0.1565801351320121 -0.03310081739380746
000390 76 d9 18 f5 c0 3b a6 3f 27 37 94 ab 24 49 de bf
       0.04342463485629626 -0.47321430927046254
0003a0 df f9 b9 db cb 73 c8 3f 2d 5d 2e 9f 1f 6c b8 3f
       0.1910338232882642 0.09539983402497816
0003b0 04 4b f9 1a 9a 27 cc 3f 29 4a 1d 0a 20 b8 a3 bf
       0.21995855633812067 -0.03851413844553903
0003c0 62 e8 4f f3 85 8d b4 bf 73 a4 5d 4c b6 a6 d1 3f
       -0.0802844733260897 0.27580029924008115
0003d0 49 20 43 6f e2 ea b2 3f 2e 0e 09 02 49 84 d1 bf
       0.07389655319559653 -0.2736990470768629
0003e0 da f7 8e c9 77 e8 c2 3f 7e e5 6d fa a2 d0 b7 bf
       0.14771935788843288 -0.09302729238506477
0003f0 63 d7 5f 1b 42 de aa 3f 1a ce c6 18 6e e2 c3 3f
       0.05247694572601238 0.15534759721559582
000400 a4 bc c4 d4 bd 0e be bf 81 ed 70 17 27 e6 bb 3f
       -0.11741243786376515 0.10898060152333323
000410 c5 ab 3c 5a 9c 87 9f bf 4b 7e d5 53 d0 13 99 bf
       -0.03079075146449008 -0.024489646069353815
000420 d3 d0 4d ab f7 0b df bf 8a 64 9e 4f db 6d a0 bf
       -0.4851054356470403 -0.032088139981348254
000430 66 93 17 f7 59 75 94 3f 24 0c 4c 47 ed c0 b1 3f
       0.019978910166077134 0.0693500804009522
000440 66 d1 05 b2 fe 38 b5 3f c4 23 9b 2e 36 0c a6 bf
       0.08290092321641893 -0.04306191748543811
000450 4f ec 88 79 8e 87 69 3f f2 91 ac a3 08 1c b0 3f
       0.003116396208751072 0.06292776103925471
000460 c9 70 f1 4c 54 5c af 3f 50 2d d5 bb 85 e0 cb 3f
       0.061251291649314484 0.2177893798019377
000470 21 04 7f 14 84 86 ac 3f 02 4a 16 05 b9 1a 9a 3f
       0.05571377515980936 0.02549256413983337
000480 8a de 9f 12 70 89 89 bf 8b 3d 20 ac 65 ac b0 3f
       -0.01246917301976615 0.0651305718640655
000490 b4 65 28 45 80 73 cb 3f f6 2c ff b5 42 f6 a2 3f
       0.21446231247754854 0.03703506919517878
0004a0 04 b5 45 97 ab 13 dc bf 48 44 b7 0b c9 a8 db bf
       -0.43870057842907806 -0.4321768392956682
0004b0 32 87 34 b7 dc 88 a1 bf 6b dc 03 b8 fd ca c5 3f
       -0.034247300495066205 0.17025729642020634
0004c0 8a ab d2 1d bb bf c9 3f 6c b2 7f 63 56 90 c7 3f
       0.20116366344640496 0.18409232958164823
0004d0 48 12 74 67 ef 28 ce bf 57 8a f6 2a 48 a0 a3 3f
       -0.2356242423194479 0.03833222889376902
0004e0 43 9f de 68 cf 10 ac bf d2 0e 4d 50 d6 af cf 3f
       -0.05481575160166454 0.24755362435290934
0004f0 89 39 8a ce 3a c1 c1 3f 5f 19 35 a8 43 2b e9 bf
       0.13870940289457348 -0.7865312848378315
000500 b4 a6 66 bc b6 c9 c2 3f f0 7b 95 0f d9 e3 d1 bf
       0.14678081702486667 -0.27953173181407376
000510 9b 86 d0 20 9b cf bf 3f 74 b1 a3 70 bf 0f aa bf
       0.1242615656961114 -0.05090139627449988
000520 fd e3 ad e3 7f 0a c4 3f b6 4c 40 7f bd 60 97 bf
       0.1565704213824403 -0.02282997216395862
000530 38 f3 8a 81 a6 1a bf 3f 05 ce 55 d0 1c 7f cf bf
       0.1215004030481851 -0.24606666729560814
000540 d3 53 53 83 c8 19 b0 bf 51 76 b6 64 11 ba c7 3f
       -0.06289342123211776 0.18536584298719785
000550 00 a5 c7 8c 4f 6e c9 3f db d9 e7 bc ea 46 b2 bf
       0.19867891668335602 -0.0713946067042807
000560 99 ea 45 8f 9f 9d c4 3f 7f bc 10 7b 43 bd c8 3f
       0.16106028075940484 0.19327586659480642
000570 05 66 1a 43 70 36 e4 bf e9 78 fc b0 9b 89 c8 3f
       -0.6316453276260182 0.19169946805863639
000580 b5 17 8b c5 8e 25 c9 bf cc 2d f4 c2 89 2d c2 3f
       -0.1964586700980228 0.14201471347074202
000590 05 2f fd 64 96 a3 ba 3f 46 04 da cc 2c e6 b5 3f
       0.10405864682723738 0.08554344178448145
0005a0 09 4e 09 3a 24 46 c5 bf b3 d5 62 47 b3 2c bd 3f
       -0.16620304902845387 0.11396332257103019
0005b0 e5 61 d4 9e 6e 76 b1 bf 08 3d 45 62 91 7c a4 bf
       -0.06821338060070266 -0.040012877698808735
0005c0 13 44 56 87 35 b8 d6 bf 9e 2b c2 30 0a a7 d1 3f
       -0.3549932309770735 0.2758203006894123
0005d0 28 09 70 60 e8 8c c9 3f 3c 94 7c d1 4b 89 c3 3f
       0.19961266239995124 0.1526274464496583
0005e0 59 ae 0c 0f 4b 71 c0 3f a3 87 2a 05 fd 47 c1 3f
       0.1284574340328273 0.1350094104027991
0005f0 f3 86 16 b0 6b 96 b7 3f c2 46 4f a6 ee 24 b2 3f
       0.09213898705504757 0.07087604103369485
000600 99 f8 c3 84 c3 df c4 3f 41 73 31 1b 68 35 cc 3f
       0.16307872755709665 0.22037984206954245
000610 3c 98 cb ed ac e6 e2 bf 79 e7 64 9a f2 00 cb 3f
       -0.5906586307944575 0.2109664205434532
000620 f8 a6 08 b1 15 d5 d7 bf 03 3a 0f e0 b2 dd ad bf
       -0.37238065994698344 -0.05833205208874761
000630 d9 fd 75 77 72 90 bb 3f c3 a5 bb 38 23 78 cc 3f
       0.10767283836866372 0.2224163081184952
000640 0b 1e 63 be 08 6f c2 3f 81 45 ac c2 8b d0 71 bf
       0.1440134935021294 -0.0043492755310280415
000650 07 3c 4b ca 3a d1 b4 3f f6 50 0d 2d 92 28 75 3f
       0.08131759108367485 0.005165644645632952
000660 7a 3d 22 65 e5 be dd bf 12 75 1c 24 b8 60 b9 bf
       -0.4647763717302592 -0.09913206941242361
000670 4b 5f 7f 2f de 51 ba bf 35 60 84 7c a8 43 97 3f
       -0.10281170520408726 0.02271903285972617
000680 f8 21 be e8 4c 81 6d 3f 4f 02 cc 2b 91 64 a8 3f
       0.0036016943103656072 0.047642265888502615
000690 7b cc a3 5b 29 a7 b6 3f df 0c 7f 23 65 b3 cd 3f
       0.08848818290043596 0.2320372031518678
0006a0 48 d6 47 95 11 a0 c4 bf 87 96 9f 78 6d fb d5 bf
       -0.16113490857212498 -0.3434709241831588
0006b0 7f 6f be 3d 26 2d c4 3f 8c 24 1e fc 6d ef 99 3f
       0.15762784972036667 0.025327414048238725
0006c0 b6 a6 3c bc 34 7e b3 3f 2a db a1 9f 72 18 b5 3f
       0.07614450069072629 0.08240429303428401
0006d0 3c 30 41 47 e1 92 a3 bf 50 d4 07 01 32 a5 b6 bf
       -0.03822998041923184 -0.08845818066750266
0006e0 82 01 61 cb fb fa a1 3f 74 fb 71 90 09 ce c1 3f
       0.035117977692155314 0.1391002612399138
0006f0 fe 60 d4 2b d6 11 c3 3f d6 a6 10 47 14 07 c0 3f
       0.14898183002583915 0.12521604032490669
000700 da 81 0b 41 9d 9e c7 3f aa 3d e2 d8 b9 2a d0 bf
       0.18452802349112468 -0.2526077859883694
000710 eb 0e ee e1 77 b2 e0 bf a0 87 6b a0 8d d5 c1 3f
       -0.5217856800740867 0.13932962735185317
000720 da 04 f7 23 84 16 b0 3f ee aa e3 43 2a 4f c2 3f
       0.06284356954622031 0.1430409270754675
000730 09 ca b3 e7 af 58 54 bf 50 46 c9 2d 69 67 c0 3f
       -0.0012418477843395578 0.12815584884315223
000740 0e 3e 22 42 c0 8b d0 bf e4 2e f0 21 bb 8a d0 bf
       -0.25852972467780055 -0.2584674674442182
000750 64 d2 89 22 6a 0a c5 bf 5a 97 c6 b4 cf aa bc 3f
       -0.16438032804912261 0.11198137439222702
000760 8f 91 03 d7 08 b8 bb 3f b1 eb 67 4f 15 c9 ad 3f
       0.1082768940864922 0.058174768393619465
000770 00 75 a2 56 c4 e8 6a bf 8a c6 ec 29 98 dc a2 3f
       -0.0032848200545020356 0.036839251630579176
000780 12 a4 33 5b 60 1e be 3f 9a 44 0f 9c ac fc a0 bf
       0.11765100695232913 -0.03317775158905896
000790 ca 1d 30 e4 8b 62 af bf a3 30 53 52 2d 66 a8 3f
       -0.061298724751448555 0.04765454893058176
0007a0 f5 d0 ce 72 2e a2 c3 bf b2 11 3b ad d6 a1 b6 3f
       -0.15338688474515264 0.08840696076646884
0007b0 f9 94 48 79 bf d3 b5 3f 48 7a ae 97 ab 17 ca bf
       0.08526226721786036 -0.20384735971761558
0007c0 77 2f 7a af 1e 31 b6 3f fe 2c 1b e0 80 1b c0 3f
       0.08668700965989538 0.12583933775599826
0007d0 3d 5d d3 1f b3 ac c3 3f c6 d3 f9 3f 32 94 c0 3f
       0.15370787672029876 0.12952259181807174
0007e0 8e df b6 7d 6c c2 e2 3f c0 e2 45 1e f3 5e d3 3f
       0.5862333731993077 0.30267026859614177
0007f0 88 1a ec 7b bf f2 e6 bf a6 79 6c 43 6d 9c c3 3f
       -0.7171323223454502 0.1532112673966825

bias_hidden f8 [1, 128]
000000 90 85 2d b8 71 20 c0 3f 0d 31 af d7 94 84 e4 3f
       0.12599011891419964 0.6411842548928078
000010 67 19 2b fc f1 44 ce 3f 52 07 cf 6e 53 37 65 bf
       0.23647904217632318 -0.002589858011988002
000020 ea a8 f6 50 8f f4 b2 bf fc 36 40 af 5e e6 d3 bf
       -0.07404418684624017 -0.3109356604989981
000030 34 58 a7 e8 e7 30 c2 3f a1 26 d3 7c db b6 a4 3f
       0.14211748943370284 0.04045759104481062
000040 5b e6 37 e5 d0 3e b8 3f d8 e2 10 08 9f 17 d1 bf
       0.09470849605704627 -0.26706672465983905
000050 31 84 9d 9f 2b d6 cd 3f 13 fe 8e 5d eb 8d c1 3f
       0.23309846204486598 0.13714353626527095
000060 a9 6e 58 5b 14 e0 d0 3f d3 1e ac 46 e4 d3 bb 3f
       0.26367672844365103 0.10870196080588394
000070 08 e9 e6 ab 33 ed ec 3f 96 6a 52 03 3c 2f e0 bf
       0.9039553029499823 -0.5057659211045855
000080 c4 21 e4 b1 81 5c c1 3f 18 fa 7f cd 05 61 8b bf
       0.1356355780228694 -0.013368649801120333
000090 c5 6a 3b 26 5f 8a 96 3f f7 ce 0d 5e 4f b6 a2 bf
       0.022012221058370657 -0.03654716513747574
0000a0 81 d6 df 9e a3 b5 a7 3f 85 14 81 b8 37 d5 d1 3f
       0.04630767168411599 0.2786387731360452
0000b0 fb d5 52 b2 7f 9a d0 bf 78 34 27 49 f4 db e0 3f
       -0.2594298592988193 0.526849882962451
0000c0 7f 75 c0 ca 36 35 82 3f 43 e0 21 41 68 de d3 3f
       0.0088905602097451 0.31044966087893416
0000d0 b4 0b d4 68 d0 0d dd 3f 34 b8 0b f7 3c 84 aa 3f
       0.4539681457246687 0.051790146977382184
0000e0 4d d9 01 45 3c 44 bd 3f 6d 6f a5 a8 83 1c 62 3f
       0.11432244000193244 0.0022108622990070687
0000f0 c5 11 ae e1 18 f0 c7 3f 98 df 58 ba d0 0a d7 bf
       0.18701468486336928 -0.3600351161762716
000100 e2 d6 bd b7 84 a7 ce bf 8f 79 02 9a f3 2c e7 3f
       -0.2394872567344271 0.7242372520448032
000110 7a 9d 7f f9 7a b3 ce bf 27 04 95 38 58 11 ce 3f
       -0.23985230619949133 0.23490431559369648
000120 6a d6 d6 c3 3e 63 e6 3f 0e c0 cf 8e 5e d7 d1 bf
       0.6996148896202616 -0.278770102943782
000130 f5 e4 92 0f bd e6 d3 3f ba 1e 61 3d 25 3c a5 bf
       0.3109581615531874 -0.04147449850330305
000140 52 98 cb 15 02 54 c3 bf 3f c5 9b e1 3e 12 91 3f
       -0.15100122513030328 0.016671164054917084
000150 b7 3a 67 ef 6a 29 d3 3f c1 bb 87 b9 e0 1c c1 3f
       0.2994029367372763 0.13369378146259517
000160 08 d4 1d a8 21 7b c4 bf c1 dc 7f e8 90 52 e6 3f
       -0.1600076743012837 0.6975788632397767
000170 5c c1 da dc 85 0f d3 3f 87 38 7c c1 f2 a7 d7 bf
       0.2978224427015641 -0.36962574858706215
000180 b9 2f 89 96 cd 88 bb 3f 41 36 eb e5 b0 71 e0 3f
       0.10755619931404582 0.513878296909475
000190 8d 27 8e 95 34 05 e2 3f 5a d4 88 30 6b 2f d6 bf
       0.5631354256631639 -0.34664420833298026
0001a0 67 fa 7d ee 7f c3 c0 bf b0 7c a1 50 41 2e ce bf
       -0.13096617837068722 -0.23578659474421704
0001b0 64 f3 8b d5 0a f1 a7 3f 33 76 42 88 4d 83 cf 3f
       0.046760881965360906 0.24619454530049864
0001c0 fa 04 5c 8f 9a f7 db 3f 7a b0 ea 2c fd f0 a0 3f
       0.4369875335688246 0.03308859990406261
0001d0 ba 5d 64 fd ec cb c0 bf 6d e5 86 fe f2 72 d6 bf
       -0.13122331974657958 -0.350765942155326
0001e0 95 57 1a a2 11 4b db bf cb fa 31 cb 27 93 d6 3f
       -0.4264568408046839 0.35273165553364255
0001f0 b8 19 ae 0d f1 d4 de 3f 8d f6 84 60 58 c3 e1 bf
       0.48174692474313074 -0.55509585238879
000200 80 a0 f3 07 92 84 cc 3f a3 27 bd 0e e2 c2 d6 3f
       0.22279572857155827 0.35564471663803426
000210 fb 27 76 4f 4e 2b dc 3f a6 32 c2 8d 0a ba de bf
       0.440143182372253 -0.4801050552712617
000220 56 9c 73 b2 77 c7 ca bf 9b 52 bd 2d ca 51 e0 3f
       -0.2092122670503353 0.5099841016149925
000230 17 c2 cf fc 14 8e d5 3f 99 72 d4 84 7e 34 b0 bf
       0.33679699600819063 -0.06330099814335667
000240 62 3c 13 e7 3e b0 a3 3f 4b e5 88 87 83 8a aa bf
       0.03845402308217484 -0.05183802632786668
000250 52 e2 1d fb 60 8c bb 3f f2 67 c1 0d e9 2d c9 3f
       0.10761076098231939 0.1967135731854906
000260 a5 c5 49 e9 8b 82 e1 3f f4 1a ab aa 0b d9 de 3f
       0.5471858555230723 0.4819974104579352
000270 f0 94 5f 6b 60 a8 de 3f 19 06 f3 8d ee 86 c2 3f
       0.47902689443283375 0.14474279337996235
000280 cd 17 b0 3b 1e 8b df 3f d9 85 92 b1 5d 6f b4 bf
       0.49286609486477745 -0.07982431016218729
000290 74 31 58 96 14 56 c3 3f 8b 1b 74 8c fb 8e d7 3f
       0.15106446591415656 0.3681019660584119
0002a0 03 88 72 7d 55 94 70 bf d7 82 b3 a3 70 9d d6 3f
       -0.004047712274003248 0.3533593748707466
0002b0 98 9a 1e 19 6d c8 e5 3f 3f dc f0 01 d6 ef d7 3f
       0.6807160845390454 0.3740134257272451
0002c0 95 e9 be 11 67 b9 c0 bf fc 52 2a 69 05 f6 c5 3f
       -0.1306580387734583 0.17157046923662012
0002d0 bd 1b cc d4 7d c9 c8 3f 5d cb 47 96 a0 e8 a2 3f
       0.1936490334557827 0.03693105539777861
0002e0 ef 02 02 81 10 e6 cb bf 71 2d fc fd d8 7f ab 3f
       -0.2179585103913477 0.05370977497485797
0002f0 c9 3b d5 58 95 4b a4 bf 83 5a 9e 24 1e 53 cf bf
       -0.03963915547739522 -0.24472405231491132
000300 4f 52 7d 8b e4 c4 b2 3f bc fa 44 92 67 d0 e7 3f
       0.07331684499269751 0.7441900116753781
000310 b7 34 f8 99 de f2 c9 3f cb dc 5b c2 30 96 e1 bf
       0.20272429006619117 -0.5495837970801402
000320 5a 5d 68 7d 0d 58 c3 bf 11 20 1a 61 c0 5a c6 3f
       -0.15112465499326327 0.1746445154315102
000330 3a 23 ab 92 73 08 61 3f aa ce b5 a3 50 87 e0 bf
       0.0020792252811116215 -0.5165179440941376
000340 dd 10 db de 34 3c cd 3f 34 5b d8 1b 82 eb d1 3f
       0.22839985734584092 0.2799992820668422
000350 e9 3c 6b 99 dd 21 d2 3f e5 a4 c7 7a db 94 d2 3f
       0.2833169935447147 0.2903355311414784
000360 72 0e a2 14 7e 0d d6 3f 32 aa 9d ad 4f 70 9a 3f
       0.34457351698822614 0.025819058391258483
000370 cb be d8 dd f3 94 c1 bf 4b e4 4e 0e 16 47 d2 bf
       -0.1373581727252627 -0.28558875462801286
000380 cc f9 9a b7 3e b5 be 3f 6c 33 17 fd f0 ec a7 3f
       0.119953079057246 0.046729594130375
000390 43 9c bd 23 09 2b c5 bf f0 fa d0 73 e8 db ce bf
       -0.16537584538602532 -0.24108606009573164
0003a0 8b d1 8b d4 b3 4d 8c 3f a7 d7 f1 f0 05 84 c4 bf
       0.013820080684560995 -0.16027902855756546
0003b0 cb 4a 35 23 2f c0 ca 3f 4a 54 e9 94 4d 52 c0 bf
       0.20898999423169182 -0.12751168986383937
0003c0 31 8e f0 51 f3 66 ce bf 4c 8a 83 e7 5a ee d1 3f
       -0.2375167989822429 0.2801730404736744
0003d0 04 25 d8 35 80 1b e2 bf f9 ab 7d fd 61 ad 9b 3f
       -0.5658570338866018 0.02702859029470159
0003e0 ec 2a 13 9f 7e 15 bb bf f8 b7 2d f8 5d ae a1 3f
       -0.10579673179305943 0.034533440156209794
0003f0 55 60 23 cb c6 ef 8c 3f 69 80 aa ec dd dc b0 3f
       0.01412921245029978 0.06587016132334757

bias_output f8 [1, 10]
000000 44 ce ba 28 e6 55 dd bf c1 e2 fc df f4 15 ce bf
       -0.4583678624869416 -0.23504506050973897
000010 0e 83 15 c1 70 9f db bf 36 2e 26 98 58 28 d0 bf
       -0.43160647254812623 -0.25246252878489217
000020 12 98 99 68 97 30 da 3f a8 8f fc c3 ad e5 a2 3f
       0.4092157861217639 0.036908559965268595
000030 1b f1 cc 13 78 c1 b7 bf a0 3e 31 64 a7 8d e7 bf
       -0.09279585345661127 -0.7360417324907367
000040 38 14 60 82 34 99 f8 3f 56 a1 62 29 6f 84 cc 3f
       1.537403592375325 0.22279157181516024
