models/model_cv_digs (19000).npz (npz, 815236 bytes, 4 tensors)

weights_input_hidden f8 [784, 128]
00000000: 47a2 0217 feac b1bf 5b4f 6e4d 94e1 a9bf
00000010: c4b6 798c cde5 b83f 8420 24f3 9f89 95bf
00000020: 712e 7040 c99b ad3f a536 9dd4 4f83 873f
00000030: 3647 5a10 20f9 98bf 4b3f 7337 f85d adbf
00000040: 349c 9404 3218 afbf 4041 d3a6 eddb b2bf
00000050: 8280 6457 7f73 543f 6108 904c 33ff b03f
00000060: db8e ab1d 03f0 aabf d950 6aac d678 7abf
00000070: 1196 925f 589c a9bf 68b8 d926 a7b1 b33f
00000080: cd98 a3cd 8c77 82bf b990 5e6e 43af 7d3f
00000090: 5ff2 1b5b 3e34 97bf a179 4e6c dfff 9dbf
000000a0: 2f08 7d72 8ede 8b3f 03c8 725d f49b 9dbf
000000b0: 675e c711 759a ac3f 470e 359c 7298 74bf
000000c0: 68d5 6fd2 656c 98bf 05d1 e9e8 0799 9bbf
000000d0: 5716 ca35 18bc 563f aedc 0caa 9fab b2bf
000000e0: ec4b f837 6fa0 97bf 5528 95b8 7a76 57bf
000000f0: d74a 727b 365c a33f 175f 6320 c4b0 9abf
00000100: 4148 9810 8f4c 6dbf 0761 7771 52f0 b93f
00000110: 6f13 b6aa eb0b 8f3f 86df 5f02 6797 6abf
00000120: 146e a05b 0106 b0bf 61ad 7d78 6fa4 a5bf
00000130: b998 2b64 fdc0 903f 1679 8ec7 5e17 a83f
00000140: 53a2 83ee ffbb 9abf e6eb b917 4dd3 b0bf
00000150: 5892 be27 cb43 8ebf 5a6c 2cd5 7873 a73f
00000160: 3822 4bdf 624f a73f 1b09 4420 3578 b03f
00000170: df3d 3894 1d75 6bbf cd5f d8a7 0c8e 9c3f
00000180: cbba 87db d5d0 713f 39ec 95fd 27e1 a0bf
00000190: 0dfa 495f 650f c03f 31aa 509e a9b8 9f3f
000001a0: 6353 f137 cf40 b1bf a942 e228 e8e1 9ebf
000001b0: 66fe 618a 6fc4 933f f950 1e09 d746 8abf
000001c0: 57de bc97 6952 b0bf 2cff 12c9 d933 aabf
000001d0: 39dc 200f b87d 51bf f1cf 3b3e ba36 b5bf
000001e0: c855 2dc3 9a1c a5bf 674e f34f ec95 763f
000001f0: ea8a c1fb edab 89bf 095f a9bc 919b a7bf
00000200: 4055 bff8 908f 92bf 2abc 5527 535e a13f
00000210: e33d 0ea1 1201 b43f ffba ea1e d90a 90bf
00000220: 81f2 1a05 77d1 a1bf bb2c cef9 5f88 74bf
00000230: 9f0b 9b23 937b b7bf 6252 9aca b127 a0bf
00000240: 880a 2483 e804 903f d603 a119 9fcf b3bf
00000250: 142a 39f5 8840 a1bf a54a e738 5420 aa3f
00000260: 4ca1 087e 4a72 b8bf 34f2 33a3 ab9c a83f
00000270: ff7c 0395 7994 b13f 9d3c c5c4 1549 6b3f
00000280: bdcf 6805 5478 b83f a153 5ea7 9fd1 bbbf
00000290: 75dd 7b37 7309 a6bf bbde 801a d48f 8ebf
000002a0: 54e6 9bc0 5b29 a0bf 6750 a17f 8159 b5bf
000002b0: a5b4 b4a5 5a60 743f 82f6 83a3 7f3a 653f
000002c0: dabb 99d2 fd49 92bf 5a3c 2e3b 8045 9bbf
000002d0: 837b ec40 e7fb 7c3f 0d36 d409 92ab a33f
000002e0: e24a abc0 6ac0 b0bf 9228 836c 3c5d a43f
000002f0: 55e1 d9a3 21ce 97bf 7962 7c84 bbb0 85bf
00000300: ca19 7f2d da4d be3f 6997 77b8 e987 b43f
00000310: 0c81 390b 753e af3f 58d5 f350 112b a43f
00000320: 83fe c200 b985 9b3f 7521 57ee 5455 a7bf
00000330: 7269 43c2 4946 94bf 390b 932e 3134 74bf
00000340: e40a cd1e e537 8dbf 0358 522a c2ea ac3f
00000350: c6a5 2ca5 4bc7 81bf 123f 2eb8 1bf4 743f
00000360: c69d ba75 89b7 a23f b43a f74e 16e7 8e3f
00000370: 8062 0ab6 27d6 b13f d059 a066 5987 bc3f
00000380: 9c87 b441 fcbb 79bf 7dff bc98 5b5a a2bf
00000390: 51e8 10b3 131c b9bf 089b d9e9 17df abbf
000003a0: 512d 3cf7 c68e 83bf b17e 004e 1769 8b3f
000003b0: d9d4 313d 17cc 9cbf db8d a6c1 a233 923f
000003c0: c6f5 b671 a76a 9d3f 929f fb07 ac7a 7ebf
000003d0: e8f5 ac24 4148 a33f ebb2 d221 4a58 7d3f
000003e0: 07e3 7170 a0ba b4bf dc13 d54e bc26 9cbf
000003f0: 0411 267d db60 933f 2db2 535e 67ae 693f
00000400: 92ea eafc 4118 a9bf e34a 14f2 c151 9dbf
00000410: df8b bf0c ebea b1bf cc98 fbc2 609c b23f
00000420: d9d6 b073 6ff2 b3bf 39d9 316f a510 91bf
00000430: 7b42 1133 8a6f bcbf f631 0123 687d b03f
00000440: 56d5 d04c 04d1 a13f d0c0 c56b 472d adbf
00000450: 3f12 89ae 5fc0 a5bf df07 9c23 6ac3 adbf
00000460: f758 d79e 2822 9c3f de5e fba0 82c1 56bf
00000470: c9eb 8485 1a11 aebf bb84 3a26 ccf7 a23f
00000480: 0b53 cb81 442d b5bf 7639 f3b1 a3ef a8bf
00000490: 533a 267b 84e4 8ebf 0e88 ee26 5611 903f
000004a0: afeb 5b8d aba0 b9bf 0d24 a85f 9836 b6bf
000004b0: d2fc 93aa eea0 64bf e524 f38a 2755 bdbf
000004c0: 4381 c76b 5989 8ebf 880c d201 c0a8 b2bf
000004d0: 209c 0615 9b3c bcbf 9843 192a ccaf 6e3f
000004e0: 0de1 dc61 6b4a a33f bcc7 7960 77eb a03f
000004f0: fa5b 22b7 3621 b9bf 18eb 529f a0bb 9a3f
00000500: 1bde 323d 7149 a1bf 68f2 072e b5d0 a0bf
00000510: d5e9 ed03 7441 b6bf 4e1e 7ba1 a2f2 a5bf
00000520: def2 a0c7 970b b33f 903c 5ac0 8498 8f3f
00000530: 39e4 11dc ae23 ad3f 7535 6952 55a4 533f
00000540: 5db3 1a07 d795 9dbf d1e8 a1f5 d548 ac3f
00000550: 8586 a762 8da1 b8bf 7117 e512 374d b5bf
00000560: 0e50 644e 9cb4 a73f aed7 94b4 76c7 98bf
00000570: 4a30 38b8 86f1 ac3f fb75 9edd 999d 9ebf
00000580: e3c2 414a 704a 90bf caa6 073d 9455 a6bf
00000590: 4d01 0268 81c4 a13f 7c0f e89f 217d a2bf
000005a0: f1f2 96ef 0a32 733f a8b5 3fe7 cd78 b23f
000005b0: a292 bbbf be76 a0bf 5e55 01fa 12d1 9c3f
000005c0: d0ea 923a c47e ae3f 47d7 24dc 6c4f a33f
000005d0: 5f5e e586 f6b2 8cbf d2b5 6a28 be6f 703f
000005e0: 4077 337f e260 7d3f ff5c 1d14 68eb a23f
000005f0: ab94 dc0d 27de 673f 9902 5f74 70c8 c1bf
00000600: d5b7 d56f d045 6ebf c4fe 1c5a 857b 9e3f
00000610: 6099 d54f c281 9b3f 8815 767f 0c13 adbf
00000620: 6640 7062 c2c6 76bf d477 0903 52ae 863f
00000630: bf07 321d 7f22 923f 225a 1ed7 36ea 923f
00000640: c95b 27bf 7042 913f 895a 7f64 bdfc acbf
00000650: 433d 4d6c a485 8d3f f330 c886 fb60 a1bf
00000660: 732f c482 1f9a 87bf 08a8 609f 87bb 853f
00000670: e8f3 a219 229d b13f a17b 622c 041a a63f
00000680: 69a2 faa7 8e13 adbf 0e11 af8a 6242 9bbf
00000690: b247 25fc 92fc 97bf 43a1 bd3a d14f 9ebf
000006a0: eb33 5147 4ab2 6f3f a5a2 d5f4 08b6 acbf
000006b0: 6603 aed4 8849 9abf c11e e196 0562 96bf
000006c0: 3df8 9ff9 68ff adbf 2d3d 5455 fef9 923f
000006d0: ecb4 d3f3 8e58 863f 934c 7822 c010 b7bf
000006e0: 1bc5 2e11 5321 a63f 4a9e de38 7cb6 60bf
000006f0: 8173 a0d7 6467 973f 528a cf73 1e78 bb3f
00000700: 4ab6 5fba 2e44 953f 3c8b 1b62 8fcc b1bf
00000710: 3524 466e 8c58 9d3f ec5a 8042 7005 8d3f
00000720: fb50 cba9 2870 afbf 8d38 d972 ce0f a4bf
00000730: fea0 c4a5 4fd3 8d3f 48d4 2d98 89bf b3bf
00000740: 3957 2d90 e23e 9cbf aa64 1eb1 fac5 aabf
00000750: 51b2 0080 d348 9bbf 2f25 4977 7313 9ebf
00000760: 3b10 1931 20e7 743f 1e75 0063 22bd afbf
00000770: 13c4 9cec 7088 963f 026c 9e9d 753b 943f
00000780: 76f9 aee4 af4f b63f cf2f 8756 4f72 c3bf
00000790: 6a31 2d00 3cdf a53f 1b79 8947 0862 abbf
000007a0: 91ad 4147 774a aa3f f680 3dc6 150d ba3f
000007b0: 9139 71d9 91b8 babf f9ec e38f aa73 b83f
000007c0: 4f64 58d1 e659 aabf 50fa bd80 4c65 95bf
000007d0: 0700 3b88 3229 a0bf 3a96 6929 f383 aabf
000007e0: 7dd6 a25f f34f c1bf 3bd9 b0cd f693 b1bf
000007f0: 0a2b 63cf 2232 9e3f f43d 86a4 19c2 6f3f
-0.06904590665602327 -0.05054915852738758 0.09725651435447974 -0.02103280946269638 0.057829178920738473 0.011480926204650752 -0.02438783740814828 -0.057357556122609475
-0.06073147111811075 -0.07366833994752131 0.0012482398574960312 0.06639404887394697 -0.052612397548527055 -0.006462896889065394 -0.050020944277360375 0.07692951868531994
-0.009017086053472312 0.007247222330907182 -0.02266023093305802 -0.029296389565951157 0.0136080864609803 -0.028915231898913884 0.055865915699254746 -0.005028197952302422
-0.02385100457100489 -0.026950954047110027 0.001387618677797594 -0.07293126966111416 -0.02307294634926997 -0.0014320562789458442 0.03781290299334266 -0.026064934231583594
-0.003576545165523221 0.1013232733743089 0.015159455439752027 -0.0032460224056158364 -0.06259163367251858 -0.042270167787900055 0.016361197699460848 0.04705330072396145
-0.026107787068129728 -0.06572419957403461 -0.01477774348297449 0.04580285646644518 0.04552754379034635 0.06433422124613168 -0.003351743480159305 0.02788562559553025
0.004349551564230845 -0.03296780558135776 0.12546984818250487 0.03097786930826824 -0.06739516368663838 -0.03015864133391469 0.01930403024789342 -0.012830429044506252
-0.06375751452002852 -0.051176839633170296 -0.0010675713970280788 -0.08286632556320207 -0.04123386032612647 0.005514071555086631 -0.012534960980877103 -0.04610877445219159
-0.018125786955200285 0.033922766257881 0.07814136917135488 -0.01566638232423667 -0.0348012155277262 -0.005012869744756172 -0.09172935122755498 -0.031552844983853814
0.01564372349185786 -0.07738680244166515 -0.03369548791359392 0.05102790064451782 -0.09549394204134848 0.04807030074332311 0.06867179763820629 0.0033307480972904605
0.09558606273713983 -0.10866735302108889 -0.043040848277025846 -0.014922768648929155 -0.031565539609755305 -0.08339700094194456 0.004974702921839801 0.0025913708633414365
-0.01786038015273648 -0.026632312404725723 0.00707617124024196 0.0384183537481527 -0.0654360504516194 0.03977383446324824 -0.0232472664124271 -0.010590996723793144
0.11837543116334995 0.08019886735527638 0.06102338563937523 0.03939108002843267 0.02687729899548553 -0.04557290467670586 -0.01979937790097481 -0.004932586781424325
-0.014266767504186935 0.05647856489774485 -0.008680907228682321 0.005115612296222387 0.03655652582284179 0.015089201245158314 0.06967399782514327 0.11144026523138639
-0.006282792451459598 -0.03584562530022504 -0.09808467027406322 -0.05443644265760922 -0.009549669666305024 0.01338403898995408 -0.02812229453089263 0.017775099820608858
0.028727165523141605 -0.007441207882699434 0.03766063282681015 0.0071642776285158844 -0.08097269768940062 -0.027491514503043976 0.01892416907641438 0.0031349200167965136
-0.04901319706319386 -0.028632192993493965 -0.06999081670032535 0.07269863853761932 -0.07791802000505345 -0.01666506282023159 -0.11107696291697693 0.06441355566602866
0.03479779660885167 -0.056986076265162944 -0.04248332028922563 -0.05813152012525768 0.027474054999253785 -0.0013889098808501014 -0.05872424011109662 0.03704679457337919
-0.08272197884373271 -0.048703303787635585 -0.015084300049037191 0.015691133619505186 -0.10010788155697868 -0.0867705567872152 -0.0025181447459768714 -0.11458060400322585
-0.014910410501159382 -0.07288742107816593 -0.11029977095914534 0.003745936163604257 0.03767715043653839 0.03304646542245801 -0.09816305132913775 0.026106366848334422
-0.0337634455876776 -0.03284231364157081 -0.08693623634272936 -0.04286678525164388 0.07439564346072866 0.015427624817020452 0.05691286503219612 0.001198848077950868
-0.02889190655575945 0.055243192896300315 -0.09621509226374243 -0.0832094594125843 0.046299824303929524 -0.02419839360410208 0.05653019903920205 -0.029898075248288674
-0.01590896085002925 -0.04362166638368377 0.03470234293581829 -0.036110926408610106 0.004686396330211493 0.07215582748150118 -0.03215595331656586 0.028141304501635538
0.05956090178502438 0.03771534144691074 -0.014013219825456944 0.004012816242420185 0.00717247462600118 0.036952259498031374 0.0029135477806386443 -0.13892942125496147
-0.0036953993828125844 0.02976806986339288 0.02686217891950926 -0.05678595596240671 -0.005560645403434794 0.01107467719810621 0.0177097188539006 0.01847158134440908
0.01685501257619729 -0.05661575176025219 0.01441505866537674 -0.03394304294860886 -0.011524435213253281 0.010611590911214122 0.06880391240970563 0.04316723863416106
-0.056789834981206884 -0.026620425905790994 -0.023424431457278856 -0.029601353845835076 0.0038691950563021125 -0.05607631672575523 -0.02567113683790314 -0.021858298620172748
-0.058589249107157994 0.018531774480888764 0.010911099258431332 -0.09009934274245017 0.04322299561261841 -0.002040140744572293 0.022855353985608232 0.1073016197911241
0.02076790821586475 -0.06952758927540698 0.028658098440733155 0.01417052939363602 -0.06140257904704246 -0.03918309356650793 0.014563200231876735 -0.077141379979211
-0.027583637285111016 -0.05229171192258637 -0.026644997298875876 -0.02937107482492712 0.00510323119084793 -0.061989855370692334 0.02200485653083113 0.01975806974915529
0.08715342839329829 -0.1519259617328985 0.04271876814036342 -0.053482302410644965 0.05134937996703138 0.10176216211175756 -0.10437881048821952 0.09551492703387855
-0.05146714501842863 -0.0208942369058554 -0.031564311151214546 -0.05178794746897748 -0.13525240106325845 -0.06866400262592702 0.02948812857429587 0.003876733859392573

weights_hidden_output f8 [128, 10]
00000000: 22af f908 9a4f ccbf 9d5e b99b 607f 9fbf
00000010: 0e78 108a 0a21 793f 15b9 2fd5 ffac b93f
00000020: bf58 9d5d e629 a5bf 7c4b 593d b3ba ae3f
00000030: 8725 fa47 e485 b53f 14f5 f74b a706 cfbf
00000040: 9f24 9118 5153 be3f cffe c9f4 e778 be3f
00000050: e2d1 f702 bc81 b63f 18ac e866 1c0c c13f
00000060: 2ed0 8c10 8631 a5bf fc3e 90fa e905 b7bf
00000070: ebb0 b557 0ac7 bc3f 9de8 e4c6 44db d03f
00000080: 0adf 8975 adca e4bf 0209 e52b c442 d63f
00000090: 0788 1019 915c e0bf 370b b1f3 3fb9 c93f
000000a0: a744 f47e 210d b53f 6ca8 c731 d27c bc3f
000000b0: 1397 eeaf 94db b53f 2e38 28f0 a6a6 c13f
000000c0: d6a9 030f 0dfb 75bf af51 a61e 5ab2 543f
000000d0: 1b6e 927d 6472 e1bf 1c52 1cb5 bb7f c03f
000000e0: 9c2f 9909 12de b63f 325c 666f 043d bf3f
000000f0: a375 8f2f 61f5 51bf af45 0378 52da b73f
00000100: c265 ce97 6c66 b3bf b3bf 035b 5066 bd3f
00000110: ab08 d7ad b08e d23f 2276 53d3 c80d aa3f
00000120: afab 9dad fdb1 bc3f b6c0 760c 7e45 bfbf
00000130: 2ad1 9a55 1a13 98bf d149 c4c4 a8ec babf
00000140: 77e7 cf88 eb55 a13f 1135 f79f c10c c23f
00000150: 32be ddf2 5b70 cc3f fe3a 2339 8cdd cb3f
00000160: d78b fafa 2e14 90bf 10a1 af66 ac55 a93f
00000170: d523 f065 ba73 cfbf 2959 0ed8 f03b d33f
00000180: bd63 28fd 4568 b23f 9f29 aaa1 b768 dfbf
00000190: af82 4717 0cdb c23f 2923 31d5 9612 acbf
000001a0: ead9 65b6 65bb bb3f 3048 a6b7 fd58 a2bf
000001b0: cffe ee99 ce23 c63f 29ca bb72 99aa d0bf
000001c0: 0597 8013 4c2b af3f 3964 8470 4a72 bf3f
000001d0: d190 2781 8b1f b63f 1844 c93a e07c c63f
000001e0: aed2 fc42 d678 b53f 4efd 31f2 fcac 733f
000001f0: e78b fac4 3bd2 a53f 1acd cfd7 9d19 c23f
00000200: ab80 7c27 7bb0 bcbf 34ed 1731 c838 c53f
00000210: e762 9b42 994f bb3f 6fc0 3b3a ae98 c9bf
00000220: 5c3e 193d 5621 4ebf 0468 8575 76e6 d7bf
00000230: 6af3 ec24 372e d13f 5277 ac69 3e5a 943f
00000240: 7d9f 79f2 93b1 b23f 8b31 6adf 8d06 933f
00000250: 0496 6a17 b96b 403f e1cc a6e6 213e dabf
00000260: 8d49 fee3 e360 c03f ff27 dbe0 79c9 a53f
00000270: fc3b e545 8e05 a2bf 8828 0c38 cc4c 983f
00000280: c6c4 b026 5662 98bf 7aef 20f4 d427 a53f
00000290: 6513 da0f f6b3 b1bf 6da1 f899 a6dd dbbf
000002a0: 8d9b 65c4 040a bc3f 14d5 1ad8 ec5f 9b3f
000002b0: 09dc 3418 0f94 c43f 1246 67e0 a52f ac3f
000002c0: bda8 70fe 0269 993f 44cb dd54 9f08 ba3f
000002d0: 1abb 466f cc1e c43f 5d69 347a aff1 a53f
000002e0: 6ad0 e2ca 37c7 9c3f c1f6 a51e c832 c73f
000002f0: 6c91 144e 4d21 c2bf ff1e 2898 c947 c03f
00000300: 9913 c48d efb3 c33f 0ecb b57f 7ff9 d9bf
00000310: d807 8b99 6418 c23f eefb 9d82 0de1 883f
00000320: f53a 4d6c 6d2f 9d3f a34a e300 33eb da3f
00000330: 2ad9 3736 5288 b3bf 8412 e4dd f87b a5bf
00000340: d4f4 5d73 9641 ae3f bb0f 93be c967 b3bf
00000350: 9741 0adf af0e 8d3f 523d d026 2251 bd3f
00000360: 3b7c b617 eefe dbbf 69ff 0e20 3405 b03f
00000370: d8e1 33b2 6562 dabf 82db b2a9 432c c73f
00000380: 85c5 cca9 2fd1 bb3f a5b0 1825 b2b2 abbf
00000390: 2990 ba76 8cf7 b03f 9b3b d010 c295 d8bf
000003a0: 0094 4dd9 4113 c43f d49f 71ce 9d29 b43f
000003b0: e598 6802 092a c63f d28e 8da9 a0e5 72bf
000003c0: de93 25de 11b9 b2bf b1c6 a715 2ba9 d13f
000003d0: e913 317c 0317 af3f 8fdc fb92 89b3 cfbf
000003e0: 4fe3 f339 4850 c23f 8e93 6523 60bb b6bf
000003f0: 7a46 41bb 1ee8 a33f 2649 0417 87f2 c13f
00000400: 2ca5 c276 43d7 b8bf 2659 b633 c8f6 b83f
00000410: db57 588e 1f84 9fbf 9061 5129 829c 8cbf
00000420: da29 e1ae 4a03 e1bf 07c7 b9cb 9fca a0bf
00000430: c92e 5854 c704 a13f 642d 4d55 c2f6 b43f
00000440: 99f7 a433 7a17 ba3f 1023 5cd0 9d0a a5bf
00000450: cd39 3737 9c0d 5b3f 0b2e ad93 cadf ab3f
00000460: cc9f de29 5a7d 873f bc1d 7c98 6fc5 c53f
00000470: 664a 2513 4372 953f dc51 9e65 3591 853f
00000480: 9ebb 7d1f 17a8 963f 39d7 6f5d f718 a43f
00000490: 9e68 6d6a b20d c93f 7a78 30d3 8828 8d3f
000004a0: 1372 40b2 95a7 d6bf d1f8 bba2 498e d5bf
000004b0: fc0d 6433 cd45 aabf d7b5 9ec8 f704 c23f
000004c0: d8db 6bf5 9de0 c53f 55b7 50ca 0364 c43f
000004d0: ab53 b130 084d cdbf 2c0b 9a5d e5a5 72bf
000004e0: d707 fc93 a4be b5bf 83a5 440c 229a cb3f
000004f0: 9c8f 1119 c110 bf3f aa33 70fd 0238 e2bf
00000500: b953 9200 f414 c63f 3694 9c68 cee7 d3bf
00000510: 263c 8a60 a4c4 c03f 1f28 b255 9c9a babf
00000520: 37b9 18da a488 c53f feef c22d 8769 5cbf
00000530: 2880 f5af 911b c13f 0c37 3568 bc18 ccbf
00000540: 9789 fb93 dfab b0bf d819 b29a 9385 c53f
00000550: e002 77a8 2b9b c43f 5691 ed92 527c aebf
00000560: a132 8c24 6dad c23f 5f91 c7d0 162d c73f
00000570: f2ab d64b 11f5 e0bf 0e8c d665 c42c c53f
00000580: 05f1 da13 d01f c8bf daac e28e a9a0 c03f
00000590: d6b6 c117 2584 b93f e5f9 2895 625d b23f
000005a0: 5fde c20d 7caf c4bf 6512 a809 c4d5 bb3f
000005b0: d704 1870 bd71 b6bf 72c9 1475 8b65 a0bf
000005c0: a5be 0d2f cc1e d7bf c62c e958 a6c5 d13f
000005d0: b59e cda1 8798 cb3f da91 a605 38d4 c43f
000005e0: 07b9 9182 b9fb c03f fdca 036f f6ff be3f
000005f0: 4446 17a4 a110 b93f 3a9d 764f 07cb aa3f
00000600: e75c 5ae4 3b42 c23f 8162 5dd9 9862 c83f
00000610: 6b68 8a73 92a9 e2bf 119c 18a6 5f14 c83f
00000620: 57cf 86c7 c287 d2bf dd94 4548 53f3 a6bf
00000630: a79c 46a3 2e04 c03f 1890 9213 64f1 c73f
00000640: 1fb3 33db 5c3d c13f 78f9 c017 044e a23f
00000650: ea21 287c 7b45 b73f 3ee5 cd79 9f49 563f
00000660: 05e1 7ac6 b82d e0bf d5a7 b832 c050 bdbf
00000670: d11c 1226 e293 b5bf 1147 231f 491c a73f
00000680: d38a 822e f899 753f c22a 7637 665d 993f
00000690: 1e7a 7b4e d91d b33f 233a 3223 2bd1 c63f
000006a0: e718 ba0d 16e0 c1bf 771c 5620 af04 d3bf
000006b0: 6538 df0a 601f c33f 1540 8738 34dd 9a3f
000006c0: 0be6 847d 20b7 ae3f 4407 d3cd 59d0 b13f
000006d0: 4cce 7266 c8e1 a1bf 53ff c8b4 5a81 acbf
000006e0: edb0 005f b2ef a73f 34d3 2c57 1468 c13f
000006f0: de91 747b a145 c13f 4521 728c cf3c c03f
00000700: 1fef f84e 5b18 c73f 3455 7052 0269 d0bf
00000710: ad5b fc42 5918 e0bf 146b d0f6 e6da c13f
00000720: 5ed4 207d 895d b03f a2a4 e4f2 e63d c13f
00000730: a522 f641 0b7a 993f 3255 9c6b 5c93 c13f
00000740: 1cd0 864b f511 d1bf 391f 3663 0d03 d2bf
00000750: 1051 f438 db93 c4bf bb65 5062 b521 bf3f
00000760: 4291 677b d92c c13f 469e 3b25 a2a0 a53f
00000770: dc7a ee65 608e 90bf 5c88 9571 fd00 973f
00000780: b235 c50a aa68 c13f 24ca a973 b190 a5bf
00000790: 1a81 e1e7 4b22 b4bf a828 328c ce1c b63f
000007a0: f559 9919 d4a0 c9bf 1e4e 70d0 2dee bc3f
000007b0: cf4a a63a 8123 c03f 27bd 2f4e 7cce ccbf
000007c0: cea2 5781 8d16 b93f fde7 3e1e 4c19 b63f
000007d0: 2ac8 7803 88bf c13f 102a 6cd8 857a c23f
000007e0: cdd6 7cb0 cb43 e33f 3ee2 bf2f 17ce d63f
000007f0: 7c41 b2d5 1977 ecbf 90e9 1d5a 3a86 c93f
-0.22117925108192887 -0.03075934362854459 0.006135026139444845 0.10029601053949862 -0.04133529560810833 0.06001815914046113 0.08407427556280399 -0.2423905487957333
0.11845881318835659 0.11903238035483386 0.0879170901533324 0.13318209671828707 -0.04139346076991078 -0.08993399016639708 0.11241211549139833 0.2633830969167635
-0.649740914885997 0.34782509123409977 -0.5112996568243496 0.20096587561610033 0.0822316107699118 0.11127961840944217 0.08538178725447336 0.13789831854268314
-0.005366374025678819 0.001263225562614694 -0.5452139332368832 0.12889810889522912 0.08932602629027858 0.12202480048868905 -0.0010961007194433068 0.09317508153914987
-0.07578161913115536 0.11484243604695514 0.2899591157585159 0.05088641719497057 0.11209092606229264 -0.12215411953252694 -0.023510371661090414 -0.10517363361240163
0.03385864300794499 0.14101429282019542 0.22217892988872873 0.21769860067293928 -0.015701994007610267 0.04948176148883665 -0.24571924188083352 0.30053349589560924
0.07190358572587648 -0.49076643741195797 0.14730979096113603 -0.05482932426872928 0.10832820609162011 -0.03583519808593427 0.17296774402892942 -0.26041256145905095
0.060877206211712255 0.12283768889427983 0.0864188375776991 0.17568590994281474 0.08387507567824556 0.004803646154982145 0.042619579119921806 0.14140675580674938
-0.11206788743993694 0.16579534909383542 0.10668332935473367 -0.1999719414084242 -0.0009195014083136044 -0.37344132877990455 0.2684457645989854 0.019875502776918914
0.07302212400247572 0.01857968975177608 0.0005011228339141809 -0.4100422623116185 0.12795685417638616 0.04255276555848297 -0.035198637039336206 0.02373046009146454
-0.023812624083977572 0.04131951789938078 -0.06915223967560065 -0.4354034904122475 0.10952787203642185 0.026733112993231847 0.16076840097386505 0.055051025050158256
0.024814650325574606 0.10169406721051383 0.15718989785587995 0.042859538714952385 0.0281037061292441 0.18123723503588532 -0.1416412955524139 0.1271907799675702
0.15392870351948032 -0.4058531520051226 0.1413694143030273 0.012148004101389245 0.02850123380204202 0.420605421893166 -0.07629884551702007 -0.04196145733479731
0.05909414442337782 -0.07580243017861125 0.014188169473784025 0.11451924750894207 -0.43743469539362295 0.06257940085106174 -0.4122556915531539 0.18103833948199727
0.10866067786698437 -0.05409771635854214 0.06627729319240018 -0.38414050714430353 0.15683768377780893 0.07876001634724555 0.1731578122864398 -0.004613521182225093
-0.0731364409781032 0.27595021357329147 0.06072245493900381 -0.2476665466017249 0.14307501630517058 -0.08879662384204165 0.03888031040027058 0.14021385787834467
-0.09703466081068218 0.09751559507853766 -0.030777447760634274 -0.01397039116470536 -0.531651822625743 -0.03279589998136428 0.03323958305926806 0.08189024527125849
0.1019207359394997 -0.04109662216621335 0.0016511941474736003 0.05444176724139645 0.011469559099921776 0.17008776612804677 0.0209436874805057 0.010530869640015199
0.022125588700358294 0.03925297751986396 0.1957304973282747 0.014237469620692379 -0.35397856147190615 -0.33680954830186943 -0.05131379368142672 0.14077660842796888
0.1709172676416688 0.1593022096507705 -0.22891332986423882 -0.004552741965769862 -0.0849402295389433 0.21564126585989749 0.12134940015817935 -0.5693373632399148
0.17251443889531773 -0.3110233327482236 0.13100104059091783 -0.10392167179284727 0.16823254250761874 -0.0017341442208325115 0.13365384189364815 -0.219504881747007
-0.06512257922034902 0.16813893369199095 0.16098542905640212 -0.05954225581698107 0.14591755184701063 0.1810635108405547 -0.5299154740545176 0.16542868588030085
-0.18847084969991826 0.12990302540615667 0.09967262105939353 0.07173744336703398 -0.16160536453184002 0.10873055682902473 -0.0876730345408022 -0.03202472500051358
-0.36125473589980067 0.27768858607005276 0.21559234047457712 0.16272640491400986 0.1326820266289774 0.12109317980120334 0.09791002517820241 0.052330234956850366
0.14264629983947616 0.190508943686627 -0.5831997162488397 0.18812175378954568 -0.2895361851217237 -0.0448251748773971 0.1251276299710515 0.18705416637124084
0.13468514159412678 0.03575146474803409 0.09090396672411996 0.0013603265171851643 -0.5055812717974112 -0.11451340902627234 -0.08428777150594448 0.045137677241326675
0.005273789844212745 0.024770352492434318 0.07467420736382066 0.1782583162170833 -0.13965106649647582 -0.29716089399193585 0.1493949940763201 0.02623445124646658
0.05999089748588567 0.06958543086059615 -0.03492571116057927 -0.05567439514970709 0.04675061616612362 0.13598875290485923 0.13493746307462023 0.12685579641061842
0.18043080669473796 -0.25640924502052376 -0.5029722507778068 0.139492865099634 0.0639272623528355 0.13470160350815258 0.024879623318642036 0.1373096013491391
-0.26672108054776955 -0.28143629730810776 -0.1607622173402281 0.12160810137029092 0.13418119931805889 0.04224116043570496 -0.016168123456391167 0.022464714105247516
0.13600659871955895 -0.04211954628853601 -0.07864832316545681 0.08637705729248302 -0.2002205967898615 0.11300932253680471 0.1260835205435655 -0.22505143945407122
0.0980003777291458 0.0863235067216976 0.13865757150193875 0.14436410014634804 0.6020258376144852 0.3563287702850494 -0.8895386861568535 0.19940881157147006

bias_hidden f8 [1, 128]
00000000: b689 a7d2 1430 c13f 56f7 04ab ef37 e83f
00000010: b68a d4dd 3d47 d13f 9071 03e7 66be 7ebf
00000020: 04d8 8477 8b9e adbf 609b c83e 5233 d7bf
00000030: 0d08 86aa 3053 c43f 14d8 9a84 fa64 b03f
00000040: 47b5 66bf 1b4f aa3f c945 24f0 a31d d0bf
00000050: bf74 f62f 0c4a cf3f dd3e d56c 757d c33f
00000060: f564 1ef7 c2b2 d23f 57b2 1262 6248 b93f
00000070: 04ad c1bb fd11 f03f 4f4a 0c0f acb4 e0bf
00000080: 6a91 6845 62e9 be3f f6ca 4795 c01c 84bf
00000090: fd55 da75 ff3f 733f f167 8183 3529 91bf
000000a0: 8764 3bab 9b65 733f 7631 4a1e 2266 d33f
000000b0: 2150 88d8 4966 d3bf d3f6 cb8a 558f e23f
000000c0: 51dd 016d 6cd4 80bf da2b 1772 3da3 dd3f
000000d0: a55a ee0a 6298 e43f 3aff 560a cd6d cf3f
000000e0: 2456 eaeb 9e6a ca3f 6f8c de01 9806 91bf
000000f0: f439 3adc 1612 c63f 5a78 c1cc ffa5 dabf
00000100: d114 9f62 a609 d3bf f956 8259 a017 e83f
00000110: 28f6 3836 be89 d2bf 0ed6 0dc2 8aa0 d23f
00000120: 7c38 2559 c721 ea3f 3dba 37b7 6b67 d2bf
00000130: a24c fc8a fe78 d63f 0605 f315 5ab8 9bbf
00000140: b77e 10fa 7def c3bf f453 8e93 8007 71bf
00000150: 7ea8 29ee 2c20 d83f 1857 7bff 5969 c03f
00000160: 38c7 17d6 4b5f c6bf 5e6b 0a3b db5d e83f
00000170: 2c1b abbc 33d1 d33f b2e6 eff7 3902 dcbf
00000180: a25d 6a87 0804 c23f 4254 777b 10e9 e13f
00000190: 0cbb d7f2 fb7b e23f 841e ca4f 8d26 d7bf
000001a0: 31a5 38a4 1699 c5bf b011 2eba 2df9 d0bf
000001b0: 454f f830 da83 a63f 1054 b69a e2ae d13f
000001c0: 8633 e4ae 073f df3f 52bd ab62 2dbb 9c3f
000001d0: 2538 1a62 8e75 c2bf 9d6d b519 2676 d2bf
000001e0: a5fc 84a3 3576 ddbf 9976 a75f b11e d73f
000001f0: 309c 7448 60e6 e03f 2a41 5e44 8f85 e3bf
00000200: a22a 3346 a19f c73f acca 5697 f2df db3f
00000210: 68ea edc0 4ed3 db3f 913d c554 8b6d e1bf
00000220: 10f9 6c36 f551 d0bf 2d99 c8a7 ba42 e13f
00000230: 14d3 8a26 1368 da3f cd9b 3b53 b4fb b0bf
00000240: a280 db47 1715 ac3f 0b80 e66e abe4 b9bf
00000250: 6670 3a12 c3df b83f 7b9f e336 d185 c93f
00000260: b70a 2420 8cd8 e43f 2a52 2dbd 3dc2 e23f
00000270: 4162 b4ce a42c df3f 9fbf d1e0 5345 c13f
00000280: 00f6 c660 193c e23f 3d35 c03a 7a08 b0bf
00000290: e28d 1418 df83 c43f 876a 01da 3b28 d73f
000002a0: cbb0 d6bb 5108 71bf 1505 738d 4b84 d83f
000002b0: 08a4 02bf eb89 e63f e2b6 ca78 7998 d93f
000002c0: b4b8 6019 3e58 c0bf 396b 1a1e c2f3 c73f
000002d0: 7d24 f470 c1b1 c83f 02d7 0b2a dff1 a93f
000002e0: f548 8916 ed76 c4bf 7a61 3a42 942b b53f
000002f0: 6dfc b4c1 070a 97bf 403e 42ec b30e c6bf
00000300: fc7f 99ff 9974 b93f 2d2d 013e ad36 ee3f
00000310: 8a5d 4bea 3abf c63f c069 c6b3 883c e2bf
00000320: 3ce6 3b1b 1c9d c7bf c295 a0dd 721c ca3f
00000330: 11f2 a3fe de40 80bf fda3 d512 5aa6 e2bf
00000340: 50e5 5195 32c6 b63f 210d 0256 cf4e d13f
00000350: 26c0 25c2 8b6a d13f 5d19 2965 0a74 d53f
00000360: c0e3 fbfb 7425 d73f eee6 bf86 5444 923f
00000370: 6793 5bc6 8062 c5bf a504 2582 18d9 d4bf
00000380: 50d3 9b7b 4b47 bf3f 99ac 2f80 4af2 b93f
00000390: 9841 9561 b7f1 c8bf ddfe cff9 ab02 d2bf
000003a0: 519c e1e6 1f99 85bf d588 cb2b 6d9f c7bf
000003b0: 1fa2 6d9f 532f ca3f d490 d65b f548 c1bf
000003c0: a299 ac98 ca3f d2bf d720 2c5a 469f d33f
000003d0: ceaa 50d1 e182 e3bf db60 eca6 83f3 ab3f
000003e0: f151 6622 680b c4bf ebbc de4c 9bf5 aa3f
000003f0: d8a5 a3aa 2028 d13f 9966 af46 6c7e bc3f
0.13427982602941108 0.7568281498167646 0.2699732462225869 -0.0075058002114157946 -0.05785022577258306 -0.3625074017640397 0.15878876043649406 0.06404081094191866
0.05138479911270593 -0.2518091054090204 0.24444725362710604 0.15226619543181288 0.2921607411640957 0.09876074690209556 1.004392369674691 -0.5220547002703116
0.12074865526716896 -0.009820465617825996 0.004699705020944742 -0.016758762504061 0.00473557289270688 0.30310872037878 -0.30311819215535435 0.5799968443750124
-0.008217665745390209 0.4630883802571454 0.6436014379022096 0.24553835873484237 0.20637880820565713 -0.016626715768904562 0.1724270415620165 -0.41638178821256633
-0.2974639857387276 0.7528840778565772 -0.28965716643492323 0.2910487074908311 0.8166233769532165 -0.28756230251648046 0.35113490650946677 -0.02707043417899959
-0.15574621877839487 -0.004157545329594992 0.3769638372238048 0.12821507429787782 -0.17478321031335908 0.7614570763720214 0.3096436827149087 -0.43763589108094003
0.14074808704456837 0.5597002421806183 0.5776347868939822 -0.3617280272669421 -0.1687343885289834 -0.26520865613590683 0.04397470329072787 0.2762991438733602
0.48822204665412305 0.028057774684325416 -0.14421253004224002 -0.2884612322866021 -0.46033993691157554 0.3612483438608734 0.5281220832010884 -0.6100536666217853
0.18455902030685417 0.43554367808534766 0.43477219429738634 -0.5446221023247962 -0.25500231089599 0.5393956448577107 0.41260222209830144 -0.0663407042699042
0.054848411103877184 -0.10114547212151608 0.0971643371107703 0.1993962781918944 0.6514340045690322 0.5862110800613369 0.4870998400306555 0.1349282119513164
0.5698363199405208 -0.06262935575815205 0.16027439761920365 0.3618306759796401 -0.004158324501457321 0.3830746537533554 0.7043360453291152 0.3999313048942509
-0.1276929496684197 0.18712641210444206 0.19292467131916516 0.050673459894751374 -0.1598793373146418 0.08269621483703374 -0.022499200056014624 -0.172323694573139
0.09943544855332215 0.9441744051959283 0.17771088066249902 -0.5698894034606425 -0.18448211030754347 0.20399318524975568 -0.007936231752403907 -0.5828066223012908
0.08896175523286343 0.27043517493457797 0.2721280475589104 0.3352075565238886 0.3616611920147612 0.017838783955062824 -0.16706857381282278 -0.32575047215875436
0.12218162315168724 0.10135331754252021 -0.19487659706875315 -0.2814130725455309 -0.010545968278348779 -0.1845528091280985 0.20456929478247418 -0.13503901466640988
-0.28514351758567547 0.3065963631238566 -0.6097268188653631 0.054592241407762386 -0.1565981071440912 0.0526550799689803 0.26807419456471626 0.11130406118118187

bias_output f8 [1, 10]
00000000: b507 cd85 85b2 dfbf b27d 6e56 333c d5bf
00000010: d248 184e e958 dcbf 7135 33b3 67a3 b7bf
00000020: a07c b931 f747 da3f c3a5 3558 12dc b2bf
00000030: 781b 648f 9de4 b7bf bee3 a36f 1c78 edbf
00000040: 8f3f 39ab e89f fc3f 3082 b011 4709 d03f
-0.4952710920953181 -0.3317993492182395 -0.4429267180104378 -0.09233711361885867 0.41064243179239135 -0.07367052701524472 -0.09333214522130884 -0.9209119968864952
1.7890402496741193 0.2505662605999843
