models/model_cv_digs (9000).npz (npz, 815236 bytes, 4 tensors)

weights_input_hidden f8 [784, 128]
00000000: 60b2 4211 85b1 b1bf 4ff1 984c 35e8 a9bf
00000010: 0aa3 f80e 2eec b83f 3c17 ce24 248f 95bf
00000020: 97e5 c8a5 5ea3 ad3f caa0 8f8b 5589 873f
00000030: f72c ca85 85ff 98bf ceae 8fc7 7d65 adbf
00000040: 84d9 e5d8 2820 afbf 15c8 3438 c2e0 b2bf
00000050: 1b48 954c bc78 543f 7a1f 79c3 8d03 b13f
00000060: 8051 ca60 e9f6 aabf 36a9 7769 9e7f 7abf
00000070: f7c4 24a3 e7a2 a9bf 8cd1 e475 b2b6 b33f
00000080: 5f11 56a9 477c 82bf 58fe d0d0 ddb6 7d3f
00000090: ff84 a5d1 2f3a 97bf bdc3 3574 8e07 9ebf
000000a0: 1b57 aace b1e5 8b3f 7c62 d6cd 89a3 9dbf
000000b0: 6a09 638e c8a1 ac3f e391 2e08 b99d 74bf
000000c0: 9fec 8a3c a772 98bf a3b3 6276 19a0 9bbf
000000d0: 317f 4de6 eac1 563f 69a7 27dc 67b0 b2bf
000000e0: 226e 7364 7ca6 97bf 67f1 1e26 7d7c 57bf
000000f0: 0e16 49e8 2b61 a33f ddac 8a30 9ab7 9abf
00000100: d7b3 1a2b 1054 6dbf 33d3 4b37 f7f6 b93f
00000110: 002f 2f5a df13 8f3f 1963 7593 369e 6abf
00000120: 747c 1eff 1b0a b0bf 2c59 1888 faa9 a5bf
00000130: c44e 02ec 47c5 903f 5518 836a 8a1d a83f
00000140: 4afb 3ddf d8c2 9abf 1b81 3750 9cd7 b0bf
00000150: f448 2295 8b4b 8ebf b591 857d 7a79 a73f
00000160: 3a76 8a49 5b55 a73f f3cd db03 6d7c b03f
00000170: f70c c4ee 257c 6bbf 2b75 e2f6 5c95 9c3f
00000180: 22b4 f303 66d5 713f dd47 89c2 7ae5 a0bf
00000190: cf52 846a 8213 c03f af48 458c c9c0 9f3f
000001a0: 8566 c27c 3a45 b1bf eedc 9115 d1e9 9ebf
000001b0: 2c4a fda8 7fc9 933f f8fd d2f7 914d 8abf
000001c0: 6eb3 27cd 9756 b0bf 7d6b adda 8f3a aabf
000001d0: 8080 b5ed 3282 51bf 4e50 6c34 293c b5bf
000001e0: 27df 8308 0322 a5bf 5947 9b39 b59b 763f
000001f0: e499 2d3d 81b2 89bf aec9 23aa 9da1 a7bf
00000200: 25b8 29fb 5194 92bf 2e46 70fb c562 a13f
00000210: 4e8d 8f47 3206 b43f f286 f2ff f40e 90bf
00000220: ce24 ce56 07d6 a1bf ed1f e847 a28d 74bf
00000230: 2cef 3ddf 9681 b7bf c8fa 0d0f d52b a0bf
00000240: e463 b3de 0209 903f 826c ac15 b2d4 b3bf
00000250: 0456 0b28 f444 a1bf 6295 7d4a 0527 aa3f
00000260: 2765 8d6a 8d78 b8bf 06f3 7d6a f9a2 a83f
00000270: ef93 ac47 fa98 b13f 0c2b 4ad8 1250 6b3f
00000280: d504 c87d 987e b83f eaf0 8eb3 bfd8 bbbf
00000290: 0598 7e26 180f a6bf a389 6901 a897 8ebf
000002a0: 784c 2972 7f2d a0bf f96e 315e f95e b5bf
000002b0: 25f1 b0b3 9265 743f c547 f890 ef3f 653f
000002c0: cfc4 1403 ad4e 92bf 6d5a b163 7c4c 9bbf
000002d0: 0211 f3b2 5303 7d3f 3848 0dca 9bb0 a33f
000002e0: 7c15 f322 b5c4 b0bf a4db 0cae 7362 a43f
000002f0: 6742 a084 3ad4 97bf 86a7 64ba 49b6 85bf
00000300: c3e6 6b2e 9d55 be3f a9b0 47e8 2b8d b43f
00000310: 99aa 52ac 7546 af3f 849a 02b9 3b30 a43f
00000320: 667f 379c c58c 9b3f c3ff 6dde 4e5b a7bf
00000330: a27a 2223 7b4b 94bf 35af e9ec 5d39 74bf
00000340: 8f3e 68ee 603f 8dbf 05c1 2d38 2af2 ac3f
00000350: afbb 135c d9cb 81bf 5766 3a9e 79f9 743f
00000360: 08cb f8b4 54bc a23f 25ca 508f 00ef 8e3f
00000370: 1370 453b b9da b13f 9c44 57fe a78e bc3f
00000380: 2e33 e29f 93c2 79bf 2f69 56fa 0e5f a2bf
00000390: e55f 3e1c 8222 b9bf 6b68 3c69 3be6 abbf
000003a0: fdfd 8457 c993 83bf 989b 1d94 1c70 8b3f
000003b0: f390 3570 77d3 9cbf 9b1b 4b38 4c38 923f
000003c0: 7827 8841 3072 9d3f cf05 af83 7a82 7ebf
000003d0: da9e de74 314d a33f c695 803d ce5f 7d3f
000003e0: b309 7f9d efbf b4bf f235 b527 f22d 9cbf
000003f0: b793 861a d265 933f 510a fa41 fbb4 693f
00000400: 9207 ad6b af1e a9bf 56f2 7661 4459 9dbf
00000410: 9be2 62e3 81ef b1bf 7dd1 710d 25a1 b23f
00000420: 764d 705a 8bf7 b3bf 70fd 015e 0415 91bf
00000430: 6c3e a1b1 d276 bcbf ffb6 815b a181 b03f
00000440: 9dfc 2181 94d5 a13f 30b8 4c83 c034 adbf
00000450: ce83 05e6 f1c5 a5bf 59a8 58af 09cb adbf
00000460: 3c5c 9d4b 5d29 9c3f b591 98b4 56c7 56bf
00000470: da90 3af7 cd18 aebf 8b5e f4da a7fc a23f
00000480: 0b8a b50b b132 b5bf 76f0 69b9 06f6 a8bf
00000490: c1d8 0213 6eec 8ebf cd20 66b1 7315 903f
000004a0: 0e79 82ec 3ba7 b9bf 2193 c7de 483c b6bf
000004b0: 3494 e042 37a6 64bf 5239 10d9 aa5c bdbf
000004c0: e660 daa9 2b91 8ebf 95b2 8077 87ad b2bf
000004d0: 9b8c e787 d643 bcbf d9d6 2c41 a8b7 6e3f
000004e0: dc50 0340 5c4f a33f b07b 72c9 ccef a03f
000004f0: 10d1 1f71 a627 b9bf d4f2 a377 79c2 9a3f
00000500: 1f4c 10b8 de4d a1bf 1b92 79bc 03d5 a0bf
00000510: 7211 ff4a 2747 b6bf 2abd 8db8 41f8 a5bf
00000520: 6128 518e 7810 b33f 6511 aa72 9ca0 8f3f
00000530: 4c1f 677e 252b ad3f b0ea 1938 5da9 533f
00000540: 6b0b 91e6 6a9d 9dbf 25aa 6a8a 1450 ac3f
00000550: 6ff9 096a dca7 b8bf 28f9 91cb ab52 b5bf
00000560: fcf2 cba5 aeba a73f 8a4e c571 cfcd 98bf
00000570: cc12 d581 f0f8 ac3f 610f 934b 71a5 9ebf
00000580: 46dd d674 9c4e 90bf 17cc b9ab 4c5b a6bf
00000590: 4b50 f967 0ec9 a13f ca9b 90e9 dd81 a2bf
000005a0: aaea 628f f536 733f 5652 3015 897d b23f
000005b0: 73e4 6f43 f67a a0bf 0fa0 c573 74d8 9c3f
000005c0: b25b bfc2 9386 ae3f 0735 8402 5f54 a33f
000005d0: 1c01 504a 50ba 8cbf 0a04 fde0 f373 703f
000005e0: 0197 74ce 6868 7d3f ae65 629c 40f0 a23f
000005f0: 20b0 1f09 44e4 673f be3f 4576 fecc c1bf
00000600: c6f4 b661 914d 6ebf 3fdb 790d 5483 9e3f
00000610: 660a 66e7 cd88 9b3f 6bb8 1bdf 7e1a adbf
00000620: cadf 39ce 97cc 76bf c25a 642c 21b4 863f
00000630: fc36 0a30 2427 923f de48 3511 0fef 923f
00000640: 113f e96e dc46 913f e4c4 5e0d 2a04 adbf
00000650: 66c3 b325 348d 8d3f ecf2 2509 6f65 a1bf
00000660: 3653 6b11 2ba0 87bf 86ed 3f99 18c1 853f
00000670: a96e 0204 a5a1 b13f f992 9f59 ad1f a63f
00000680: 1d97 f628 011b adbf 94a8 e2e6 5d49 9bbf
00000690: 9486 1dc2 b702 98bf a1eb 82bc 9457 9ebf
000006a0: 1edb 7093 68ba 6f3f 157e ad81 63bd acbf
000006b0: e3b7 0f74 4450 9abf 98d9 6e35 c167 96bf
000006c0: 26c5 30e3 1707 aebf 00cf 0b9a dafe 923f
000006d0: 6f15 e025 485e 863f f768 c581 a816 b7bf
000006e0: c815 9c1d fe26 a63f a5c8 ef0f c4ba 60bf
000006f0: 0a8d 0768 636d 973f 5971 4993 277f bb3f
00000700: 31e5 ca22 a149 953f a02b 3472 1ed1 b1bf
00000710: 1026 ef9a 1060 9d3f acbd bc25 df0c 8d3f
00000720: a2b5 c405 3678 afbf 6e24 6cdf f114 a4bf
00000730: 9bf7 d143 f3da 8d3f 1168 9d75 98c4 b3bf
00000740: f66b 8098 1e46 9cbf 1541 3130 d6cc aabf
00000750: a179 8c82 d04f 9bbf b3fb e982 271b 9ebf
00000760: 7b8e e5c3 7aec 743f 0e24 2a76 43c5 afbf
00000770: 6a6d 4562 368e 963f f16f 7738 a440 943f
00000780: bcc4 0cd1 6655 b63f f31f 3f6c 4a77 c3bf
00000790: 29ed 271f d6e4 a53f ff23 d2be 0b69 abbf
000007a0: 8d19 b623 3351 aa3f 409b 06ea c113 ba3f
000007b0: ddc8 44e9 69bf babf dc79 95d6 ed79 b83f
000007c0: d170 e6a1 a660 aabf ff88 8e64 c76a 95bf
000007d0: 9ba3 392f 562d a0bf 4c90 04bf bd8a aabf
000007e0: b4ad 3e85 6254 c1bf 0cf2 da5e 7798 b1bf
000007f0: 0d5b fdb6 de39 9e3f 26a1 4afd 3bca 6f3f
-0.06911498710059893 -0.050599732971451254 0.0973538195181726 -0.02105385279312276 0.0578870370267836 0.011492412873807107 -0.024412237444761477 -0.05741494236994314
-0.06079223296812855 -0.07374204513760703 0.0012494887217440246 0.06646047613423703 -0.052665036263678466 -0.006469363018803789 -0.0500709902429523 0.07700648668543958
-0.009026107650023261 0.007254473178420172 -0.022682902499018272 -0.029325700610062223 0.013621701354434237 -0.028944161594696358 0.0559218095600212 -0.005033228665443509
-0.023874867506248006 -0.026977918482476004 0.0013890069905854836 -0.07300423741221852 -0.02309603083709367 -0.0014334890515633415 0.03785073481098432 -0.026091012203932052
-0.0035801234997365583 0.10142464733128236 0.015174622478205446 -0.0032492700517362636 -0.06265425661557505 -0.04231245909993428 0.01637756708130557 0.04710037756153499
-0.02613390791475049 -0.06578995664995484 -0.014792528618532398 0.045848682234268 0.04557309410777717 0.06439858764843347 -0.0033550969002377157 0.02791352516998306
0.004353903291513668 -0.033000789877988025 0.12559538079280805 0.03100886267322583 -0.06746259256251548 -0.030188815061106426 0.019323343934340695 -0.01284326589154626
-0.06382130392712579 -0.05122804207231633 -0.001068639502442209 -0.08294923333988999 -0.04127511481232054 0.005519588384872731 -0.012547502212055535 -0.04615490629102524
-0.018143921808977965 0.03395670599287502 0.07821954962814923 -0.015682056543147867 -0.034836034151405224 -0.005017885122022375 -0.09182112646334123 -0.03158441361209935
0.015659375040602344 -0.07746422795428212 -0.033729200256555486 0.05107895407017328 -0.09558948375105968 0.048118395089636265 0.0687405037866282 0.0033340805114837665
0.09568169661362742 -0.10877607473134146 -0.04308391065505649 -0.014937698882197042 -0.03159712093897665 -0.08348043965946407 0.004979680113191419 0.0025939635304519115
-0.017878249466950543 -0.026658958039059422 0.007083250951101629 0.038456791319405104 -0.06550151923427977 0.03981362819325021 -0.02327052530751175 -0.010601593018310995
0.11849386580788761 0.08027910633944892 0.06108443954993454 0.03943049081253938 0.026904189738956495 -0.04561850037771322 -0.019819187182856475 -0.0049375218355683275
-0.014281041408167354 0.05653507171416731 -0.00868959247824627 0.0051207304674335185 0.036593100634851494 0.01510429799427466 0.06974370667506972 0.11155176124090577
-0.0062890783866691845 -0.03588148885610775 -0.09818280400793318 -0.05449090633028749 -0.009559224112876125 0.013397429723864637 -0.02815043089266651 0.017792883811832288
0.02875590705847439 -0.007448652812799008 0.03769831229811667 0.00717144548983612 -0.08105371089099016 -0.02751901976926336 0.018943102711677286 0.003138056504952837
-0.04906223477747952 -0.028660839508790246 -0.07006084252760518 0.07277137354123471 -0.07799597700095781 -0.016681736219195498 -0.11118809544245217 0.06447800144243486
0.03483261181190154 -0.05704309084681858 -0.042525824860383574 -0.05818968072374337 0.02750154279723581 -0.0013902994854869514 -0.05878299372605662 0.0370838598993802
-0.08280474220149629 -0.04875203145363198 -0.015099391894505822 0.015706832602092647 -0.10020803951417553 -0.08685737074808887 -0.0025206641503410458 -0.11469524192236705
-0.01492532837009759 -0.07296034495875355 -0.11041012590389913 0.0037496839735478957 0.03771484643371689 0.03307952841827644 -0.09826126348327002 0.026132486274024938
-0.03379722592230671 -0.03287517238348788 -0.0870232160660345 -0.042909673479579816 0.07447007631813697 0.01544306015899428 0.056969806365997216 0.0012000475257127156
-0.028920812914531007 0.05529846372276762 -0.09631135548440793 -0.08329271049476417 0.0463461472881814 -0.024222604102148305 0.05658675751559414 -0.029927988279055188
-0.015924877768808153 -0.043665309870356044 0.034737062637447545 -0.03614705539830927 0.004691085070755699 0.07222801940253851 -0.0321881253548292 0.028169459882889266
0.05962049248017055 0.03775307565420332 -0.014027240054929772 0.004016831065940538 0.007179650688419193 0.03698923024166888 0.0029164627858247055 -0.13906842017104099
-0.003699096630696094 0.029797852823743694 0.02688905453534076 -0.05684277032365589 -0.005566208830366246 0.011085757415043477 0.01772743743145265 0.018490062165548042
0.016871876019933178 -0.056672395832160466 0.014429480934696048 -0.03397700297043635 -0.01153596541318223 0.010622207810220951 0.06887275073898515 0.04321042746577137
-0.05684665322341529 -0.02664705964767984 -0.023447867606029307 -0.029630970006774175 0.003873066186794629 -0.056132421092794406 -0.025696820815873777 -0.021880167852680182
-0.0586478676635898 0.018550315525273753 0.01092201581560445 -0.09018948715439366 0.043266240229097586 -0.0020421819058294593 0.022878220772224934 0.10740897508498416
0.02078868651253635 -0.06959715164354785 0.028686770874434997 0.014184707011365948 -0.06146401234068867 -0.03922229626011463 0.014577770716865326 -0.07721855994660155
-0.027611234720193743 -0.052344029791699644 -0.026671655624448957 -0.029400460591655974 0.005108336974760537 -0.062051876234427636 0.02202687239455995 0.019777837702221693
0.08724062541729699 -0.15207796369054413 0.04276150827714737 -0.05353581146579955 0.05140075503281869 0.10186397517700829 -0.10448324151073814 0.09561048973907965
-0.051518637908175464 -0.020915141594408656 -0.03159589125136294 -0.051839761321645556 -0.13538772111983877 -0.06873270097543854 0.029517631453326355 0.00388061253245921

weights_hidden_output f8 [128, 10]
00000000: 18db 6f81 47ad cdbf e4e3 3c55 4ecf 4a3f
00000010: 9e8c 6433 daf9 833f 1aea 94ad 7e5a b83f
00000020: b651 5bf0 ebe0 80bf 2c08 83a4 be25 ad3f
00000030: e0e7 15f9 4637 a43f 4074 db29 3cda cdbf
00000040: 97fb 4701 261a be3f 0027 7c11 3d1d bb3f
00000050: 4600 d253 e288 a23f cd9f ed24 1a98 9e3f
00000060: 8064 323c 1bed c5bf 23fc bda1 b032 abbf
00000070: 70c0 8bbc c1cb 9f3f ef25 29e6 4033 d13f
00000080: 8260 00cb d352 d4bf a059 bd1a 59bc dc3f
00000090: 27de aa45 6675 e2bf a55a e09b d11b c43f
000000a0: 8185 15c1 b81f aa3f e9d4 0165 aafc bc3f
000000b0: 57c0 7274 49c1 ba3f fd64 03a2 239e c13f
000000c0: 1427 a3a9 787b 923f 0356 eb61 b888 72bf
000000d0: f215 fff1 0604 e1bf 0520 3d33 0b75 c03f
000000e0: bcf3 41c0 6f2d b23f 8184 aad8 3ec3 be3f
000000f0: ebaa e20b 0ae3 aebf 1a0c 5ea1 b98f b93f
00000100: 7794 a7b5 9f7a aebf b991 9629 5964 b23f
00000110: 40f3 3ac2 cea6 d83f d72e fc61 5611 9d3f
00000120: ea48 acf6 e47a bf3f 653c ec29 30d2 c3bf
00000130: c9fa ea33 5f07 84bf e6ac a48e 7515 b7bf
00000140: 301e 1452 9a1e 9e3f 20df a91d 7abc bc3f
00000150: ef64 5b0b 253d d03f 460c 48cb 4a52 cf3f
00000160: 5637 033c 77b6 a2bf 1c56 0b63 d9b4 a83f
00000170: f27e 1ba4 11e5 cabf e5f1 31b5 0f51 d73f
00000180: e830 eecc 9367 a33f b380 cdfd 7de4 e1bf
00000190: 0fcf 9262 49cb ba3f d2dc a22b 00cf b13f
000001a0: b62d 8055 b2ea b03f 7cd0 34e6 717d a3bf
000001b0: 2404 9895 65e7 bf3f 2005 dcb1 80cd c2bf
000001c0: 9df4 4467 4cda a93f 72cd b632 2b9c b13f
000001d0: 8c57 62c8 9b3d b43f 7fb0 b9ef 71a1 c23f
000001e0: e38d c3dc 35ae b23f 9889 a226 4278 843f
000001f0: 4b37 2df0 0696 a33f f64b 577c adf6 c23f
00000200: 4b0c 4cc5 a8e5 bfbf 4037 4e7d 8a31 c33f
00000210: e684 eacf 8549 b93f 906b 5f41 4cbc cabf
00000220: 5ea1 c857 f10b 88bf d883 344a a11c d4bf
00000230: 5cf8 e490 2197 d03f b02c 3887 3a98 913f
00000240: eda4 51c5 e34e b13f f9e0 9505 f5d8 753f
00000250: b88d 57fe 3087 843f c2e3 d595 3874 d8bf
00000260: fffb 02f6 ce43 b63f ca1e ef98 9285 a13f
00000270: c75f fe6e 2b1b 92bf 9780 10b9 0ef7 a83f
00000280: bf8a 5f8a aae1 97bf 08cd 6966 5c30 8f3f
00000290: 7310 4d49 6284 a3bf c15b eeeb 2e99 cfbf
000002a0: 9f47 cc75 67b0 b43f 19d1 26a1 964b 71bf
000002b0: c496 08a3 fff3 ba3f 9361 789d 2d53 a23f
000002c0: c598 303c b3c6 75bf abe3 6570 1c7f b23f
000002d0: 48e8 9b36 305e bc3f 19bc 9635 148c a03f
000002e0: 7abf 4c7e 9029 863f e486 8222 9dd2 bd3f
000002f0: 0c74 1b42 591d b8bf 153d 2dd0 fffa b53f
00000300: dc30 e63a a18b b93f b76a 61b6 f012 cfbf
00000310: 2738 6ca4 e65c bf3f 7c53 fbae 5c41 ac3f
00000320: c7d9 8b2e 24d1 973f e783 9da1 6fd6 d23f
00000330: 0eb9 ff3b 09ac acbf 78a5 50d8 ed18 91bf
00000340: a66d 3296 c842 ac3f 5c14 b6ee 0afb a8bf
00000350: 9f3e 115e ff2d 843f 93bd f6b3 c6b2 b53f
00000360: 1ec5 434c 13f5 d4bf 579d 8433 c764 a93f
00000370: 7200 1cae 76bf dabf 9d0b 764d 7d8f c63f
00000380: db9b 3a98 cbfa c03f ed61 7dce 582d b0bf
00000390: ee99 97a4 a7e6 b03f 244a 1ffc 1a23 d9bf
000003a0: 4e0b bd95 6e7f c83f cfec a33c 8c81 ae3f
000003b0: 0e03 bca1 339d c53f 2733 a6bd 6533 87bf
000003c0: 3949 8b2b 6ba7 a1bf dd7f 6bd6 9048 d13f
000003d0: 9817 9c02 d695 a03f 5e1a fe1c 4cbb c7bf
000003e0: ebe0 fbad 8b64 bd3f d5be bea5 e788 a5bf
000003f0: 5b14 3755 2d38 993f 3edf 72e7 b9a0 bc3f
00000400: 4301 737d 9b60 bfbf 6917 7745 19ad b43f
00000410: b3bb 767a 7c65 98bf 335e 76df fa79 97bf
00000420: 3a88 0d9f 839f d8bf 8b62 d03d 317f b1bf
00000430: 4584 382f fa25 9c3f 1866 c9a9 b59b a83f
00000440: b919 d6da 3c4e b53f c6b1 e474 b13d a6bf
00000450: 75e6 a9cf 770c 93bf 3396 995f cb2f 9a3f
00000460: 88ef e04b cba7 9a3f 8d23 8e8c 5d9c c83f
00000470: 70bd e6df bfe2 713f 9480 e1e4 c6d8 80bf
00000480: 3634 6ff5 b6aa 9e3f 8f14 b5dc 3bc9 a83f
00000490: b9c9 ed17 6d36 ca3f 6789 7d18 cf68 9a3f
000004a0: 57b4 29af 83b8 d8bf 6f20 d02b b6ff d5bf
000004b0: 0682 7dab 72b6 b2bf 79a7 ff08 bb7c c33f
000004c0: 69df 5112 5463 c83f d098 5bc0 3b8c c63f
000004d0: eae2 aac9 07d9 cdbf 2c83 fd83 478c 963f
000004e0: 5118 fbbc bd4b bcbf 2129 1013 1002 d03f
000004f0: 71b4 78d5 94f5 b93f 17a4 cbcc 756b e3bf
00000500: 0ab5 3b3d 5ed2 bd3f a4f3 1ed5 3151 c7bf
00000510: 0c1f 0c89 00cf ba3f 3ce6 526f 5d87 6ebf
00000520: 7bd4 6dd2 1124 bb3f 4b87 0a2a 329e 8abf
00000530: 1248 44c4 1c02 b63f 54de 2110 4c47 c9bf
00000540: 9f9e 977f 394e aebf 4a93 316f 395b bd3f
00000550: 24e4 5488 fce9 c13f d9ec cde2 b542 a7bf
00000560: bd5d 01aa 94e7 c03f 7290 1e48 70fe c53f
00000570: 37b1 591d 40a4 e0bf 30ae a860 b350 c63f
00000580: 9568 2b35 cde1 c5bf 534c 7254 4b0a be3f
00000590: 432e c690 56d4 b93f 5bb0 ee07 f1b3 b33f
000005a0: 4c62 d8f5 ee12 cdbf 1688 bb45 d7b3 c43f
000005b0: 1598 d5c7 925b b3bf b3b7 50ae 8e2e b5bf
000005c0: 09bd f2eb 1fde dabf 2b75 daa8 f656 d63f
000005d0: 3632 6216 cd5f d03f 9929 aab9 75c1 c43f
000005e0: 9b4c 5fc9 747c c13f 2603 4854 2dc1 bd3f
000005f0: 2e20 4ea3 2fc5 a83f ae0e 42a2 1166 a63f
00000600: 640b c28a 90cb c23f 33e9 f90d ce1b c93f
00000610: 5dee db74 078f dabf 8f7d 074f 9dd6 c83f
00000620: 2f4c 5cfe 99f6 d7bf 01f7 cdab 0498 a6bf
00000630: 4103 5f40 d62d ba3f 9690 9c5e ed8a c53f
00000640: 2530 efca f377 c73f c5d5 2e98 bf27 a63f
00000650: 0d8c 7461 3862 ba3f 9b21 0b9f c7f3 703f
00000660: c430 eb8e 662f e3bf e712 e201 2b3b c0bf
00000670: fa33 f98d 0a94 a1bf 3523 f674 ea86 a13f
00000680: a8ee fbc0 f125 7abf bca1 3b95 9074 a03f
00000690: b88a 28e7 680d b33f 311e 3041 67d0 ca3f
000006a0: 5d0c 9544 a523 c3bf cd41 4865 a27a d4bf
000006b0: 1a05 e991 c992 c33f f791 5992 0097 923f
000006c0: fe41 904c 89e1 af3f f16d 3233 2c99 af3f
000006d0: 7a77 8518 d556 91bf ea00 a060 579f afbf
000006e0: e5be 207d 33ea 51bf 69c7 b7d6 c827 c53f
000006f0: 259a 04fd 97d3 c43f 9958 c5f8 dff3 c03f
00000700: f9e3 91f1 30f4 cd3f 2f17 63ea c619 d4bf
00000710: 2e40 a18c 965c e2bf 575d 9ef0 75d4 c63f
00000720: 2ddc d83e 3fb7 ab3f a34b 3cd2 a83d c53f
00000730: 9f0b 9281 3c04 853f 29b1 035f a083 c23f
00000740: a8c6 0299 8e3c cebf 9bd8 2a0e e344 cebf
00000750: e6b3 6524 df94 c6bf a101 d065 655c bf3f
00000760: e03e e62c f33c b33f 7544 a062 161f 9c3f
00000770: 9ceb 363c 1226 523f 8c28 0b6c 64f4 993f
00000780: edec c1ed 2ad2 bd3f 4614 be7a ebc9 90bf
00000790: a52d 689f 55e7 b4bf 0255 c51d 250a a63f
000007a0: 7864 fab6 57bc c4bf 6dd2 375c 66dc ba3f
000007b0: d91d cb2a 4994 bc3f 0cb3 9dcd c80b c9bf
000007c0: 84a7 f313 2631 ba3f d836 c50f 70c1 b33f
000007d0: 3b18 09ae c505 bf3f ba58 dcdb ce9b 92bf
000007e0: fd03 5348 9ed4 e43f e131 3143 71f1 a63f
000007f0: da9c 871f 510b c2bf 3760 1783 63ec a1bf
-0.23185056514895375 0.0008181698308141719 0.009753899281866926 0.09513084161600496 -0.008241503975491376 0.05692859419060911 0.03948423185916261 -0.2332225040799205
0.11758649379042506 0.10591489483718064 0.03620059273907876 0.029877098564071326 -0.17129841269778368 -0.05312110876456468 0.0310507079438484 0.26875326611170086
-0.31755537819254454 0.4489958535317786 -0.5768309937183788 0.15709896193648834 0.051023267335732043 0.11323037115092273 0.10451182454085149 0.13763852511218735
0.01804913077720645 -0.004524917835359246 -0.5317415930264231 0.12857189180272158 0.07100580638684922 0.12016670980166745 -0.06032592196546268 0.09984932126649007
-0.05952929584945193 0.07184369340263332 0.38518113105583396 0.028386449556861173 0.12296896955766426 -0.15485193297397185 -0.00977968575659584 -0.09017119152547401
0.029413615474395083 0.11225093101699857 0.2537319765957155 0.24469885755397253 -0.036548353267433484 0.04825476964985517 -0.2101156283670132 0.364322592686021
0.03789960743515214 -0.5591421086392273 0.10466440826968103 0.06956482949577783 0.06608118617457745 -0.038066443778377285 0.12462458517258362 -0.14689644512694944
0.05049361000644945 0.06878919590126545 0.07906507150832293 0.14555191235865902 0.07297073974364525 0.009994999698680826 0.038253990953860915 0.14815300532663372
-0.12459807221243684 0.14994937056001767 0.09877811742855477 -0.2088713950350578 -0.011741528979727075 -0.3142474388751544 0.25922431135029966 0.017182268622531083
0.06761001174313082 0.005333859554746073 0.010023482095624967 -0.3820935691106194 0.08697217470306383 0.03422220341559308 -0.017681769036783892 0.048759899226071095
-0.023321785636549516 0.015228959918408794 -0.03811938423908225 -0.24686228294441828 0.08081671358038854 -0.004222477337340069 0.10528562288581172 0.03579084918254973
-0.005316448342489182 0.0722520613106911 0.11081219990947588 0.03231871751938104 0.01082146535335914 0.11649496166731016 -0.09419782508798863 0.08586119491996087
0.09978683174103103 -0.2427655115632967 0.12251130594469882 0.0551861728287468 0.02325874837966937 0.2943381384157519 -0.056000031065069775 -0.01669665940076956
0.055197017988770455 -0.048790303840214405 0.009853358324249327 0.08475915807388494 -0.3274582142613144 0.04959700111276771 -0.4179360103880817 0.17625395090371124
0.13265366490415328 -0.06319193879370007 0.06601951378215862 -0.3927676641589264 0.19138891517112672 0.05958212127912931 0.16885991475285106 -0.011328501558432414
-0.03448042780441302 0.27005406321950237 0.03239315778596036 -0.18540336051610756 0.11481545446065737 -0.04206012628799064 0.024628361059303532 0.11182748699763764
-0.12256786167836702 0.08076627679755934 -0.023824639296147598 -0.02292625416666123 -0.3847359708071313 -0.06834705123072575 0.027488621837737055 0.048062970138470884
0.08322506277736509 -0.04343943168564439 -0.018602249192986215 0.02557294627185609 0.026030708795800744 0.19227189410255754 0.0043666358091479646 -0.008225969180955674
0.029948099832655305 0.048410292331518716 0.20478595417405446 0.025790439481519736 -0.3862618647170328 -0.3437323978291777 -0.07309643446706823 0.15224397601496856
0.190531262345526 0.1761545838591645 -0.23318574282691112 0.022019498282477887 -0.11053071845808062 0.2501259027636867 0.10140352451044678 -0.6068676948463033
0.11649121279670652 -0.18216536432546804 0.10472110124475992 -0.003726656427343737 0.10601912867953615 -0.012997047336572051 0.08596973220508655 -0.19748831546506784
-0.05919055635950809 0.11467322315872966 0.13995319992844302 -0.04543083566292134 0.1320672826866324 0.1718273498673884 -0.5200501034974313 0.17433778972314107
-0.17095341774149078 0.11734457790071078 0.10089627298855768 0.07696443980847915 -0.22714030269777863 0.1617383089533752 -0.07561604861038547 -0.08274165874237731
-0.4198074154073344 0.34905783166489596 0.2558472364987979 0.16215392652186436 0.13661060173635495 0.11622889812134626 0.048379410443033385 0.04374747377098963
0.14683729911129284 0.19616103823120454 -0.41497980510732707 0.19404951437807624 -0.3744263633718132 -0.04412855717872156 0.10226191588936918 0.16830222243982423
0.18334815415289643 0.04327200634672183 0.1030612218788038 0.0041387365060433735 -0.599536208284484 -0.12680566398571289 -0.034332589941733674 0.03423245122673394
-0.006383842802957375 0.03213931867304917 0.07442336696162044 0.20948496516233342 -0.14952531670323568 -0.31998500719876405 0.15291709541819715 0.01815415280579377
0.06226758060086367 0.061715489625580384 -0.016932801839508717 -0.061762552781148575 -0.001093435556423766 0.1652766273905926 0.16270732740777408 0.1324424709989145
0.23401462359814199 -0.31407330407488393 -0.5738022562673046 0.17835878609614994 0.05413243906189567 0.16594419732481666 0.010261986450364633 0.14464192046524119
-0.23622305365784269 -0.23647726241842268 -0.17641820218287235 0.12250360236794801 0.0751487717263859 0.027462339181572 0.001107709701371396 0.025346345037896387
0.11648815445544232 -0.016395263067824815 -0.08165488378306536 0.04304615009702141 -0.16199776110150643 0.1049255347387061 0.1116376618839391 -0.1956721309647026
0.10231245028594854 0.0771703756811023 0.12118182658113678 -0.01817248551295656 0.6509543812354647 0.044810809566658845 -0.1409703639940066 -0.03500662780032864

bias_hidden f8 [1, 128]
00000000: 103c 1ba1 2561 b83f 2507 b391 23a9 d23f
00000010: 6561 d2ee 010c cd3f 4d80 e6df 1ca3 a03f
00000020: b73d 9538 dc3b b9bf eda5 4291 70f8 cebf
00000030: a4de 1657 3ff7 c03f 4fe4 6345 4be3 993f
00000040: b8ed e73a a9ec bc3f cd8e e33e b50e c1bf
00000050: 5011 086d b887 d13f 76f3 f94a 3f97 c33f
00000060: eb74 6908 a39f d13f acb9 b99e fd48 c53f
00000070: 39a5 5fec d749 e63f a845 5a3b 647b dbbf
00000080: 4acb bf95 982c c73f ac96 871b 9877 93bf
00000090: 714d ed25 d8c0 9b3f af59 bcfa 381a b2bf
000000a0: 9750 f8f6 2acf b03f 804b 4c6d 78d1 d03f
000000b0: 2ed5 b492 2863 bfbf 9710 f061 005b da3f
000000c0: c7ca 20d0 cbe7 593f 9ae5 95d2 d364 b1bf
000000d0: 1094 80d0 bab2 a93f 8010 5fec 5bfc c3bf
000000e0: 9a3b b813 90c5 ce3f f93e 37a8 0ef0 9abf
000000f0: e5ed e434 7349 c83f 920a d6a0 12af d0bf
00000100: 4e44 abce a14d b2bf 69f2 9792 c586 e33f
00000110: afab 173d d0a1 b8bf 6e56 ebb7 68d2 b43f
00000120: c528 2181 2f6c d63f 9c2a f878 315b cbbf
00000130: bbdf 7e65 0240 ce3f dd33 b1bc a2b4 a5bf
00000140: a5ac 2b7e 5962 b4bf 533a cb13 2b8a c03f
00000150: 293f d32b 8f8a cb3f 1d0b 0ccb e5fa c53f
00000160: 23ed bbd5 0bee b4bf 68bf 3677 4ca4 e03f
00000170: 48f0 8be3 9a76 d43f 6cc1 bd17 8e60 c4bf
00000180: 4415 01aa 069d c63f 7031 8e89 cbc0 d93f
00000190: 6321 3345 c25d e03f 3d19 9511 72af ccbf
000001a0: a4be bedb 635e aabf 4f7c d20b 150f c6bf
000001b0: d02f 22b2 c819 c13f 7099 4d54 ce69 c63f
000001c0: bccb 3ed9 f15b d53f a245 151c 3d94 803f
000001d0: a37c 0615 d82d b3bf 7e20 682b 2b9c c1bf
000001e0: 966c 71c3 0ae6 d3bf dc8a 02a9 3bb5 d43f
000001f0: 4556 77e8 efee d43f 4b5a 6906 aa16 d6bf
00000200: 8530 d4b5 d5c0 ca3f 27dc 1334 74d1 c63f
00000210: 0f55 2d82 0b46 d83f 5ffb aacd a81c d5bf
00000220: 4a6e cdb6 8acb b3bf 7128 0012 71c4 d93f
00000230: 13d3 c41f 8c22 ca3f 3c64 ef30 1ae8 9cbf
00000240: ef1e a032 7632 873f 0692 76f6 f5f0 6cbf
00000250: 186a c0be 8f1f bb3f b508 5d54 c221 cd3f
00000260: ccb2 916d ad8e d03f 46f1 76b2 667c c63f
00000270: 9afb e376 7e96 db3f b707 c615 46c1 c13f
00000280: cd7d ca9e d273 d73f bfd3 6669 f732 9c3f
00000290: 7a8b 3b16 62c5 bd3f 3ca7 c4ea 7161 d23f
000002a0: fe21 8cac 4f12 833f 4c6c 1d5b e885 d23f
000002b0: c304 3a00 0f20 e33f ce32 ee1d ad50 d53f
000002c0: f7a0 d560 dd4d b1bf 0160 24bd 5f6f cd3f
000002d0: b84c f93f aea8 bd3f 58da 6777 a585 9b3f
000002e0: 995a 0c04 2414 a83f 4e98 c859 1324 983f
000002f0: 9338 018f ad62 b4bf 6fac f505 6424 adbf
00000300: d362 3a43 aad6 b73f d61c 7cbc e8ad c33f
00000310: 0762 430b 9ba6 c23f 1768 6210 0ac2 d7bf
00000320: b0f2 f301 462d a5bf 91f8 023b 8f66 b73f
00000330: b8e0 539f bf09 673f 7dbd 68e1 0a00 d7bf
00000340: b0d2 4630 431e a6bf b891 b9c1 cae6 cc3f
00000350: 5796 6571 8843 d03f 9411 d86b 8edc cb3f
00000360: c10c c300 a98b d13f b454 6022 c58c a73f
00000370: 5f0b 0142 d411 a2bf 0ebb 9e85 4d76 cdbf
00000380: 3efc c3eb 974d c63f 5e64 46bd e3b1 a33f
00000390: 3004 d20e 4615 b1bf 2e70 82bf 8af7 bcbf
000003a0: e660 7ad8 07c4 be3f 975d 3e7a bad5 9bbf
000003b0: d274 9372 b830 c73f 5b7a 7777 e89f a2bf
000003c0: 1818 5357 d556 c4bf 68bb 058f 7681 cc3f
000003d0: 5a34 5a78 cafa dcbf 0f5d 5213 95eb a6bf
000003e0: b764 e4ca 438f 85bf a348 8746 7bce cc3f
000003f0: 1641 a9a6 9c51 c63f ebde a27f 9b1a ba3f
0.09523234542142256 0.2915734217495916 0.22692894135685573 0.03249445183905717 -0.0985696447507881 -0.24195677845754862 0.13254539253624842 0.02528112040542779
0.1129861611188322 -0.13326135226008376 0.2739087166558152 0.15305319939571022 0.27536845990637343 0.16628999948757206 0.6965140930816808 -0.4294062213531
0.18104846298191496 -0.019010903053546954 0.027102830233457668 -0.07071262475469696 0.0656611302331974 0.26278505967746213 -0.1226067884607189 0.4118042904303904
0.0015811434136707035 -0.0679447545170632 0.050191724731384224 -0.15613888780183416 0.24040413821100232 -0.02630637075145523 0.1897415169022302 -0.26068559366846344
-0.07149707122450019 0.6102016318469171 -0.09621907702937336 0.08133558740822774 0.35035312280946257 -0.2137204971953296 0.23632841068115149 -0.04239376595851472
-0.07962569551789274 0.1292165609979344 0.21516599311734666 0.1717192880097053 -0.08175729721181262 0.520055992927138 0.31973907681799973 -0.15919662627448916
0.17666705418575124 0.4023922770800459 0.5114451743657294 -0.22410417421833442 -0.051501389097550004 -0.17233527257210077 0.13359936426092966 0.17510394207347302
0.3337368604217621 0.008095242900398262 -0.07491827500642727 -0.1375783883997918 -0.31091565214382777 0.32356158738018137 0.327083565728888 -0.34513331056715363
0.20900985124933782 0.1782670263562249 0.3792752047787226 -0.32987423023944545 -0.07732455218268189 0.4026148486888195 0.2041793017503087 -0.0282291500442151
0.011326716823546216 -0.0035328678092858582 0.10595034033796258 0.22759274596507387 0.258708340645893 0.17567142213909842 0.43106042490392726 0.1387107473674953
0.3664442587559876 0.02753817158528071 0.11629307787693036 0.2871975701005913 0.009312269643047873 0.28942307374899623 0.5976634029795139 0.33304908678910017
-0.06759437193034389 0.2299613641305314 0.11585511266575821 0.026877007878250175 0.047028661245510146 0.023575117449717013 -0.07963070622756367 -0.05691826412915978
0.09311927930174173 0.15374478534088237 0.14570940065347335 -0.37121821975745334 -0.041361034143823416 0.09140868368828793 0.0028122656464085426 -0.3593775941144129
-0.043199634211679494 0.22579321345541614 0.25412188600453106 0.21766834512540056 0.2741491801682053 0.04599586529381253 -0.03529227548326363 -0.23017281555572605
0.1742429639052449 0.038466564993719685 -0.06673086034608455 -0.1131521909287023 0.12017869029148506 -0.027182496749075104 0.1811743316128856 -0.036376251777018274
-0.15889994396110363 0.22270090087428263 -0.4528070617023495 -0.04476610051022522 -0.010527162198331259 0.22505131667873454 0.1743655980849403 0.10196849695318703

bias_output f8 [1, 10]
00000000: 14db e86a bbbc d8bf 6238 0ae6 aa07 a63f
00000010: c298 aec2 27ea d6bf 6a81 8832 5f44 d7bf
00000020: 5e79 522f 486f d83f 61da 2361 2137 d73f
00000030: 78ce 01ad 92f2 aabf fc30 d141 6cc2 ccbf
00000040: dbcc c0ba 3592 e93f f1bf 2018 ffc1 c9bf
-0.38651929321660927 0.04302724893669631 -0.35804170619884357 -0.3635480874527476 0.3817921125536453 0.3627398918755827 -0.05263193475630329 -0.224683315408022
0.7990978858491887 -0.20123280218240283
