models/model_cv_digs (15000).npz (npz, 815236 bytes, 4 tensors)

weights_input_hidden f8 [784, 128]
00000000: 4031 b58a cdae b1bf 6a7b c4e5 3ae4 a9bf
00000010: b021 535b 5ae8 b83f dbef 6ca8 d48b 95bf
00000020: b437 bd93 d19e ad3f eb3e d554 b885 873f
00000030: f690 d3d9 aefb 98bf a47b f135 fa60 adbf
00000040: 2fa2 134e 611b afbf 4c39 6421 dcdd b2bf
00000050: d7a4 4690 9775 543f 01db 7df3 f000 b13f
00000060: db12 a968 c5f2 aabf 384e b7c2 8c7b 7abf
00000070: 59a1 9de0 f79e a9bf 803b 3385 abb3 b33f
00000080: 3b53 5200 7179 82bf 8574 5bc0 4db2 7d3f
00000090: c1b3 2fc2 9e36 97bf dabe d7ff f102 9ebf
000000a0: 164a 062c 69e1 8b3f c63b 2ab5 fc9e 9dbf
000000b0: 9d4c 020a 639d ac3f e3dd e99d 8e9a 74bf
000000c0: 78da 1532 e66e 98bf 5abe 8383 db9b 9bbf
000000d0: 6a2e 9a4e 6cbe 563f 5008 1632 89ad b2bf
000000e0: 28f5 c5b3 daa2 97bf 0dc9 56e8 e178 57bf
000000f0: 712d 9619 325e a33f 29e5 16f1 7fb3 9abf
00000100: 8694 9546 8f4f 6dbf 762e 5a8c faf2 b93f
00000110: 3fc5 5db2 190f 8f3f 342b 0c3a 209a 6abf
00000120: e7c4 bf7c a507 b0bf 6d91 bdec a6a6 a5bf
00000130: c2c5 f5ab b4c2 903f 435e d071 d619 a83f
00000140: 9bbf c1e5 bcbe 9abf 92f6 a13f 06d5 b0bf
00000150: 6601 24b0 e446 8ebf 56da 13b6 df75 a73f
00000160: 3185 0a0e c651 a73f 3cd5 baf3 e479 b03f
00000170: 5314 2281 ed77 6bbf ebdc be5a f990 9c3f
00000180: 5da8 03fb a8d2 713f 1a5e c490 e2e2 a0bf
00000190: 9fb7 a176 0a11 c03f d939 3457 e9bb 9f3f
000001a0: 1a31 1e97 9342 b1bf 8960 f4e2 11e5 9ebf
000001b0: b3c0 35d5 75c6 933f a358 7900 8849 8abf
000001c0: 569e 3a8c 1554 b0bf ffc5 89ce 8836 aabf
000001d0: 0a78 54ab 827f 51bf 6102 fb75 e638 b5bf
000001e0: ca29 fd4d c41e a5bf 26b6 eb7f 3c98 763f
000001f0: 1abf 6a15 8fae 89bf ecf1 e6b8 fc9d a7bf
00000200: ccda 20a1 7791 92bf 7089 648c 1a60 a13f
00000210: dfde c321 1f03 b43f 2036 04bf 7d0c 90bf
00000220: 0b7f 1835 4ad3 a1bf c0bb 1656 7a8a 74bf
00000230: 360d f6d8 fa7d b7bf a63e 0b5f 5929 a0bf
00000240: 02b5 7f87 8c06 903f df49 be89 a6d1 b3bf
00000250: 74d2 334d 4d42 a1bf 8ebc 833e 0123 aa3f
00000260: 0b73 3378 cb74 b8bf f37f 8bf4 309f a83f
00000270: 9e3d de85 4696 b13f bc35 382f e14b 6b3f
00000280: f7d8 de9d d57a b83f 9ac1 cf0d 79d4 bbbf
00000290: 521d 4d04 b50b a6bf de55 826c f592 8ebf
000002a0: 025e ad80 032b a0bf 27b5 4047 b15b b5bf
000002b0: 8363 a8e8 7062 743f a07d 233e ac3c 653f
000002c0: bb40 c15a dd4b 92bf d9b3 a747 4b48 9bbf
000002d0: c080 2734 dffe 7c3f 85c3 b2c8 95ad a33f
000002e0: 77a7 70f9 21c2 b0bf 21b5 b55d 525f a43f
000002f0: 11ff cfcd 91d0 97bf 24f2 283b f4b2 85bf
00000300: 90b5 a0bd f450 be3f 348a a308 048a b43f
00000310: 21a1 ee3f a841 af3f f9a8 c01e 222d a43f
00000320: cca8 1ba1 8a88 9b3f a05b fab8 b857 a7bf
00000330: 7354 c659 5d48 94bf a970 9deb 4236 74bf
00000340: eedf fd36 e33a 8dbf 2407 055c b8ed ac3f
00000350: b3a2 86ca 1dc9 81bf 5ce3 311d 41f6 743f
00000360: 4c58 2036 74b9 a23f 867e dc90 40ea 8e3f
00000370: 17a1 0161 fbd7 b13f f177 d969 458a bc3f
00000380: 70a3 5700 9fbe 79bf 37e7 02ce 3c5c a2bf
00000390: 1406 f610 a61e b9bf f12d 77b1 f2e1 abbf
000003a0: a0d2 27c3 c790 83bf ef12 a3ff e56b 8b3f
000003b0: 3b04 cc4a 0acf 9cbf 494f a5ff 7f35 923f
000003c0: 8c59 cabc aa6d 9d3f 5098 452f cb7d 7ebf
000003d0: abca 83b7 3a4a a33f fc5a 638b 4b5b 7d3f
000003e0: c81b 50f2 bfbc b4bf 0e48 e16c 9e29 9cbf
000003f0: 4f48 1195 d762 933f e707 dcb8 08b1 693f
00000400: a9c8 acf6 d31a a9bf 15d0 60b0 c254 9dbf
00000410: 9615 1dd8 c0ec b1bf 1f0c 48bb 489e b23f
00000420: f2cf 9c74 7af4 b3bf f226 8cdf 6412 91bf
00000430: 765c 04c6 7372 bcbf e79e ca7e 187f b03f
00000440: c377 0e71 d7d2 a13f 4479 9d6d 4430 adbf
00000450: c065 51ff 99c2 a5bf 5669 f485 76c6 adbf
00000460: 6352 e244 0a25 9c3f 6fdf ca47 d7c3 56bf
00000470: a5a0 d7dc 2e14 aebf ab7b 837b bdf9 a23f
00000480: 0c76 81c1 6f2f b5bf ce8b b582 31f2 a8bf
00000490: 307e ab79 aee7 8ebf d2a9 2771 fb12 903f
000004a0: 07cd cc7f 4ba3 b9bf d2f0 29cc de38 b6bf
000004b0: d356 bf8a 0ba3 64bf 5631 50a2 2858 bdbf
000004c0: 5ae7 e613 7a8c 8ebf e18c 823e a9aa b2bf
000004d0: 85af 8070 7f3f bcbf 84e6 51c2 f0b2 6e3f
000004e0: 0ca9 772d 654c a33f 04ff fb01 33ed a03f
000004f0: a7b9 b69b c923 b9bf 3d0e ce8c 5dbe 9a3f
00000500: 04b0 b97e 364b a1bf b46d f011 6ed2 a0bf
00000510: 71ee 208d bb43 b6bf 4147 1a18 e2f4 a5bf
00000520: 6562 f123 8b0d b33f 7fd3 6f2e c19b 8f3f
00000530: 3672 4fe2 aa26 ad3f 8c31 8653 58a6 533f
00000540: a490 7fbe de98 9dbf 277a c691 bb4b ac3f
00000550: 4e06 ff33 13a4 b8bf 7b58 4298 654f b5bf
00000560: 64bc 34db 09b7 a73f d662 f267 00ca 98bf
00000570: bed4 5d9b 7df4 ac3f 7f28 bc98 bca0 9ebf
00000580: cd47 ad6d 1b4c 90bf da20 ecd5 dd57 a6bf
00000590: dce6 3444 53c6 a13f 86fa ed64 067f a2bf
000005a0: 2b71 0b3c 0234 733f e391 d13a b27a b23f
000005b0: 0a56 da6c 6e78 a0bf 62e7 448a 06d4 9c3f
000005c0: 2442 38cd e381 ae3f d582 ff2a 6751 a33f
000005d0: 6b20 a801 e7b5 8cbf 3b5f f01d 6d71 703f
000005e0: b7e7 20ca e463 7d3f 42c2 8324 58ed a23f
000005f0: 7851 e4db 98e0 673f 065b b6b7 42ca c1bf
00000600: 8a17 362d ea48 6ebf ae0a a997 a47e 9e3f
00000610: 536c 4188 9384 9b3f d9e7 8ed1 0616 adbf
00000620: 048d e092 17c9 76bf e1e5 b1b2 a4b0 863f
00000630: 335c ce99 5a24 923f 3f82 41c8 26ec 923f
00000640: 37aa 1749 3544 913f 8a05 a96d b5ff acbf
00000650: df99 ff7a aa88 8d3f 9a20 8631 c362 a1bf
00000660: a08f 1659 8a9c 87bf 0012 2771 c1bd 853f
00000670: 9705 82ed ef9e b13f 121c 90ab 471c a63f
00000680: e528 6807 8916 adbf 3566 7545 2d45 9bbf
00000690: 31cc d1e7 07ff 97bf 7b13 65fe eb52 9ebf
000006a0: f09c 1f59 89b5 6f3f 5c4b 24c0 f9b8 acbf
000006b0: 143a af12 3a4c 9abf 4a5e 0476 5064 96bf
000006c0: 8a93 0781 7b02 aebf b877 31e4 effb 923f
000006d0: 6046 d6da d85a 863f 648f eee6 1c13 b7bf
000006e0: e690 fa4f 9723 a63f f8bb 3b6d 32b8 60bf
000006f0: 80fd d87b ca69 973f 52f7 78af ee7a bb3f
00000700: a414 e852 5c46 953f 8bbe 7e11 62ce b1bf
00000710: e81f a1de 8d5b 9d3f b7b0 bd2f 6908 8d3f
00000720: 8a39 a9f5 6073 afbf 249e de75 dc11 a4bf
00000730: 6813 eaa8 5dd6 8d3f 1291 9362 8fc1 b3bf
00000740: f114 6a27 c741 9cbf 7b69 05ae b8c8 aabf
00000750: 4321 aae3 9e4b 9bbf 9c66 280c 8816 9ebf
00000760: ddfd b641 44e9 743f f26f 2391 62c0 afbf
00000770: 9d00 17bb bf8a 963f 19bb 3419 883d 943f
00000780: a02d 17e3 f851 b63f 2cd2 0b38 4d74 c3bf
00000790: 5213 1d7a 79e1 a53f d67d 1840 d664 abbf
000007a0: fee6 ae9d 284d aa3f 063c 48d3 c00f ba3f
000007b0: 2d55 c076 4ebb babf a6e3 1dae 2b76 b83f
000007c0: 9393 7dbc 995c aabf d397 927d 7d67 95bf
000007d0: 23b0 1344 da2a a0bf 870c 0c63 aa86 aabf
000007e0: e71c cf4b b951 c1bf f8a1 26b1 c395 b1bf
000007f0: 00c2 ce88 3a35 9e3f ea19 dd54 5ac5 6f3f
-0.06907353054447629 -0.05056938223628189 0.0972954247437261 -0.021041224269751396 0.057852315220415035 0.011485519493958892 -0.02439759449488662 -0.05738050373542272
-0.060755768566938755 -0.07369781317922736 0.0012487392533365083 0.0664206118070574 -0.05263344671815214 -0.006465482565051021 -0.050040956658281295 0.07696029664951531
-0.009020693609537047 0.0072501217998396416 -0.02266929683894481 -0.02930811046638735 0.013613530784629051 -0.02892680030577901 0.05588826653652144 -0.00503020963389342
-0.023860546881645267 -0.026961736585631925 0.0013881738363207504 -0.07296044800571733 -0.02308217737435317 -0.0014326292160658533 0.03782803118073275 -0.02607536229127053
-0.003577976069822744 0.10136381079262854 0.015165520435149403 -0.0032473210743594553 -0.06261667533523828 -0.042287079237925386 0.016367743487938353 0.047072125809958475
-0.026118232272380842 -0.06575049451381634 -0.014783655763040481 0.04582118127466532 0.04554575845146259 0.06435996008334127 -0.0033530844457936664 0.027896782077473963
0.004351291732954091 -0.0329809953420261 0.1255200461632144 0.03099026293517135 -0.06742212714579346 -0.030170707204064704 0.01931175340490716 -0.012835562242951964
-0.06378302262839361 -0.05119731446474062 -0.0010679985110253498 -0.08289947872527527 -0.04125035717023058 0.00551627762500354 -0.012539975968450846 -0.046127221652088796
-0.018133038720601388 0.03393633807924601 0.07817263197273004 -0.015672650130957533 -0.034815138799102106 -0.005014875293837429 -0.09176605030920801 -0.031565468647042835
0.015649982233232336 -0.07741776335595983 -0.03370896880543209 0.051048315888572934 -0.09553214726060959 0.04808953271071905 0.06869927185311162 0.0033320806630914006
0.09562430481205185 -0.1087108286590194 -0.04305806806092484 -0.014928738950667982 -0.03157816835181039 -0.08343036641663969 0.004976693201137364 0.0025924076190759343
-0.01786752573417581 -0.026642967461089604 0.007079002275048818 0.03843372416429872 -0.06546223010869122 0.03978974718016049 -0.02325656717948649 -0.010595233970087277
0.11842279080948104 0.08023095332058788 0.06104779987737375 0.039406839612938734 0.02688805206609217 -0.0455911374858069 -0.019807299236692843 -0.004934560210895147
-0.014272475352967686 0.056501160843721615 -0.008684380286312665 0.005117658950546691 0.03657115135881436 0.015095238133255206 0.06970187300033036 0.11148485025611855
-0.006285306071256311 -0.03585996641909477 -0.0981239119919553 -0.05445822159125758 -0.00955349029843805 0.013389393676683762 -0.02813354569935121 0.017782211283090352
0.028738658688405347 -0.007444184961377401 0.037675700093946794 0.007167143912929271 -0.08100509324877614 -0.027502513309009706 0.01893174025855898 0.0031361742356930014
-0.04903280626457846 -0.028643648162145114 -0.07001881862841794 0.07272772381115587 -0.0779491934488872 -0.016671730179075923 -0.11112140259170808 0.06443932624335567
0.03481171851238642 -0.05700887525630319 -0.04250031701731016 -0.05815477738561252 0.02748504682002063 -0.001389465555957838 -0.05874773450688168 0.03706161625608869
-0.082755074255566 -0.04872278900690895 -0.015090334976263525 0.015697411328724993 -0.10014793272130272 -0.08680527195423629 -0.0025191522054040876 -0.11462644541479014
-0.014916375858650067 -0.07291658187982676 -0.11034389969489496 0.0037474348378594997 0.03769222431204086 0.03305968665335793 -0.09820232440572473 0.02611681148438393
-0.03377695366802416 -0.032855453195419854 -0.0869710177948322 -0.042883935396402346 0.0744254076720466 0.015433797101630507 0.05693563473298406 0.0011993277131266715
-0.02890346563062053 0.055265294594608876 -0.0962535860008071 -0.08324274985565865 0.04631834793905723 -0.024208074898157537 0.056552815642967755 -0.02991003687115112
-0.01591532570757419 -0.04363911854130871 0.034716226650244514 -0.0361253736691554 0.004688271263799042 0.07218469558717504 -0.03216881827135516 0.02815256327560379
0.05958473091243757 0.03773043060187368 -0.014018826234874568 0.004014421690065546 0.007175344189869585 0.03696704335914493 0.002914713432924095 -0.13898500414207876
-0.0036968778383110234 0.029779979473696976 0.02687292594087538 -0.056808674889410056 -0.005562870106618382 0.011079107955299374 0.017716804158762933 0.01847897145524002
0.016861755930145796 -0.056638402591953144 0.014420825842489769 -0.03395662288227293 -0.011529045909646929 0.01061583639683139 0.06883143948109303 0.04318450898431804
-0.056812555460128235 -0.02663107620660395 -0.02343380310453486 -0.02961319675638972 0.0038707430439789345 -0.0560987517402711 -0.025681407347116617 -0.021867043688955236
-0.058612689495738016 0.018539188673791535 0.010915464571357336 -0.09013538969025842 0.043240288270028945 -0.002040956964143966 0.02286449795633194 0.1073445490264622
0.020776217041220804 -0.06955540587545721 0.02866956397363643 0.014176198739470498 -0.06142714499275133 -0.03919876993978402 0.014569026677472244 -0.07717224270487957
-0.027594672947562186 -0.05231263279229644 -0.026655657430212597 -0.029382825605444127 0.005105272891739313 -0.06201465627393067 0.022013660234507005 0.01976597455830662
0.08718829673960338 -0.15198674427632974 0.04273585906643142 -0.05350369961183403 0.05136992382854365 0.10180287512069705 -0.10442057036592152 0.09555314064881645
-0.051487735995386384 -0.020902596272797624 -0.03157693940178798 -0.05180866679258949 -0.1353065128480246 -0.06869147372220386 0.029499926185680536 0.003878284863193961

weights_hidden_output f8 [128, 10]
00000000: 9ff2 4a7d 1113 cabf b92f 434f 7a44 933f
00000010: c5db 9b48 5e10 a7bf e79e 582c c4c1 cf3f
00000020: 5ebb b658 90c9 aabf 5ae1 e24f 4cf2 b13f
00000030: 425e e487 effa a93f e6b1 459c bb73 d1bf
00000040: f714 d664 e741 cf3f 3223 8c71 371a bbbf
00000050: 6981 3740 d9ae b53f 6d7e 0ea1 4858 bc3f
00000060: c04a d843 71a4 b9bf ee8b 1677 b351 babf
00000070: e3e4 78ee 5e3c b03f 2816 f5e3 4225 cf3f
00000080: 75e6 15ad daa4 e2bf 12fd 73ca 8f4c db3f
00000090: 971b b385 6d87 e2bf e4b7 7358 d281 d23f
000000a0: ac22 6eaa c64a af3f 9a6c 9da0 9138 c23f
000000b0: 35ab 24fc d3ec b93f 354f a128 20a5 c33f
000000c0: a9bb 9c8e 03e4 b5bf f640 fe0a b008 7dbf
000000d0: 5505 9e1b a788 e0bf 2224 a126 9187 c93f
000000e0: 9a44 6fd4 d474 b73f 5b4b fb7e 005b b13f
000000f0: 8b35 6cd1 0981 973f e2d5 25a5 a789 c53f
00000100: 5054 d551 393d a7bf b207 dcdb 0eb6 c13f
00000110: a7fd 9d4c eb8e d43f d8bd 73b2 1cb1 b13f
00000120: 3e03 3ba2 9b5f c33f 8d53 1076 e8d0 bebf
00000130: 9268 5be3 08ae a1bf 9906 d48a 549b d5bf
00000140: 168f 34b2 3776 993f 1b35 26b1 f86e c03f
00000150: 49c2 406d eaa0 d63f 77e4 9f42 0f0d d63f
00000160: 6476 2dc8 695d adbf 7010 65f2 d891 923f
00000170: 6947 723d fac0 c7bf 3f61 8a6f f402 dc3f
00000180: e886 9249 9b03 763f aada 2de0 ff1e e9bf
00000190: 98a1 72ea 5ddf c73f 949c 9a1f bfdb 983f
000001a0: b6ef 4250 1c7a c63f f687 eba2 907e b4bf
000001b0: 565a eef5 4599 c53f 541a 6f0b a0c1 c9bf
000001c0: 48ec 67f0 f9e7 a73f f3e3 1c2a cf33 b03f
000001d0: 7e26 2373 24a9 b23f 1d55 0a49 501c b13f
000001e0: 867d 5578 736b bd3f 0b2e 8d61 be74 b23f
000001f0: 4847 e927 b9c0 bf3f d0fe 9073 7e2f c73f
00000200: 0445 51e2 55bb bfbf b2f9 9739 58cc c53f
00000210: 5090 fcd4 1062 c33f c8b7 f28a 389e cabf
00000220: 0a5c d3be b713 a8bf 3314 aabc b270 e2bf
00000230: 5203 fe5d 4cb4 d03f ba63 f95c defc 893f
00000240: 7720 c56d 2518 ba3f 0032 a863 7c46 eb3e
00000250: fd69 83ea 6221 b3bf 2676 e6a9 df4c dcbf
00000260: f9e5 3b89 6a08 b53f c420 b0de 40d3 a43f
00000270: 4d11 892e 26d5 723f 46ca 860e 8058 c23f
00000280: 05fa 16f2 4fb1 37bf a780 418f dafe a33f
00000290: 6400 72f5 2c1c c4bf 9cc1 eadd df6f d3bf
000002a0: 7c7b 98df c727 b03f 1a32 2947 1f93 a93f
000002b0: be37 6fbc 04bf c13f bbdc f098 6ad3 6bbf
000002c0: 2056 3364 890b b33f 372a 013f 2b49 b73f
000002d0: cca2 46d0 ff8a d13f 94bd 66af f108 b73f
000002e0: 04f4 71fe 488e 8ebf a9b9 1f1c 7afb cd3f
000002f0: 1223 9d4b 9ee9 c0bf 87f4 2c23 0472 c23f
00000300: 193c 8b25 1efc c93f 2177 f6f1 4ef3 cfbf
00000310: 332d cff4 cc33 ca3f 62f0 dd90 b13c ddbf
00000320: 73c1 1def 7ec5 c23f bc27 0a2c e151 d73f
00000330: 6092 f157 8124 2d3f d90c b9b0 2d03 94bf
00000340: b44c c4a0 5bf8 92bf 2118 0d6a 84d9 a0bf
00000350: fdb0 40a3 be15 c03f b885 1c35 448c c03f
00000360: 0058 52dc 560d d8bf b873 c003 a116 d0bf
00000370: 9268 b46b 1dfd d8bf 9a71 4ce4 eb66 c93f
00000380: 1fd6 912a d670 bd3f 4fe0 cce5 8665 b4bf
00000390: 8652 2a30 1e67 b83f 5260 2cfd e7f4 d6bf
000003a0: c101 8f68 edf9 c73f 8abd 0438 904d cf3f
000003b0: 2c32 93c2 3bd6 cb3f 254b bb0b 3776 d4bf
000003c0: 967e a234 5b65 873f c6aa 56d9 66c6 cd3f
000003d0: 2805 3e17 88dc 693f 3f23 28fc 4c09 ccbf
000003e0: d1a6 64d5 4b83 c63f e7e9 bbf9 14e5 abbf
000003f0: 8360 7e15 dd46 b03f 1bec 2ef1 d1ee c63f
00000400: fc4a a832 a1ae c1bf 4212 c456 74ca 71bf
00000410: 92b8 8edb a622 80bf 5089 ec05 1731 963f
00000420: 46e7 b6f6 11b6 dfbf 01b4 906a c339 a5bf
00000430: 0f6d 190c c965 833f ec82 84b9 c160 c73f
00000440: e2d5 3758 fa81 bc3f f650 1807 1d84 b0bf
00000450: 5216 a3ec 7b37 bd3f 4fff 2795 8886 cabf
00000460: 94c0 d35f 0cde b63f 14c0 cb14 7f6c c93f
00000470: 6bbd 637f 239a c43f 8249 c25c 1f0b a43f
00000480: 7948 3481 fa7d a2bf 29fa 0546 a60f ba3f
00000490: 5f24 8101 5940 c93f b3a3 1f05 f2fb c73f
000004a0: 115a c0a1 902e d8bf 8854 1868 918b e8bf
000004b0: c67b 6d7d f0b4 b8bf 13a3 f290 a88c c43f
000004c0: a0fb 5872 86ba d43f f75d ac85 c937 d23f
000004d0: 2823 bfb2 9a2d d1bf 3431 7aa8 666b 95bf
000004e0: d04b af5d b9f9 b0bf 44fc 0062 19ee d63f
000004f0: af39 ac10 8b65 bd3f 86ab eb93 3b7a edbf
00000500: 6c2e a040 aa63 c13f 17ab a983 f743 d0bf
00000510: 714d 92fa d6ca d13f 0504 174c 835a bebf
00000520: 3b99 55f7 21e7 d13f 079f 5017 8370 a8bf
00000530: 2965 7ed0 c093 cb3f 378e f410 35f2 d0bf
00000540: 9342 ed2a 3641 c0bf 33d6 66f4 0324 99bf
00000550: f5fd 86b2 f0b2 c73f 6517 c9bb 51ed a8bf
00000560: cbff 7e7d 79cf bd3f ec58 d493 a21f d23f
00000570: d35a 8456 85ef e1bf 3442 c2d2 a635 d13f
00000580: cc93 9ef2 b5d1 c6bf a627 99a0 852d c83f
00000590: 8239 5a12 0dd4 c53f 322c c269 aad8 cfbf
000005a0: b1cc cb7a ea1d c9bf e8c8 c706 fcb4 c33f
000005b0: 6cc7 0823 ba58 b9bf d0dd 26c7 e1f1 c3bf
000005c0: c64a 46b9 fabe dcbf 71ad 7ed8 dd3b d93f
000005d0: 3d73 142d 6636 d63f c21f 49e6 e698 bc3f
000005e0: 78b9 7f72 92ef c93f 78cd 464a 9f11 b13f
000005f0: 8671 3232 fd4f c33f 199f b0ec bd94 b93f
00000600: 7352 2ff8 88a5 cd3f ec2f 5ee1 cd81 d83f
00000610: 058d 1475 f6e6 dfbf 2528 6c01 d144 d23f
00000620: 7cfb 64af 6cf0 d2bf e440 6266 7ccb 99bf
00000630: bf5b e348 7873 c43f 37d0 59e8 2830 dbbf
00000640: 141d f5ad 541b c33f b2a9 0c78 cb0c 963f
00000650: e72d 6b7d 1e38 bb3f 7793 bc59 a652 a2bf
00000660: ac38 fe16 4104 e5bf 0f07 c780 74af cbbf
00000670: 3314 fb93 f2fc b8bf 2985 f39e a925 a93f
00000680: 334c d9be df82 b03f e586 807e 7fe1 cf3f
00000690: 02d5 7695 7ce4 c13f 294d 06e1 d6d6 cf3f
000006a0: 3eb4 fd56 83c7 c6bf 2b72 16c8 32bd d4bf
000006b0: 4370 8148 9eb0 c43f 5991 7135 56d0 b33f
000006c0: c116 8411 42c3 b73f dc87 48c9 ffbc bd3f
000006d0: 25ad 1154 c6df 81bf 107f 2987 8de2 d2bf
000006e0: ba4f 63c4 549a a13f aeb8 84e8 15af bf3f
000006f0: 8f24 c81b 9357 b63f 5aee 5cff b8e9 c63f
00000700: dab5 11d3 a0f0 c53f b279 a9b4 9805 d6bf
00000710: b631 4ef8 6d5b e0bf 6fbf db03 9bd0 c33f
00000720: 599f 6484 5117 b63f de0c 31e3 036e cc3f
00000730: dd4c 2dde d27d 8b3f 2d84 dd31 64e4 b83f
00000740: 25b1 0c76 76b3 d1bf 2d38 7130 941d cebf
00000750: 08cf 979c 59d6 c3bf 53ce 1549 98e8 c23f
00000760: e8c5 5f3c e1ac ac3f 5d59 abc9 a5a4 913f
00000770: 3cc8 bc94 53dd 963f 50d2 1f75 f704 b23f
00000780: fcfa 8e12 c637 ca3f 4058 8954 b6af 7b3f
00000790: 1ca0 fd42 80ed c6bf 4315 659a 6a29 b53f
000007a0: 1806 3243 b755 cebf a8b6 24e9 ae8a c13f
000007b0: 0e12 9e71 b02c c03f 8c0a 507b 346d cfbf
000007c0: 44ce dcec b4fa c63f 063b e208 08d5 983f
000007d0: 16d0 caef 32fd c63f d846 0a9c d28c b83f
000007e0: 6bd3 926c 547b e13f 7fa2 8355 403c d53f
000007f0: ccaa ffd4 83cf e3bf f317 a35e 29b0 c03f
-0.20370691888628742 0.018815909469409784 -0.04504675518358384 0.24810077824917373 -0.05231906016285025 0.07010342550609519 0.05074261220778144 -0.27268877278291226
0.24419872687955266 -0.10586878320840468 0.08469922845643442 0.11072210247083954 -0.10016544252747916 -0.1028091588728299 0.06342118570400461 0.2433246243546574
-0.5826238041474442 0.4265479542809355 -0.5790317164727296 0.2891736854352287 0.06111737089583377 0.14235134451414383 0.10126995950546987 0.1534767340077622
-0.0855104659246836 -0.007088363330595584 -0.5166812457465918 0.19944967638210281 0.09162645517723647 0.06779482936989949 0.022953179747721413 0.16826339305741472
-0.04538897632543437 0.13836847052885798 0.3212230919088718 0.06910876614323713 0.15135522290622733 -0.12037518389145259 -0.03453090453486242 -0.3376056056732551
0.02486502671412357 0.12838657998910538 0.353571516697262 0.34454709535891176 -0.05735331123899526 0.018134488863566778 -0.1855767059355984 0.4376803483260296
0.005374533263564386 -0.7850341204164881 0.18650411555905744 0.024275766662552004 0.17560151976601696 -0.08005622842350121 0.16874002941468075 -0.20122147138882218
0.04669171390192922 0.06329054620881873 0.0728934079262675 0.06683828147136635 0.1149208229812669 0.07209386712673209 0.12403447365184406 0.18113690035715146
-0.12395226264313314 0.17029860317411544 0.15143022918448645 -0.20795351776672377 -0.04702543453611703 -0.5762571034289351 0.26100453547410496 0.01268933984026598
0.10193094186718264 1.3005893483097365e-05 -0.07472818589614146 -0.4421919974500689 0.08215967035712159 0.040674235519021745 0.004597806117605363 0.14332581242850234
-0.00036152078436294004 0.03905375479439615 -0.1571098516906232 -0.30370327636321703 0.06310700615766324 0.04995057815230926 0.1386419220056591 -0.0033967096310579515
0.0743947858457763 0.09096021927067786 0.2741088422722384 0.08998022587069548 -0.014919824852990267 0.2342369687389241 -0.1321294659813011 0.14410449712332626
0.2030065234489207 -0.24961268248164806 0.20470582917764943 -0.4568294443813611 0.1466520946082813 0.3643725328516856 0.0002223403825808599 -0.01954337493067446
-0.018525535285402753 -0.03290952486581512 0.12566359492610238 0.1292805919011195 -0.37581416621958397 -0.25138116232283947 -0.39044890897788165 0.19845341346161832
0.11500299968050641 -0.07967417822226362 0.09532345462714362 -0.3586978886028237 0.18731467824365036 0.24455454573897512 0.21747538567287117 -0.3197152723852688
0.01142379049662105 0.23261724102243003 0.0031569154761547265 -0.21903383552878528 0.17588184280002975 -0.05448213146697239 0.06358129286525309 0.1791632106449875
-0.13814177487855506 -0.004343466233198758 -0.007878593039859081 0.021671638237543533 -0.4954876813240968 -0.041456324346974334 0.009471483880750612 0.1826402812812583
0.11135830549013506 -0.0645158903428785 0.11412786986610371 -0.20723063738841538 0.08932568873911101 0.19862354770111834 0.1609539386767936 0.03914735801039894
-0.03611738993835529 0.10180129251055149 0.19727623532733937 0.18737626314330455 -0.377842100105597 -0.7670371087175605 -0.0965109163494012 0.16054255559472405
0.32388459364659106 0.2846549802211195 -0.2684084649632035 -0.02091751483253397 -0.06631048714852672 0.35828241892517476 0.1148306766228646 -0.921170987040896
0.13585403590728917 -0.2541483674782951 0.2780053565013168 -0.11856861694015215 0.279732219254942 -0.04773339900594747 0.21544656925542796 -0.2647831597880414
-0.12699009986910834 -0.024551450531097706 0.18514832226900038 -0.04868560235313061 0.11644706071729087 0.2831808513304981 -0.5604883851800316 0.2688996370498302
-0.1782748636880157 0.18888922063552832 0.170533784829285 -0.24879961170185677 -0.1962254619207662 0.15396070796084094 -0.0990101180584852 -0.15581915115556777
-0.4491564568826728 0.39427896635125764 0.3470702591164814 0.11170809862335232 0.20262365904586566 0.06667514384644402 0.15087857199695182 0.09992587116778075
0.2316142284240815 0.3829226208551961 -0.4984718459474638 0.285450221432827 -0.2959243500553652 -0.02519029974843158 0.15977386054029627 -0.4248144406367404
0.149271569194959 0.021533183290708365 0.10632505952815273 -0.03578681798379695 -0.6567693184931804 -0.2162919644161367 -0.0976096736222452 0.049115467694500765
0.06449697884936327 0.24906915356500928 0.13978535936409037 0.2487438772919657 -0.17796365497216188 -0.32404775180637796 0.161639962580809 0.07739771656776408
0.09282315185199776 0.11616514839309339 -0.008727597656806705 -0.2950776882116637 0.034380578015457755 0.12376534392089653 0.08727378299967568 0.17900764912507122
0.1714058905230747 -0.3440915836598847 -0.5111608361926787 0.15480363548658313 0.08629331094982486 0.22210739701595278 0.01342358341722732 0.09723497598089699
-0.2765785363033209 -0.23527767529816526 -0.15497894426481928 0.1477232319699505 0.05600646841038409 0.017229643281859598 0.022328668549740124 0.07038828477363634
0.20482707887818907 0.006759369113373437 -0.17912295599967443 0.08266321439176232 -0.2369908407309118 0.13704477676349325 0.12636380717971502 -0.24552017232061407
0.17952596250107622 0.024250150243967837 0.1796020193920646 0.09589878377507988 0.5463049049927639 0.3318024478053658 -0.6190814170962198 0.13037602539969803

bias_hidden f8 [1, 128]
00000000: 789d ffae f4d0 933f ef27 0984 4a66 e23f
00000010: 5db0 24a4 9a25 c33f 5063 cbfd 04ad acbf
00000020: eac9 e546 f86b bbbf a7f7 a5c5 6d27 d9bf
00000030: 05ac f3f0 a18c bc3f 39a2 167a a803 9cbf
00000040: 1a01 e66e 2216 993f b0b5 e017 793f d4bf
00000050: e9b8 92bc b8f0 c43f 3864 e7a2 4019 923f
00000060: 3c44 f123 ca05 c23f d5d8 ae90 5a93 903f
00000070: c46b 7deb 4ef6 e93f 4a6d d691 2690 e0bf
00000080: 0117 13ce cc40 a93f c302 8c6f 035f c1bf
00000090: 1251 3b05 d416 a1bf 44e9 655d 60b0 c1bf
000000a0: 5053 8196 d081 75bf 25c7 2ab8 19fb c43f
000000b0: e581 55bb 5335 d3bf 0ae3 deac 977c de3f
000000c0: 9463 df29 102b b0bf ff95 4277 1421 ca3f
000000d0: c7f1 ff9d 8d58 d73f c6cf 1917 dab3 87bf
000000e0: 42cc 2e1e f59e bf3f 517c 7b91 df78 583f
000000f0: e845 c50d 6696 b73f 8842 837d 0113 dbbf
00000100: 05c8 33b8 70be d0bf 447e bcb4 db9c e43f
00000110: 9b47 a702 4119 cebf 1d22 e648 f300 ca3f
00000120: e2ed 472f e584 e33f ad0e eabc 0e81 d9bf
00000130: b02b 5fb6 3b3f d03f 29f1 3e0d 4b66 b9bf
00000140: fdfd 2487 2346 c4bf ecf5 8558 2728 89bf
00000150: 5303 5a67 0eb6 d03f c3a0 c263 1e52 b73f
00000160: 021c 3428 0f8f c9bf 5f31 c9d7 cfd2 e23f
00000170: f5f9 4014 bb6c cc3f 7198 169c 26da d7bf
00000180: e03f 5817 1710 8dbf 761d d4ee 4c78 dd3f
00000190: e1a1 b14e cd03 db3f 01fd 6d29 3c81 dcbf
000001a0: a545 3d08 415b cbbf c728 58bb a8f0 d7bf
000001b0: a46f e693 8853 903f a3dd 9bac b9ed cc3f
000001c0: 38d1 2efe bfc5 d53f 68be 5d23 914c a2bf
000001d0: 3df9 f785 3600 c7bf f577 a3ee 2171 dabf
000001e0: 3b2d 7353 689b dfbf e053 07bb cdf0 cc3f
000001f0: fb57 df69 ea41 db3f 244f b0de 736b e5bf
00000200: 3847 a39c 13ac c43f 8e61 9131 edbe d53f
00000210: 7f91 0b8f 7101 d73f f065 6d13 5f30 e2bf
00000220: 8930 927b a507 cdbf 0742 3c9a 17d4 de3f
00000230: 0435 dd14 16be d13f 4ac5 40ca 8b0d bcbf
00000240: 5989 7007 72c9 b0bf 1f8f bf20 4b05 c1bf
00000250: d4ce f338 2a7a a23f 6593 e006 8f3c b53f
00000260: 6b29 1adf 4c68 de3f 698c ed0f 1ce1 db3f
00000270: 020d 8dae 8edc d83f eb22 c17a ca26 993f
00000280: ee31 1dbb 3bde d93f 3850 bdcb 7c9c c4bf
00000290: 6b30 db10 44f2 b93f 3418 7629 ca96 d13f
000002a0: 9943 f3bb 8afa c1bf 2006 881c 8ead d13f
000002b0: 63e1 ad66 af3d e43f b34d 128c 6991 d53f
000002c0: 4936 fb1c d7fc cfbf 9c8e 6050 ef5a bd3f
000002d0: 421f a73e da23 c03f b511 39a9 8f44 883f
000002e0: 8f95 269b 28f9 c2bf d329 ef2c 67cf 823f
000002f0: 491c e23e bde3 b9bf a3ff 5f61 200f d3bf
00000300: 7846 c348 3b3a af3f 48f4 d62c 07ec e43f
00000310: e227 fbfc 11fd bc3f 1ab4 4999 71ab e1bf
00000320: b7a6 8261 1d58 cfbf 6298 be1a d690 bd3f
00000330: 569f ee06 5d6b b9bf 94f1 2f3b 5541 e2bf
00000340: 68ca af28 02b5 ca3f cfd0 4a28 f5d3 ca3f
00000350: 42c1 0c56 2047 c83f 80c9 58ca 1dc4 cc3f
00000360: 518c ebe2 577f d03f fcfa c399 ae5b 6fbf
00000370: 6c32 5021 4e2e c4bf 07a0 7eb2 e5de d6bf
00000380: 4cad ba84 4bad ab3f 694e 4642 de36 83bf
00000390: 6e55 dcd5 84d1 d0bf 95d5 a287 72b0 d5bf
000003a0: 44a0 27a5 64c0 4a3f 4973 803a 36a8 d0bf
000003b0: 385a d715 f0fb c23f 5a4c 5554 d136 c8bf
000003c0: a149 3668 fc9b d3bf 9057 b1d0 62c0 c83f
000003d0: ddb1 0fe2 f64c e3bf c565 2a04 f1f2 a3bf
000003e0: 2366 96b0 0579 cabf d11f 9b63 249d ac3f
000003f0: 9e15 a353 2254 ab3f d4fb 2a37 00f8 a6bf
0.019351790600834445 0.5749867037604853 0.1495850850564037 -0.05600753400876235 -0.10711623888872848 -0.3930315427932051 0.11152088291753166 -0.027357704593358376
0.024498498934463965 -0.3163740857297297 0.16359624107048568 0.01767445558821043 0.1408016849041206 0.016187110024213098 0.8113169288075075 -0.5175965164557195
0.04932250991400445 -0.13571207949282468 -0.033377290381084404 -0.13819508133367198 -0.005250754162337071 0.1639129781011032 -0.300129826491711 0.4763545215787849
-0.06315709135323139 0.2041345197987283 0.364779857918418 -0.011573509054166108 0.1235192488373267 0.0014936621936880899 0.09213865123935927 -0.4230350232801716
-0.26162355412009247 0.6441477327352421 -0.2351456892925484 0.20315400180358348 0.6099725650269046 -0.39850204895649705 0.2538594513868544 -0.09921711991677697
-0.15839046572544638 -0.012283618344322421 0.26111183255129794 0.0910967820697151 -0.1996783205324562 0.5882338728493258 0.22206820000606312 -0.37268986933702936
-0.014190845870899638 0.46046756098845465 0.4221070545668493 -0.44538787885535674 -0.2137223520499393 -0.37406366629933213 0.015943655039890495 0.2260048001114515
0.34019470045611255 -0.03574040943828721 -0.17969399968564828 -0.41315506271882835 -0.4938603224697606 0.22609874374634753 0.42589817370514965 -0.6693667745007343
0.1615013613541636 0.3397782310544465 0.35946310967690204 -0.5684047107162638 -0.22679585012190653 0.48169508039521286 0.27722694432743844 -0.10958169639413487
-0.06557381326323276 -0.13297404383694642 0.03608829446048181 0.0829553024091872 0.4751159838421219 0.4356146007104998 0.38846175237650027 0.02456203817590367
0.4041890456471994 -0.1610256190130046 0.10135293399361138 0.2748284726043295 -0.14045843293436347 0.27621796404136667 0.6325299268201373 0.3370002620588039
-0.24990357318022152 0.11466880523999595 0.12609413203449021 0.01184952006509197 -0.14822871757239084 0.009184652384551939 -0.10113127503619625 -0.2977982474258118
0.06099114669053746 0.6538120151304918 0.11323654581352074 -0.5521781915573485 -0.24487654935119504 0.11549127724592403 -0.09929448527566129 -0.5704752117158471
0.20864893900541692 0.20959343402285532 0.18967060281421239 0.22473499660697982 0.25777241859595273 -0.0038278970879440637 -0.15766312243103486 -0.357354568778192
0.05405651087979865 -0.009381996533910102 -0.26278801808196917 -0.3388944935389529 0.0008163920813872923 -0.2602668353372804 0.14831353250947799 -0.18917290323097086
-0.30639562775572854 0.19337115469050703 -0.6031450667629162 -0.03896287132119939 -0.20681830522953346 0.055886399420671425 0.05337626715622011 -0.044860846266139426

bias_output f8 [1, 10]
00000000: 1e19 0a30 85cb ddbf 47e6 e6e7 4643 c2bf
00000010: 34a8 d220 d860 dabf 6081 2b82 8815 cbbf
00000020: 3053 56fc 2a9f db3f 7e03 a035 0ab8 b83f
00000030: 301b 0198 1e99 aabf b8bb 4810 5f63 e5bf
00000040: 9b08 20d4 1bf7 f63f ece3 d818 bcde 86bf
-0.4655468911299908 -0.1426781303724047 -0.4121609039817742 -0.21159464221910707 0.4315898384314094 0.09655822571950343 -0.05194945912858484 -0.6683802907990559
1.4353292738092367 -0.011167020328786102
