models/model_cv_digs (14000).npz (npz, 815236 bytes, 4 tensors)

weights_input_hidden f8 [784, 128]
0	0xbfb1af416f0c5234	-0.06908043824325533
1	0xbfa9e4e496b5d41d	-0.05057443942761373
2	0x3fb8e8fd997ba7bc	0.09730515477318041
3	0xbf958c61dec86a5d	-0.02104332849749323
4	0x3fad9f93b4fc9fa5	0.05785810074149759
5	0x3f8786527ec0b1ad	0.011486668103395237
6	0xbf98fc5296ac2a0a	-0.024400034376450143
7	0xbfad61bac1e340d6	-0.057386242072995294
8	0xbfaf1c2d2d7f23af	-0.06076184444788823
9	0xbfb2de57c7f20dc5	-0.07370518332941518
10	0x3f54761da713c3e9	0.0012488641335119904
11	0x3fb10160645ae279	0.06642725420068442
12	0xbfaaf37606b5b7c3	-0.052638710326263126
13	0xbf7a7c3a5365d17c	-0.00646612914566835
14	0xbfa99f9fcb9f25ac	-0.05004596100441047
15	0x3fb3b42ca50cde20	0.0769679930643794
16	0xbf8279ea14bd7b40	-0.009021595724048148
17	0x3f7db310614eff16	0.007250846848307698
18	0xbf973736e5b0e858	-0.02267156388209232
19	0xbf9e03b6b15033bb	-0.029311041424125977
20	0x3f8be21fe619f3a8	0.01361489220584551
21	0xbf9d9fbed784506b	-0.028929693130593053
22	0x3fac9e1e94113706	0.05589385564290521
23	0xbf749b15a6fb2844	-0.005030712680033803
24	0xbf986f86543e975a	-0.023862933055759462
25	0xbf9b9c9075be674a	-0.02696443289423848
26	0x3f56bf015e581000	0.0013883126606524243
27	0xbfb2ae039beda574	-0.07296774441569714
28	0xbf97a3759ca30818	-0.023084485707620755
29	0xbf57797bbe1f3fa2	-0.001432772486158009
30	0x3fa35eb1093e8f0a	0.03783181417318644
31	0xbf9ab42ef0768190	-0.026077969958011205
32	0xbf6d504f605fcfb5	-0.0035783338853380927
33	0x3fb9f3a49df4defb	0.10137394768105061
34	0x3f8f0fe5414e4b4a	0.015167037063098871
35	0xbf6a9ace931f54c3	-0.0032476458227202755
36	0xbfb0080e8bc0a047	-0.06262293731617873
37	0xbfa5a734d2e210b3	-0.04229130815750306
38	0x3f90c32284efca02	0.016369380344210434
39	0x3fa81a74667c66a7	0.04707683325814332
40	0xbf9abf6c2ec8b85e	-0.0261208442263342
41	0xbfb0d57490ab2100	-0.06575706989235997
42	0xbf8e47ab1eefffe0	-0.01478513420261146
43	0x3fa7767978248135	0.04582576362213545
44	0x3fa7525ee3820577	0.04555031325527186
45	0x3fb07a50ef8177fe	0.06436639640148198
46	0xbf6b78a187e1a5fd	-0.003353419771020992
47	0x3f9c91b49373765d	0.027899571895309772
48	0x3f71d31dca5c2aba	0.004351726883906332
49	0xbfa0e3513ca4f272	-0.0329842936066357
50	0x3fc01173c3349d4f	0.12553259879607956
51	0x3f9fbcb952bc30fb	0.03099336211657631
52	0xbfb14304b6268233	-0.0674288696959671
53	0xbf9ee5dc5e6de115	-0.03017372442579454
54	0x3f93c6f77035d477	0.019313684676906164
55	0xbf8a4a3449566440	-0.012836845863420376
56	0xbfb054809033229a	-0.0637894012499011
57	0xbfaa37349ae5c9e0	-0.05120243445243822
58	0xbf517ff559b806b9	-0.0010681053162219635
59	0xbfb539718cd14df4	-0.08290776908807357
60	0xbfa51f4eb98ca7f9	-0.04125448241241254
61	0x3f7698d09563a7c0	0.0055168292803759456
62	0xbf89af37669a578a	-0.012541230028812373
63	0xbfa79e9781ddf4bc	-0.04613183460512846
64	0xbf9291f15302c8df	-0.018134852115232355
65	0x3fa1608c6cf1b88a	0.03393973188291095
66	0x3fb403a24a55db4c	0.07818044962719489
67	0xbf900ce6edc5a2b8	-0.01567421747441486
68	0xbfa1d3bf0891acc0	-0.034818620487237606
69	0xbf748b00f5c637e0	-0.005015376806467103
70	0xbfb77e94d026ff42	-0.0917752273735433
71	0xbfa029c34aeea1d6	-0.031568625351898014
72	0x3f9006f58f4f2f7f	0.01565154730978646
73	0xbfb3d2286e15700d	-0.07742550551978429
74	0xbfa142be6a6f78b8	-0.03371233987103167
75	0x3faa23ac8ae0fa6f	0.05105342097566711
76	0xbfb8756bc0ffdc0f	-0.09554170095349
77	0x3fa89fd25334dfcc	0.04809434190468628
78	0x3fb196b9c97521a6	0.06870614212414825
79	0x3f6b4c94154796e6	0.003332413887835328
80	0x3fb87b760e40984a	0.09563386772114871
81	0xbfbbd52f7318091a	-0.10872170028600117
82	0xbfa60c4580c05534	-0.04306237408324379
83	0xbf8e93bdcdd53d02	-0.014930231899283889
84	0xbfa02b6d777996c9	-0.031581326326699584
85	0xbfb55c3d421da4b4	-0.08343870987086427
86	0x3f7462f681f1dd1d	0.0049771908953666595
87	0x3f653d376db37361	0.002592666872813274
88	0xbf924c5544777dc4	-0.01786931257617909
89	0xbf9b48fe163733a0	-0.026645631891188182
90	0x3f7cff9d3d1f533e	0.007079710210707911
91	0x3fa3ae16c0ab1b72	0.03843756772908237
92	0xbfb0c28fcea93a1b	-0.06546877665935151
93	0x3fa45fd7e28d973a	0.039793726354032846
94	0xbf97d12de24a5b47	-0.023258892952607437
95	0xbf85b38271edc523	-0.010596293546515206
96	0x3fbe51bb6e5ff786	0.11843463368128768
97	0x3fb48a8aa54bada6	0.08023897681748923
98	0x3faf42751a37b6be	0.06105390496291595
99	0x3fa42da65aaa1077	0.03941078049413787
100	0x3f9b893f14bde73c	0.026890741005878058
101	0xbfa75851b56d504a	-0.04559569682774674
102	0xbf9448e24828ad66	-0.01980928006575535
103	0xbf7436c7635a109a	-0.004935053691614533
104	0xbf8d3ba2c94c51d6	-0.014273902671939103
105	0x3facee75f49392ac	0.05650681124260379
106	0xbf81c9925b52a83f	-0.008685248767808072
107	0x3f74f6ca7f3d5828	0.005118170742056484
108	0x3fa2b9eeee1418b8	0.03657480865699497
109	0x3f8eeb0b2e4cf505	0.015096747732622715
110	0x3fb1d870533b3313	0.0697088435364999
111	0x3fbc8b00769fe9fa	0.11149599929914436
112	0xbf79bf47bacc7246	-0.006285934633322448
113	0xbfa25cb523079ae4	-0.03586355259522181
114	0xbfb91f4ab2f83e32	-0.0981337248742811
115	0xbfabe2a96f10256f	-0.054463667685989196
116	0xbf839147fe575bf0	-0.009554445695284713
117	0x3f8b6c99b78bc88c	0.013390732683067584
118	0xbf9ccfc71a4791e2	-0.028136359194734235
119	0x3f9235f756c7fa67	0.017783989593221607
120	0x3f9d6e6b9be6bb03	0.02874153269811598
121	0xbf7e7e9305e1bf80	-0.007444929417132928
122	0x3fa34ab924508942	0.037679467852529416
123	0x3f7d5c0bf217590f	0.007167860663193317
124	0xbfb4bd47db7a17b0	-0.08101319416354502
125	0xbf9c2a570033f6b5	-0.027505263697995292
126	0x3f936356a32d7206	0.018933633527341363
127	0x3f69b1b11a447272	0.003136487868813647
128	0xbfa91b787fa49694	-0.04903770979062219
129	0xbf9d5582ec4107e1	-0.028646512670327588
130	0xbfb1ed365278f068	-0.07002582086073661
131	0x3fb29ec2c12a15ac	0.07273499694755142
132	0xbfb3f4fd3d363e1d	-0.07795698875838082
133	0xbf9112d4c2cb9ef8	-0.01667339743553861
134	0xbfbc732e36af5031	-0.1111325152881484
135	0x3fb07f849ca81847	0.06444577049850962
136	0x3fa1d34c41977ace	0.03481519985847613
137	0xbfad3103ba512fd7	-0.05701457642916779
138	0xbfa5c3289ca3b9b0	-0.04250456726173313
139	0xbfadc739ab0747b2	-0.05816059315442547
140	0x3f9c25c2ba32c6c6	0.02748779546226989
141	0xbf56c46c7b0ae0ba	-0.0013896045094679414
142	0xbfae14f3ff49ac17	-0.058753609574374525
143	0x3fa2fa39d8cb0127	0.03706532260321387
144	0xbfb52ffa9a5185b1	-0.08276335017719451
145	0xbfa8f2d5015c6c2e	-0.04872766152967532
146	0xbf8ee8790642e0d3	-0.015091844085290884
147	0x3f901364ca73b8f8	0.015698981148426022
148	0xbfb9a3f387299769	-0.10015794801583201
149	0xbfb63970709c3cc8	-0.08681395291590654
150	0xbf64a392cb71d351	-0.0025194041332334068
151	0xbfbd58e8f475f7c2	-0.11463790863305603
152	0xbf8e8d424abe9250	-0.014917867570894888
153	0xbfb2ab239582ca88	-0.07292387390297439
154	0xbfbc4038933802ea	-0.1103549346371541
155	0x3f6eb3b9f5400246	0.0037478096000998244
156	0x3fa34ce3a8764cf4	0.03769599372312796
157	0x3fa0eda1f175d814	0.0330629927874925
158	0xbfb9246e5f66e977	-0.09821214512968433
159	0x3f9abf0cd364207a	0.026119423296251366
160	0xbfa14ba7d65c1d5b	-0.03378033153245027
161	0xbfa0d2dc51f89dc0	-0.032858738905186424
162	0xbfb6444d78c41695	-0.08697971533191613
163	0xbfa5f571fef766f0	-0.04288822400458325
164	0x3fb30e0803031434	0.0744328505853254
165	0x3f8f9c905736cff8	0.015435340558589403
166	0x3fad2769f018977d	0.05694132858142973
167	0x3f53a6d91c0b1bcc	0.00119944765190082
168	0xbf9d99a0b8c26eee	-0.028906356121850267
169	0x3fac4c7504ad8ead	0.05527082140068038
170	0xbfb8a4b4b2aa6ef5	-0.09626321184117244
171	0xbfb54ff1428996fe	-0.08325107454728806
172	0x3fa7b7a5485af72b	0.04632298000568221
173	0xbf98caa2df2f3650	-0.02421049582681284
174	0x3facf53b604bf470	0.05655847120758828
175	0xbf9ea185545be5be	-0.02991302802454298
176	0xbf904c863d5de4e6	-0.015916917319803846
177	0xbfa6587045841801	-0.04364348267158392
178	0x3fa1c6c7c2b5faeb	0.034719698446670076
179	0xbfa27f7f9df145ed	-0.03612898638733584
180	0x3f7334801736486e	0.004688740114391006
181	0x3fb27b2b577608b9	0.0721919144180302
182	0xbfa078da5f0a5990	-0.03217203531419266
183	0x3f9cd4c37a6ce4f4	0.02815537867283964
184	0x3fae82abbeacf8bb	0.05959068968376032
185	0x3fa351e5c6d0394d	0.03773420383378099
186	0xbf8cb6a32c6347e1	-0.014020228187664631
187	0x3f7071d8e2372c28	0.004014823152327408
188	0x3f7d64a5692fb314	0.007176061760202374
189	0x3fa2edd4308d7077	0.03697074024850704
190	0x3f67e1355969ce3d	0.0029150049188560166
191	0xbfc1cab75002324b	-0.1389989033381361
192	0xbf6e49b0a941ab29	-0.0036972475445983433
193	0x3f9e7f6c73d611d6	0.029782957620698124
194	0x3f9b8547e1e6cb25	0.026875613367972968
195	0xbfad16c57247e398	-0.056814356041235914
196	0xbf76c9ace88af51b	-0.005563426421472141
197	0x3f86b1396820156a	0.011080215921547693
198	0x3f9224d180913b2e	0.017718575927854356
199	0x3f92eca2cc79e11e	0.01848081944487589
200	0x3f9144a672d186a8	0.01686344219013472
201	0xbfad00737c1cdb52	-0.05664406671569701
202	0x3f8d896c0b0f0c41	0.01442226799725266
203	0xbfa16335238035c5	-0.03396001871451974
204	0xbf879d2518922a6e	-0.0115301988719427
205	0x3f85be4feeb6e34c	0.010616898033605125
206	0x3fb19f6369dd9fc8	0.06883832296955383
207	0x3fa61cd894a15f68	0.04318882765136217
208	0xbfad1747ab768847	-0.05681823700003057
209	0xbf9b45dfff96cec8	-0.026633739447517596
210	0xbf97ffa52ccd3e54	-0.023436146602135402
211	0xbf9e53b2bc069e2d	-0.029616158224284362
212	0x3f6fb6592adf9df4	0.0038711301376570476
213	0xbfacb9b5ff03b66a	-0.05610436189622876
214	0xbf9a4ce66d36f2eb	-0.025683975616391058
215	0xbf9664e337313f3f	-0.021869230502772338
216	0xbfae03402f776c41	-0.05861855105805392
217	0x3f92fc6c4fdefa00	0.018541042685450648
218	0x3f865b6b5df70363	0.010916556172448194
219	0xbfb713b421b98029	-0.09014440368037015
220	0x3fa6242868f67005	0.04324461251528081
221	0xbf60b8a001561425	-0.002041161070055713
222	0x3f976a63eeb8da1a	0.022866784520568208
223	0x3fbb7ba2c9e9b12e	0.10735528401864222
224	0x3f9546e7c1f6505c	0.020778294766913383
225	0xbfb1ced6c4cf471f	-0.06956236176418117
226	0x3f9d5c4e4707ceb5	0.028672431073529753
227	0x3f8d0927773a1780	0.01417761643029869
228	0xbfaf742f15d15b82	-0.06143328801470373
229	0xbfa4125fff0aba16	-0.039202690012974425
230	0x3f8dd7213636e15e	0.014570483653060403
231	0xbfb3c210dd761565	-0.07717996031541004
232	0xbf9c4280591307c8	-0.027597432552972895
233	0xbfaac968387acbff	-0.05231786431740914
234	0xbf9b4c51c8070416	-0.02665832312937163
235	0xbf9e174d3dfe9157	-0.02938576403507062
236	0x3f74e9cd4ea39279	0.0051057834445812295
237	0xbfafc132a9fd222d	-0.06202085804995181
238	0x3f968b537829bf4a	0.022015861710712493
239	0x3f943e0cc097620a	0.019767951254694473
240	0x3fb6528b2c0d9a78	0.08719701600566931
241	0xbfc374ccb895a923	-0.15200194371147643
242	0x3fa5e208e1c63d77	0.04274013286623817
243	0xbfab6589c9b9596c	-0.05350905024959016
244	0x3faa4dd4fe520490	0.05137506107804157
245	0x3fba106ba178f945	0.10181305591774954
246	0xbfbabbfda94a1d26	-0.10443101294560062
247	0x3fb876cbffeea993	0.09556269644114072
248	0xbfaa5d4682552879	-0.051492885026690645
249	0xbf956809c5c1c82c	-0.020904686637045852
250	0xbfa02b4439d1a5b5	-0.03158009725377601
251	0xbfaa87583c949764	-0.05181384791857971
252	0xbfc1522ace1da266	-0.13532004417654092
253	0xbfb19636f1641161	-0.0686983432133892
254	0x3f9e360083d4e1e2	0.029502876325951173
255	0x3f6fc62a8e45d9c4	0.0038786727110917425

weights_hidden_output f8 [128, 10]
0	0xbfcc4a22d21b0430	-0.22101245173510753
1	0xbf909a976dbe8f5e	-0.016214719842209895
2	0x3f79bb70d7a9e0e2	0.006282273092999642
3	0x3fb67d93d4ca8497	0.08785366005987992
4	0xbf8194eb6e5d6595	-0.008584822946135865
5	0x3fa6bf1b53492721	0.04442677871391099
6	0x3fb0e1389d1ab98c	0.06593660197788703
7	0xbfcd4f57750f3e13	-0.22898381439016244
8	0x3fbc4d5822fbf165	0.1105551801119354
9	0x3fbcb0782d0e1f71	0.11206770992259664
10	0x3fb80832cab17c33	0.0938750977379506
11	0x3fbea6efee2d051b	0.11973475994911491
12	0xbfbbcf598b046a09	-0.10863265651679667
13	0xbfadde7822232866	-0.058337930838732885
14	0x3fb2b3df49c99472	0.07305713225794522
15	0x3fd25364662c1b07	0.2863398549820179
16	0xbfe136766d329fb6	-0.5378982670563264
17	0x3fd8c093d889508f	0.38675399919635195
18	0xbfe333cd5833200d	-0.6000735018396895
19	0x3fc96601b3e146e2	0.19842549594118625
20	0x3fac66e53c4e2ede	0.05547252999448714
21	0x3fbd38b713078e99	0.1141466542681492
22	0x3fb8327f642e80f3	0.09452053256837072
23	0x3fc00d7ff86d204f	0.1254119837778966
24	0x3f893a874bc0edf7	0.012318665503804544
25	0xbf763ffca495490b	-0.005432116400088792
26	0xbfe075695ee2be40	-0.514332471202529
27	0x3fc0dc17be3c50cf	0.1317166975865178
28	0x3fb37ce1e52b10cd	0.07612430424620982
29	0x3fbe2d6730ecad97	0.11788029617735273
30	0xbf960faf4c88b1a7	-0.021544207617056135
31	0x3fb8ec1a874e57be	0.09735265544290336
32	0xbfafa5dd7687b55e	-0.06181232520962497
33	0x3fb429f73f24acff	0.07876534740050899
34	0x3fd471d5e8c1ba41	0.3194479725852127
35	0x3fa39f03bb63f89a	0.03832255995256269
36	0x3fbc90947e889f9a	0.11158111657334616
37	0xbfc0f77b2674dc80	-0.13255252244718818
38	0xbf94624827611671	-0.01990616550781116
39	0xbfb38518a7a72f71	-0.07624963849155876
40	0x3fa38e3caad9549a	0.03819455705221593
41	0x3fc02b7feae0815f	0.12632750481226204
42	0x3fcc47e25134b208	0.22094372716073019
43	0x3fcbd35ab37d95ec	0.21738752140224393
44	0xbf8d4a6a54038a4f	-0.01430209225549564
45	0x3faac6791672143c	0.05229547881121063
46	0xbfcdedfd167b8387	-0.23382533643509992
47	0x3fd45154566fa11b	0.31746395531674104
48	0x3fb0376c8805f500	0.06334570237045867
49	0xbfe01a45c9bb68cc	-0.5032071056441736
50	0x3fbd943868b333f7	0.11554291301872853
51	0x3fa1db88273e671c	0.03487802008676352
52	0x3fb4d3c4694f21e1	0.0813563115217515
53	0xbfa3271c250b73a5	-0.03740776016432016
54	0x3fc1f942589ccc11	0.14041928602964096
55	0xbfc7609bfcdcfd71	-0.18263578268850325
56	0x3fa98a9acca57777	0.04988559482693138
57	0x3fb673bfef035404	0.0877037008788904
58	0x3fb63057c7c8a86b	0.08667515399489083
59	0x3fc2d73509dd0417	0.1471926019821985
60	0x3fb2233789d9a0c0	0.07084986796837978
61	0x3f7d84499d7211e9	0.00720623737209223
62	0x3fa47a6ad58b367d	0.03999647003875582
63	0x3fbfaa6d677cc0c4	0.123694265141924
64	0xbfbcb33455c56e4e	-0.11210944265388287
65	0x3fc1c7437c299f85	0.13889354288698655
66	0x3fb91ee670914bcf	0.09812774894935149
67	0xbfc7e29583596db0	-0.18660229600469114
68	0xbf844f61dbf5e6f4	-0.009917034650004798
69	0xbfd3ee6b214f4645	-0.31142690899750775
70	0x3fd0baff2375fe8d	0.2614133688257219
71	0x3f8817d1958b186e	0.011764180542183502
72	0x3fb3ae3ed72a558b	0.07687752488194215
73	0x3f89f484f5aa556c	0.012673414942848203
74	0xbf6f3e2514168682	-0.0038138126553384786
75	0xbfd8ad4aa008ed0b	-0.38557687405018787
76	0x3fb9e405d4e517a7	0.10113560149792865
77	0x3fa51346856de2ad	0.04116268519186881
78	0xbf9880672ef22cbd	-0.023927318802219533
79	0x3fa357d05c33409c	0.03777934194079188
80	0xbf792baa44d25e42	-0.00614515792144449
81	0x3f934e7a6ff4029c	0.018854058344916255
82	0xbfa91b28c51e4fda	-0.04903533369284192
83	0xbfd19a7ff8d5f4d0	-0.2750549249684129
84	0x3fb2a6df1bce67f7	0.07285875729431256
85	0x3f806877c63c00c2	0.008011756646283511
86	0x3fbd74dfc7f0c91a	0.11506460791932618
87	0x3fa1cbbfd17ad803	0.03475760872008495
88	0xbeee1ddbdcbc231e	-1.4360731163802451e-05
89	0x3fb27e42245ca115	0.07223904979457914
90	0x3fbf706982113389	0.12280902314632959
91	0x3fa0706b43bb95a1	0.032107688921125595
92	0x3f9931c6e0af8788	0.02460394617435882
93	0x3fc1b9dc459a7b83	0.13848451040845697
94	0xbfbd42d939d8f0bc	-0.11430127775469406
95	0x3fb8717dd5bff517	0.09548174351217074
96	0x3fbbbf082192340a	0.10838366336447805
97	0xbfd210cd23268053	-0.2822754710450727
98	0x3fbfc275794c8e7f	0.12406095706369945
99	0x3fa83b28da3a4ad7	0.047326351775287705
100	0x3f94a38d452473b4	0.020155150742642028
101	0x3fd8770f4ca32f94	0.38226683124661887
102	0xbfb05911962c3bea	-0.06385908047035085
103	0xbf8cd5eb3e7920d5	-0.014079892963437516
104	0x3fa03a1268f0a745	0.03169305354124544
105	0xbfac7155562ce979	-0.055552164811575495
106	0x3f817a7ec6e59ed1	0.008534422345021582
107	0x3fb5f4c2d587755e	0.08576600754846228
108	0xbfd73f73c68278f0	-0.3632478178568723
109	0x3fa29c29e270ca91	0.03634768380324716
110	0xbfd91cb70ada6870	-0.39237762508276486
111	0x3fc53fdd93ce5269	0.16601152150237233
112	0x3fbb8cb2e9c50e9d	0.10761564452428236
113	0xbfa95602ac3367da	-0.04948433258114422
114	0x3fac3353aeabfd2e	0.05507909304832946
115	0xbfd708e6c9fbdae5	-0.3599183056352742
116	0x3fc5cd25f3e2a60c	0.17032312782730263
117	0x3fafc8cf5b4c970d	0.06207893361560766
118	0x3fc457bf3020d82b	0.15892782068266462
119	0xbf81c515a86adff7	-0.00867669029445038
120	0xbfa6d652fd3c89b4	-0.044603913700729164
121	0x3fd010a255014438	0.2510152654768407
122	0x3fa822afbee0f137	0.047139637041683384
123	0xbfc65c046361f622	-0.1746831403033165
124	0x3fbc5cdb22a450d5	0.110791870076642
125	0xbfa92a9d0aa2d3b1	-0.0491532397731257
126	0x3f97edc6842f12ca	0.023367978875983998
127	0x3fbcd95f64f62a48	0.11269184317476644
128	0xbfbbd5198f0df1b6	-0.10872039549389609
129	0x3fb4fe1801ed57cf	0.08200216338204246
130	0xbfa5944a77cc6f2b	-0.04214699470887092
131	0xbf91a4ae71068bdd	-0.01722977223256438
132	0xbfdbc981670187ba	-0.43417391833474606
133	0xbfa7a74b471bb335	-0.04619822733898219
134	0x3f9d5922e91678df	0.028660340763615785
135	0x3faade3dd525e17e	0.052476818341292905
136	0x3fb5104491ed673a	0.08227947771720504
137	0xbf9e5709f2a18dc5	-0.02962890189554714
138	0xbf819670b322d799	-0.00858772322349548
139	0x3fa30d66d1bccb81	0.037211621382446054
140	0x3f8347fe3e3f7eb3	0.009414659762057331
141	0x3fc7787609dd4fd2	0.1833636806646824
142	0x3f7b52dd9e97ec29	0.006670823765939673
143	0xbf7f995504d9d3df	-0.007714588265675253
144	0x3f8cafffaa675ec7	0.014007565868197415
145	0x3f9c43c5799ca618	0.027602277324296848
146	0x3fc73a0140bfca74	0.18145766889172743
147	0x3f95c55f8719ab13	0.02126073133551205
148	0xbfd60f0351ffa0d0	-0.3446663189665857
149	0xbfd310f2b1b3b707	-0.29790942529403747
150	0xbfaf4720399e8c9e	-0.06108952239380837
151	0x3fc10ab74001ed7d	0.13313952088706663
152	0x3fc5fdb684307f3d	0.17180520491182874
153	0x3fc39f9b30cf485a	0.15330829509054206
154	0xbfcd846a59c05af6	-0.23060349829093924
155	0x3f75dce0317926aa	0.0053375966595667155
156	0xbfb6a0d31375d97f	-0.08839148736101342
157	0x3fcc367e2a355600	0.22041298924402497
158	0x3fbd2b3e0f77d42e	0.11394107701910691
159	0xbfe19160f83d3e20	-0.5489964340612836
160	0x3fc01896f8d57dd5	0.1257504191407707
161	0xbfd0a128c9403142	-0.2598363843287822
162	0x3fbf02e9f4a6647c	0.12113821242236783
163	0xbf991d52103f2846	-0.024525911561603907
164	0x3fc0d26e565f32a7	0.1314218446481352
165	0xbf8333a43d8af481	-0.009375842216622356
166	0x3fb97ad4fb42e716	0.09953051695165657
167	0xbfc67f2b9f3efd01	-0.1757559325760454
168	0xbfb2619e6590f866	-0.07180204372068175
169	0x3fc15f7378bf552d	0.13572543521756
170	0x3fc37e1ca2e51003	0.1522861285576483
171	0xbfa7a552ec5c1ed4	-0.04618319640399951
172	0x3fc1127a597fe292	0.1333764016160513
173	0x3fc6509121d3fe6a	0.17433370734942183
174	0xbfdf9c8dc4e5d3e1	-0.49393028476998607
175	0x3fc4e2eda267d07e	0.1631753008838394
176	0xbfc8a72f75dcd926	-0.1926020932675751
177	0x3fc04b24c220f02f	0.12729320029200283
178	0x3fb6e1e60842fcd9	0.08938443853093093
179	0x3fb1da1eb837df4a	0.06973449704662218
180	0xbfc820056e7b0f88	-0.1884772099930354
181	0x3fc2fb977644ada2	0.14830296778505409
182	0xbfb3a40aedbb1ff3	-0.07672184280374932
183	0xbf9b5e9f942ea42b	-0.026728146952937386
184	0xbfd799ae424272b4	-0.3687549254480402
185	0x3fd2ceb5e1a4a9e6	0.2938666060969396
186	0x3fcbdd5a03a61599	0.21769261530077413
187	0x3fc2be4568e769b5	0.14643161413444053
188	0x3fc0cfb230d4ebf9	0.13133838066445927
189	0x3fb964b9c0850880	0.09919320059001002
190	0x3fb55beb990640bc	0.08343384252498515
191	0x3fa9abd732498176	0.05013916481834972
192	0x3fc1ea2139c48c09	0.13995757408801549
193	0x3fc75457336606e0	0.18226137170500234
194	0xbfe0348d9b724444	-0.5064151798307042
195	0x3fc7641e7f5e6cde	0.18274289340192856
196	0xbfd383fe96e35a58	-0.30493130431333304
197	0xbfa53c5509d488e8	-0.04147592301366548
198	0x3fbba17f38fc84c6	0.10793299809712939
199	0x3fc61551c611cd2a	0.1725256173263941
200	0x3fc3cc4903ed3fa8	0.15467179004417386
201	0x3fa5c47211fdde59	0.04251438588738372
202	0x3fb853adacc35be6	0.0950268313202823
203	0x3f4a62cefd4cc25a	0.0008052359286008879
204	0xbfe0e740212dc484	-0.5282288215659183
205	0xbfc1a48905c82cd4	-0.1378337171775913
206	0xbfa9f2467db51d60	-0.05067653927340632
207	0x3fa164f9d0acf991	0.03397350952444634
208	0xbf62cb0cc7a0f479	-0.002294087372347206
209	0x3f99f78c54c04f13	0.025358383820346008
210	0x3fb22b4f2a28c0ec	0.07097334651257697
211	0x3fc81c23529a354a	0.18835870297736285
212	0xbfc1b5fc38d89c78	-0.13836624885263737
213	0xbfd1b0d66deec08a	-0.27641831145866347
214	0x3fc19a4fdd735223	0.1375217276860364
215	0x3f89bcbba2a014d1	0.012567010784560047
216	0x3faa61183b3fdb59	0.051522023422811265
217	0x3faf5cc6b3c47d12	0.06125470108440302
218	0xbf979213f58c5ba7	-0.023018180715634575
219	0xbfab786dc79658cf	-0.05365317403190916
220	0x3fa53b3663197d4c	0.0414673801394608
221	0x3fc2364ef71e70c4	0.14228236261704386
222	0x3fc15e6b9addafeb	0.1356939798528168
223	0x3fbf63f26745a555	0.12261881848612195
224	0x3fc93eb6c24d3af1	0.19722637641321897
225	0xbfd162ad1480798a	-0.2716477108205245
226	0xbfe0a498671febe8	-0.5200922025827568
227	0x3fc3206fcc8a93f1	0.14942738997811447
228	0x3faed1d46ac57ee5	0.06019462397921219
229	0x3fc2c4eb96ac40d0	0.14663452965806423
230	0x3f92068d7f0b2da2	0.01760312164223666
231	0x3fbeb550642eb5be	0.11995413251744133
232	0xbfced4a384aa5bf0	-0.24086421945386816
233	0xbfd04b9bc908a9c6	-0.2546147788258647
234	0xbfc4eff06e67cbda	-0.16357236281291315
235	0x3fbcd4321bcfe2e1	0.11261284998898759
236	0x3fbd39e8fd02a3f6	0.11416488816270473
237	0x3f9d22ba5da55b4b	0.02845278927392351
238	0x3f5f21f66bfadca2	0.0019001871550424006
239	0x3f965cebda43c543	0.021838841625997373
240	0x3fc0171d069076e5	0.12570536442301897
241	0xbfa037615d46c6ca	-0.03167251838330072
242	0xbfb063dd35ac66d7	-0.06402380524050542
243	0x3fa57081ddb79791	0.04187398749836214
244	0xbfc3ef0011af85f8	-0.15573120940739194
245	0x3fba0c9e7f185612	0.10175505259424991
246	0x3fbd82f609303fca	0.11527955746009791
247	0xbfc99401a41dc4b4	-0.19982929719438902
248	0x3fb7f268e66b20cf	0.09354262948466217
249	0x3fb2aa450a94130c	0.07291060932409382
250	0x3fc4cfb2cf16884a	0.16258845435828767
251	0x3fb4b2787deff341	0.08084824633256195
252	0x3fe4b1f7493f83c2	0.6467243605258022
253	0x3fd1d5204e541bb1	0.2786331906249258
254	0xbfe19cabc545aad7	-0.5503748753520438
255	0x3fb644dff0bcf730	0.08698844554325258

bias_hidden f8 [1, 128]
0	0x3fc069a4a3dec69b	0.12822397233462798
1	0x3fe189ec1df365ea	0.5480862221694995
2	0x3fd1004868d9aee1	0.26564226378716965
3	0x3f84ea6a94ced3a8	0.01021273867250179
4	0xbfadb619c7993928	-0.05802994309907411
5	0xbfd2f3349f49032a	-0.29609408908077006
6	0x3fc3c82bcf3f4c97	0.1545462381314777
7	0x3f9fa543936c5c92	0.030903869507792843
8	0x3fb5a25dbb22e752	0.08450876063116411
9	0xbfca000251cd0f82	-0.2031252765101464
10	0x3fd143a750fdfd38	0.269754246801273
11	0x3fc472127d5d9be6	0.15973120805139657
12	0x3fd2c6998ed39a76	0.2933715719977167
13	0x3fc03b454eb3f3ec	0.1268087991992667
14	0x3fec31a65b4a6932	0.881060770322881
15	0xbfdcf4f204c5498f	-0.45245027986416003
16	0x3fc1e701ac8f6243	0.13986226011071964
17	0x3f764f4dfe1a20c9	0.005446724566020752
18	0x3f8ff16389e94a21	0.015597131391733634
19	0xbfa02e03e11141b0	-0.031601067756699464
20	0x3fa2b3e969108fe5	0.03652886779335044
21	0x3fd24b7fb0f0b52b	0.2858580806667585
22	0xbfcc6ff5e2bf9e80	-0.22216676303581906
23	0x3fdfeb917a2682c8	0.49875294617417554
24	0x3f60d76881590aeb	0.0020558396452384684
25	0x3fc8db54960bf6d0	0.19419343306065295
26	0x3fd4d14afd182c5e	0.3252742263436569
27	0xbf9c6cbb0ff8f6ba	-0.027758524751553472
28	0x3fd1058ebbaf13e1	0.26596420601373266
29	0x3f60cd419f4a2d96	0.002050998848351869
30	0x3fc93f5dbdec287a	0.19724628232535563
31	0xbfd53d6f9c229ffc	-0.3318747544058167
32	0xbfc8384c0ac64ee9	-0.18921804929833932
33	0x3fe6029d981de722	0.6878192873984725
34	0xbfc98f1624ff87cd	-0.19967915350485868
35	0x3fc84ea9f0fa016c	0.1899006296771505
36	0x3fe37929faef46aa	0.6085405255382359
37	0xbfcff23ca7027e4a	-0.24957998423359334
38	0x3fd29f63d5fde1a9	0.2909783925784049
39	0xbfa43889edbd5794	-0.03949385668845121
40	0xbfbdd40f1ee7d54d	-0.11651701454669201
41	0x3fb3541ddf00c4a1	0.07550226873788059
42	0x3fd35a1b1f407924	0.3023746304696877
43	0x3fc3a61a8d4fec77	0.15350658321390018
44	0xbfbe625b966ad505	-0.11868832037255934
45	0x3fe4d10c4e4c0d12	0.6505185631980643
46	0x3fd4f46db2cabcb9	0.327418732263094
47	0xbfd4991bf8b01e69	-0.32184504781660067
48	0x3fc3514ad940c2ca	0.15091834648185048
49	0x3fdf75a9fc5111c9	0.491556641009336
50	0x3fe1f26e712dfe1f	0.5608436785259449
51	0xbfd2463ab7a24911	-0.28553646023750995
52	0xbfba0777b8620560	-0.10167644740615378
53	0xbfcbdfd97add8703	-0.21776884555134055
54	0x3fba02a60023d43a	0.10160291198174401
55	0x3fcc44e3311985ad	0.22085227868505566
56	0x3fdb48af48306cb9	0.42631132173273617
57	0x3fa205352b5d0d3f	0.03519598154391667
58	0xbfbb100c3878a752	-0.10571361902898715
59	0xbfcadbeecf1f7235	-0.20983681786937472
60	0xbfd8ff1102ad6224	-0.39056802045300487
61	0x3fd64fbb5150234a	0.34861643734671033
62	0x3fdc92544df0056c	0.44643123255817474
63	0xbfdeb000372242c6	-0.4794922388473818
64	0x3fce42fc74a2db52	0.23641925521016077
65	0x3fd51a97c94ca1ce	0.3297481027425676
66	0x3fda513c33af686b	0.41120820090657756
67	0xbfdc763cd1477133	-0.44471664845856934
68	0xbfc59c3f1b0ce509	-0.16883076496905172
69	0x3fdec92daeddb7f5	0.48102895809904506
70	0x3fd4689cc56f7adc	0.3188850334244486
71	0xbfa60bfa4ef504bb	-0.04306013311225728
72	0x3faa8cee9f31e7ee	0.05185647671983405
73	0xbf99b94dc2a2dcb0	-0.025120940212869314
74	0x3fbb21c79625006e	0.10598418632162218
75	0x3fcddc2fb879bdc8	0.23328205592723195
76	0x3fdf29d5c20e93cf	0.4869284052932103
77	0x3fd9f4ee8902dea6	0.4055744493484589
78	0x3fde2a0a4a25335f	0.4713159298014968
79	0x3fc13e005333eaa0	0.13470462858807242
80	0x3fdf18c2a6fe1bef	0.48588625247833667
81	0xbf9620fa6b9f68f0	-0.021610176867263797
82	0x3fbf5d7bb709751f	0.12252019137072921
83	0x3fd6d9fddea2501d	0.3570551561508653
84	0x3f96c89c9201c66f	0.02224964753299335
85	0x3fd66f096308d9ba	0.3505271403440947
86	0x3fe4f36ac2c66bdb	0.6547139934731335
87	0x3fd71134d225cc47	0.3604251911376121
88	0xbfb84ccd16d26aad	-0.09492189223457599
89	0x3fcc1e45b5744ed4	0.21967383728098488
90	0x3fc272bd669f8562	0.14412658224959346
91	0x3f9f6727b1426fcc	0.030666942781507875
92	0x3f8667d1f59ec641	0.01094020872901347
93	0x3fab04c0dfc03f92	0.05277064067206462
94	0xbfa5282546bea975	-0.041321911702953885
95	0xbfbd8e3e0d30f3bb	-0.11545169660617109
96	0x3fb9c60783a8c605	0.10067793812120136
97	0x3fe2ca7e9c7246b8	0.587218576011046
98	0x3fc77282dfdd0b15	0.18318210535843407
99	0xbfe1eff508dc9b9e	-0.5605416462975545
100	0xbfbc2a67834bada0	-0.11002203898868013
101	0x3fbe494608a22783	0.11830556593682044
102	0x3f716fee9adfa135	0.00425713734691895
103	0xbfdbcd07e9eab3e1	-0.43438909381330687
104	0x3fb03590be1512d4	0.06331734314614873
105	0x3fd1306b3f54b85a	0.2685802572694961
106	0x3fd16e0e0334fc21	0.272342208034333
107	0x3fd25939614dfcca	0.28669580938726524
108	0x3fd53f16f16d4fa2	0.33197568489890206
109	0x3fa4d0f538f7b270	0.04065672226338257
110	0xbfb7e486901da144	-0.09333077448321087
111	0xbfd10c3bfc8d9459	-0.26637172377951895
112	0x3fc31f6e27fb00bb	0.14939667656108732
113	0x3faccc6be3d88a10	0.056247111857619214
114	0xbfc119922b40070d	-0.1335928641493002
115	0xbfc7cf9a6476082f	-0.18602304368329345
116	0x3fa0678bf61a63c9	0.032039998809700494
117	0xbfbdf692d8ba3931	-0.11704366484830044
118	0x3fc82f2d09f23bc1	0.18893969522147638
119	0xbfb3a8a92441066c	-0.07679230818851018
120	0xbfcddab50dbc4f36	-0.23323691530878826
121	0x3fd17bb86744d693	0.2731762894139617
122	0xbfe0df0b6132e6a9	-0.5272271059431733
123	0xbf6ef6f27f4e2d7f	-0.003779863002312644
124	0xbfb5592f8005b788	-0.08339211345238884
125	0x3fca27b6ea43d7e0	0.20433699072572065
126	0x3fcba61671b04f77	0.21600609351355235
127	0x3fbac2dc935dd7f8	0.10453585241143049

bias_output f8 [1, 10]
0	0xbfdd316fbbadb15d	-0.45614236190774254
1	0xbfbcd5ee347c134d	-0.11263932019580843
2	0xbfd73503355cdc4d	-0.36261062823490847
3	0xbfc35660d11384be	-0.1510735531692599
4	0x3fdc6dff13123cad	0.4442136465303957
5	0x3fc3aa56a0c5c435	0.15363581514569238
6	0xbfa65f0a113a7b3d	-0.04369384250934736
7	0xbfe3511df3675ab1	-0.6036519769648604
8	0x3ff519af5257e72c	1.3187707153833328
9	0xbfc7e9573a568ed5	-0.18680849407711855
