models/model_cv_digs (500).npz (npz, 815236 bytes, 4 tensors)

weights_input_hidden f8 [784, 128]
0	0xbfb1b55f1c284231	-0.06917375981743913
1	0xbfa9edd914d07347	-0.05064276103096304
2	0x3fb8f19af9d507bc	0.09743660544793803
3	0xbf9593d59e97ffc4	-0.02107175617675218
4	0x3fada9d25c782a3a	0.057936261928336966
5	0x3f878e75371f38d0	0.011502185578049412
6	0xbf9904f6a68c1f2f	-0.02443299666904791
7	0xbfad6be405ceb5c0	-0.05746376582042556
8	0xbfaf26ef74ba5828	-0.060843928336155095
9	0xbfb2e4de46637035	-0.07380475252597381
10	0x3f547d312b064b25	0.0012505512387163767
11	0x3fb10741ef5e123f	0.06651699155742906
12	0xbfaafcc8171da115	-0.05270982057737875
13	0xbf7a856327b03ebc	-0.0064748643153646444
14	0xbfa9a87c55222765	-0.05011356868005982
15	0x3fb3bafd16b659ca	0.07707197002887436
16	0xbf82804dd7e8f864	-0.009033783103515165
17	0x3f7dbd55c60a7ccf	0.007260642102351513
18	0xbf973f3e42619c2d	-0.022702191163627972
19	0xbf9e0e17fa3aed33	-0.029350638053739785
20	0x3f8bebc4803143ea	0.013633284723399048
21	0xbf9da9fd8deabb36	-0.028968774592324574
22	0x3faca80431f8bdaf	0.05596936330800461
23	0xbf74a235f3e548ec	-0.005037508728792366
24	0xbf9877f9b2cf78cd	-0.02389516977188393
25	0xbf9ba61d016d7a86	-0.027000859462868586
26	0x3f56c6df288525ca	0.0013901881485075423
27	0xbfb2b47963a93097	-0.07306631739737877
28	0xbf97aba2689e28b8	-0.02311567081009322
29	0xbf57819a05d2910c	-0.0014347080353128176
30	0x3fa36563ead2d6ea	0.03788292161463665
31	0xbf9abd6b1eaef87a	-0.026113198993464405
32	0xbf6d5a729e175522	-0.0035831678985497476
33	0x3fb9fc9e35efee9c	0.10151089493586557
34	0x3f8f1aa349437e6d	0.01518752639134321
35	0xbf6aa401faaede1e	-0.0032520331055499027
36	0xbfb00d99dda7c6f0	-0.06270753537662777
37	0xbfa5aeb1d9840e14	-0.04234843998167662
38	0x3f90c8ee897bd433	0.016391493932094114
39	0x3fa822ca598445c0	0.04714042990429901
40	0xbf9ac8ac400d305d	-0.026156131181139453
41	0xbfb0db46eb30a46d	-0.06584590188926294
42	0xbf8e5223e81ecef1	-0.014805107613802689
43	0x3fa77e96b574f0ef	0.04588767018364758
44	0x3fa75a6fa46dd34a	0.0456118477076531
45	0x3fb08003c52ba271	0.0644533497212565
46	0xbf6b8221a644b335	-0.003357949945117867
47	0x3f9c9b95e64bc954	0.02793726175418361
48	0x3f71d947de57d879	0.004357605682789972
49	0xbfa0e928626a43bb	-0.03302885247570183
50	0x3fc0170254e9a6f9	0.12570218225601318
51	0x3f9fc7b31fc5001d	0.031035231412943277
52	0xbfb148fcf4a869ca	-0.0675199601468314
53	0xbf9ef08bdce9c2f5	-0.03021448646399257
54	0x3f93cdce619afdcb	0.019339775760043126
55	0xbf8a534bd0df3edf	-0.012854187309045027
56	0xbfb05a26521181cc	-0.06387557510016179
57	0xbfaa40459068a163	-0.0512716044216315
58	0xbf518602ab72c601	-0.0010695482322201635
59	0xbfb540c89dc86f2e	-0.08301977016566006
60	0xbfa5269cc09a9ab7	-0.04131021357652769
61	0x3f76a0a12a6d3467	0.00552428202975106
62	0xbf89b819548b8d04	-0.012558172123539275
63	0xbfa7a6c29ee7450f	-0.04619415464152087
64	0xbf92985d657c735f	-0.018159350699636586
65	0x3fa1668ee1da7110	0.033985581464749726
66	0x3fb40a8e36d164d5	0.07828606451348048
67	0xbf901273eca40a5b	-0.015695391958625
68	0xbfa1d9e95450bc9b	-0.034865657369999435
69	0xbf74921bb2ffca2a	-0.005022152137814243
70	0xbfb786b4db3092dc	-0.09189920760452303
71	0xbfa02f5a44f1a6dc	-0.03161127177811604
72	0x3f900c808009b1f5	0.01567269116860533
73	0xbfb3d9033e49e9f7	-0.07753010054322106
74	0xbfa148b690a1db59	-0.03375788226633487
75	0x3faa2cb6bf338683	0.051122389640807085
76	0xbfb87de129932da1	-0.09567076935780118
77	0x3fa8a85665a7bf57	0.04815931311520554
78	0x3fb19ccefadae432	0.0687989580573152
79	0x3f6b5604f78c68ba	0.0033369156848382627
80	0x3fb883ed8d973077	0.0957630606346259
81	0xbfbbdecf93a11def	-0.10886857370598312
82	0xbfa613e57b054f21	-0.043120547549419415
83	0xbf8e9e50e603025f	-0.014950401324655247
84	0xbfa0310504df3878	-0.031623989910813444
85	0xbfb563a05baa0772	-0.08355142820258069
86	0x3f746a03663887c4	0.004983914640918689
87	0x3f65448fccb3092f	0.0025961693368980114
88	0xbf9252a9442bd015	-0.017893452440105834
89	0xbf9b526dbb02baa0	-0.026681627787804474
90	0x3f7d09a49290b0a4	0.007089274274260902
91	0x3fa3b4e5178f2e3b	0.03848949349011518
92	0xbfb0c85ba0785c41	-0.06555721919754466
93	0x3fa466e3b2a38529	0.03984748416565715
94	0xbf97d96a7dffe99f	-0.02329031366387257
95	0xbf85bb03b9ce4915	-0.010610608203738306
96	0x3fbe5c37b288292d	0.11859462841690478
97	0x3fb491a5399a7b7c	0.08034737259229802
98	0x3faf4d449e97173c	0.061136383399157584
99	0x3fa434a0cef3f8af	0.039464020979708685
100	0x3f9b92c4f22602c8	0.026927068023271855
101	0xbfa7606484fd7981	-0.045657292589328165
102	0xbf944fe62792b560	-0.019836040654515386
103	0xbf743dc4ffdd6b08	-0.004941720513523824
104	0xbf8d45bee0a919ae	-0.01429318545445998
105	0x3facf8775b5de79d	0.05658314695661135
106	0xbf81cfb92248f570	-0.008696981772227302
107	0x3f74fe0a833b35d5	0.005125084938936782
108	0x3fa2c068d50f4dfb	0.0366242179949516
109	0x3f8ef5bc77a3f399	0.015117142106186242
110	0x3fb1de9c3e6ca2f5	0.06980301403076423
111	0x3fbc94df77fb09d2	0.11164662055219957
112	0xbf79c82f36ebe9a8	-0.006294426376138786
113	0xbfa2630ecc6c2bb1	-0.035912001089023156
114	0xbfb927fadac88b69	-0.09826629487410589
115	0xbfabec4e38b7e4cd	-0.05453724329340446
116	0xbf83980c5ecb4c41	-0.009567352908027018
117	0x3f8b7615acd4990e	0.013408822380892828
118	0xbf9cd9bde4997816	-0.02817436893234778
119	0x3f923c439a44aa67	0.017808014193330026
120	0x3f9d78994361e870	0.028780359971712632
121	0xbf7e891ecc10ac87	-0.00745498685959512
122	0x3fa351651e07b02f	0.03773036948754826
123	0x3f7d66333ee3730a	0.007177543810226403
124	0xbfb4c473fbe35474	-0.08112263583764606
125	0xbf9c341493c05d05	-0.027542420881300895
126	0x3f936a0b20291d91	0.018959211194923112
127	0x3f69ba93e35d6696	0.003140724987059705
128	0xbfa9242755298580	-0.04910395540788226
129	0xbf9d5fa7f676d133	-0.028685211580254232
130	0xbfb1f3696cce79b2	-0.07012041956338669
131	0x3fb2a5334277c52a	0.07283325550794886
132	0xbfb3fbe41925b550	-0.07806230176875784
133	0xbf9118bc571e7b0f	-0.01669592172367645
134	0xbfbc7d04fb0ff368	-0.11128264550639033
135	0x3fb085393edc0863	0.06453283104568323
136	0x3fa1d97665a4ed29	0.03486223212027035
137	0xbfad3b1c25569b01	-0.05709159808912113
138	0xbfa5caaf4dfb9d89	-0.04256198718013155
139	0xbfadd18608b4e3ea	-0.058239162981813156
140	0x3f9c2f7eb855e105	0.027524929047531028
141	0xbf56cc4c24eda568	-0.001391481742496781
142	0xbfae1f5b3e790a49	-0.05883298051459868
143	0x3fa300c9fbd14666	0.037115394582212954
144	0xbfb5374e655902d1	-0.08287515615758002
145	0xbfa8fb75c9013bc1	-0.04879348829910369
146	0xbf8ef3296bfd1442	-0.015112231834459536
147	0x3f9018f4080c5778	0.015720189086173758
148	0xbfb9acd18fc3e049	-0.10029325256243839
149	0xbfb6412009bac4d9	-0.08693123090303646
150	0xbf64aab607e78925	-0.0025228076258240356
151	0xbfbd630f2b8e9b9d	-0.1147927743282779
152	0xbf8e97d325022d5a	-0.01493802029314988
153	0xbfb2b1985eb391a5	-0.07302238761946585
154	0xbfbc49fdb7fa8d97	-0.11050401441257517
155	0x3f6ebe581d2a7d54	0.003752872560042123
156	0x3fa3539061f2a148	0.03774691768313915
157	0x3fa0f37ca879bda7	0.03310765797220521
158	0xbfb92d204e3833e3	-0.09834482106835156
159	0x3f9ac84cc3ae51f2	0.026154708331505412
160	0xbfa151a3118c65af	-0.03382596577848617
161	0xbfa0d8adc6c64d34	-0.03290312816093391
162	0xbfb64c00d3a8b0a6	-0.0870972172494385
163	0xbfa5fd0a145b1fd8	-0.04294616220937514
164	0x3fb3149eff780a16	0.07453340279611384
165	0x3f8fa77f0502183d	0.015456192341172787
166	0x3fad317f0921a1bb	0.05701825129000634
167	0x3f53ada4f1e1f330	0.0012010679998006417
168	0xbf9da3dd518afc77	-0.02894540605734305
169	0x3fac563e64bdcae6	0.05534548740151539
170	0xbfb8ad3a75890247	-0.09639325494300365
171	0xbfb557501b672245	-0.08336353940024661
172	0x3fa7bfd90f7d4dba	0.046385558262638196
173	0xbf98d335c02805b8	-0.02424320206956107
174	0x3facff3f1e8fd666	0.05663487670964855
175	0xbf9eac1d30795231	-0.02995343788491506
176	0xbf9052293cee834e	-0.01593841967008141
177	0xbfa6602a971c6541	-0.04370244116416667
178	0x3fa1cced928ab0d0	0.03476660169448709
179	0xbfa285e54f7e5ea6	-0.03617779345875975
180	0x3f733b246176ab9b	0.004695074188400118
181	0x3fb2818f89bbcd92	0.0722894393218694
182	0xbfa07e8cb32b14de	-0.03221549689400559
183	0x3f9cdebbfe289983	0.028193414104089164
184	0x3fae8d38ef8ac1c8	0.05967119144532124
185	0x3fa358943bb2ce4a	0.03778517941227884
186	0xbf8cc09144f2cb9c	-0.01403916827834966
187	0x3f707788ca186fcf	0.004020246824008879
188	0x3f7d6ecfaf52e4b5	0.007185755986193578
189	0x3fa2f4600a053423	0.03702068445509379
190	0x3f67e977803ce5b9	0.002918942833187468
191	0xbfc1d0de7c48db71	-0.13918667858680636
192	0xbf6e542a256c0e31	-0.003702242199666882
193	0x3f9e89f88536c232	0.02982319176743626
194	0x3f9b8ecc6037f7a9	0.02691191994926326
195	0xbfad20d4c9e557ca	-0.05689110722111897
196	0xbf76d18e63606af3	-0.005570942119471611
197	0x3f86b9126e36e39b	0.011095184315182574
198	0x3f922b17d5e6f56d	0.017742512159875035
199	0x3f92f32e3c545ca6	0.018505785400603124
200	0x3f914a9f41cb15bc	0.01688622321196019
201	0xbfad0a7b1ba624bf	-0.05672058784973321
202	0x3f8d93a30917308b	0.014441751208231565
203	0xbfa1693883d2bedc	-0.0340058957020781
204	0xbf87a54fb581b9d1	-0.011545775152822653
205	0x3f85c5d4f2fd462c	0.010631240525671513
206	0x3fb1a57b9a314c2d	0.06893131746737487
207	0x3fa6247e4a4c3b52	0.04324717194514584
208	0xbfad2157301d18f2	-0.05689499342274641
209	0xbf9b4f4e9060e54f	-0.026669719278492206
210	0xbf9807f1da4cc72e	-0.023467806767434478
211	0xbf9e5e2fae3df106	-0.029656167039761726
212	0x3f6fc150c3743639	0.0038763596927598146
213	0xbfacc3a527af485e	-0.05618015393669461
214	0xbf9a55fee36c3937	-0.025718672400267564
215	0xbf966ca1d6f06273	-0.021898773902736268
216	0xbfae0da14f664e86	-0.05869773954614481
217	0x3f9302fd356a2bb0	0.018566089997459734
218	0x3f866326b776b7b4	0.010931303476208722
219	0xbfb71baf36864577	-0.09026618081249703
220	0x3fa62bd0a5f8a0bd	0.043303032169491364
221	0xbf60be686369e47e	-0.002043918498483565
222	0x3f97727cfe301bdf	0.02289767552795385
223	0x3fbb8523f255ba0d	0.10750031153086344
224	0x3f954e437abdc005	0.02080636440899754
225	0xbfb1d4ff5e190475	-0.06965633437450143
226	0x3f9d6675aac47c27	0.028711164996931295
227	0x3f8d13321945feb8	0.014196769138606555
228	0xbfaf7f0fcca4c589	-0.06151627896395968
229	0xbfa419510499178c	-0.03925564938667411
230	0x3f8de17313f7e591	0.014590167090306834
231	0xbfb3c8e61cfbabfe	-0.07728422362895057
232	0xbf9c4c4647b8f0cb	-0.027634714248265618
233	0xbfaad2abbdb5dd0f	-0.05238854113388857
234	0xbf9b55c2935deb0c	-0.0266943361707304
235	0xbf9e21b54d1c2a5e	-0.029425461608335694
236	0x3f74f108d4ab3cef	0.005112680907316077
237	0xbfafcc2e031ecdf8	-0.062104642754459094
238	0x3f96931f62ff8754	0.022045603196495137
239	0x3f94450ce0d38bc2	0.01979465601187847
240	0x3fb65a4373c045c8	0.08731481147721987
241	0xbfc37b873f78d01b	-0.15220728491988286
242	0x3fa5e99a40ada576	0.04279787101297476
243	0xbfab6f034dc426f1	-0.05358133625311535
244	0x3faa56edc7086989	0.051444464250567874
245	0x3fba196f2d36727e	0.101950596369031
246	0xbfbac53c8abc2229	-0.10457209002573421
247	0x3fb87f41e2537c1a	0.09569179320850232
248	0xbfaa6664a24d8b0e	-0.05156244736897096
249	0xbf956f70f3e669bf	-0.020932927023389555
250	0xbfa030dbb8f416d1	-0.031622759177521005
251	0xbfaa9084e9150b4c	-0.05188384385339492
252	0xbfc1582849cc296c	-0.13550284961122416
253	0xbfb19c4bf589c4ec	-0.06879114861091623
254	0x3f9e407330f23cdf	0.02954273210758351
255	0x3f6fd1279f445bf4	0.003883912455545419

weights_hidden_output f8 [128, 10]
0	0xbfd627f1f750a2f2	-0.3461880603013433
1	0x3fc5017a9333f225	0.16410762965814843
2	0xbf8dcd6de4e67e97	-0.014551981494889161
3	0x3fc98c3b727824c0	0.1995920475895101
4	0xbfc25914b4ddb329	-0.1433435328612174
5	0x3fa66ea35cb46073	0.043812851969222154
6	0xbf4a38c61124e7f0	-0.0008002249835847835
7	0xbfd31bfb1e131dd5	-0.29858282029132727
8	0x3fcf32395a2d4eb0	0.24372021582768388
9	0x3fbac03dbb6c68fd	0.10449586702126008
10	0xbfaa29538cd97479	-0.05109654516557156
11	0xbfcacdf07509f62e	-0.20940976824560792
12	0xbfc6a6e708e7cbc8	-0.17696845946156103
13	0x3fb1905ea83e2f1c	0.06860915763371306
14	0x3fb372b4f531b56b	0.07596903787790203
15	0x3f9bf1c0f78d7d94	0.027289404973428313
16	0xbfc66dd8977403c9	-0.17522723574805202
17	0x3fc156adf52723df	0.13545774908405314
18	0x3fb35ae23cd6d60b	0.07560552583057516
19	0x3fb5337c6478727a	0.08281686261075008
20	0xbfb7bd9c742d43cc	-0.09273698650692025
21	0x3fc9ec8a357ad945	0.20253112422296674
22	0x3fd01288c3efee55	0.2511312402200237
23	0x3fc53e7edb9c66c4	0.16596971247854786
24	0xbfc092ea2c839f68	-0.12948348210852179
25	0xbfce733315f0ae27	-0.237890611374824
26	0xbfd58bc131e232a5	-0.33665494796222567
27	0x3fcb50c73efaa170	0.21340265822551485
28	0x3f886dda47466612	0.011928277301922061
29	0x3fc477f56b580cd4	0.1599108480587349
30	0xbfa77f54ae8fbd97	-0.045893331822180965
31	0x3f87c8b3b732e473	0.011613277462276117
32	0x3fa38e764b641687	0.03819627447414314
33	0x3fc6695f549c5841	0.1750907099855699
34	0x3fcf1ddb6af0fb25	0.24309866639847502
35	0x3f925a415308fa77	0.017922421162661153
36	0x3fa7a8c63a5113bb	0.04620952093004101
37	0xbfcbffaa8f6be7d6	-0.21873981478694188
38	0x3fb094cefaf93795	0.06477063777239629
39	0x3f59ffa766f88dbe	0.0015868315493968578
40	0x3fba091fd0aca41b	0.10170172543134053
41	0xbfa87d520f36e639	-0.04783111987803718
42	0x3fd872ad826962cd	0.3819993756820111
43	0x3fd58f3e35d0e088	0.3368678594156411
44	0xbfc589e2f632a67e	-0.16827046414737262
45	0x3fb277afc0e56414	0.07213877162338661
46	0xbfcf3bc68bf26e34	-0.24401170571660347
47	0x3fd7c09ed335b982	0.3711316168400104
48	0xbfa7ff8e6c47abe6	-0.046871615140694975
49	0xbfde32b9b09df4ef	-0.4718460297370503
50	0x3fc4dc078d4969bb	0.16296476744430585
51	0x3fa0ece1c2d5fb76	0.033057265313792536
52	0x3fc72eb0cf539baa	0.1811123859726796
53	0xbfb6be07c0297b3b	-0.0888371318955991
54	0x3fd09f9ac8e55dce	0.25974149340387676
55	0xbfd95ddb8590b109	-0.39635360759236044
56	0x3f98fc5bda594f50	0.02440017242618292
57	0xbfa5ed96dac37260	-0.04282828731968347
58	0x3fa63e1ac38afd00	0.04344257008551189
59	0x3fd63f5e9275afce	0.3476177625914233
60	0x3fc00995ee636f5c	0.12529253139552565
61	0x3f772fa0a1b8136a	0.005660655467640699
62	0x3fba5c84db78abf1	0.10297422750652153
63	0x3fd975313493f30a	0.39777784475863653
64	0xbfd2a9d192c2f34b	-0.2916149075716034
65	0x3fd4e99038efbdb8	0.3267555767078778
66	0x3fc9df5f168dc490	0.2021292553068048
67	0xbfd4fdb9aa55b48a	-0.3279861606050153
68	0xbfd517c7c3a1db9e	-0.3295764360877288
69	0xbfd695c42621a802	-0.3528910038354526
70	0x3f9bf972a201640d	0.027318755281474028
71	0x3fa698ffd67e4841	0.04413604253126425
72	0x3fc467de7e808a1e	0.1594198339162895
73	0xbfacee709deb8045	-0.05650665214284393
74	0x3fc1c790c42e2252	0.1389027555381
75	0xbfe040883c8675f2	-0.5078774625905551
76	0x3fc08dbd90cf675e	0.12932557650384074
77	0x3fb2f4f01a6a80f6	0.07404995579645743
78	0xbf9c18237ab864ea	-0.027435831418277802
79	0x3fc2fc7ac70c0c9b	0.1483300659093388
80	0x3f924ce6920eb063	0.017871477760920473
81	0x3fc481b0d22e3510	0.16020784628600682
82	0xbfcacbbcacc65f12	-0.20934256016038738
83	0xbfd85290e9bb127d	-0.3800394327666153
84	0x3fc7a35fc13919f9	0.18467328009337772
85	0xbfc1421182f24dcd	-0.13482874769088796
86	0x3fc05da7b4184e8d	0.12785812658022558
87	0x3fc577351f9b3e65	0.1677004246071078
88	0xbfc0b7c7f46ac1d8	-0.13060855326103993
89	0x3fc811752a1ba123	0.18803276592303417
90	0x3fc5d0cb81e7ca41	0.17043441622770852
91	0x3fa66fc9ef2405cd	0.0438216308994118
92	0xbfb353faf8bd5436	-0.07550018856757465
93	0x3fc0497741a56922	0.12724199967744548
94	0xbfc9fff225f50687	-0.2031233487451127
95	0x3fb3a0eaf8c5e03b	0.07667416165884415
96	0x3fc2ca555ce9da64	0.14679972683707654
97	0xbfc0ddab8b9a723a	-0.13176483456199312
98	0x3fc193388b79c269	0.13730532465298786
99	0x3f75454b648d2193	0.005193037512818316
100	0x3fc4c47e98a2eb07	0.16224653675984532
101	0x3f8d8509bc53d782	0.014413906154441273
102	0xbfbab6d89487a4b0	-0.10435250879494862
103	0xbfba2a239e23c3b0	-0.10220549212296137
104	0x3fc6e69eeae285f1	0.17891298741328357
105	0x3f970e296afa61ac	0.022514960436269923
106	0x3fc48ecd68cebe4b	0.16060798280294572
107	0x3fb88613d8a63e5f	0.09579586066524247
108	0xbfdcde6efbc42752	-0.45107626520677
109	0x3fb75cb12f98df90	0.09125811969795294
110	0xbfc6789bb25be1a1	-0.17555566986972074
111	0x3fc65b2e2087ddf4	0.17465759838499617
112	0xbf80e2d57dbc472c	-0.008245151424066309
113	0xbfd1bb62ea5b8cc3	-0.27706215750204083
114	0x3fbb42bc9221d5e3	0.10648706977538995
115	0xbfd65135dcc19bbb	-0.34870668943625177
116	0x3fa5ae4dcab0f14a	0.04234545802362051
117	0x3fce1a811a786f9d	0.2351838473558673
118	0x3fbab85592e3fd59	0.10437521778293525
119	0x3faca915afb6b056	0.055977513980309965
120	0xbfb900202f96d167	-0.09765816842884122
121	0x3fbdb996ce16c57c	0.11611311465710189
122	0xbfbc01b8423bfe32	-0.10940124146508692
123	0xbfdc832d0db19200	-0.4455063470580001
124	0x3fd405d6be39ef7f	0.31285637451923515
125	0xbfaaa7f5094597e5	-0.05206266153508902
126	0x3fb4487c85f9d675	0.07923105498215384
127	0x3fdaf5c06110399c	0.4212494800457536
128	0xbfd1fe090a3750b8	-0.2811300849691736
129	0x3fd39d994e836a8d	0.30649407069510276
130	0xbfb3fcdfe2aa5fba	-0.07807730945421457
131	0xbfb8208b750e08a1	-0.09424659354957267
132	0xbfcf89275d08ce12	-0.24637310068793333
133	0xbfd1131b79e9ee07	-0.2667912188114489
134	0x3fc51e735626ae61	0.16499177652927968
135	0x3fd3e446ceca9274	0.3108078975149404
136	0x3fd08e6f29427f9b	0.2586934950759258
137	0xbfd210f29d1b161b	-0.28228440611232636
138	0xbfcf6baadf8c546e	-0.24547325053632413
139	0x3fb9d4f468807304	0.10090568114578607
140	0x3fcc54200221fccb	0.22131729225291105
141	0x3fc44907e5891a08	0.15847872455397316
142	0x3fcf90b44a670a69	0.24660352356848428
143	0x3f9b874d18de29a1	0.026883320467769093
144	0xbfc1ec9958149c56	-0.14003292847448517
145	0x3f9aa5bce0404635	0.026022864520262885
146	0xbfa59ff9de4df423	-0.04223614538839395
147	0x3fafa1aefa87884c	0.06178042228909017
148	0xbfdcec530753f6e9	-0.4519240924417845
149	0xbfd41369c6b8d912	-0.3136848869938983
150	0xbf66f4af3b2ea4ae	-0.002802221535109859
151	0xbfb6b0631bfd9c03	-0.08862895425191657
152	0x3fd466a085b70d34	0.3187638574419964
153	0x3fd126b07a999a39	0.26798641178757837
154	0xbfc535d10fb34fb9	-0.165704853693226
155	0xbfb2374a075f9275	-0.0711561458588877
156	0xbfcb14b464363706	-0.21156935589936426
157	0x3fe161fbbb21a4d0	0.5432108549986427
158	0xbfc132dd8713d9ff	-0.13436478705962426
159	0xbfe2c919580aff25	-0.5870482177342394
160	0x3f86bc8eda9e6370	0.011101833388055232
161	0xbfbf7b4cbe8c7215	-0.12297515537324728
162	0x3fd815940631f16c	0.37631703000058425
163	0x3f65205306124915	0.0025788899952853364
164	0x3fcbf392cd3b6d29	0.21837077160930932
165	0xbfa4ce74c7d8b168	-0.04063763560802408
166	0x3fd1987e490db4af	0.27493245252737614
167	0xbfd6642de4fb31ce	-0.34986445771644703
168	0xbfc6f9553d4568d8	-0.17948403827433057
169	0xbfbe336575e0ed05	-0.117971745757064
170	0xbf9f0b649f3f02ba	-0.030316898555386308
171	0xbfb40f8d3520880e	-0.07836229846046214
172	0x3fc9fc94794f3a09	0.2030206291514818
173	0x3fd02e84ea1f5903	0.25283930648346614
174	0xbfe0cbc2132d306c	-0.5248728155652436
175	0x3fda33f498e8771c	0.40942110950878585
176	0xbfccdab6b9e46468	-0.2254246146847294
177	0x3fbf2f78b133b65c	0.12181810690136657
178	0x3fa4aca1d768ba77	0.040379579110198564
179	0x3f819f7609c856ea	0.008604929135838064
180	0xbfb7d448bce44bce	-0.09308294879546894
181	0x3fc419b1cb01b52a	0.15703413402972305
182	0x3fae756e14ab6b2f	0.059489669821877526
183	0xbfc68ca873a64c6d	-0.17616754195168785
184	0xbfbafa8632d877d0	-0.1053851961264336
185	0x3fd9d776b563fcbf	0.40377586091922163
186	0x3fbf752d2712cf46	0.12288171962682978
187	0xbf974f7bb1a0b4eb	-0.022764141766107675
188	0x3fb5c92d11300024	0.08510095281235458
189	0xbfabc42e3048bc6c	-0.054231112855966795
190	0x3fa76264d3306c13	0.045672560481954026
191	0xbfb47224a84c1dcf	-0.07986668690511255
192	0x3fd7b465391c41c1	0.37038546158967384
193	0x3fd64f056f62af9b	0.3485730731724687
194	0xbfc334f499c4fa13	-0.15005357273362616
195	0x3fd77c1b3dff6859	0.36694985441648026
196	0xbfddec3b12a66529	-0.4675433809403154
197	0xbfd24c93ab68050c	-0.2859238790407097
198	0xbfaf2fe2980784cf	-0.060912209566376434
199	0xbf9586784a9e8013	-0.021020774416342713
200	0x3fcb16269946fb7a	0.211613488047046
201	0x3fc172762dcdbd60	0.13630559193141334
202	0x3fd4b4f5fd58cb4b	0.32354497662452236
203	0xbfc9fec8989a6b1a	-0.2030878777630612
204	0xbfe3e97160fa4cb0	-0.6222464460464803
205	0xbfbbd8a5f50340b2	-0.10877454025035396
206	0xbf9ed63a3055f649	-0.030114087295706225
207	0x3fbb4e55e7185c24	0.10666405574771481
208	0xbfca73b0f4d58d97	-0.20665561632914084
209	0x3f9a2f90927f4a38	0.02557207006595716
210	0x3fbc777a17a2a1b8	0.11119807316811758
211	0x3fd5b02ed8841a62	0.3388783564009029
212	0xbfd21aa12f2ab5ff	-0.2828753433812778
213	0xbfd001cbc59d6819	-0.2501096181709968
214	0x3fcd2d81f9cd137a	0.2279512853366688
215	0x3f9e74b2d230d61c	0.0297420445242179
216	0x3fc649e18c1f7cce	0.1741296705431296
217	0xbf9402e5fd3e740e	-0.019542306501183097
218	0xbfb819f447f488a3	-0.09414603001326553
219	0xbfca2b303adb8305	-0.20444300531291773
220	0xbfa90ca45ee3d154	-0.048924576361886324
221	0x3f9e78a5eaf5fada	0.02975711103999399
222	0xbf96d33f42587ab3	-0.02229021875802557
223	0x3fd13f67cd447ecf	0.2694949631277099
224	0x3fd57b7706bf86d4	0.3356607023143685
225	0xbfd45f2d62ead5e0	-0.31830916080374827
226	0xbfd0c8cc91f8f34e	-0.26225580458758635
227	0xbf78df1a2cdadc07	-0.006072141882831345
228	0xbfb6fe290f049b7a	-0.08981567970896079
229	0x3fd447092559bc25	0.316835676646351
230	0x3fa0aeadf6f38dc5	0.03258269919913518
231	0x3fd1b50ae5ac75bb	0.276674961367316
232	0xbfd0df2076f1f89b	-0.26361858001463084
233	0xbfcb39d17052a5e2	-0.2127019689990411
234	0xbfd3901aeb183cf4	-0.30567048033203936
235	0x3fda38f2884637d1	0.40972579296146444
236	0xbf9ba2b2823e158d	-0.026987828444835982
237	0xbfa2016f98d6f5d8	-0.03516720524519784
238	0xbfcbe246202d230b	-0.21784283228978327
239	0x3fb9a3a4e8116499	0.1001532618114588
240	0x3fc112be3a7616fc	0.13338449339442338
241	0x3f9d3120d6de343f	0.028507722010136623
242	0xbfd4a6212c323d22	-0.3226397449115713
243	0xbfb86fe563ba139a	-0.09545739826906044
244	0xbfc3bf19f419de6d	-0.15426945132252304
245	0x3fb825ab53595414	0.09432478699575625
246	0x3fd1ecee20bc0041	0.2800860709830922
247	0xbfce539fa2151df4	-0.23692698873695373
248	0x3fb885d7770ea4e1	0.0957922616641045
249	0x3fd1bcb7e58a7c49	0.27714345375165245
250	0x3fbb22018953ee11	0.1059876404069018
251	0x3f98513dfd5ec540	0.02374741419743498
252	0x3fa31062b0ec2cc9	0.037234386536590565
253	0x3faea0a86ed67cdf	0.05981947281838428
254	0x3f916578b9a6653a	0.016988645869422593
255	0x3f8749f4e513ba50	0.011371529808880926

bias_hidden f8 [1, 128]
0	0xbf9a637ea94b369c	-0.025770167429803523
1	0x3fb291cb8a8c984a	0.07253715641545103
2	0x3fb477445f94b168	0.07994487126842886
3	0x3f75bf2aa46cb61a	0.0053092637743197505
4	0x3efde6083ac94314	2.8513491701356758e-05
5	0xbfbdc9ad36315f20	-0.11635859082286659
6	0x3fc11c9403324bd3	0.1336846366508256
7	0x3fb2930e419dfb6d	0.0725563917348901
8	0x3fabf4283e766e74	0.05459714663012685
9	0xbfa26e462034f68c	-0.035997573310379755
10	0x3fb58290dc129bc4	0.08402352688663856
11	0x3fc5479da12c7b54	0.16624803895771356
12	0x3fb6b76253c09a0a	0.08873571915373915
13	0x3fbb23992fdc2e42	0.10601193827113156
14	0x3fb8faa3d3ec772c	0.09757446216505333
15	0xbfa351abdb8775cb	-0.03773247771071516
16	0x3fb2507e7e6912ac	0.07154074274246608
17	0x3f9fe3036e2ebcaa	0.031139424896249913
18	0x3f5b50ba6e841e2a	0.0016671963331321795
19	0x3fa40373fe0535c0	0.039088845022529295
20	0x3fbe36923e90f52c	0.11802019145485038
21	0x3fac7e3532cf38db	0.055650389149023836
22	0xbf5eb085ef718552	-0.001873141094414461
23	0x3fb652203511cb33	0.08719064040796524
24	0xbfa30eeaee7fd468	-0.03722318803185304
25	0xbfc327f9419b9fab	-0.1496573992110347
26	0xbf8b5ac44f2764ed	-0.013356717744431335
27	0xbfb543ed52c7e356	-0.08306773444190915
28	0x3fbe3e1e4dabbce5	0.1181353511453725
29	0xbfa522278a80143e	-0.04127620282819365
30	0x3f935875ab062885	0.018892134250144927
31	0xbfb755da46636ce4	-0.09115375727144542
32	0xbf85639525e06a77	-0.010443845003512238
33	0x3fcb892cc1da6a17	0.2151237436817872
34	0x3f92cdf338e3565a	0.01836376223294276
35	0xbfa7ab6cceb09b7f	-0.04622974417752967
36	0xbf899a94e06c9588	-0.012501872156984076
37	0xbfad6bc963b0f085	-0.05746297208722332
38	0x3fbfca58ae5038b0	0.1241813111848582
39	0x3fb7e329792197d1	0.09330996711068386
40	0xbf8f2136aae65c58	-0.015200068560075206
41	0x3fc65dd11419ae6c	0.17473805886708094
42	0x3fb6580b4786d787	0.08728094574220623
43	0x3fbd56f91fa72eff	0.1146083547857266
44	0xbfacc51137ac4e81	-0.05619100384333554
45	0x3fc372593de0c443	0.1519271423472067
46	0x3faa245c72949107	0.051058663355691584
47	0xbfb0b29b440df4b6	-0.06522531901824177
48	0x3fb4def7c48557c5	0.08152721927521529
49	0x3fa83f61eca80d5c	0.047358570231177594
50	0x3fcab6c98e65ec9c	0.20870322659525165
51	0xbf75ea8271665a31	-0.005350598852962339
52	0xbf898459e2cf5232	-0.012459470972239737
53	0xbf8d45847fcc66b8	-0.014292750501727056
54	0x3fba4b08fc0bae9f	0.10270744470079272
55	0x3f90fab736374659	0.016581404384686447
56	0x3fb6f49177f6ace1	0.08966931513593891
57	0x3f7a84bb470d78c5	0.006474238923003199
58	0x3fc181e62671a9af	0.13677670361660207
59	0x3f96fee5e3905e04	0.02245673371734648
60	0xbfb332595f1f2e99	-0.07498701641378104
61	0x3fb6ea5198429ad8	0.08951292006768641
62	0xbf2d2f77562bb52b	-0.0002226670431676817
63	0x3f8f45519b59003c	0.015268933823904367
64	0xbf6ba709027cf17f	-0.0033755470248292836
65	0x3f9e1b0697845aa9	0.029399970052589684
66	0x3fb118c486c7002e	0.06678417482817231
67	0xbfbb8a9538090275	-0.10758335702940676
68	0x3f87c95b3c2861bd	0.011614525578850338
69	0x3fbae8aedfd39cae	0.10511296238438447
70	0x3f476e7ca51ee5c4	0.0007150753610780038
71	0x3f67bf890450605f	0.002898948298490508
72	0x3fb0de6dac1af0d6	0.06589398814952871
73	0x3f665acd46e62b64	0.002728844577352717
74	0xbf812142f2e13bbb	-0.008364222561935244
75	0x3fb8872866972116	0.09581234459540541
76	0x3fb0977e092e88f9	0.06481158947147837
77	0x3f996e7a90706657	0.02483550554834432
78	0x3fa612b87f031c91	0.043111577515042694
79	0xbf9504c5ef1cb293	-0.020526020735973715
80	0x3fac83b60dab6b5c	0.05569237629762
81	0x3fb7485f390ef03c	0.09094805853868676
82	0x3faa47ffd4ad2f7d	0.05133056136273149
83	0x3fa13685a2f43320	0.03361909498389637
84	0xbfb616bc4e7f82df	-0.08628441730935375
85	0x3fa6b594a439c4f3	0.04435410027225286
86	0x3fb800fd80656570	0.0937651098696699
87	0x3fc2fb0ed00acc94	0.14828667791661998
88	0x3f8df426758f6c78	0.014625835859922484
89	0x3fcec3b7a114aac0	0.2403478180434231
90	0xbf979a9e2955fa0d	-0.023050757668437828
91	0x3f9300f34dcc1ae3	0.018558313010568105
92	0x3fa162a829178743	0.03395581723795129
93	0x3fa0af492e4fad88	0.03258732500384115
94	0x3fa29ce3aa9caf3b	0.036353220535913576
95	0xbfa1692b436a5899	-0.034005500773831084
96	0x3fb1eebbb6a83d6c	0.07004903039363847
97	0xbfbb1863fefc1df0	-0.10584092116561528
98	0x3f76d97edcc64c97	0.005578513675931116
99	0xbfb7492782d5eba4	-0.09095999664525195
100	0x3fb2846b772535af	0.07233306559392959
101	0x3fa719947b977a8c	0.04511703499496375
102	0xbf8a0cbfaa86419d	-0.012719628707402115
103	0xbfba26145d5f37a6	-0.10214354781712007
104	0xbfb8bf765568d30e	-0.09667148194496297
105	0x3fa24e5d5e66522a	0.03575412537898999
106	0x3fb9b287afe9482f	0.10038040203770103
107	0x3fb2c1921a41bdf9	0.07326615468058852
108	0x3fa15827486dc4d9	0.033875682441143425
109	0x3fa54203ba831da9	0.04151927615890411
110	0x3fb50f663726c15b	0.08226622435063773
111	0xbf997c658e08ebbb	-0.02488859824573429
112	0x3fc865692e7186e7	0.1905948139929514
113	0x3fa6c71fece90552	0.0444879509636943
114	0xbfc352fe4632b40b	-0.15097025325431476
115	0x3f9e0f2a3773829e	0.02935472453543985
116	0x3fae736d15e12c7f	0.05947438137135296
117	0x3fba4731332f99d2	0.10264880656868705
118	0x3fc11e1ce0fec772	0.13373146997542623
119	0x3fb152df47f97f2a	0.06767077929680157
120	0xbfb6867734d55db2	-0.08798928298835199
121	0x3fa88459bc3af31c	0.047884754397705204
122	0xbfa7800f060da47f	-0.045898885239531666
123	0x3f9858b34bf06559	0.023775865087462964
124	0xbf81162206038eed	-0.008342996414689685
125	0xbf88343abc3d4122	-0.01181836974106482
126	0x3fc525125c777db2	0.1651938392160282
127	0x3fb0d9a1c6a04561	0.06582079982060442

bias_output f8 [1, 10]
0	0xbfc5d91924fbdf6c	-0.17068781190732396
1	0x3fc2b53e5ab07641	0.14615611484707539
2	0xbfb5e813bf2b5ae2	-0.08557246606083482
3	0xbfa197273d4326b2	-0.03435633299666331
4	0x3fb6a1bb690b8a0d	0.08840533556534798
5	0x3fd2fb753a71123b	0.2965977736205649
6	0xbfb26e73f994ff8a	-0.07199787944136751
7	0x3fcedda0846d46be	0.24113851991801555
8	0xbfd14395fb7ed529	-0.2697501140604169
9	0xbfc1e95440db2514	-0.1399331394843918
