models/model_cv_digs (20).npz (npz, 815236 bytes, 4 tensors)

weights_input_hidden f8 [784, 128]
0	0x3fb2cce64a04a344	0.07343901927073399
1	0xbfbfccea223ea569	-0.12422049842884565
2	0xbfb63c166c18b608	-0.08685436381411915
3	0x3faf7f37e5facbda	0.06151747400635772
4	0x3fb9739e6146d6f8	0.0994204509250628
5	0x3fb482694c146f79	0.08011491877954126
6	0xbf94599dfadc6c65	-0.01987311214098177
7	0xbf84f5e625c7cec0	-0.010234640148133578
8	0xbfb952438c0fa343	-0.0989114968248375
9	0x3f8d4020171454de	0.014282465652778627
10	0x3fa525963b0b90fa	0.04130238981977814
11	0xbfb1d74812631ed9	-0.06969118546396248
12	0xbf788dca8873f947	-0.0059945975729063855
13	0xbf62057e9f013964	-0.0021998856609918727
14	0xbf981d6e60e4c429	-0.02354977098838532
15	0x3f916472ca191089	0.01698474272258513
16	0xbfb4812b8092bdc8	-0.0800959767245707
17	0xbfc02a727fa9c135	-0.1262953875880243
18	0x3f92f4c3dbe84a95	0.018511829659539975
19	0xbf9079b56e7e8292	-0.016089281910924465
20	0xbf93612ac2c545ef	-0.01892535032067671
21	0xbfa87b180b6bb038	-0.04781413211262059
22	0x3f98742e31c52fe8	0.023880693233237965
23	0x3f7ff4f5c67011c1	0.0078019714919758685
24	0xbfa20456a712f0fb	-0.035189350027822607
25	0xbf92e6823a96d3c0	-0.018457445932387406
26	0x3fa33372dc8f8046	0.03750189726247348
27	0x3fb1ace4583912c0	0.06904437211876324
28	0x3f91d43cdffea058	0.017411185428187842
29	0x3fa1d25a67c9cab5	0.03480799214311984
30	0x3fa1f78f67577042	0.03509185921186077
31	0x3f97274d1260572a	0.022610859152414488
32	0x3f76bfc345cebf96	0.0055539729918762295
33	0x3f48e64575d8bc41	0.0007598723565872615
34	0x3f9a7373caa24825	0.025831040613930285
35	0x3fb2e4e43b2611fd	0.07380510753689147
36	0x3f7e2a12668c59e8	0.00736434161878783
37	0xbfaaa5aa15598ac5	-0.052045168977902935
38	0x3fb020e9a2c49e7d	0.06300220702962096
39	0x3fa9c37220d7489d	0.05031925822153591
40	0xbfa50e6127011446	-0.04112533188939742
41	0xbf87d445a0e83744	-0.0116353454332302
42	0xbf96385bb9758bce	-0.0216993648476878
43	0x3fa29f8965c8b7df	0.03637341849785946
44	0xbf79d3f305fbf6cf	-0.006305646238386322
45	0xbfb7523b4a583a37	-0.09109850468687673
46	0x3fadc698c6dde033	0.058155798221321574
47	0x3f56ec92753b324b	0.0013991766217486153
48	0x3fb2a0ce70c9506a	0.07276621106694994
49	0xbfb2eef5326adeaa	-0.07395870667357465
50	0x3fb2e2ea1db70df9	0.07377494073357828
51	0x3f909d31ecfe6ed2	0.01622465142246094
52	0xbfac8c366968dd2c	-0.05575723683107933
53	0x3faa8e627d6aa417	0.051867559251441424
54	0x3fb12b9fd2aba926	0.06707190411876648
55	0x3fb1e180f6535a75	0.06984716428574152
56	0xbf9f42cda49cc8f1	-0.030528271839281144
57	0xbfb7966bc8f0ca6e	-0.0921389928414926
58	0x3fc44869fe891a3c	0.15845990112775776
59	0xbf95cd4fdb0730e1	-0.021291015380300208
60	0x3f9886e126818cd6	0.023952024436209772
61	0x3faf197b1e510d01	0.060741279078252226
62	0xbf85017df0c3aa92	-0.01025675192837142
63	0xbfa22eff855a7d03	-0.03551481726503349
64	0xbfad0c137cd88467	-0.056732758512460894
65	0x3fa01929a5b93849	0.03144197605125549
66	0x3f88c351503e5367	0.012091288815818847
67	0xbfaf05c23bc23d98	-0.06059081058003385
68	0xbfb1203a5ba3be6a	-0.06689800965590967
69	0x3fad66fab42310af	0.057426294793488146
70	0x3fb04a92f956f7bb	0.06363791072268914
71	0xbfa85ef48b730354	-0.04759945108663169
72	0x3f999e36c253133d	0.025017600641848537
73	0xbf8879cb6027f435	-0.011951054450941448
74	0xbf7ebf6f2ef63bdb	-0.007506784735041595
75	0x3f82aff2ff7240fe	0.009124658985712571
76	0xbfb00b091afff988	-0.06266838940789488
77	0x3f74b49248222e44	0.005055018819017546
78	0x3f9241a67217af85	0.017828560556082635
79	0xbfa449c9a58f518b	-0.039625455341283
80	0xbfad08d06f49539d	-0.05670787199475245
81	0xbfaaeebf2700b31e	-0.05260274268252928
82	0x3fb4b328471a210e	0.08085872398271851
83	0x3f64f4aca27d1c63	0.002558076073828229
84	0x3fb1bff14e98c85e	0.06933506173007362
85	0xbf54a5d562598187	-0.0012602409200540303
86	0x3f9b5482f90db027	0.02668957371808758
87	0xbfacce35f025782e	-0.05626076275324042
88	0xbf9fbf534245afe8	-0.031003285331664104
89	0xbf92bd7a34749c6b	-0.018300923778181415
90	0x3f813cec224d14fb	0.008416981503283063
91	0x3f90f6abe8bf6441	0.016565977173602645
92	0xbfabe76b607e0464	-0.054499965218391094
93	0x3fa34cbe7e85f4dc	0.03769488615487557
94	0xbf9c9b7552ac268f	-0.02793677632420227
95	0x3fa02c0453969a39	0.03158582229962232
96	0xbf99f5f73865ae3e	-0.025352347199641516
97	0xbf8410d81b9fb52a	-0.009797752707494018
98	0xbf9e9ebb0a102eff	-0.02990238427086833
99	0x3f8a5b56354a26b2	0.012869523526450297
100	0xbf929e31fec39f2a	-0.018181592154092353
101	0xbf9b38cac0f50628	-0.02658383181301907
102	0x3f8f5faa54cd58b9	0.015319185936885625
103	0xbf85c6931e2a1ccb	-0.01063265739254717
104	0xbf9b283bcae64440	-0.026520666369439505
105	0xbfa8c7fb01eb7bb7	-0.04840073011813877
106	0x3fa6c899883334cb	0.04449920451734498
107	0x3f7c650a0bc17ab8	0.006932296029929112
108	0x3fa1583f43a499d9	0.03387639713973884
109	0x3fb82ffbe4b397d2	0.0944821771005018
110	0x3f93a2722c4eefc5	0.019174369768492534
111	0x3f88a531897e6b2d	0.012033831604460222
112	0x3fa8dccfe5bb0a13	0.0485596626217736
113	0x3f9d2820f8599a8b	0.02847339168365663
114	0x3f923f7192bc3978	0.017820143300065067
115	0xbf9a96bbe0a5c784	-0.025965629183196906
116	0xbfa26b3d390c829b	-0.035974419797871714
117	0x3fa295a67486a098	0.036297990536071356
118	0xbf9c9a1cc5464491	-0.027931642094305934
119	0x3f94a7a7dfd258ad	0.020170805965414363
120	0x3f5b1f30980618eb	0.001655385451245157
121	0x3fb12bb47f0bf172	0.06707313634610104
122	0xbfb6abb5c75186c5	-0.0885575877778378
123	0x3faaa78c25abe9f9	0.05205953559739735
124	0x3f977511adb82c7e	0.02290752051162003
125	0xbfb00fe6780d36da	-0.06274261885593138
126	0x3fc254d64776b991	0.14321402062837454
127	0xbf91c9bfc9d93c08	-0.0173711745213119
128	0xbfaec5039ba46e9e	-0.06009684824877336
129	0x3f823f8faa6f239b	0.008910295857178776
130	0x3f9e23ea5cdcd8ef	0.029433881681335924
131	0x3f82cc4e2a737adc	0.009178744001869736
132	0x3fb9a25ee5f37850	0.10013383020438593
133	0x3f6cde27829162aa	0.0035239001922885054
134	0xbfbf1d73281983d6	-0.12154311875339316
135	0xbf5d74f72622a911	-0.00179790626183746
136	0x3f84542a44f48d4a	0.009926157216404125
137	0xbf88524f5baf9c73	-0.011875743852171028
138	0x3f949773231dd653	0.020108984964698994
139	0x3fa3a7d5ffbc2b87	0.03838986155286422
140	0x3fc1007cb3345b21	0.13282736540050968
141	0xbfb5f167cefcb14f	-0.08571480563540955
142	0x3fa529d0100eff38	0.04133463092830286
143	0x3fb03ea5ff9b532e	0.06345593920134426
144	0xbfa83a4c42d7f627	-0.04731977764093314
145	0xbf64b4a7b352d7d8	-0.0025275493049674407
146	0xbf4bf1c9578508b7	-0.000852797805272829
147	0xbf7f242b325cd259	-0.007602852570745521
148	0x3fa39c44c5463437	0.03830161007054083
149	0x3f862f4260a31c41	0.01083232743657281
150	0xbf90780a44fbb00d	-0.016082916698835038
151	0x3fb309067c228764	0.07435646563183479
152	0x3f921eed0123154e	0.017696097559356354
153	0xbf99d1d5809d2008	-0.025214515662156628
154	0xbf81cdd0d156e684	-0.008693343533070726
155	0x3f916d9c5f7850aa	0.017019694640183637
156	0xbfaed3931a1afdb3	-0.0602079362265572
157	0x3fa696854a14b2a0	0.04411713151271113
158	0xbf987074a4f21c2d	-0.02386648422955433
159	0x3fa595fb5b3829a0	0.04215989578740964
160	0x3f89ed4710fadd42	0.012659602361380199
161	0xbf9095f26e00ff27	-0.016197002376656357
162	0xbfb75a54a4773193	-0.09122208609841768
163	0x3faafe654365cd1a	0.052722134091619036
164	0x3f5c4b15d0559c59	0.0017268860841228777
165	0xbfb0f496e425b0eb	-0.0662321383476329
166	0x3fac048713faad40	0.054722043217533045
167	0x3f66453be06b4d50	0.002718560167844032
168	0x3fb047b945d48c42	0.06359441714134653
169	0xbf94ae35a4952b54	-0.020195806665735574
170	0x3f8819ae49dc4a45	0.011767732266467887
171	0x3f622e16087aea94	0.0022192411741717797
172	0xbfa843bee68bfb6f	-0.04739185871402795
173	0x3f7c100d13652174	0.006851245000071383
174	0x3fa77d10cbb9c817	0.045876049870358475
175	0xbf9f16bdb8a2cceb	-0.030360187906535534
176	0xbfb1bc8190bae6f4	-0.06928262504052524
177	0x3fa8fce791ed4b16	0.048804508746476724
178	0x3f9afe504cf36aa7	0.026360754677493017
179	0xbf669dc5c72be917	-0.002760778699095866
180	0xbf9446b4d0048b16	-0.01980097312583514
181	0x3f9743f996746133	0.022720241363544957
182	0x3f98950bca995a40	0.024006065598167092
183	0xbf5d4d6d5cd14dde	-0.0017884796136698948
184	0xbf8d7a6837ab177e	-0.014393629263746762
185	0xbf62b573987ee6c5	-0.0022837884643792405
186	0xbf9f0acf3dd7f931	-0.03031467261279736
187	0xbfb3a78d344a2fc9	-0.07677538420301667
188	0x3f8567ade6b7145d	0.010451658824317695
189	0x3f99e71df2cc3240	0.0252957038347168
190	0xbf9af9c504ed7443	-0.02634342043471728
191	0xbfb3735e1fcd0806	-0.07597912098302126
192	0xbf9f575f026eb5b8	-0.030606731914010615
193	0xbfad628936cd31cd	-0.057392394961968664
194	0x3fa38c41d14188bd	0.038179451745933936
195	0xbfb0c9c47cde43ba	-0.06557872818508673
196	0x3fb10734720d4b26	0.06651618751974961
197	0x3f855a3fe5e5d234	0.01042604370443554
198	0x3f8c860003203b36	0.01392745980777264
199	0x3f959b7bd885adc3	0.021100936022248506
200	0x3f923da4a765680f	0.017813275067375452
201	0x3f7833e4cce260b6	0.0059088647377835615
202	0xbfb970fc4431a1ca	-0.0993802706231072
203	0x3f9d8a6f47ae6ad9	0.02884839892395061
204	0xbfb89a64348e94bc	-0.09610582621697267
205	0x3faebf4d68859978	0.060053271302240085
206	0x3f53404174d5c048	0.0011749877188229774
207	0xbf9bead3e1b64436	-0.02726298394333445
208	0xbf9f038caed004ed	-0.030286977929795112
209	0x3fb1ee2f040c03d4	0.07004064415742955
210	0x3f9a203bd4ec0dbc	0.025513586874706937
211	0xbf7f4519a44aa3e7	-0.007634258425846397
212	0xbfa435800eff1923	-0.03947067435324161
213	0x3f7a062c6aafd0ec	0.006353543761168572
214	0xbfa84ad047c03c1d	-0.047445782431275264
215	0xbfa1486d852687e3	-0.033755705360149844
216	0xbfa6cd1e591246d5	-0.0445336803178528
217	0xbfad24b9ba869e6a	-0.05692081834723413
218	0xbf9c5e3b4d311ce1	-0.027703215204636037
219	0xbfb8beab1e623b87	-0.09665936939039287
220	0xbf9280ab3869d5d7	-0.018068957632257323
221	0x3faa14e7334606ea	0.05094072819612257
222	0x3fa76136afcf0d76	0.04566355606177812
223	0x3f9ce6ed44f09328	0.028224665959118017
224	0xbfb97f9993644f64	-0.09960327003892427
225	0xbfab0e94a381993f	-0.052845616301782965
226	0x3fa3fdc625286a65	0.03904551700198481
227	0xbfa21eaef0dc93cd	-0.03539034548001716
228	0x3fb2fb9773848fb7	0.07415148325213648
229	0xbf99c99be34c3bb8	-0.02518313956084814
230	0xbfb766238dbffa2c	-0.09140226565066517
231	0xbf914f1c8947c479	-0.01690334880726538
232	0xbf6c0a96b6594b95	-0.003423017845116625
233	0x3fae6c0e3814ab61	0.05941814837054583
234	0x3fa04ceb3959878a	0.03183684420652273
235	0x3fb0f60d508da62a	0.06625445572503766
236	0x3f912c7ebafff0f7	0.01677129761081716
237	0x3f9cdc1a2d0e9fe8	0.028183373451298538
238	0x3fae8e89d72f36ec	0.05968123199236949
239	0xbfac16c873d7dcf2	-0.05486132063009021
240	0xbfb292b7c6c10a9f	-0.07255123712915655
241	0x3f99f7ee288fbefe	0.025359841561964018
242	0xbf7ab7d42df46b32	-0.006522969080175399
243	0x3f93efd661c7f302	0.019469594686586163
244	0x3fb77b16e4961023	0.09172194557874085
245	0x3f98c4066f877a0b	0.024185276562883867
246	0x3f86dc5fb0fa7e26	0.011162517155127349
247	0x3f8f358cc7da7f71	0.015238857125325219
248	0x3f8101a6c32acf74	0.008303931075125816
249	0xbfae4a3ea6bcaf3f	-0.05916019235004776
250	0xbf99bd6a526cb548	-0.025136624604035235
251	0xbf97d0f62c8737e6	-0.02325806280878586
252	0x3f93a20cf78b486b	0.019172861679927083
253	0x3fa7bbd7bebe1b88	0.046355001482019154
254	0xbf98d93f061c24ef	-0.02426622843544107
255	0xbfb0fa81dd267c9b	-0.06632243775537676

weights_hidden_output f8 [128, 10]
0	0xbfca753b06547a11	-0.20670259293633866
1	0x3fcf35e95c202714	0.2438327503044141
2	0xbf90800b9a5081f7	-0.01611345414505824
3	0xbfcccd9c927a7f04	-0.22502476837416208
4	0xbfc0dcf90a6d9b82	-0.1317435551565858
5	0xbfb45bac17b5bbaa	-0.07952380732397893
6	0x3fad834c45c7ab2f	0.05764234878355123
7	0xbfb1396af25d56bb	-0.06728237549881559
8	0xbfa17ec5b32ee2da	-0.03417032062811183
9	0x3fb886596fffaff7	0.09580000862450776
10	0xbf8bbe9974459032	-0.013547133313018465
11	0xbfb131e27e88995e	-0.06716743077467899
12	0x3f758661d5c2eb07	0.005255109947195142
13	0xbfba7d5c77760960	-0.10347536007433211
14	0x3fa24399c671a337	0.03567200229082917
15	0x3f87b2e64e362fa5	0.01157169271643694
16	0xbf665c7e72f43f76	-0.0027296514232446013
17	0xbfb0c374832a3f21	-0.06548240854521882
18	0x3fbe632f77cc3ed7	0.11870094942809871
19	0xbf83416ac1990923	-0.009402116807113508
20	0xbfa4dc6b26b23df2	-0.04074416015020778
21	0xbfcc647d386eea5e	-0.22181668525248005
22	0xbf72dbf37e839444	-0.004604293011856223
23	0xbfb3d62a03dccfca	-0.07748663515377455
24	0x3fb442450e787263	0.07913619616778926
25	0xbf82106783691a19	-0.00882035131247698
26	0xbfce9e092b78de50	-0.23919787047064967
27	0x3fa16b05de4ef228	0.03401964510655758
28	0x3f97c30f1e6540f2	0.023205028753467034
29	0x3fbe67de6a5adf11	0.11877241226727288
30	0xbfb910f79de4d2f2	-0.0979151497347848
31	0xbfc313c6b43b9956	-0.14904102135114766
32	0xbfb63c46f34065f5	-0.08685725630530057
33	0xbfd1ae058dfd7f00	-0.27624644151909195
34	0x3fd1fb34454d2b3e	0.2809572865268598
35	0xbfd06d3ff1cbe42b	-0.25666807759222604
36	0xbfb6d745e18c7f3f	-0.08922230488360315
37	0x3fd82d6c79b1abef	0.37777244457419007
38	0xbfc5d2c33a86d9bb	-0.17049446447135871
39	0x3fc3051ad424c84a	0.148593286119253
40	0xbfa719a3bc384337	-0.0451174895534962
41	0xbf7494bb455d1262	-0.005024653937486608
42	0x3fae98af59146b50	0.05975864374541706
43	0xbfac2b56d98355f4	-0.055018152286418515
44	0xbfb2b92d9dd220de	-0.0731380949310991
45	0xbf590414cc5bed36	-0.0015268519504719308
46	0xbfb44c4750fe8c16	-0.07928891875648988
47	0xbfc199f89e38cf23	-0.1375113270347522
48	0xbfb8198737888ce8	-0.09413952928348446
49	0xbfa36faeb894ceac	-0.037961444885153156
50	0x3fad0ca251bd77a9	0.05673701522640268
51	0xbf9df1185f10c436	-0.029240017702424313
52	0x3fc69a33726ea687	0.17658083999167593
53	0xbfad3cf980fe56e7	-0.05710582446697093
54	0xbfad463a6dedfa74	-0.05717642394937608
55	0xbf85edf46e570ede	-0.01070776902896092
56	0xbfbe228fdf8132df	-0.11771487433106696
57	0x3fcc470d6892845d	0.220918346462926
58	0xbf95e0c9d26a4be4	-0.02136531206867777
59	0xbf66d807f2d90727	-0.0027885585066379673
60	0x3f69ce25249c4e46	0.003150055451337316
61	0xbfb042198820dd11	-0.06350860188910114
62	0xbfa1c48ca3d500c3	-0.034702677725819274
63	0xbfb18d89e7814ca4	-0.06856595899562251
64	0xbfc505439149c004	-0.16422314256806214
65	0xbfc35e0d40d8764a	-0.15130773226057875
66	0x3fa5dad299fd90b9	0.042685109422366314
67	0x3fd581c0efb7d429	0.33604453477829793
68	0xbfcdc633ae2ebae0	-0.23261114125258242
69	0x3fc3645e3192c6df	0.15150048657010637
70	0xbf977fb556ff46aa	-0.02294810622681235
71	0xbfcfdaab1c00f75e	-0.24886072986003688
72	0xbfb0309c086f5e82	-0.06324172216351978
73	0xbfceaabad404a895	-0.23958525993777316
74	0x3fd07b2bd1c44e5f	0.25751777157822703
75	0xbf88e9ff25888c58	-0.01216506322186299
76	0xbfad592757d9e827	-0.05732081363107993
77	0x3fa9e65d766d6456	0.050585671144923225
78	0x3fc76e26c82b278a	0.18304905675750788
79	0x3fcc10b4c72e0268	0.21925983167240592
80	0x3fc28f80d77280ef	0.1450043727863952
81	0xbfcacf117f81a7d8	-0.20944422460462309
82	0xbfd01b2154b561ea	-0.2516558959228222
83	0x3fb58faa90dfaa05	0.08422342335658335
84	0xbf95450b818cb880	-0.0207711980648857
85	0x3fb206e5ec61fd12	0.07041775723518054
86	0xbf8ff2bdd2cbfa7c	-0.015599711413867505
87	0x3fc89ebe5ed27dbd	0.19234447126380685
88	0x3fb175ebf545b9d0	0.06820559251875769
89	0xbf80ec39a0efb9dc	-0.00826306364430434
90	0x3fc5ec5abf73df7c	0.17127546642563718
91	0xbfad67a9c6d5e4a9	-0.05743151237670336
92	0x3fac9bb17d1042d1	0.05587534572271625
93	0xbfb3446cc19be9f8	-0.07526283003600287
94	0x3f544aa22410bdd8	0.0012384971053157525
95	0x3fb6749c28fb5874	0.08771682739765813
96	0xbfb4edae2d7cd0ea	-0.08175171480690194
97	0xbfae0fc562331941	-0.05871407340741764
98	0x3fb574f3386c3f3c	0.08381576659689655
99	0x3fa112c42a317b11	0.033346300268695235
100	0x3fc344a990698e47	0.15053290892966428
101	0x3fb3f932b77af8f8	0.07802121142865193
102	0x3fb2b4d0e27ac02f	0.07307153252872987
103	0x3fb0dcef22a60a90	0.06587118717110685
104	0x3f95d4b2c8d9a946	0.02131919241802762
105	0xbfb79e9fcc2f73f0	-0.09226416335100374
106	0xbfc03dcb0abad58e	-0.1268857767478661
107	0xbfa353ceb63c5003	-0.03774877523952116
108	0xbfc9c1c8b25a3b61	-0.20122631748787526
109	0x3fa5ba39a582733f	0.042436410383038574
110	0x3fa09805ed63908f	0.03240984461606999
111	0x3f945dfc0f3ed557	0.01988977282572554
112	0xbfb095236f7a55cd	-0.06477567168834426
113	0xbf9973a550b2e3f4	-0.02485521607443171
114	0x3fc58fcc13e3b678	0.16845084162871493
115	0x3fa9c105b49ef045	0.050300768183178
116	0x3fcddf5101f9dcf7	0.2333775767944883
117	0xbfa1a7512d745ece	-0.034479653166440735
118	0xbf89ee66ebdb202c	-0.012661747048142123
119	0x3fcb1e5716cede57	0.21186340917278088
120	0xbf9ed9be0183dafa	-0.03012749561545556
121	0x3f9db2a33aa103ce	0.02900176091521072
122	0xbfb8889cfaefb6a6	-0.095834552062764
123	0xbf9449e3acab16ac	-0.01981311551460034
124	0xbfbb725e8aa6a062	-0.10721388707190863
125	0xbfbb73296dd644e5	-0.10722598010604008
126	0xbfa8186994eff8b6	-0.047061252051194755
127	0x3f489446bc32baff	0.0007500977884740966
128	0xbfb1e026adaf5287	-0.06982652416565759
129	0x3f8f8b1a2d8e549d	0.015402035250909935
130	0x3fd7bc4cf5d2c0d3	0.37086795812775825
131	0xbfafe1f10d42b4c6	-0.06227067267296031
132	0xbfa674726638cc05	-0.04385716913056829
133	0xbfa735b2f1918ae5	-0.04533156584581891
134	0xbf93f2aabb11c4c7	-0.01948038832455692
135	0xbfb9a110878383f7	-0.10011390026512844
136	0xbf90eaed74182e31	-0.016521177492945852
137	0xbfb1e0397d29b779	-0.06982764535652376
138	0xbfbba9d9857ce2ef	-0.10806045063953794
139	0xbf77a88d40fd09c2	-0.005775977871794459
140	0x3f965262ca03b2f4	0.021798652248366815
141	0xbf89e40ec43d7314	-0.012642016757746379
142	0xbfa4b25828441b1f	-0.04042315951851649
143	0xbfbb7296183ea24e	-0.10721719829474205
144	0x3fb99320d1d5ab48	0.09990124819675572
145	0xbfb39cc782efeeef	-0.07661101290426207
146	0x3fc2fec1e713199f	0.14839957983913352
147	0x3f9ef354bea2821a	0.03022510922949282
148	0x3f98a025c402c3f8	0.024048414314794514
149	0xbfc11f292e2e93ea	-0.1337634540078903
150	0xbf963a6d7e53445e	-0.021707259021074392
151	0x3fb4a6c5cffd7f32	0.08066974952589304
152	0xbfa40fd027373a6a	-0.03918314436633781
153	0xbfa1d2a2c96e5754	-0.03481014927744633
154	0x3fa1ca3f495f5648	0.03474614878329568
155	0xbfb60fdd84a223a2	-0.08617958534354256
156	0x3fba61e875ac164f	0.10305645821434804
157	0xbf84b9b63a5b9f9f	-0.010119842201177507
158	0x3f97aa284f4bb858	0.023110036697225972
159	0x3fc1fd584ad03407	0.1405439725207602
160	0xbfb43bfbaae30be9	-0.07904026910823315
161	0x3fc75263faa48c2f	0.18220185984054768
162	0x3fb834d03408e480	0.0945558669126445
163	0xbfa9323cb4e820fd	-0.049211403926223675
164	0xbfaa8b938bc84d1e	-0.05184613305405093
165	0x3fbe743e920fea29	0.11896124902697437
166	0x3f92818a7b1eff45	0.018072284474100603
167	0x3fc6a79e82103384	0.17699033118006124
168	0xbfc05ed49bc17032	-0.12789399724249645
169	0xbf973590cbbfb832	-0.022665274082037175
170	0x3f976bd7ac05e729	0.02287232387013841
171	0xbfb98848b925a229	-0.09973577995482032
172	0x3fb3424998568b93	0.07523021668616385
173	0x3fa0926b6041654c	0.032367091655667396
174	0xbfa42950b463f948	-0.039377710361792995
175	0xbfa29b2aeaebef9c	-0.0363400851983606
176	0xbfc656decca538f8	-0.17452607147647092
177	0x3fa1a5fbffbb636c	0.03446948525169699
178	0xbfb1aa2b37bf09bd	-0.06900282011978383
179	0xbfac4bf9f9852546	-0.05526715441608103
180	0x3fcebd167b5c1593	0.24014550231383378
181	0xbfb86879f4da613a	-0.09534418323381014
182	0x3fbf584d11ef3530	0.12244111717082684
183	0x3fb79b613287be14	0.09221465572021997
184	0xbfb97b9c4ee1b70a	-0.09954239774534926
185	0x3fc9ad9c171942b3	0.2006106484209532
186	0x3fd282d76f256731	0.28923593381988427
187	0xbfc947f25848e200	-0.19750813780571264
188	0x3fc44b5f74d42cc3	0.15855019764453546
189	0xbfd5f80150a2eeb7	-0.34326203226713
190	0x3fb1e83472a5f6ac	0.06994941519766468
191	0x3f6aef013326c416	0.0032877944406313293
192	0xbfbf689f016f8cc8	-0.122690141535304
193	0x3fbe9642595e54ca	0.1194802730736512
194	0xbfb827cc4dd6dba8	-0.09435727024434348
195	0x3fb0155977b73705	0.0628257672571771
196	0xbfc51f5394fd9825	-0.1650185086720636
197	0xbfb1a086e3a81b3e	-0.0688556962778479
198	0xbf7cb388bee12708	-0.007007154619779639
199	0xbfd46ac1bdae8503	-0.3190159180031317
200	0xbfa48785760b99c0	-0.040096445712879625
201	0x3fca1cd0e6dff658	0.20400439522920766
202	0xbfc23733a9bb5a14	-0.1423096255081907
203	0x3fc8acdf68d0d05a	0.19277565591767393
204	0xbfb3c023000f6ed1	-0.07715052367660326
205	0xbfbaca8c74898ddf	-0.10465314717435302
206	0x3f93ccfb2cb98b18	0.019336628536971906
207	0x3fb7e46baa3374f6	0.09332917123125015
208	0x3fb4cd4fa6275911	0.08125779921042332
209	0xbf8552039ce8a7ae	-0.010410335756279778
210	0x3fa3e3ba83f857e5	0.038846806153898496
211	0x3f8cdb5618fd9488	0.014090225827837935
212	0xbfb1046bd384a4fa	-0.06647371210114619
213	0x3f9b2f0e04148cfc	0.026546687125244425
214	0x3fa643e06359933d	0.04348660671965952
215	0x3fb8c5ce38c899a3	0.09676827322309704
216	0x3fb07989d491bb2a	0.06435452880553486
217	0xbfc038391e8f0f4e	-0.12671579353456724
218	0x3fb31b4234a88d45	0.07463468347173315
219	0x3f856acca56ac8a9	0.010457609937791839
220	0xbfacc97660b476a8	-0.05622453623275919
221	0x3fc6cc7d3b53ca7e	0.1781155147251247
222	0x3fd98ff00c09fa21	0.3994102590149016
223	0xbfb9a3e7d1de2946	-0.1001572501537896
224	0xbfbdd49dd08e27e5	-0.1165255197685436
225	0xbfcfcdc6486182d2	-0.24846724065994025
226	0x3fa83dbcc4f69374	0.04734601883254799
227	0xbfa1e910ea3679ba	-0.03498127802889735
228	0x3fb9970373ac2832	0.09996053289447174
229	0xbfc2b25d49a66df9	-0.14606824966618584
230	0xbfcb90368985950d	-0.21533853259021676
231	0xbfb1968a0e98beba	-0.0687032971989038
232	0x3fc4149895d850e0	0.1568785411515199
233	0x3fb589f2ee6e906d	0.08413618393984885
234	0xbfac6f6ff843a45e	-0.055537699752513645
235	0xbfb77c0f2fbf6cde	-0.09173674503056214
236	0xbfb85bd4fdcb8f98	-0.0951512450806703
237	0x3fc27748089e9be1	0.14426517887952087
238	0x3fa1665f8fb45492	0.0339841711922101
239	0x3fcb32342b5863e4	0.21246959797352283
240	0xbfa743ae949446db	-0.04543824733458531
241	0xbfb1810dc3baee38	-0.06837545422143243
242	0xbf9627e9148fd500	-0.021636621360774377
243	0xbfc43cfde99fe195	-0.15811132342765846
244	0xbfb862cb204e1fd6	-0.09525746859264869
245	0x3fa4ed567ab2f91b	0.04087324378768838
246	0xbf8a40e4ea9f7988	-0.012819088373302603
247	0x3fb66ba6b968a344	0.08758012796955678
248	0x3fbbaa39780708e4	0.10806616955145248
249	0x3fb071eac84030ec	0.06423823727545014
250	0x3fbfd125b0dfd8c3	0.12428508346769988
251	0xbfb53c25da709597	-0.08294903357508186
252	0x3fc648e207d80aa7	0.1740992105770449
253	0x3f956af11ced6b56	0.020915763273801367
254	0xbfc7d55cb686f9b1	-0.1861987963911367
255	0x3fc78432dec1dd29	0.1837218845064197

bias_hidden f8 [1, 128]
0	0x3fa7509c9d5645cd	0.04553689404123027
1	0x3f78a2cbbaf50858	0.006014629193773123
2	0x3f91a2c852dccaed	0.017222528512500657
3	0x3fb12b2c0e025381	0.06706500379580228
4	0x3f86bc16e38c63fd	0.011100939578271957
5	0x3f75f5c83247fed2	0.005361349122267449
6	0x3f9456001bebdb8c	0.019859315590078405
7	0x3f710cb9a079feae	0.004162526230743131
8	0x3f347a0c6dd305d0	0.00031245044176494725
9	0xbf82371560617f6a	-0.008894125942049153
10	0x3f64b560538b13d6	0.0025278931974263936
11	0x3f90d248231f52b7	0.01642716135377739
12	0xbf6099556122ab4a	-0.0020262401167960064
13	0xbf85bc02ecdf13be	-0.010612509587994864
14	0xbf7617b0eef772a2	-0.0053936873877914755
15	0x3f7d72f8387f3211	0.007189721691201815
16	0x3fa518d74a8d6328	0.04120514664709268
17	0xbf667f35101e2c8b	-0.0027462040315576245
18	0x3f93898106f8a1fe	0.019079223680963146
19	0x3f93c85d058a528e	0.019319013083605223
20	0x3f88449e8d49e18a	0.011849631010804957
21	0x3f88acfcf0cd1033	0.01204869851938648
22	0x3f9712657a330fd1	0.022531114181006565
23	0xbf528dbc3d7cd530	-0.0011324251444880355
24	0xbf15499411844110	-8.120504606190884e-05
25	0x3f44a5d8b0b0b9b0	0.0006301219995117815
26	0x3f882ba6b54a60d4	0.011802008063839166
27	0x3f71d636b9e24526	0.004354680799353338
28	0xbf6b4eef4a364855	-0.003333537447994176
29	0xbf5b1d465c240bd5	-0.0016549288853304662
30	0x3fa3373b642c2d03	0.03753076169786065
31	0x3f9fbf07a3261f9c	0.031002158482379735
32	0x3f74ac6e9041bdc2	0.005047256363567456
33	0x3f8651510b007623	0.010897286556480762
34	0x3fa14404525df0c6	0.033722052626190144
35	0x3f66a6a7d63920f5	0.002765014463680266
36	0xbf65b596c418e82d	-0.0026500649117027404
37	0x3f6cad281d358a32	0.003500536296699574
38	0x3f9be4a38a19edb3	0.027239375404389764
39	0x3f7cdcc2a691e0c7	0.007046470979837411
40	0x3fac89288a5b4388	0.05573393525049314
41	0x3f92906f39ac48f7	0.018129098792152267
42	0xbf6677a0793fd58b	-0.002742589402255196
43	0x3fa1d34031126406	0.03481484030744046
44	0xbf6ea2e938321288	-0.0037397913998254463
45	0xbf984ef35c3c1c52	-0.023738672737661233
46	0x3f940310067ed24e	0.019542932888457813
47	0x3f8e28ac92eb9a48	0.014726017221119339
48	0x3f97b4c054c4f58f	0.023150448964988576
49	0x3fa3606ed3b7be55	0.037845099777652415
50	0xbf7ebc179308a6cc	-0.007503597342784562
51	0xbf71d64b04a4f685	-0.004354756393068042
52	0x3f979563704f101f	0.023030809144771177
53	0xbf3a2e9fcafdeab0	-0.0003995075339770322
54	0xbf7db01ce30fd590	-0.0072480324170006855
55	0x3f8a9178df1d6f91	0.012972778614930099
56	0x3f6f87ab174bb05c	0.0038488713856761735
57	0xbf7301c7c23ae476	-0.004640369708505001
58	0xbf69aa713acd4cc1	-0.003133031036136908
59	0xbf58143445a3c51a	-0.0014696608037037596
60	0xbf77ac2ede666c2b	-0.005779440957122832
61	0x3f82ed33ef73c028	0.009241491074561806
62	0x3f9e7de480e835fc	0.02977711712633456
63	0x3fa303870fdab298	0.037136288342798085
64	0x3fa3c7b6c8fbc9ac	0.0386330719319575
65	0x3f939ebb4197ade9	0.019160200003097847
66	0xbf7b1fb74eb20412	-0.0066220436521016324
67	0x3f9a9943a749aa53	0.025975281796869542
68	0x3fa0dcee33ef0f2b	0.032935565795496245
69	0xbf813b0c13c9ad4a	-0.00841340480220389
70	0x3f8f3fb5409cdcbf	0.015258232149433558
71	0xbf88edf7cc906d43	-0.012172637872984842
72	0xbf55a640913d909e	-0.0013213758984074518
73	0x3f9ce2326f7cf2e5	0.028206623129551373
74	0x3f8e5176a28fcb02	0.014803816638936155
75	0x3f8ce7d0d6923a06	0.014114028499787611
76	0x3f7908e6ebf8a8fe	0.006112005270134667
77	0x3f7ef8ad08cc75ea	0.007561374583727945
78	0x3f92a2523f9ec953	0.018197331555435636
79	0x3f2d2521d3a41180	0.00022235906528335
80	0xbf7369dc7f86fa71	-0.004739629097854179
81	0x3f91df336ceecc1c	0.01745300629017886
82	0x3f6688db52ae1ac3	0.0027508052493801795
83	0x3f97158e401c12e0	0.022543165839141177
84	0xbf9364316fa6e85a	-0.01893689388246176
85	0xbf62b5f3ee388010	-0.0022840275066897744
86	0x3fa06b291251ddea	0.03206756924276617
87	0xbf1aef7a4d97ea78	-0.00010275062540891246
88	0x3fa910c382024902	0.04895602190039662
89	0x3f74a459416be880	0.005039547590735549
90	0x3f4faa93caddbc6e	0.000966379322319256
91	0x3faba7ce6a1be802	0.054014635517845036
92	0x3f91659735c4de16	0.016989100128936917
93	0xbf80a1d42033edf5	-0.008121163590195638
94	0x3f7045b55003af87	0.003972728969738776
95	0xbf7e47d7a9b76b3e	-0.007392733033578845
96	0x3f88c1aacb1dd970	0.012088140796305352
97	0xbf92a87a29d7d8c9	-0.01822081451788263
98	0x3f811247ac94a0ae	0.008335647539368853
99	0x3f92775edceadca3	0.018033487542848402
100	0x3f945b438f718588	0.0198793941784792
101	0x3f92a98fa24ffb88	0.018224949151768338
102	0x3f692c276f510670	0.003072812100555926
103	0x3f91abf9e9884d34	0.017257599714935526
104	0x3f9dd480d90b96d3	0.0291309483026428
105	0x3f77ba83f98db681	0.005793109442362999
106	0xbf54a073e768e380	-0.001258958041615993
107	0x3f9b0402af6f2004	0.02638248630299246
108	0x3f83324c75a869f6	0.0093732808500606
109	0x3f94e3503d2de35f	0.02039838193329346
110	0x3f976ad23f9a23f1	0.022868428356137064
111	0xbf7c49fdf2bf2a9e	-0.006906501755973208
112	0x3f78fcd708b05b25	0.006100501991588546
113	0xbf81d01361d32703	-0.008697654173733143
114	0xbf8a2dc3f59deeb4	-0.012782603200086264
115	0xbf9141ffd63e22cc	-0.016853330088937565
116	0x3f91941dbd9b7036	0.017166580865577617
117	0x3f8d17d5017a02fb	0.01420561228519678
118	0x3fa1e679aa05395c	0.03496151161617675
119	0x3f3635bb5c3078a0	0.0003388960287241758
120	0x3f8e1aea7e3abfb9	0.014699775674074421
121	0x3f9785d40b8f7d58	0.022971451955411254
122	0x3f9f506fa16d45a0	0.030580276706421494
123	0x3fa53d654c662177	0.04148403699497554
124	0xbf8e2bc455d90e5d	-0.014731916303509946
125	0xbf7d281e933e1a06	-0.007118338999026813
126	0x3f91e949f829d81e	0.017491489192671954
127	0x3f93591d22d451c2	0.018894629717651552

bias_output f8 [1, 10]
0	0xbfc1dbf5385688d6	-0.1395250821197524
1	0x3fbf020d6e4f037d	0.12112506812174036
2	0xbf9aa85ee98ff5ff	-0.02603290844489514
3	0xbf9a8bca3354bdac	-0.02592388094234159
4	0x3fb20a0d4924155e	0.07046587978046179
5	0x3fadb8c0f7dcff9e	0.05805018449473141
6	0x3f96c73e6802a3b2	0.022244429682050267
7	0xbf8c73c6cfb86b7f	-0.013892701353190649
8	0xbfa6b38a469cb4af	-0.044338532561917325
9	0xbf96b46060da6eb4	-0.022172456656888342
