models/model_cv_digs (13000).npz (npz, 815236 bytes, 4 tensors)

weights_input_hidden f8 [784, 128]
00000000: 51ff 5a56 b5af b1bf a651 ff4b 8ee5 a9bf
00000010: 740f d2db a0e9 b83f b063 c118 ef8c 95bf
00000020: c457 34db 55a0 ad3f 4085 9eac ec86 873f
00000030: 3ce3 b557 f6fc 98bf e1f5 c252 7b62 adbf
00000040: 02d0 2212 f91c afbf e247 aa71 d3de b2bf
00000050: 61b2 4fc1 a376 543f 0b4a 12d8 cf01 b13f
00000060: 4ee6 47a9 26f4 aabf 54dd 85e8 e77c 7abf
00000070: bf2f edba 47a0 a9bf 6ec6 34c8 adb4 b33f
00000080: 642f 422c 637a 82bf dd1e 3e07 d3b3 7d3f
00000090: 1138 170d cf37 97bf a2c5 d167 7b04 9ebf
000000a0: 5c31 dba4 d6e2 8b3f 7ebc d6fe 80a0 9dbf
000000b0: e33f ed22 da9e ac3f d975 81b3 9c9b 74bf
000000c0: 00d5 807a 2670 98bf ccf8 9a6c 459d 9bbf
000000d0: cae1 e671 96bf 563f 8c8c e708 7eae b2bf
000000e0: 4a5f 7789 10a4 97bf 93ef d797 157a 57bf
000000f0: d8de 26fc 2f5f a33f d009 51f4 ddb4 9abf
00000100: 9a0e 157f 0f51 6dbf d42d eab3 4ef4 b93f
00000110: b1ec 74d5 b010 8f3f 4e28 a9f0 7c9b 6abf
00000120: 8e07 729d 7708 b0bf e98e a8bc c2a7 a5bf
00000130: 1ebd b960 90c3 903f 13aa 335f 121b a83f
00000140: b87f 4c7c 1bc0 9abf 224d 87e4 e2d5 b0bf
00000150: fb81 d092 7148 8ebf 36e0 243e 1377 a73f
00000160: 3c2f e3bc f752 a73f 12d2 0bee bc7a b03f
00000170: e318 3d93 5579 6bbf 1819 f3d0 6f92 9c3f
00000180: 733d b29c 92d3 713f e1db 5aeb bfe3 a0bf
00000190: 71a2 7912 dd11 c03f 5142 9753 89bd 9f3f
000001a0: b536 14d8 7543 b1bf 9b6f 16df a6e6 9ebf
000001b0: 0f55 870e 79c7 933f b793 9c96 e04a 8abf
000001c0: 1906 e996 eb54 b0bf dec1 a76b e037 aabf
000001d0: 2b32 0b0b 6880 51bf 2b2e 37a7 fc39 b5bf
000001e0: 4858 a728 d91f a5bf 3621 a6ae 6499 763f
000001f0: 5f13 19bc dfaf 89bf b66a cb4e 329f a7bf
00000200: 374b 0208 6b92 92bf 643f 6950 fe60 a13f
00000210: 0472 4376 2504 b43f 546b 381f 500d 90bf
00000220: e185 08df 33d4 a1bf 8304 e898 878b 74bf
00000230: a305 49cb 2e7f b7bf 9438 8839 2d2a a0bf
00000240: bf06 cf99 5e07 903f aae3 bf55 aad2 b3bf
00000250: 9b76 908a 2f43 a1bf 90e5 a0db 5724 aa3f
00000260: 12c3 e60d 0c76 b8bf bdda ffb5 73a0 a83f
00000270: 4b74 ff0f 2d97 b13f 4875 ebff 464d 6b3f
00000280: 0dd9 bd82 167c b83f 04b9 0bdd e5d5 bbbf
00000290: b380 e600 d60c a6bf 196b 4934 8694 8ebf
000002a0: a54a fc70 d72b a0bf 5cff 8f40 c95c b5bf
000002b0: 7cef a61e 7c63 743f d69f d3a0 c23d 653f
000002c0: 80a1 3f31 cd4c 92bf a096 5ae9 b049 9bbf
000002d0: 909f f44a 5b00 7d3f a7b3 f0bb 97ae a33f
000002e0: f9a2 b1a6 fdc2 b0bf 208c d06a 5d60 a43f
000002f0: 60a7 c3fa c9d1 97bf 77a7 56ac 10b4 85bf
00000300: 6d6d 3524 8252 be3f c40d 6645 118b b43f
00000310: 4163 bff9 4143 af3f ec1e f699 2a2e a43f
00000320: 71d0 fe8c f389 9b3f ebed cab5 ea58 a7bf
00000330: 103f f239 6749 94bf aadf 7ade 4b37 74bf
00000340: 884f 8260 623c 8dbf 4bb7 fc91 33ef ac3f
00000350: 39a4 1aef 06ca 81bf e532 cde4 53f7 743f
00000360: 0523 2ca9 69ba a23f 1d58 edd0 d5eb 8e3f
00000370: 093a 7348 e5d8 b13f 6a45 3088 bb8b bc3f
00000380: 7016 9379 f0bf 79bf 6ef4 207b 2d5d a2bf
00000390: 3974 3159 ef1f b9bf 2fc8 5631 60e3 abbf
000003a0: 4150 cf3c c891 83bf ab5a 0e74 4d6d 8b3f
000003b0: cf92 98ee 83d0 9cbf 76cb f8b0 6e36 923f
000003c0: 642d f37f 2c6f 9d3f 89a0 9be1 5a7f 7ebf
000003d0: 63dc 5994 374b a33f eb52 b85d cc5c 7d3f
000003e0: 7bd3 1ec8 cfbd b4bf 2357 4098 0f2b 9cbf
000003f0: 8651 8ab4 d563 933f b96a fc7f 59b2 693f
00000400: 5ebe d20c 1d1c a9bf c822 0d2d 4356 9dbf
00000410: 70bc d6cf abed b1bf 0eda 2bca 3c9f b23f
00000420: bbd1 2809 80f5 b3bf ca64 e8a8 4413 91bf
00000430: 2e2e 20ac e873 bcbf 6028 4abd f07f b03f
00000440: 0616 1e15 c1d3 a13f fca9 ea0b c331 adbf
00000450: 0fbd 9c3d b7c3 a5bf 1f1d 19d5 fcc7 adbf
00000460: 3f28 3c34 7b26 9c3f f3ba 1cb2 01c5 56bf
00000470: 07b9 c726 b915 aebf e499 4139 b6fa a23f
00000480: 8093 af76 8530 b5bf f2d4 3284 78f3 a8bf
00000490: 0fc1 0998 43e9 8ebf f73a 7226 ce13 903f
000004a0: 5fa1 d392 9ba4 b9bf 5710 c918 023a b6bf
000004b0: 92bf 9a0f 1aa4 64bf 4333 884b a959 bdbf
000004c0: 7f6d b686 0a8e 8ebf aad6 a4ef 9dab b2bf
000004d0: dcb3 acba f140 bcbf b9c2 542d 83b4 6e3f
000004e0: 75e2 b126 624d a33f 49c1 c6e3 10ee a03f
000004f0: edf3 4e27 1325 b9bf 50f1 761e bcbf 9a3f
00000500: 1261 e530 194c a1bf 1360 d394 4ad3 a0bf
00000510: e598 2368 df44 b6bf e0a5 83e9 01f6 a5bf
00000520: e02b 47e5 840e b33f 7381 4b85 5f9d 8f3f
00000530: fae3 c502 2928 ad3f 580f dce7 59a7 533f
00000540: e29d fcb7 629a 9dbf 4a0e 547c 2e4d ac3f
00000550: 7e44 7835 56a5 b8bf 7230 64f0 7c50 b5bf
00000560: 29d9 7bb9 40b8 a73f bbd3 945a 45cb 98bf
00000570: 1ad0 152a f9f5 ac3f c339 1f15 4ea2 9ebf
00000580: 8a8a ca0f f14c 90bf 23ca dbb8 0259 a6bf
00000590: 828d 3244 3cc7 a13f 7a0d 0fda f87f a2bf
000005a0: c8f9 99f5 fd34 733f c341 3477 a47b b23f
000005b0: 85d5 fd53 4679 a0bf f02b 6b6f 80d5 9c3f
000005c0: 2319 40b5 7383 ae3f 76b8 de65 6452 a33f
000005d0: d3aa ef5b 5fb7 8cbf a744 40a9 4472 703f
000005e0: 89eb 2c0d 6665 7d3f 7b1d c43f 50ee a23f
000005f0: 54eb f0da d1e1 673f 2331 4aeb 2bcb c1bf
00000600: 4a19 622a 774a 6ebf 52f7 2055 3480 9e3f
00000610: 7b2a 2a40 fc85 9b3f c03b e217 8417 adbf
00000620: a617 0842 42ca 76bf 40e5 5c21 ceb1 863f
00000630: 9f5f 5f6a 4825 923f 850b dfd3 1eed 923f
00000640: 960c 719f 1745 913f e04e 6e8f 3101 adbf
00000650: 5217 13a0 2d8a 8d3f dc14 6518 a763 a1bf
00000660: 3dfa 03dc bf9d 87bf de93 ec6f debe 853f
00000670: b21c 2ee9 d69f b13f 435e 6881 691d a63f
00000680: f659 6654 0618 adbf a294 4bbe 9246 9bbf
00000690: 116c cf75 4200 98bf 30b1 be7e 7954 9ebf
000006a0: 6ea7 f101 29b7 6f3f f9e0 b442 72ba acbf
000006b0: a543 28cc 924d 9abf dff1 1ffc 7565 96bf
000006c0: 184e f0e2 0404 aebf e0ed bbbe e8fc 923f
000006d0: 6ffb d7e4 fd5b 863f e496 6360 4b14 b7bf
000006e0: b544 a985 b924 a63f c697 3e98 0db9 60bf
000006f0: d567 8665 fd6a 973f 58cd f6e8 567c bb3f
00000700: e262 9634 7347 953f 5da8 1c7b 4bcf b1bf
00000710: 6884 5bb4 0e5d 9d3f df91 95c3 e509 8d3f
00000720: 2e6c 403b fd74 afbf 9be9 948b e312 a4bf
00000730: 5c51 85c8 e4d7 8d3f 0834 a95b 92c2 b3bf
00000740: 1cba 798f 3943 9cbf fea9 6ec7 17ca aabf
00000750: fd58 f8b0 044d 9bbf 6a22 e174 1218 9ebf
00000760: 295f 125f 56ea 743f d1ae 2ac8 02c2 afbf
00000770: 94c2 0439 e78b 963f 5370 5f6b 913e 943f
00000780: 1bc5 c278 1d53 b63f da23 633c 4c75 c3bf
00000790: 2845 1b4d 98e2 a53f 34e2 f257 3d66 abbf
000007a0: 08e2 5e63 814e aa3f ce28 0974 1611 ba3f
000007b0: 4c20 50e0 acbc babf 9a28 da55 6c77 b83f
000007c0: 9314 994c f35d aabf 705e 8811 9668 95bf
000007d0: 730f 4632 ae2b a0bf 5b88 901a 0688 aabf
000007e0: f915 5453 9c52 c1bf 36d9 9434 aa96 b1bf
000007f0: a78e ec83 c636 9e3f 6f49 03cd fac6 6f3f
-0.06908734663283879 -0.05057949712469005 0.09731488577568631 -0.02104543293566835 0.0578638868411612 0.011487816827698283 -0.024402474502014146 -0.05739198098443033
-0.060767920936456235 -0.07371255421665482 0.001248989026176116 0.066433897258584 -0.052643974460761286 -0.006466775790946972 -0.05005096585099932 0.07697569024892356
-0.009022497928775138 0.007251571969284246 -0.022673831151955485 -0.02931397267497505 0.013616253763210899 -0.028932586244704066 0.05589944530822757 -0.005031215776481323
-0.02386531946850301 -0.0269671294724894 0.0013884514988672264 -0.07297504155535445 -0.023086794271733248 -0.0014329157705778902 0.03783559754395832 -0.026080577885531586
-0.0035786917366367856 0.10138408558321227 0.015168553842718731 -0.00324797060355756 -0.06262919992334856 -0.04229553749999388 0.016371017364176337 0.04708154117709653
-0.026123456441496024 -0.0657636459284743 -0.014786612790033784 0.04583034642786325 0.04555486851458432 0.06437283336328672 -0.0033537551297825193 0.027902361992141328
0.004352162078375843 -0.032987592201088274 0.12554515268427083 0.030996461607914864 -0.0674356129204295 -0.03017674194926166 0.019315616142042077 -0.01283812961225715
-0.0637957805093027 -0.051207554952160214 -0.0010682121320996312 -0.08291606027994962 -0.04125860806713938 0.005517380990916634 -0.0125424842145862 -0.046136448019486506
-0.01813666569121183 0.0339431260259733 0.07818826806346385 -0.015675784974614373 -0.034822102523559335 -0.005015878369250551 -0.09178440535563097 -0.03157178237243943
0.01565311254285606 -0.07743324845786384 -0.03371571127375469 0.05105852657329557 -0.09555125560178748 0.04809915157959697 0.06871301308224635 0.003332747145903401
0.09564343158658435 -0.10873257300020006 -0.04306668053618647 -0.014931724997202122 -0.03158448461740208 -0.08344705415947601 0.004977688639367869 0.0025929261524772857
-0.017871099596875606 -0.026648296587743148 0.007080418217164111 0.038441411678241715 -0.06547532386469958 0.03979770592584253 -0.023261218958317342 -0.010597353228906077
0.11844647773744095 0.08024700111678046 0.06106001065899714 0.0394147217694448 0.026893430214571305 -0.04560025662564356 -0.019811261092910704 -0.00493554722168447
-0.01427533013364958 0.056512462206554114 -0.008686117336155973 0.00511868258474799 0.03657846632092369 0.015098257482957728 0.06971581476975798 0.11150714945713039
-0.006286563258247932 -0.03586713912998439 -0.09814353873794425 -0.05446911432535761 -0.00955540118767584 0.013392071823358739 -0.028139172971480882 0.017785768081192775
0.02874440699524196 -0.007445673947337758 0.0376832359879067 0.007168577485135978 -0.08102129588844591 -0.02750801436203355 0.018935526985460104 0.003136801533299174
-0.04904261380704321 -0.02864937746497523 -0.07003282379331366 0.072742270811297 -0.07796478484744444 -0.0166750648587353 -0.11114362909591399 0.0644522153981213
0.034818681552717876 -0.057020278172178224 -0.04250881793120175 -0.05816640950484441 0.027490544379397127 -0.0013897434768740918 -0.0587594852294036 0.03706902932099235
-0.08277162692645668 -0.04873253453971839 -0.015093353345236453 0.015700551125116893 -0.10016796431194085 -0.08682263474571648 -0.0025196560862567685 -0.11464937299770121
-0.014919359432318256 -0.07293116665536084 -0.11036597068296267 0.0037481843998182465 0.03769976351117502 0.03306629925225708 -0.09822196683576552 0.026122035369313068
-0.033783709734679715 -0.03286202494354042 -0.08698841373879736 -0.04289251304164643 0.07444029424293275 0.01543688416990172 0.056947022999288735 0.001199567602669446
-0.02890924690214359 0.05527634875946015 -0.09627283864417 -0.08325940007142821 0.04632761253553703 -0.02421291699757309 0.05656412733779366 -0.029916019477065136
-0.01591850909120266 -0.04364784723829398 0.03472317059029263 -0.036132599466806206 0.0046892090118703725 0.07219913397080462 -0.03217525267875047 0.028158194351629307
0.05959664905099007 0.037737977443030354 -0.014021630280656982 0.004015224654737504 0.007176779402295782 0.03697443750757664 0.0029152964339379892 -0.13901280392418255
-0.0036976172878581447 0.02978593606552888 0.026878301063826698 -0.056820037761205366 -0.005563982791960164 0.01108132399859818 0.017720347874131567 0.018482667619319954
0.016865128618758073 -0.05664973140588159 0.014423710296238266 -0.033963414886366755 -0.011531351949540464 0.010617959776547833 0.06884520714639811 0.04319314675029464
-0.05682391910811539 -0.026636402954768663 -0.023438490334097454 -0.029619119988340603 0.0038715172700464684 -0.05610997261323009 -0.02568654414250528 -0.021871417535281764
-0.05862441320655537 0.0185428968825202 0.010917647882704632 -0.09015341857192599 0.04324893719297888 -0.0020413651963790717 0.02286907131347234 0.10736602008437524
0.020780372700388912 -0.06956931834852882 0.028675298460147408 0.014179034262903066 -0.06143943165098907 -0.039206610478191815 0.014571940774353358 -0.07718767869774024
-0.027600192434357948 -0.052323096365700636 -0.02666098909511393 -0.029388702758554798 0.005106294048480988 -0.062027060446181566 0.02201806340707664 0.01976992814876184
0.08720573614370546 -0.1520171446666428 0.042744407093446235 -0.053514401422436825 0.05138019884129014 0.10182323773293264 -0.10444145656958986 0.09557225318909204
-0.05149803457292381 -0.02090677721034101 -0.03158325542156506 -0.05181902956270853 -0.135333576858258 -0.06870521339155719 0.0295058267612506 0.0038790605977762553

weights_hidden_output f8 [128, 10]
00000000: 1723 9e4b 0b75 cfbf 4622 3b4a 55e9 87bf
00000010: 4f14 2b18 c063 7f3f 7352 63da e450 b83f
00000020: b716 469d dca7 8ebf 0383 dc2d ad29 ae3f
00000030: 6485 a4d9 ac53 b13f 6397 ac48 05c2 d0bf
00000040: fd0a 28ab b657 c03f c5f5 72fc 4c98 c03f
00000050: f01a 38c4 b093 b43f 3ef5 ad15 45da bb3f
00000060: 99a5 e18b f381 c0bf 1c13 8302 0d89 adbf
00000070: a89c 73f8 9df9 ae3f 0a92 ed9e 83fa d33f
00000080: 9ec1 d9b3 5a4e e0bf f2d5 585d fe67 da3f
00000090: 15e5 c674 30f0 e3bf b04f 353d 9b5a c93f
000000a0: ced0 355c 1391 af3f 74b7 98a3 4657 be3f
000000b0: 0bc9 b42a 4c46 b63f 451a a062 c2da c13f
000000c0: 916e 2150 98a0 913f bd30 4d26 49d7 76bf
000000d0: cefa b3f3 d28f e1bf eb34 e29e 53cf c03f
000000e0: d199 7f65 3ace b63f f1bc 74a9 e730 be3f
000000f0: 25bf a6c3 c1e2 a5bf a0ed 14c3 56a3 bb3f
00000100: 8b6b b3f9 5948 b6bf 38c9 c58a 533a bb3f
00000110: effd 740f fa62 d63f ba1d 6b2c 2b18 a73f
00000120: 9906 f910 d57b bd3f 1647 bc62 3e5b c3bf
00000130: 7486 08ed 9779 92bf 1e04 47fa ab86 b7bf
00000140: 9b11 87bc 220a 9b3f 7dce 3490 37cc c13f
00000150: 2c2f 965f 9e28 ce3f 5967 3647 b43e ce3f
00000160: 787f 09a2 5fb9 9bbf 2796 0111 d311 aa3f
00000170: 52aa b7e5 d94d d0bf 6107 e4d8 3b89 d63f
00000180: 60f7 7c49 8e4d b23f 6f7c 7d4d 0974 e1bf
00000190: bdb3 3cdf f978 c03f 4834 36e3 c110 a83f
000001a0: 3767 2dff ea94 ba3f 2d65 e2e0 641d aebf
000001b0: ee6b f92b 30e1 c33f c810 3400 bf33 cfbf
000001c0: ca8d 7772 0f42 aa3f 875a 3b23 415b b83f
000001d0: 8115 fa2e 32d7 b53f 3ae3 da4e e96f c43f
000001e0: 25e8 fb11 d5fe b53f 44fe 6900 5387 4f3f
000001f0: 6823 7994 0ce0 a23f a2ea e487 f542 c43f
00000200: 4cb4 1427 057f bdbf 74a3 2e3f afd3 c53f
00000210: 814d 821b 8fc1 bf3f 9246 1d86 0fcf cebf
00000220: 7679 2060 9b4a 5d3f e717 816c 4848 d7bf
00000230: 1304 ed97 24d4 d13f 1a64 75c7 2ab1 7f3f
00000240: 2f57 dd2a 119a b53f 38e2 af7f 660c a13f
00000250: 8785 e5a8 1875 8e3f 510e 9870 61c6 ddbf
00000260: 47b9 bc66 7386 c03f 5813 7157 32c1 a43f
00000270: 1679 eeca 1e4c a0bf c9d9 8dd7 077d a33f
00000280: 753d 0eb7 c40c 84bf b3e1 2e0b 8cf2 a83f
00000290: 09f6 10dd c3b5 b3bf cf2d 3925 e324 dcbf
000002a0: 735d 9bbe c215 bc3f ea56 babf 367a 9a3f
000002b0: 36a0 4099 3713 c33f cdee c599 a355 a63f
000002c0: 15f3 68ae 9699 9d3f e0dc d762 ecba bc3f
000002d0: 84bb 8886 f62e c43f fe97 ea3f 103d 993f
000002e0: 7a8f a29c a7ef 8bbf dbd6 0a2e c9f9 c43f
000002f0: 42b6 93da 9b19 c0bf c4be 28b0 7c12 be3f
00000300: dda3 8cd0 bfad c23f 9451 66b6 ef5e d7bf
00000310: 0fae ff61 4587 c33f 4648 fe70 bc09 a43f
00000320: ca65 f275 b389 a13f 8122 839f ccf9 d83f
00000330: 6264 d1f3 ebe1 b7bf b258 5026 c1de aabf
00000340: 0dda 3da6 3973 ae3f 876f 4c0b 500f babf
00000350: e09c 9f6d 5bc9 953f 9a2e 431c 4d06 c03f
00000360: 1696 9f47 c5b7 d9bf 3dec 2147 9245 b63f
00000370: f5ae f759 671e dbbf a484 35e8 d951 c73f
00000380: 6497 cb78 0357 bf3f fdf2 f74e 7c57 a8bf
00000390: 88da cc8e b4cb b23f dfcb 5915 bac5 dabf
000003a0: 3f72 7864 6373 c73f 7188 27c6 5ab1 b33f
000003b0: faab fc05 e4bf c53f 7c7d 8c1e d643 82bf
000003c0: 074f 084c 00e3 aebf d250 0223 3320 d23f
000003d0: 1f8f 2708 827b b23f 89ab 828d 786c d0bf
000003e0: 2010 2541 c8d7 c23f a28f 0227 dbe0 b6bf
000003f0: 97d2 030f c0ec a73f 6ed4 b554 3df0 c23f
00000400: 06b7 2032 8f9f c1bf 808a 7e56 50b8 b83f
00000410: 299b 605c 5d38 9abf a820 260c d271 853f
00000420: 7c51 3aba f364 e2bf c18c 5f28 e290 b4bf
00000430: e06a a2dd 0e95 a33f da2e 2b96 260f b83f
00000440: d87c 5774 1bfd bf3f dd6a bbcb 9805 a5bf
00000450: 28c7 8182 bcb8 963f 94e0 9a6e 15f5 ab3f
00000460: be25 9264 33db 8f3f 899e 8915 34d9 cd3f
00000470: 2a0c 0f58 33c0 833f 29e2 4139 5b1f 8e3f
00000480: 9d40 6774 cab4 30bf b13d e1f7 1b5e a63f
00000490: 48f4 a6d3 d7b2 c93f c4a6 8a9e 2a2a 973f
000004a0: 60a8 aae0 bad2 d9bf b7d5 d5b5 32f3 d5bf
000004b0: 7863 c462 d26d adbf e551 50e2 202e c33f
000004c0: 20e4 9ec8 f1df c73f ca1c 907c 0a28 c73f
000004d0: 5e52 59a6 a910 d0bf 0d2e a6be c0fc 6e3f
000004e0: 46c6 a24f adfe bdbf 4702 5a3a 0dd6 cf3f
000004f0: f9ba b55b 8b99 c13f 6ea3 18b8 c29b e3bf
00000500: 7aa4 559f c302 c53f 7df1 8aa8 b9e9 d0bf
00000510: 99af 7192 ad03 c23f 7a18 17a4 d5e9 b1bf
00000520: 33dc 8e8e c3d8 c33f 55ef 4588 9987 7cbf
00000530: 8396 af82 d5c1 c03f 0b29 9fec c37f d0bf
00000540: 09a8 c8be 46f4 b4bf 871d 36db 9fc5 c43f
00000550: 3701 5fee 082d c23f eaeb 9eed 6905 a8bf
00000560: 67ce 00f5 1f43 c33f 5bbc 6e88 d932 c83f
00000570: cbcc bb7e 80a1 e1bf ae7c 5816 4c2a c63f
00000580: 035e 0d9d 6d2a cbbf 87c0 a4fb 745f c23f
00000590: b2d6 8873 bb8e bc3f 88f3 39c8 b4c3 b33f
000005a0: 6b63 d78e e52a c8bf eeee a8de 55eb c23f
000005b0: ac8d 9fed bc99 bcbf 977b 3697 18eb b1bf
000005c0: 4564 fba3 3e36 dabf 05af 9cec d272 d43f
000005d0: b99e 38c0 9564 d03f 3134 c8b1 3160 c33f
000005e0: b0c5 d14a 6c83 c43f dd46 9996 7405 bf3f
000005f0: 8053 ac90 9542 b63f bc51 6188 0d98 af3f
00000600: f961 6959 1d22 c23f 47ce e031 d969 ca3f
00000610: 0911 58c5 7fea e0bf 6bda 07d2 366b ca3f
00000620: b42d 5fdf ed51 d7bf 3b39 aa89 8e3b a5bf
00000630: cef0 bfeb 8cb4 be3f 6c9e e805 7fbc c63f
00000640: d15d 5eb9 e856 c33f 56d7 53d3 5b22 ae3f
00000650: 46f0 f53b 4cca bb3f 5f65 ff2c 0bb1 8b3f
00000660: b833 b207 9fda e2bf 3784 f81a e4c2 c1bf
00000670: ecf2 f7da 769a b0bf b456 4050 f920 aa3f
00000680: 6a60 addf 80e4 8d3f 9c1e 93c9 971d 9d3f
00000690: 278f b33e 6f69 b63f 1b8f 599d eaa6 cc3f
000006a0: fc72 f884 7146 c4bf ccf2 16bd 201e d6bf
000006b0: c25b 94eb 38a0 c53f a06c d7cd 5f62 963f
000006c0: 32b7 1fed 996c b13f a077 c659 2621 b03f
000006d0: 4f4c 54b7 901a a6bf ed0e c362 fc58 acbf
000006e0: 9243 48d6 24df a33f 534b 00f7 07b3 c43f
000006f0: 43f9 e5b5 9bc3 c33f a5f1 38f9 b025 c23f
00000700: 0e36 2c80 2b6e ca3f ea1b ea82 ce81 d4bf
00000710: 1a4f 0aa8 38e7 e1bf b4c9 8706 af59 c43f
00000720: da3e 3aa9 fd3c b13f d972 2e41 00bd c33f
00000730: 4b68 47b9 4174 8d3f 0473 6c2f 6e87 c33f
00000740: 172b 1913 5893 d2bf e884 f3dc cd48 d1bf
00000750: 957b d9e2 1f09 c6bf 59e6 cd68 1e15 bf3f
00000760: bede 9c69 03c8 bd3f 3a59 3ee9 6481 ab3f
00000770: f0a7 1be2 abb4 673f 314f e56c 2e49 9d3f
00000780: 193d 8957 98c9 c03f 00ab 3e8e fd5e a3bf
00000790: 60fd 8091 f738 b5bf 6f81 0f64 59df b33f
000007a0: fe10 ea36 eff2 c9bf c39e 158c d6ac bd3f
000007b0: d1b0 5298 407e c13f 1da0 9afc 930f cfbf
000007c0: f2af ea46 9a00 bd3f e3c1 9b44 d45e b73f
000007d0: 95d5 6af4 218a c33f 99c0 408d 6502 b03f
000007e0: d331 5041 3321 e53f 0746 aa35 5404 d33f
000007f0: 3697 7233 21d8 debf b3d9 12d3 712a a93f
-0.24575940315505626 -0.011675516441202249 0.007663488739756265 0.094984343831422 -0.014968608426680559 0.058911716316520944 0.06768303216496957 -0.26184208008850457
0.12767680508849102 0.12964784933676135 0.08037857809550153 0.10879928378377188 -0.12896580057285403 -0.05768623977340878 0.060498177126470154 0.3121651699096054
-0.5095647347171057 0.4125972663490237 -0.6230699806975816 0.19807758797344155 0.061653714185838746 0.11851922506386164 0.08701015513068826 0.13948850455945397
0.017214183703215872 -0.0055764062315796755 -0.5488066444230186 0.13132710702885872 0.08908429124821927 0.11793373000249453 -0.04274564278909868 0.1079611040376478
-0.0870414957638969 0.10635873926165551 0.34979106435272816 0.0451062671395976 0.11517078079580258 -0.1512220365626084 -0.01804196724163494 -0.09189867840088126
0.026405852085888176 0.1390447095997053 0.2356145827037549 0.2362885806767803 -0.027074331536254687 0.050917239976836996 -0.25475165780395514 0.35212608509765714
0.07149590772766379 -0.5454145921211316 0.1286918964409817 0.04700284861164811 0.10383480768123553 -0.058818008853629734 0.15530969760115404 -0.2437666655533859
0.051285250399611806 0.09514243230965223 0.08531488081833595 0.15966526365607497 0.08591968239844101 0.0009621768266043292 0.036865609287423606 0.15829342971286048
-0.11521942333338692 0.1705226000315424 0.12404722615820242 -0.24069398926308289 0.0017878072108100363 -0.3637867984401723 0.2785731776858153 0.007737319093700479
0.08438212677478128 0.03329773243598705 0.01487178101951049 -0.46523319240097744 0.12910311237778613 0.040536473440204446 -0.0318307516783866 0.0380632830264634
-0.009789978825010629 0.04872548710358462 -0.07699226519704196 -0.4397514213094071 0.1097070422505249 0.02585683388914265 0.14902396185903094 0.04362212421525911
0.028906206507815464 0.11222722447552114 0.15768319672630693 0.0246470011722053 -0.01364069887888041 0.16387285946046046 -0.12578151867585247 0.11746959019432796
0.1459274071032998 -0.365169456600847 0.15256564412207793 0.03913678054154039 0.034253700397310974 0.39024653985374164 -0.09329104139887215 -0.0524807318944779
0.059472848456540196 -0.10179615283817443 0.021275929036986052 0.12519229774476487 -0.4018414687583073 0.08699907528527802 -0.42373069558992366 0.18218540037472508
0.12242147158721434 -0.047542462005344156 0.07342079626401177 -0.41831829152141425 0.18320886998925975 0.07692496621851476 0.1699185399278063 -0.008918450171732976
-0.06032563140993657 0.2832153169522488 0.07219708155713221 -0.2566205388963501 0.14721015149018601 -0.08936853124993019 0.04672813590324159 0.14795652996295722
-0.13768186519285325 0.09656240569760577 -0.025605639231936515 0.010471001621013734 -0.5748232495557626 -0.08033574567484704 0.03824659781931472 0.09398118177631024
0.12495586004614567 -0.04105832564319709 0.022189088311683453 0.054604215385041815 0.015554811007194465 0.23319102336539668 0.009643937229958228 0.014708244976859923
-0.0002549165987178 0.0436867466056542 0.200770357461723 0.0226217898622625 -0.40348693790531875 -0.34296863324501764 -0.05747849898961638 0.1498452286765676
0.18652174278193545 0.18090945322203417 -0.25101701016436617 0.003782631353890903 -0.11716731256708454 0.24871983861159405 0.1374983022501153 -0.6127637477521668
0.16414685516363986 -0.26426545581104915 0.14073724413480873 -0.06997428184613055 0.1550526090702263 -0.006965255485166318 0.13091534501215926 -0.2577981768378243
-0.08185236127670249 0.16228101924592073 0.1419993556901404 -0.04691630387920738 0.15048598731083304 0.18905181085344477 -0.5509645915284634 0.17316580859276115
-0.212232305226948 0.14353811538012826 0.11155292101542605 0.0772049893220822 -0.18880910372424906 0.14780686733308052 -0.1117208557257558 -0.0699935311481411
-0.40956083310954156 0.3195082960762508 0.25613921901320286 0.15137311154140456 0.16026071217815518 0.12117699314810744 0.08695349485453896 0.06170694627568049
0.14166609636119157 0.2063552373452799 -0.5286253790259546 0.20639691596416596 -0.3643755608906887 -0.041470007233430604 0.11994248157128881 0.17762744701871058
0.15108975459291554 0.05885588602715923 0.10855556930431573 0.01352127772399808 -0.5891871595682607 -0.13876010243350986 -0.06485693784629704 0.05103282074575813
0.014595991922462487 0.028433200529234356 0.0875463035659406 0.22384388621423387 -0.15839976303768555 -0.34558886018548374 0.16895209792047977 0.02185964292389697
0.06806337393910836 0.0630058259179962 -0.04317142713457455 -0.055366408401395485 0.038811827809815416 0.16171359596827503 0.15440698987726806 0.14177524727882687
0.20648711927826507 -0.32042277130716335 -0.5594752580677522 0.15898692911976087 0.06733689672023094 0.15420535261809823 0.014381898371471765 0.15257050815207418
-0.29024316659040167 -0.2700686128355998 -0.1721534593261508 0.12141599711130747 0.11633321121632442 0.05372157427989284 0.0028937680334495328 0.02859947719237183
0.1311521937773044 -0.03783409463297538 -0.08290049841251834 0.07762678807148914 -0.2027262704979264 0.11591854972868547 0.1366654151692104 -0.2426629050653454
0.11329044562688731 0.09129072833071165 0.15265297350348975 0.06253657053525997 0.6603027606629958 0.29713921776519253 -0.4819415094774401 0.04915195180494738

bias_hidden f8 [1, 128]
00000000: fdee 3f48 e89b bb3f 8778 8c78 2665 e03f
00000010: b899 6cdf f19b d03f ec26 ca31 7a17 883f
00000020: a3f2 3f16 5135 aabf dbe9 e4b0 0444 d4bf
00000030: 4f2f 5ee1 afe8 c23f bec6 5247 e0da 8f3f
00000040: 0ef5 5c9a f18f a93f 1a22 7da7 6846 ccbf
00000050: 3686 76f3 d9da cd3f 09fd e09e d727 c33f
00000060: 5c76 f233 6ba8 d03f bd60 acb1 900c bc3f
00000070: 8fd6 ad2e 942e eb3f 0074 e8eb 8361 dcbf
00000080: 87c0 7756 a6fc c03f dbb1 514d 4f62 873f
00000090: f4d7 19f1 3036 8c3f 3d7a 7869 19f1 a0bf
000000a0: 9c1f 82c0 47c2 a23f fdf8 0aad 5a3b d13f
000000b0: 8bd5 657d d597 cabf 3de6 6eb1 8f06 de3f
000000c0: 3de3 6f13 8f52 91bf 4434 331e d423 c43f
000000d0: 138a 2f73 f5d0 d13f 12a1 0230 0acf acbf
000000e0: 7050 eb46 2c53 d03f e3f8 d537 9b41 673f
000000f0: ad00 33ab 0157 c83f 2995 e1d5 238c d6bf
00000100: 0b71 b5ad 04ab c7bf 4e8a a301 6571 e53f
00000110: 8e5a 755b 852c c8bf 2554 18eb bc88 c63f
00000120: 5286 a769 5055 e23f 55f4 704d c6ef cfbf
00000130: 4cd1 b827 3076 d23f acf5 2b32 3d13 a0bf
00000140: f5ca 2157 ad19 bdbf b893 a0f4 ff71 b23f
00000150: 3136 c829 8ea6 d23f 510b fb70 31d8 c33f
00000160: 5698 2cb6 4b7c c1bf fb50 fed1 55e7 e33f
00000170: d0f7 eb37 9e01 d43f 0d91 eeab 6b6f d2bf
00000180: f725 a45d f2a3 c03f 1528 50c1 6289 de3f
00000190: 18a4 6bb6 c790 e13f d7f0 5b2d 0fd8 d3bf
000001a0: 96fe cdd2 4c81 b9bf 9003 6ffc 4af8 cabf
000001b0: c9bf 2c4c 5a14 b63f 18ec f9e9 a589 ca3f
000001c0: dba5 76a5 0af5 da3f 0f5d b2c4 2572 a23f
000001d0: 77d1 b442 0e52 b8bf f679 9925 d3a4 cfbf
000001e0: d810 f66d b66f d9bf eb9a 4c7a 8dc6 d43f
000001f0: 5aa6 329c 5890 db3f 6ca6 7d73 15aa ddbf
00000200: 9ba1 e0b9 267c c93f 6a3b debb 48a8 d43f
00000210: 2527 5f96 ac85 d83f 72d0 95db 1fa6 dbbf
00000220: 699e 8640 d8d9 c4bf 7268 74f2 9ce0 dd3f
00000230: 7b95 be41 1671 d33f 6b48 46ba d4f7 a7bf
00000240: 6de4 5ec0 0b3a ac3f c2ec 08bb 510b a2bf
00000250: 14a5 2823 3ccd b33f 30cf 485d 5495 ca3f
00000260: 86ee 79bc dc1a dd3f 7032 3f53 73c3 d73f
00000270: 98ea 1fd9 286b dd3f d485 4083 3ecc b73f
00000280: e959 d389 9120 db3f 58b9 b2b8 5ea9 a3bf
00000290: 32bf 56d1 3443 bf3f 496f 9dc8 b979 d63f
000002a0: 024e d262 3f7d 933f 7f08 00c8 1246 d53f
000002b0: 0d7c 88e9 83f9 e43f 9e02 c3f4 7689 d63f
000002c0: 4b97 5e4b 2cc5 b6bf 6010 5deb 539c c83f
000002d0: 25af f4c1 0aff c03f 8bb2 a1a6 1631 9e3f
000002e0: e9f9 f6b7 2df2 873f d3f8 b87e d67c a93f
000002f0: 5891 e97c 0a93 a3bf 5368 15bb bc82 c0bf
00000300: 4100 bb32 bf27 bd3f 663c e5d7 bd15 e13f
00000310: fb78 5a4b cdc4 b83f 2168 d8a9 27fb e1bf
00000320: 7a1f 34c8 ab11 c0bf c865 2a23 a16e b53f
00000330: 9eff c56e eaa4 213f e6c1 390a f760 dfbf
00000340: 037b 951c d9b3 ab3f 21e9 8483 c86d cf3f
00000350: 4eb8 3607 74eb cc3f c62f 612f 034d d23f
00000360: 9633 c1a2 d22a d33f e9c8 eb0e c862 963f
00000370: f9be c582 7740 b8bf ec63 198d 56c6 d1bf
00000380: 5a30 3122 af8f c33f fc28 caaa 6d62 9dbf
00000390: 9e1c ff41 483b c1bf 48b8 a889 5233 c6bf
000003a0: 42c9 0fd4 6754 a93f 36b0 d4a8 6f5d c0bf
000003b0: e8b3 83dc 3143 c63f 68c3 c1cb cc41 b7bf
000003c0: 50cd e2ed c4f0 cebf 0a89 3701 6869 cd3f
000003d0: 4bb9 85f6 4336 e0bf 59e9 4476 81bd 6d3f
000003e0: 6f28 3579 c8cd b4bf 6a1b a168 7824 c93f
000003f0: d30f 1e34 bf1d cc3f cbb4 6440 c4fe b93f
0.10784770740422896 0.5123474459139893 0.2595181161763338 0.01176352943845723 -0.051188024488486826 -0.316651509044872 0.14772604469578218 0.015554191757789378
0.04992632874789581 -0.22089870622791424 0.2332413138183697 0.14965338952786336 0.26027946541748803 0.10956672990539836 0.8494358932209297 -0.4434518626965769
0.13271025869426387 0.011417979762165345 0.01377523647100174 -0.033089441418486555 0.03663849091486712 0.2692476930495927 -0.20775860426844547 0.4691504700418568
-0.016916499673217834 0.15734340166673821 0.2783788323269231 -0.05626708828032369 0.2550764744348788 0.002838900719040459 0.19015522822701794 -0.3523034657176419
-0.1849065635859762 0.6700921089180356 -0.1888586708616526 0.1760479114460917 0.5729143203317995 -0.24950484067258807 0.2884636295232397 -0.03139678227851603
-0.11367305161710901 0.07205199930520123 0.29141573028832385 0.15503519074089891 -0.13660570521568854 0.6219891644891783 0.3125987573729363 -0.2880505732557744
0.13000325748753003 0.47713536146386676 0.5489233553790909 -0.310062212272681 -0.09962921282385148 -0.2107022984110043 0.08624805793510783 0.20732568668958673
0.4212061515669043 0.03602712656100426 -0.09500207069942755 -0.2472175534812348 -0.39744339693448927 0.32461869185719533 0.4306851888055455 -0.46350609091186956
0.19910129619644298 0.3227712473534924 0.3831588238214059 -0.432014431418117 -0.1628980937068605 0.4668342941018927 0.3037772790942978 -0.046812675226775756
0.05513035510325257 -0.03524260910168088 0.07735038622253781 0.20768217615988638 0.45476454168213143 0.3713043511350298 0.4596655006750239 0.0929602690162235
0.4238628240540537 -0.038401565595779175 0.12211923704921615 0.35117954818064284 0.019032469183526864 0.3324019387365595 0.6554584084696004 0.35214017775073525
-0.0889461215980109 0.1922707461582176 0.13278326483247685 0.02948413269079934 0.011692387749346405 0.04978056237131203 -0.03823120856103185 -0.12898978362028632
0.1138877390721982 0.5339040009220184 0.09675295915301156 -0.5619085614482665 -0.12553927684370675 0.08371932133231674 0.00013461457946206413 -0.4902932739123841
0.05410650705265676 0.24553781911692688 0.2259354624961269 0.28595046641271116 0.2994886960412314 0.02186119643278853 -0.09473368590056087 -0.2777305963441552
0.1528223912195042 -0.02869578699986962 -0.13462165091025197 -0.17344123574861414 0.049472088467057876 -0.1278514456147392 0.17392562167461212 -0.09084777807744404
-0.24172269454502748 0.2297792440359177 -0.506624204148275 0.003630402427146223 -0.08126500090762233 0.19642548664907206 0.21965780300899826 0.10154367992500395

bias_output f8 [1, 10]
00000000: 9355 9ece 4a80 dcbf 5798 395f 53e6 babf
00000010: 2c11 82d2 8072 d6bf 36f7 f095 95e7 bfbf
00000020: 1da8 7ba9 4b08 db3f 68fb 508b b7d9 c53f
00000030: 9ab7 3d29 010c aebf cd08 c857 051d e2bf
00000040: 4302 0b09 07f5 f33f 0c85 5ac0 e54e c8bf
-0.4453303354033206 -0.10507699084118492 -0.35073872144154694 -0.12462744627643194 0.42238132048680815 0.17070669462733723 -0.05868533733779131 -0.5660425867538607
1.2473211625330272 -0.1899077595926787
