models/model_cv_digs (5000).npz (npz, 815236 bytes, 4 tensors)

weights_input_hidden f8 [784, 128]
000000 1b 3c a9 fb 54 b3 b1 bf 47 c4 bd 92 dc ea a9 bf
       -0.06914263862675833 -0.05061997691417069
000010 5c e1 05 85 bb ee b8 3f 3d 20 ba 6a 59 91 95 bf
       0.09739276883727171 -0.02106227601919407
000020 c2 a4 ec bf 67 a6 ad 3f f0 de ae a9 be 8b 87 3f
       0.057910196474332945 0.011497010758702214
000030 f1 0c f9 f6 14 02 99 bf 8c 7e 45 8b 80 68 ad bf
       -0.02442200429346725 -0.05743791294184772
000040 39 41 36 f3 58 23 af bf 1d 1f 6c 31 b1 e2 b2 bf
       -0.06081655472655929 -0.07377154785728775
000050 43 dc ce 0e d5 7a 54 3f 03 cf 8b dc 4b 05 b1 3f
       0.00124998861723015 0.06648706564356748
000060 fb 99 ae 60 ac f9 aa bf eb 18 8b 31 55 82 7a bf
       -0.05268610649300239 -0.006471951281758796
000070 8e 84 2d d0 87 a5 a9 bf d7 fc 7f 58 b7 b8 b3 3f
       -0.050091022646264624 0.07703729544299463
000080 b8 11 09 58 2c 7e 82 bf 27 65 27 ea e8 b9 7d 3f
       -0.00902971881544877 0.0072573755482719165
000090 dd 7e 8d d4 90 3c 97 bf e3 e2 35 d1 a1 0a 9e bf
       -0.022691977475345893 -0.02933743323726191
0000a0 5d 54 5c 43 8d e8 8b 3f b5 ad 65 ec 92 a6 9d bf
       0.01362715112512996 -0.02895574157575505
0000b0 57 90 b4 46 b7 a4 ac 3f da f5 32 94 d5 9f 74 bf
       0.0559441827593054 -0.005035242359722381
0000c0 87 76 35 40 28 75 98 bf c3 74 52 ca ed a2 9b bf
       -0.023884419363972256 -0.026988711808930043
0000d0 25 f1 ca 97 3f c4 56 3f 31 cd 92 e1 51 b2 b2 bf
       0.0013895627045448858 -0.07303344494976184
0000e0 83 e0 eb 7e e8 a8 97 bf 82 9a 71 f3 e4 7e 57 bf
       -0.023105271097819468 -0.0014340625619070628
0000f0 c1 d8 70 08 28 63 a3 3f 5a 3b 7c b4 56 ba 9a bf
       0.03786587813412857 -0.026101450696894936
000100 5a a7 da 25 11 57 6d bf 2e 49 60 00 a0 f9 b9 3f
       -0.003581555835656153 0.10146522530729804
000110 b2 d3 55 32 0e 17 8f 3f 11 62 b5 7d f0 a0 6a bf
       0.01518069354163196 -0.003250570019798234
000120 8e 32 d9 8b c0 0b b0 bf 56 83 af 8d 32 ac a5 bf
       -0.0626793233324838 -0.04232938746986885
000130 fe 90 4f a4 ff c6 90 3f d9 7f 8e b6 02 20 a8 3f
       0.01638411941884587 0.047119221482034575
000140 c4 91 05 8a 96 c5 9a bf a3 99 1d e9 55 d9 b0 bf
       -0.026144363569430742 -0.06581627789782955
000150 a3 b2 c6 e8 a5 4e 8e bf d8 d5 e9 fb e1 7b a7 3f
       -0.014798446813835858 0.045867025376462756
000160 06 59 d4 14 bf 57 a7 3f af e8 ec 45 1d 7e b0 3f
       0.04559132699266581 0.0644243522373553
000170 de 85 12 94 f6 7e 6b bf 7a 37 8c 69 4a 98 9c 3f
       -0.0033564392075084845 0.02792469281398933
000180 31 51 14 9b 39 d7 71 3f 0d d3 12 c7 35 e7 a0 bf
       0.004355645201276113 -0.033013992835014695
000190 05 80 b6 ed 27 15 c0 3f c8 db 2f 1a 0a c4 9f 3f
       0.12564562899660828 0.03102126869995539
0001a0 b0 bb cc 4f ff 46 b1 bf 51 c8 08 9f fb ec 9e bf
       -0.06748958299861729 -0.030200893003162147
0001b0 ee d7 90 78 86 cb 93 3f eb b2 a4 9f 43 50 8a bf
       0.019331074818374754 -0.012848404225758133
0001c0 14 f2 41 2f 44 58 b0 bf 6e 59 1b 90 3f 3d aa bf
       -0.06384683755636217 -0.051248537388960055
0001d0 d0 9e 5f ff fd 83 51 bf 2f 08 a2 fa 55 3e b5 bf
       -0.0010690670437671253 -0.08298241967170904
0001e0 62 ca 1a 21 2d 24 a5 bf 7a b0 40 01 06 9e 76 3f
       -0.041291628161521 0.005521796661963058
0001f0 0a 2b 3d 03 23 b5 89 bf 95 79 eb 44 09 a4 a7 bf
       -0.012552522217125456 -0.046173371947349974
000200 ca cb 30 20 39 96 92 bf 76 c1 22 d5 8d 64 a1 3f
       -0.018151180829771886 0.03397029139285028
000210 4e 30 9c 4e 3f 08 b4 3f 10 e7 c7 0b 9a 10 90 bf
       0.07825084370796384 -0.01568833062081071
000220 14 9b 74 fe da d7 a1 bf 10 53 14 2e bd 8f 74 bf
       -0.03484997135301718 -0.0050198926776559155
000230 13 31 4c 32 ff 83 b7 bf 77 84 fc 0f 7d 2d a0 bf
       -0.09185786226243335 -0.03159704990526618
000240 a1 0f a3 4e a7 0a 90 3f 67 9c d4 0a ba d6 b3 bf
       0.015665640043848964 -0.07749521984497819
000250 eb 9d e1 f3 b8 46 a1 bf e9 14 8e ff b2 29 aa 3f
       -0.03374269463602871 0.05109938973968459
000260 64 4f e4 08 0f 7b b8 bf 99 33 1e 61 7f a5 a8 3f
       -0.09562772719465112 0.04813764629861978
000270 f7 a8 96 ae c7 9a b1 3f c5 15 fa f9 de 52 6b 3f
       0.06876800548949179 0.0033354144105170757
000280 a4 b1 92 ba 1a 81 b8 3f 3c 40 d2 d4 99 db bb bf
       0.09571997694974371 -0.10881959386665668
000290 75 7d 4d 87 5a 11 a6 bf f9 99 a8 20 ca 9a 8e bf
       -0.04310114766735299 -0.014943675157224045
0002a0 41 8e c3 9e 27 2f a0 bf b7 e7 30 b5 29 61 b5 bf
       -0.031609762316091146 -0.08351383851632375
0002b0 d7 80 7b 7f a9 67 74 3f 80 a7 27 ba 1c 42 65 3f
       0.0049816723837638665 0.002595001323460744
0002c0 98 9b 0e 06 8d 50 92 bf b7 b1 4f 27 48 4f 9b bf
       -0.017885402197545724 -0.02666962375580947
0002d0 29 17 d3 68 4c 06 7d 3f ff a4 04 0d a0 b2 a3 3f
       0.007086084818359408 0.038472177113655796
0002e0 7e ae 37 cc 6c c6 b0 bf 60 58 01 28 8a 64 a4 3f
       -0.06552772508410418 0.03982955683083911
0002f0 0c 0b 74 4e ab d6 97 bf 65 12 bb 02 83 b8 85 bf
       -0.023279835379990607 -0.010605834503970965
000300 07 0a 10 8a b8 58 be 3f 79 2d 54 c2 46 8f b4 3f
       0.11854127283735504 0.08031122440677575
000310 ce 1f da b2 a9 49 af 3f 5a 75 40 0e 4d 32 a4 3f
       0.061108878214383475 0.03944626616451315
000320 e1 52 64 f5 97 8f 9b 3f 37 a7 c3 45 b3 5d a7 bf
       0.02691495356801255 -0.04563675142874362
000330 fb 39 cd 42 8f 4d 94 bf 93 62 a2 31 70 3b 74 bf
       -0.019827116443872566 -0.004939497239455764
000340 8b f5 d0 ca 5f 42 8d bf b6 4d 12 2c 21 f5 ac 3f
       -0.01428675496765199 0.0565576902673927
000350 2a 57 d2 f8 ab cd 81 bf 65 2d f5 8f 9f fb 74 3f
       -0.008693069010671534 0.005122779169436019
000360 f1 80 10 f3 3f be a2 3f a8 a5 bd a0 2b f2 8e 3f
       0.03660774080367613 0.015110340922279544
000370 c3 17 05 5e 8d dc b1 3f 1f a9 26 c1 94 91 bc 3f
       0.06977160973937573 0.11159639087296512
000380 c7 7e 57 0b 37 c5 79 bf 8d 8b dc aa f0 60 a2 bf
       -0.006291594521343042 -0.03589584432327007
000390 83 cc c3 22 15 25 b9 bf e0 51 06 ec 16 e9 ab bf
       -0.0982220849871727 -0.054512707053763654
0003a0 8c 15 c8 a6 ca 95 83 bf cf 11 d4 fd eb 72 8b 3f
       -0.009563048567552433 0.013402789767959526
0003b0 7e aa 33 3f 6b d6 9c bf 21 0d 86 f0 29 3a 92 3f
       -0.028161693317921614 0.01780000238933355
0003c0 d1 4d 28 52 34 75 9d 3f b8 83 a8 77 9a 85 7e bf
       0.028767411722652462 -0.007451632870044848
0003d0 d0 4b 33 89 2b 4f a3 3f 58 ac 22 6c d0 62 7d 3f
       0.037713394640057296 0.0071743146419676815
0003e0 fd 5e 92 aa 0f c2 b4 bf 24 df ce 02 d5 30 9c bf
       -0.08108613886212974 -0.027530029579536777
0003f0 4c dc 94 b4 ce 67 93 3f 82 5a f9 48 9d b7 69 3f
       0.01895068146879124 0.0031393119786956034
000400 81 8e f5 0d 42 21 a9 bf 51 08 a9 e4 45 5c 9d bf
       -0.04908186359787426 -0.0286723061383401
000410 40 45 14 27 58 f1 b1 bf 94 dc b9 82 0d a3 b2 3f
       -0.07008887247163376 0.07280048791459343
000420 1d fc 50 e1 96 f9 b3 bf e5 50 f6 40 c4 16 91 bf
       -0.0780271816338289 -0.016688410248733816
000430 d8 b9 8a 03 bd 79 bc bf 00 5d 08 26 52 83 b0 3f
       -0.1112325795790875 0.0645037978032299
000440 55 86 05 1d 68 d7 a1 3f c1 07 15 49 be 37 ad bf
       0.03484654764430376 -0.057065912648354374
000450 d2 bc e0 c8 2c c8 a5 bf ab e0 91 d9 16 ce ad bf
       -0.04254283859369824 -0.05821296125299232
000460 33 0e 97 ae 3f 2c 9c 3f 5f ca 39 f4 ab c9 56 bf
       0.027512545615321748 -0.0013908557165477548
000470 ac d6 77 18 e3 1b ae bf c1 dc 9e af 99 fe a2 3f
       -0.05880651162798975 0.037098696411186356
000480 27 ab a2 d9 dc 34 b5 bf 13 25 a2 31 95 f8 a8 bf
       -0.08283787072529646 -0.048771536167871464
000490 48 72 fe e0 98 ef 8e bf 57 ba 86 67 19 17 90 3f
       -0.01510543285967815 0.01571311659216187
0004a0 23 1a 0e 8b dc a9 b9 bf 8d 32 76 e0 8f 3e b6 bf
       -0.10024813074969834 -0.08689212064764203
0004b0 2f 7d 94 ad 54 a8 64 bf 70 a6 69 b5 ac 5f bd bf
       -0.002521672617731639 -0.11474112919827362
0004c0 32 dd 0b 1f 4d 94 8e bf b3 e0 7f 31 71 af b2 bf
       -0.014931299695929743 -0.07298953493580278
0004d0 ef f3 01 a1 bb 46 bc bf c3 c3 79 a7 cd ba 6e 3f
       -0.11045429879045775 0.003751184147227056
0004e0 1a 7b 2a 8d 56 51 a3 3f 5b 09 95 dc 88 f1 a0 3f
       0.03772993539063503 0.03309276287702075
0004f0 a2 fc 76 fe 39 2a b9 bf 0e 0f a6 18 37 c5 9a 3f
       -0.09830057585257859 0.02614294135993505
000500 fc 8e ae 6d a4 4f a1 bf cc b0 4e 11 bd d6 a0 bf
       -0.03381074751749044 -0.03288832508346359
000510 ad d3 a7 69 6f 49 b6 bf c2 54 91 c2 81 fa a5 bf
       -0.08705803231698779 -0.04292684078306187
000520 43 0f 88 6a 6c 12 b3 3f 0d ce ee b4 d9 a3 8f 3f
       0.07449987030855447 0.015449238618976424
000530 24 d3 54 48 22 2e ad 3f ff 1b 1f bd 60 ab 53 3f
       0.05699259884787569 0.0012005276407636154
000540 11 b0 a4 64 73 a0 9d bf 53 b1 81 e4 fa 52 ac 3f
       -0.028932383554249045 0.0553205875338302
000550 b2 f4 ca e0 62 aa b8 bf 1f c4 fc df da 54 b5 bf
       -0.09634988773446443 -0.083326034244934
000560 2a a7 ce d1 1c bd a7 3f 3f ee 8a cb 59 d0 98 bf
       0.046364689456210265 -0.02423229508234059
000570 0e 08 5a 27 e8 fb ac 3f c8 d8 4a d4 94 a8 9e bf
       0.056609396747276816 -0.029939961869523996
000580 50 53 a9 05 48 50 90 bf ea 2b 9b da 96 5d a6 bf
       -0.01593124899439441 -0.04368277948886841
000590 e3 17 7e bb e0 ca a1 3f c9 47 c0 2a c3 83 a2 bf
       0.03475096024253312 -0.036161517113341875
0005a0 e4 16 c0 5c ed 38 73 3f 18 e0 ce e4 6d 7f b2 3f
       0.004692961880214706 0.07225691639075682
0005b0 4e 24 1f 5f a6 7c a0 bf 89 93 8e c5 68 db 9c 3f
       -0.03220100318100859 0.028180729921263335
0005c0 63 b7 2f 22 b4 89 ae 3f cc e0 0c d3 59 56 a3 3f
       0.05964434544863086 0.0377681799058692
0005d0 da ed cd 85 41 bd 8c bf 93 23 e4 44 a3 75 70 3f
       -0.014032852073561242 0.004018438119836615
0005e0 a8 2e ad de 6b 6b 7d 3f f1 1b d7 2b 31 f2 a2 3f
       0.007182523123286856 0.03700402889403865
0005f0 48 af 70 77 b6 e6 67 3f 1c e5 08 31 d1 ce c1 bf
       0.0029176296043455265 -0.13912405866884903
000600 f2 e0 63 ea ab 50 6e bf b5 1f bb 17 74 86 9e 3f
       -0.0037005765653895734 0.029809774349615476
000610 5d 68 8b d8 9f 8b 9b 3f 41 fb 74 f4 79 1d ad bf
       0.026899812309104088 -0.056865511980950696
000620 95 24 9f 97 ed ce 76 bf b4 a1 5d 74 74 b6 86 3f
       -0.005568435759365849 0.011090192605210138
000630 e9 a1 6f 26 00 29 92 3f 24 c0 5e 81 ff f0 92 3f
       0.017734529825164023 0.01849745967018647
000640 e7 f8 c1 6c a1 48 91 3f f6 0e 33 d9 22 07 ad bf
       0.016878626120608777 -0.05669506932602346
000650 78 20 a8 fa 3a 90 8d 3f b3 69 99 28 37 67 a1 bf
       0.014435253881871044 -0.03399059649082705
000660 22 1a 3e 86 96 a2 87 bf 51 b5 f8 fc 52 c3 85 3f
       -0.011540580722578634 0.010626457543447517
000670 f0 f9 2a 4e 73 a3 b1 3f 7b 19 3a 6d f1 21 a6 3f
       0.06890030535121361 0.04322771509491737
000680 2e f8 a7 4b fc 1d ad bf b0 f0 b8 58 29 4c 9b bf
       -0.05686939643418075 -0.026657720604121138
000690 e3 99 df 4e 2d 05 98 bf a2 17 ba 4b b0 5a 9e bf
       -0.023457248629620408 -0.02964282476616343
0006a0 06 7c 1b 7a a8 bd 6f 3f c1 f2 cb 0d 55 c0 ac bf
       0.003874615723233446 -0.05615487855354707
0006b0 59 b4 99 62 f6 52 9a bf 64 8e e2 aa 0c 6a 96 bf
       -0.02570710160073406 -0.02188892167090585
0006c0 e1 1e 0c 34 2b 0a ae bf 47 50 59 a8 cc 00 93 3f
       -0.058671331504283726 0.018557737136078136
0006d0 c7 8e f3 a2 92 60 86 3f 0d 89 21 e1 05 19 b7 bf
       0.010926385496026992 -0.09022557016718143
0006e0 da db 05 f1 42 29 a6 3f 29 70 89 b4 7a bc 60 bf
       0.04328355018781567 -0.0020429989420289907
0006f0 9f d0 6b a9 c9 6f 97 3f 10 ac 6b 87 f8 81 bb 3f
       0.02288737389149331 0.10745194727103091
000700 bf 24 24 4a cf 4b 95 3f 50 58 1f 99 f1 d2 b1 bf
       0.020797003650874 -0.06962499607411243
000710 78 4d 5d d0 12 63 9d 3f 4c 1d df d5 d8 0f 8d 3f
       0.028698247878606392 0.014190382029382186
000720 db b9 c2 24 6f 7b af bf 0f 7e 2b 69 00 17 a4 bf
       -0.0614886028646315 -0.0392379883176056
000730 fa 01 43 0f 02 de 8d 3f 3c 0b a2 c4 9e c6 b3 bf
       0.014583602991820922 -0.07724945355043372
000740 34 cc 6c ed 03 49 9c bf cb c3 e4 e0 94 cf aa bf
       -0.02762228142382757 -0.05236497159274441
000750 23 1d 71 9d 9c 52 9b bf b1 91 c3 e1 3c 1e 9e bf
       -0.026682326421249358 -0.029412223128831353
000760 f4 6e e3 60 9f ee 74 3f 14 2a 72 79 84 c8 af bf
       0.0051103807183740975 -0.06207670195097506
000770 7e 21 12 c8 85 90 96 3f d8 da ec 3b b7 42 94 3f
       0.022035684906343438 0.019785750420136278
000780 40 4d 4a 65 b0 57 b6 3f b7 07 5c d0 48 79 c3 bf
       0.08727552864939003 -0.15213880704692226
000790 e1 f3 f9 2b 14 e7 a5 3f 7a a3 45 6f da 6b ab bf
       0.04277861630269065 -0.05355723007489295
0007a0 f4 59 b2 2a e5 53 aa 3f d6 27 04 a6 6d 16 ba 3f
       0.051421319448468866 0.10190472891932187
0007b0 d2 54 06 3a 27 c2 ba bf 46 c5 04 99 6f 7c b8 3f
       -0.10452504316920688 0.09564874158674738
0007c0 ec 4f 02 3e 5a 63 aa bf e6 6c 12 f1 f8 6c 95 bf
       -0.05153924948641006 -0.020923509324899302
0007d0 06 09 9a 57 fe 2e a0 bf 67 17 b8 aa 75 8d aa bf
       -0.031608532136504094 -0.051860501374945404
0007e0 44 1a ae e5 28 56 c1 bf e8 a0 5c b8 44 9a b1 bf
       -0.1354418870434576 -0.06876019955655333
0007f0 d7 57 31 3b f7 3c 9e 3f 70 e1 e7 82 7d cd 6f 3f
       0.029529440868223702 0.003882165088040228

weights_hidden_output f8 [128, 10]
000000 9f 96 92 02 fa e4 d1 bf 51 bb 3d 4e 6c c2 98 3f
       -0.2796006226657059 0.0241791651491739
000010 d6 3a 12 85 aa d9 83 3f 10 70 6e 46 d0 b6 b9 3f
       0.009692508874903732 0.10044576377407588
000020 e0 9a dd be 12 44 44 bf 6c 5f 17 74 80 98 ad 3f
       -0.0006184665232752094 0.05780412118082165
000030 56 b1 00 07 83 cf 94 3f 69 9d b6 ac e0 a5 ce bf
       0.0203228447937119 -0.23943718369740033
000040 93 4c 45 26 d4 c3 c2 3f ba bb dc 0b a1 e6 bc 3f
       0.14660121792494304 0.11289412059407669
000050 6b 85 5b 92 64 ab af bf 28 68 95 ff c3 3f a9 bf
       -0.06185449873533851 -0.04931461806218379
000060 fc e2 ee ef cb d7 c0 bf 76 62 89 e6 e6 20 99 3f
       -0.13158559051023377 0.02453957349857424
000070 4c 34 6f 9a 61 5b 67 bf e7 2e f1 ec ef f1 c3 3f
       -0.0028511911691340482 0.15582083768310115
000080 85 05 ff 33 e1 24 b6 bf cb b6 cb d0 96 2a de 3f
       -0.08650023955762805 0.4713494338055681
000090 92 e1 99 38 57 3f de bf 0f ed 7b 2e a2 15 79 3f
       -0.4726160099740123 0.006124146959105361
0000a0 a4 76 6e 04 5b bc 9c 3f 06 2e 53 a6 f9 eb c2 3f
       0.028062269349553262 0.14782639142354997
0000b0 39 82 e1 57 e6 98 bd 3f ed 85 89 9e 83 f4 c3 3f
       0.11561431546716329 0.1558994793040677
0000c0 50 0b 4e 6b b3 da 87 3f 19 b1 9d 0c 19 f5 1d 3f
       0.01164760752886243 0.00011427846325568306
0000d0 42 28 33 ee d9 b5 e3 bf ca d2 47 06 7e c5 c3 3f
       -0.6159486439075936 0.15446448618572212
0000e0 0f 44 0d d5 e3 d3 b4 3f 41 f9 c9 bc 47 82 c0 3f
       0.08135818435154384 0.12897583692751804
0000f0 f6 65 c6 66 bf c5 bd bf fe 92 42 2f 2d 7b be 3f
       -0.11629863986163244 0.11906702426729152
000100 5f 49 62 40 e5 f4 b0 bf 48 b5 2a a2 44 fa b3 3f
       -0.0662368089854559 0.07803753813887682
000110 79 da 11 07 4a a0 e0 3f 47 db fe a1 4b 34 77 bf
       0.5195665491181237 -0.005665107193570779
000120 b4 40 60 58 a4 91 c2 3f 6f 97 dc 88 63 dc d0 bf
       0.14506964030488734 -0.26345146527670854
000130 f1 14 c8 0b 0c e1 84 3f b8 ad fc fb 03 2a b6 bf
       0.010194868192238778 -0.08657860662486072
000140 9e a3 cb 5e 86 ff a1 3f 10 f0 7d da 7b bd ba 3f
       0.03515262515231331 0.1044537933757399
000150 e9 12 84 6d 32 7a d5 3f 7f 25 fd ce dc 92 d2 3f
       0.33558331198609764 0.2902137776732942
000160 c0 11 8e 0e 73 f1 af bf 42 c5 26 27 3b 2b a9 3f
       -0.062388988043525995 0.049157951859692975
000170 6a f7 ca fb cc bc cd bf 71 e6 e8 64 e1 99 de 3f
       -0.23232424063274532 0.47814211706609117
000180 e3 81 f4 6f 45 e8 65 3f 63 c6 db aa b4 e7 e6 bf
       0.0026742321202990345 -0.7157843911247251
000190 cf 55 65 c6 d5 f1 bd 3f 0d 8c 17 85 5f 53 99 3f
       0.11697136014603092 0.024732105730333177
0001a0 0a f7 de e1 56 e2 b2 3f 10 cd a1 6c 5e d6 a4 bf
       0.07376616491725599 -0.04069800449442529
0001b0 8b 20 5f f2 6c 2c c3 3f 81 44 1d 64 bf ea c5 bf
       0.14979326090383824 -0.17122642887492037
0001c0 25 22 38 83 8d 3e ae 3f b7 12 2f 0d 5d a6 b0 3f
       0.05907098986432783 0.06503850528595022
0001d0 0d 8a 3a 24 a6 2d b4 3f ca 22 88 13 dd 7a c5 3f
       0.07882154831398953 0.16781199887943493
0001e0 17 bc ce a9 52 c0 b4 3f 66 96 ac 51 be 32 8e 3f
       0.0810596146172745 0.014745222918985234
0001f0 e4 4f 63 14 46 12 a7 3f 19 d2 f5 06 36 d0 c8 3f
       0.04506129263759798 0.1938540967927487
000200 c4 a4 dc 85 ff 9c c2 bf 15 bc 03 cb a0 e5 c6 3f
       -0.14541620289063506 0.17888269341298782
000210 04 91 fb eb 31 d7 bd 3f 2b f5 c0 ac 06 11 d1 bf
       0.11656486522003112 -0.2666641890571834
000220 23 00 9b c6 43 e8 91 bf 3f 18 36 1c 91 e3 d5 bf
       -0.01748758220378489 -0.34201457743654723
000230 c8 07 49 c1 ac ac d5 3f 4a 98 e4 50 95 42 93 3f
       0.3386642348815454 0.018808682501138464
000240 f4 45 04 06 ef e1 b0 3f eb 3d 6b de 75 53 7b 3f
       0.06594747445003418 0.006671390938847814
000250 23 d7 46 c2 02 5e 97 3f a6 dd 9e b5 54 7c df bf
       0.022819560153684592 -0.491963555682981
000260 97 34 d8 f4 43 a9 bb 3f 59 29 97 23 b4 d7 a7 3f
       0.1080515358700772 0.0465675633855251
000270 fc 64 10 5d 53 5d a8 bf 52 a7 ea 5b 4a 8d af 3f
       -0.0475870181182447 0.061624835701265326
000280 4c 29 e2 a4 8d a1 af bf b4 2f 96 c1 f9 b5 99 3f
       -0.061779428841946954 0.02510824436244237
000290 98 29 59 40 f3 1d a7 bf cc ea 13 7d 13 90 d2 bf
       -0.045150376896873456 -0.290043708940783
0002a0 8d 5e 8f 66 ee de bf 3f 77 d2 6b e0 f7 c3 94 bf
       0.12449541095645085 -0.020278809616643714
0002b0 c0 3c f4 a8 e6 88 bc 3f 40 42 ff 41 9f 95 ae 3f
       0.11146394371847901 0.05973527603749007
0002c0 ba f4 67 23 cd ea 85 bf 5f a8 41 b3 11 43 b9 3f
       -0.010701754229552985 0.09867964388254923
0002d0 ab dd be 90 e9 79 be 3f e1 b4 09 c4 3c 71 a4 3f
       0.11904773505999937 0.03992643254319162
0002e0 02 26 f2 02 12 c0 48 bf 0b 52 f8 e9 29 a7 c1 3f
       -0.0007553184458554687 0.13791393207851885
0002f0 aa ea f7 5b 3e 31 c1 bf 60 6e 34 3a 94 e6 b4 3f
       -0.13431529513021206 0.08164335652366495
000300 f5 f6 8d 36 49 11 ba 3f 06 5a f2 b7 83 82 d0 bf
       0.10182626325510198 -0.25796597446006364
000310 2b f5 f4 7a 63 48 c2 3f a5 ce 70 cd 58 19 b1 3f
       0.14283412460091802 0.06679301276818224
000320 bb 0b 91 ce b5 74 a0 3f c7 be 81 91 7d 12 cd 3f
       0.03214042803349267 0.2271267853243357
000330 3c e9 53 b4 00 02 ae bf d0 2e cc 6c 06 96 98 bf
       -0.058609029781978766 -0.0240098003296641
000340 78 48 85 e6 cc 0a ba 3f 24 ac 19 6e b0 2b ae bf
       0.10172730091042748 -0.05892707199094385
000350 28 18 c0 e8 2f 6b 90 3f c6 ee 44 2a b4 b0 ba 3f
       0.01603388650985252 0.10425878555264054
000360 82 e5 80 c7 65 16 d7 bf 10 2f da 61 5a ce b6 3f
       -0.3607420395161044 0.08908619774791426
000370 96 fa 4d a0 75 87 db bf 46 f0 8e 05 21 4e cb 3f
       -0.43014279036280223 0.21332180758861535
000380 73 7a 08 c0 c1 d7 c4 3f 92 04 d7 37 a4 ba b8 bf
       0.16283437611214743 -0.09659792292861116
000390 f0 d4 8c 13 7c 55 b6 3f 7b 40 b6 59 fd e6 dd bf
       0.08724189259813264 -0.4672234893887503
0003a0 1e 35 54 3a 0a b6 c7 3f be 82 a4 f9 86 05 b4 3f
       0.1852429184731727 0.07820933909216429
0003b0 bf e7 94 83 07 d5 c9 3f de 8f ef 82 8d ce 99 bf
       0.20181363987813758 -0.02520199882191309
0003c0 07 4a 71 77 9b 5d a9 bf d5 af f1 2c b0 6f d5 3f
       -0.04954229195631759 0.3349419058711168
0003d0 30 26 41 7d ba 2d a2 3f 77 47 0b 18 29 cd cc bf
       0.035505130567412 -0.22501100229288415
0003e0 e9 76 1a 35 b4 40 c0 3f 33 5d 9d 26 6b 96 ab bf
       0.126974607400306 -0.0538819775235261
0003f0 e5 9c a2 e3 d1 5f 93 3f bc 2b 5d 61 5f aa be 3f
       0.018920211333036802 0.11978717925118948
000400 df 32 82 9f 3a fd c1 bf 51 8e aa d2 39 3a b5 3f
       -0.1405404356813937 0.08291970627993207
000410 1f bc 85 20 ed e2 9a bf 5b 10 df de 17 93 95 bf
       -0.026256280050287125 -0.021068928697573912
000420 f7 2b 99 e0 5a cb da bf 03 fb ca 42 d5 8e b6 bf
       -0.4186618035643614 -0.08811695938764434
000430 88 60 a8 aa f4 72 ac 3f 47 f5 2b e0 20 25 ad 3f
       0.05556454261039884 0.05692389236899458
000440 ac 62 78 02 2d 36 bb 3f d5 54 f4 de e3 f1 ac bf
       0.1062954073935411 -0.05653297516452375
000450 24 76 e5 86 d9 52 91 bf 22 7c b6 61 05 d7 9f 3f
       -0.01691760907976038 0.031093677605550714
000460 ee 27 2c f5 56 5e b6 3f 4a 67 2f 5d e9 c2 d2 3f
       0.087377009254993 0.29314645862688293
000470 c1 82 60 e1 a6 20 a3 3f c0 fd 8f 2f 40 f0 40 bf
       0.03735848904785178 -0.0005169213683301963
000480 cf aa c9 88 3a 0c a5 bf 06 f8 51 4d 11 c8 b5 3f
       -0.04110892219326489 0.08508403909397097
000490 1f 6d 52 d4 84 95 cd 3f 91 4e 40 71 54 5d a6 3f
       0.2311254536369711 0.043680800270661575
0004a0 d6 be a4 01 54 40 de bf 02 d8 63 b5 3f 17 de bf
       -0.47267627869130757 -0.47016899789684896
0004b0 7e b4 1d a9 82 ab b5 bf 92 9a 89 a3 62 36 ca 3f
       -0.08464829090890366 0.20478470788221564
0004c0 46 53 c7 5c d9 a6 ce 3f 60 66 82 e8 36 20 cc 3f
       0.23946682958799154 0.21973310807225044
0004d0 c2 79 26 0f 35 8a d0 bf b1 1b 57 d8 f9 b3 64 bf
       -0.2584355018570045 -0.0025272254740431256
0004e0 8e 25 db ce af a4 c1 bf 5c c3 4f 5d 60 6d d4 3f
       -0.1378383407630221 0.31917580711801974
0004f0 df 7b 3a 0a a0 ce b7 3f 7b bb e5 69 b2 2a e7 bf
       0.09299659967153627 -0.7239620273884236
000500 b4 47 c6 54 f1 06 be 3f ed b7 24 38 36 4c c7 bf
       0.11729343719187463 -0.18201329938295832
000510 02 9c 21 10 f9 52 c1 3f fe 8c aa a3 36 16 6f bf
       0.1353446320310639 -0.003794771878646962
000520 a1 3e 68 78 a2 16 bf 3f 7a 1a 11 73 4c 46 92 bf
       0.1214391273463158 -0.017846292994614356
000530 fb 79 c2 39 7d c1 bc 3f 5f b4 ec 8e 5f 5a ce bf
       0.11232741031788145 -0.23713297346822323
000540 6b da 5c 08 1a 2a b4 bf f3 70 b6 a8 19 01 bb 3f
       -0.0787674208084838 0.10548553818665933
000550 f3 82 1b 08 97 6f c1 3f e7 1c 60 34 7a 29 a2 bf
       0.13621795554993063 -0.03547269715641637
000560 d8 47 0f bb 4f ed c2 3f d8 01 25 4e ec 9f ca 3f
       0.14786717065595556 0.2080054647031051
000570 24 a7 09 12 3b d8 e2 bf cb 6b c3 eb f1 18 ca 3f
       -0.5888953544901807 0.2038862610996531
000580 48 36 4d 30 83 67 ce bf a5 19 48 8f cd ea c0 3f
       -0.23753394945599582 0.13216561790632145
000590 fe 06 af b4 3a 38 c0 3f 97 78 b9 ab ab 85 b5 3f
       0.1267159826511985 0.0840709013222941
0005a0 f8 7c 97 a6 13 51 d5 bf 15 af 82 4e 90 7d d0 3f
       -0.33307353275991103 0.25766379992522676
0005b0 4d 94 e0 65 0a 2b be bf 3e 12 61 9d 0b 6b c4 bf
       -0.11784424769628395 -0.15951676544695376
0005c0 cf 13 43 f7 43 3e e2 bf 54 65 ba 0f 61 4c df 3f
       -0.5701007680260036 0.4890368131251155
0005d0 c6 15 fb d7 7c a9 d7 3f b1 ff 31 14 25 72 c3 3f
       0.36971970645785424 0.1519209240541364
0005e0 0f db 93 7e e0 74 c6 3f 4c 15 8d cd ea fc bc 3f
       0.17544180088562952 0.1132342101892238
0005f0 01 03 6c fe 4e 77 9b 3f e8 54 a9 2c 17 52 9a 3f
       0.026822313574487392 0.025703775502127352
000600 80 b9 78 7a f7 a5 c3 3f fc 93 dc 46 98 22 ce 3f
       0.15350240211541788 0.235430750465781
000610 c1 df 57 f1 34 ee d3 bf 5a 4b f0 2c 68 b2 cc 3f
       -0.31141398972203765 0.22419454759855278
000620 0b 85 53 74 df 5b e0 bf df e6 03 9f d1 56 b3 bf
       -0.5112149497983024 -0.0755435002537541
000630 be d5 68 bd d9 43 b9 3f 68 c2 01 c8 7d 9b c9 3f
       0.09869156717544222 0.20005771890602664
000640 23 cf 70 dd d5 e5 d1 3f c4 16 2d d6 90 5c b3 3f
       0.27965304017128484 0.07563119152936354
000650 d3 90 2d f2 00 a2 c1 3f 83 d5 9f 25 bc 70 80 3f
       0.1377564604291651 0.008027524851039974
000660 6d e4 e6 24 ad 31 e7 bf f7 23 99 f1 6a 6f c4 bf
       -0.724814006876057 -0.15965019985949855
000670 4b e4 6f e2 1e 8f a9 bf 75 01 c7 cf a1 1b a4 3f
       -0.0499200488483856 0.0392733160147171
000680 b6 e9 e0 2e ab ca 80 bf e3 ef 2b 56 7b 09 a2 3f
       -0.00819905983745604 0.035228590268132874
000690 d6 8b f4 1c 93 e5 c2 3f 00 1b b5 6d 1c f8 cf 3f
       0.14763106263953202 0.24975924832161667
0006a0 3c 7b ed ff a9 00 ca bf 43 b1 b2 49 71 30 da bf
       -0.20314526554553847 -0.4092066974360657
0006b0 32 68 7a 51 b0 71 c8 3f 27 c5 9c 81 82 e6 8c 3f
       0.19096950510430727 0.014111537533241304
0006c0 10 0b 56 e3 9f eb b8 3f a2 a2 8d ff 57 32 b5 3f
       0.09734534549901874 0.08279943455785113
0006d0 e8 5b ba 76 b7 66 96 bf 98 30 4f 17 42 1c be bf
       -0.021876207944469345 -0.1176186854274327
0006e0 91 bc 2d 8b 2e 19 ae bf a8 07 df d8 8b 40 cb 3f
       -0.05878587197263941 0.21290729607977465
0006f0 d8 04 6a d9 26 04 c8 3f b4 68 e4 81 7c 16 c4 3f
       0.18762670150684957 0.1569362291564339
000700 e4 f8 c8 b0 70 03 d3 3f 83 1a 6d ad f4 90 dc bf
       0.2970849729935152 -0.44634739814902263
000710 46 5e 73 54 b9 21 e4 bf cd 5f eb 7d bd c6 ca 3f
       -0.6291166924883747 0.20919006966027923
000720 db 6f b6 86 68 7c a1 3f 8c 55 b5 52 82 c3 ce 3f
       0.03415228504601916 0.2403414634560871
000730 07 1c c4 e8 f4 ee 77 bf 5c ed 30 f9 00 2a cc 3f
       -0.005843121220329379 0.22003185431990857
000740 5f bb 2c 06 68 88 d1 bf 2f b8 b4 e4 8c c4 cc bf
       -0.2739505825328958 -0.2247482411125374
000750 ba 48 a1 72 94 5c d0 bf 07 cd 41 63 2d 71 c4 3f
       -0.25565062708222863 0.15970389696631335
000760 36 54 86 f1 4c 5a a4 3f 2b b0 41 e9 96 ae af 3f
       0.03975143860149226 0.061878887151437155
000770 e0 6a 22 4c 2f 54 77 bf 38 cc 82 bc 11 64 a5 3f
       -0.005695519214124117 0.041779093038166015
000780 f5 e5 25 dc 6c d1 c0 3f f3 c1 11 ac 34 6e 92 bf
       0.13139115094581624 -0.01799852657535612
000790 70 85 e1 4b b4 3a bc bf 1a 92 ae f3 d3 52 a7 3f
       -0.11027075626909322 0.045553802009895075
0007a0 39 d1 36 d3 90 06 c6 bf 8d a4 f2 92 e3 a2 bd 3f
       -0.17207536996068898 0.1157667382964453
0007b0 c1 1c 0a 7d 8e 50 bf 3f 7e 41 75 b0 1e db cc bf
       0.12232294609758566 -0.2254370080577352
0007c0 51 7b 6c 30 f4 74 bd 3f 21 b4 c8 74 06 78 b8 3f
       0.11506582433910963 0.0955814395062622
0007d0 15 ee 5c 8f 37 95 b1 3f a6 b6 ed 5b 8d b0 90 3f
       0.06868312120507654 0.01629849313342526
0007e0 6c 8a 07 7d ff 59 d9 3f c0 45 bd c4 c3 ee a3 bf
       0.39611804208667567 -0.03893100525477733
0007f0 18 38 3f 56 ac 7a 9d 3f 35 6e 04 da 6b ca 50 bf
       0.028788273586364793 -0.0010248234976363406

bias_hidden f8 [1, 128]
000000 bc 32 fe dc e2 e7 b1 3f 05 df a9 f4 ac 44 b3 3f
       0.06994455237709024 0.07526665662032535
000010 b5 3f 74 43 1d 3f c6 3f 60 58 bf 04 f1 39 a3 3f
       0.17380109590203366 0.0375514334006517
000020 b6 2b 25 ed f7 99 b3 bf 89 ab 38 10 0f 4a ca bf
       -0.07656812228849116 -0.2053850964742561
000030 56 2b 60 54 ad bd bd 3f 03 11 9d 5e 76 b6 90 3f
       0.11617549238159816 0.016321038746597526
000040 d0 6f 6a f3 0e ea b8 3f e3 89 dc 2b d6 d5 bb bf
       0.09732144778030194 -0.10873163767659082
000050 4c 6e ab d5 e1 d2 cb 3f c2 1f c9 5e 9d 7e c3 3f
       0.21737311299408402 0.152301474840213
000060 48 bf 83 60 3a ae cd 3f 46 52 0e 0e 91 cf c5 3f
       0.23187951767567427 0.17039693056416833
000070 b2 37 ab 4c 05 1c e1 3f 94 44 5e 50 ee 1c d6 bf
       0.5346704957425941 -0.3455158028455767
000080 d7 42 80 5d 08 db c7 3f 36 9b ab b4 cb 26 89 bf
       0.1863718468234967 -0.01228102822410691
000090 e0 1b e3 48 0e 9f 98 3f 93 a5 85 73 82 1e a5 bf
       0.024044249724081257 -0.04124839458638543
0000a0 b9 0e c0 d5 47 a9 b9 3f 8e 2e 7c 0f e6 b8 c7 3f
       0.10023926704894394 0.18533015972240147
0000b0 7d 37 d7 1f 03 21 a1 bf ec df e6 0a 2b cc d4 3f
       -0.03345498813324264 0.32496143402704436
0000c0 ca be db 1f 1b 73 9a bf 59 65 a1 f6 5c f8 c9 bf
       -0.025829719371300887 -0.20289194147589276
0000d0 25 7c 64 57 b3 6f b2 bf 26 a4 f6 1b 55 d4 c8 bf
       -0.07201691516500881 -0.1939798723736043
0000e0 91 43 9d 43 5f fd cc 3f a1 e9 f7 ad a2 aa ba bf
       0.2264823036335 -0.10416619059825517
0000f0 e8 fd eb 03 9b 14 c3 3f 77 31 42 26 a4 0b cb bf
       0.14906633082863086 -0.21129276149839502
000100 cd 5a 86 f2 e8 08 92 bf 5d 91 c1 98 41 5e df 3f
       -0.017612113764324634 0.4901279441603686
000110 c2 67 1a c7 39 9c 76 bf a1 b9 f8 7c 2d 2b ab bf
       -0.0055200821822384855 -0.05306379461795819
000120 0a 76 10 f1 97 ad ac 3f 00 05 b3 19 d4 c7 c6 bf
       0.05601191346816499 -0.17797328238342658
000130 c9 5b 41 92 26 85 cc 3f 97 a4 5a 24 66 7b 93 3f
       0.22281343594906236 0.019025417298199256
000140 27 fa 8a 77 6f 6c 96 bf 8b 15 23 6c 29 f5 c2 3f
       -0.021898023291891413 0.1481067445767333
000150 a5 4d 3d 31 a6 1f c7 3f e1 9d 7e d2 27 31 c7 3f
       0.18065335659285356 0.18118760850960228
000160 74 f1 0c 4e 99 02 b1 bf 09 33 74 69 17 95 d7 3f
       -0.06644590526133759 0.36847482012017047
000170 d0 66 63 d8 42 b5 d0 3f 2e 76 62 31 19 08 b4 bf
       0.2610633004347678 -0.07824857192687126
000180 ea 0a 89 b7 bf 32 c6 3f 6c ae db ba 37 fd d3 3f
       0.17342373334584887 0.3123301815782955
000190 bd c2 29 e3 d2 b0 d9 3f f9 35 6b bf 78 44 c4 bf
       0.4014174669637603 -0.15833958956356733
0001a0 19 e9 f2 49 e9 d9 a2 bf fa 7b 81 a3 44 34 bf bf
       -0.036818781163179 -0.12189129821625491
0001b0 8f 39 2e 8b d2 1d c1 3f d2 a6 a1 d1 04 37 c0 3f
       0.1337226085274321 0.12667904125128487
0001c0 f8 04 13 17 51 66 d1 3f 91 6d 52 2f 77 87 86 bf
       0.27186991933201865 -0.01100056756177173
0001d0 e4 d9 52 db 99 76 7e bf 34 45 7a ba a6 7c b0 bf
       -0.007437325480330579 -0.06440202763248665
0001e0 b5 0d db e5 9e f6 ce bf e7 e3 47 b5 f2 86 cf 3f
       -0.2419012663213899 0.24630578853228188
0001f0 02 23 82 f5 97 e3 cb 3f 76 66 7d b7 00 aa ca bf
       0.21788310516082993 -0.20831307372536728
000200 4b 44 ec d4 65 c3 c0 3f fc c3 cb 65 bd 2a a9 3f
       0.1309630670225793 0.04915420405985313
000210 b1 52 ae e1 a8 a5 d3 3f 3e 7c 11 c5 7d 66 d0 bf
       0.3069860652843018 -0.2562555717940461
000220 20 3d 71 6f 86 9d 9d bf 46 d8 a2 ed a1 ba d3 3f
       -0.028921223213100977 0.30826614576961153
000230 1a 45 86 65 e9 73 b7 3f c3 bd 9a aa 57 d9 75 3f
       0.09161242226243296 0.005334227034537733
000240 f5 ab 6e 98 7b 6d 91 3f b2 61 d6 fb 7b c0 8c bf
       0.01701920621750826 -0.014039009688347235
000250 c0 df f3 3d fc 37 af 3f cb 28 a1 a0 4d 5c ca 3f
       0.06097400909669615 0.20594187110174852
000260 15 02 cb 7c ea 57 aa 3f 0c df e9 68 0f b9 a1 bf
       0.05145199559547479 -0.03461502223666288
000270 ee af ac a9 23 71 d7 3f 79 9f 63 40 54 22 b4 3f
       0.36628047532826613 0.07864882061005386
000280 16 7b 23 18 92 d1 d0 3f 7c 91 af 9e 78 ce ab 3f
       0.26279117924961903 0.05430962502558409
000290 f6 d8 08 a3 ff c4 bf 3f 4f 68 8b e1 03 5f c8 3f
       0.1240997098001094 0.19039963257711398
0002a0 de 5d ef c9 af ea 97 bf 01 02 ae 22 d0 15 c9 3f
       -0.023356196117530696 0.19597818082185373
0002b0 c8 cb de 39 f6 b1 e0 3f a0 b9 d3 6e fb 31 d2 3f
       0.5217238550452459 0.2843006689353391
0002c0 4a ae 78 13 f0 26 7a bf 47 6c 8f d3 03 18 cf 3f
       -0.006384790227041368 0.24292037801828512
0002d0 5b a2 49 d8 8d d0 b5 3f cb 41 16 b0 6b 8e 71 bf
       0.08521353273830228 -0.004286213546393867
0002e0 b2 ff 1f da fa 95 ab 3f 31 5f 38 42 56 31 48 3f
       0.053878630758844706 0.0007383032975125434
0002f0 e1 17 0a b1 2c 99 a1 bf dd e8 9e c9 96 a2 a5 bf
       -0.03437175427556816 -0.04225608073416407
000300 44 09 0b 83 37 a1 b5 3f 3f 14 ff f5 7c f9 c0 bf
       0.08449122380537682 -0.13261377345603084
000310 a6 2a 06 58 1e da b2 3f bb 78 5e af ef e7 d0 bf
       0.07364072464967339 -0.2641562664592915
000320 72 87 8e 48 73 29 84 3f 4f 3f 96 84 79 48 b1 3f
       0.009844685222393432 0.06751212584481191
000330 bf 9f 4b 71 d9 ca 88 bf 3e 43 7e f5 b7 72 d2 bf
       -0.012105654497147953 -0.28825186704584727
000340 49 98 02 5f c1 fe c1 bf 10 ea a7 56 7c 02 c8 3f
       -0.14058701647917562 0.18757585746045935
000350 a0 8f ef 9b e1 96 cc 3f b7 16 2f fe 2d af b3 3f
       0.22335453142215744 0.07689177947676283
000360 e7 e2 f5 cb 98 fd c7 3f 31 51 4b 42 f0 20 a8 3f
       0.18742666205414268 0.047126300900034564
000370 57 7e fb d5 bb f4 96 3f e8 a4 d2 c1 be ff c5 bf
       0.02241796010537053 -0.1718672224426776
000380 1a d6 ba 89 2e d0 cb 3f 14 ec ab 4c 08 d4 ab 3f
       0.217290704012769 0.054352053984949716
000390 c7 f2 bc 99 5c c1 ad bf c0 6c 0f cd b6 75 aa bf
       -0.05811585785565892 -0.051679337054986174
0003a0 45 d6 1d 2a 09 61 c6 3f 7f 0a fa 0e 84 7a ac 3f
       0.1748362975737782 0.055622221782887664
0003b0 88 ec 8b 91 63 e1 c3 3f 21 ac 38 cb c4 d0 89 3f
       0.15531582457319737 0.012605225993942483
0003c0 b0 ba f4 fb 30 4b c0 bf 76 a9 47 38 99 e1 c4 3f
       -0.12729465773141646 0.1631347203068107
0003d0 26 f1 7c 08 f9 d9 d3 bf 3d fe 28 be e8 d0 b2 bf
       -0.3101790030375632 -0.07350020067769321
0003e0 13 c5 4e 90 a5 fc a0 3f d5 f9 a3 49 9f 4f c2 3f
       0.03317754160469568 0.14305487724045798
0003f0 2c ef 23 3f d2 3c c5 3f 1d 97 0a 6c 35 ae b3 3f
       0.1659186180403308 0.07687696349838942

bias_output f8 [1, 10]
000000 03 a1 73 9d 39 65 d7 bf b7 4c 6a 0f 78 a9 b2 3f
       -0.3655532872785587 0.07289839149807419
000010 38 a4 cb ca 40 2e d0 bf 9e 6d da b8 b3 97 ce bf
       -0.25282306484456596 -0.23900457883870002
000020 d9 24 68 54 97 65 d1 3f c4 04 17 c2 22 e6 d5 3f
       0.27182563059666404 0.34217137292951016
000030 4d 3d 13 09 c1 4e b7 bf 5b f7 8a 98 fc 4b 99 bf
       -0.09104544135629063 -0.024703928766704446
000040 ac 38 65 0f 43 98 df 3f 08 eb 89 b2 2d 8d ca bf
       0.49366833213287964 -0.20743342607223547
