models/model_cv_digs (3000).npz (npz, 815236 bytes, 4 tensors)

weights_input_hidden f8 [784, 128]
-0.06915646853812032 -0.05063010192252683 0.09741224933999854 -0.02106648889588216 0.05792177967248817 0.011499310390924505 -0.024426889183042824 -0.057449401673845456
-0.06082871925452507 -0.07378630364312631 0.0012502386399675385 0.06650036438719119 -0.05269664476862033 -0.006473245801527541 -0.050101041853182066 0.0770527044437024
-0.009031524939908588 0.0072588271686113435 -0.022696516324937722 -0.029343301310990562 0.01362987682805247 -0.028961533303513264 0.055955372715375054 -0.00503624950895625
-0.023889196725804192 -0.026994110091371974 0.0013898406448928002 -0.0730480531002485 -0.023109892614406345 -0.0014343494031169499 0.03787345206750223 -0.026106671509359202
-0.0035822722184949978 0.1014855203828141 0.015183729984126234 -0.0032512201988504426 -0.06269186045144716 -0.04233785419443047 0.01638739657059775 0.04712864626924952
-0.026149592965328258 -0.06582944247048067 -0.014801406799335313 0.04587619969939844 0.045600446170407684 0.06443723839702002 -0.0033571105625168187 0.027930278311362633
0.004356516417478644 -0.03302059629423579 0.12567076063674437 0.031027473574472386 -0.06750308226577378 -0.030206933786122995 0.01933494142017907 -0.012850974163717003
-0.06385960820153386 -0.0512587881219895 -0.0010692808785693387 -0.0829990178162326 -0.04129988731345392 0.005522901131794011 -0.012555032972761617 -0.04618260754573029
-0.01815481142916721 0.03397708613091972 0.07826649544260925 -0.01569146860087931 -0.03485694204468225 -0.005020896756646205 -0.0918762356730844 -0.03160336994754639
0.015668773485348123 -0.07751072043973001 -0.03374944385019231 0.05110961064019955 -0.09564685465372855 0.048147274791178044 0.06878176046672925 0.0033360815601452746
0.09573912286061816 -0.10884135996305544 -0.04310976875939802 -0.014946664191298377 -0.03161608490110789 -0.08353054295525052 0.004982668817930534 0.002595520375654876
-0.017888979635896005 -0.026674958214255428 0.007087502177125101 0.038479872318958136 -0.0655408319404184 0.039837523539247875 -0.023284491812927202 -0.010607955883108663
0.11856498346409185 0.08032728825879197 0.06112110121289658 0.03945415620711847 0.02692033709733032 -0.04564587969228174 -0.01983108226392842 -0.004940485237749588
-0.014289612604542564 0.05656900293724111 -0.008694807798433589 0.00512380382778356 0.036615063084406624 0.015113363292842099 0.06978556545754669 0.11161871238433245
-0.006292852966150518 -0.03590302421045847 -0.09824173136972524 -0.054523610686046435 -0.009564961368635319 0.013405470594120828 -0.02816732622013828 0.017803562746013232
0.02877316578067134 -0.0074531233457359805 0.03772093807368071 0.007175749648463692 -0.08110235771254411 -0.027535536136365335 0.018954471984313458 0.0031399399039131652
-0.049091680952787445 -0.02867804117333891 -0.0701028916487 0.0728150494690113 -0.07804278863158369 -0.016691748264740947 -0.11125482832091597 0.06451669985359768
0.03485351765115859 -0.057077326972849146 -0.04255134801275602 -0.05822460501016206 0.027518048675007577 -0.0013911339155239471 -0.058818274107112274 0.037106116892863035
-0.08285443995713788 -0.048781291451088594 -0.01510845424852996 0.015716259529920742 -0.1002681823819474 -0.08690950081059894 -0.0025221770027172214 -0.11476407972023646
-0.014934286254664173 -0.07300413430340792 -0.11047639186055379 0.00375193445912271 0.03773748213273953 0.03309938209182651 -0.09832023793487504 0.026148170471362215
-0.03381751034359217 -0.03289490340661954 -0.0870754456655986 -0.04293542701024184 0.07451477177345812 0.015452328775860117 0.05700399850814323 0.0012007677703159286
-0.028938170609935542 0.055331652758375774 -0.09636915964010138 -0.0833427011192482 0.04637396332192084 -0.02423714202627765 0.05662071975945589 -0.029945950461036507
-0.01593443556299884 -0.04369151691891698 0.034757911129994754 -0.036168750140404785 0.00469390056650319 0.07227136921999233 -0.03220744402602986 0.02818636663118162
0.05965627551128361 0.03777573429764207 -0.014035658924792074 0.004019241887874878 0.007183959771643396 0.03701143044031737 0.0029182131886520547 -0.13915188626464134
-0.0037013167547561288 0.029815736901018776 0.02690519280986707 -0.056876886221301715 -0.005569549557949558 0.011092410865660747 0.01773807708602066 0.01850115953227938
0.01688200218359675 -0.05670640947443265 0.014438141221516133 -0.03399739529032246 -0.011542889069665581 0.01062858304760582 0.06891408679107104 0.043236361502980616
-0.056880771451500146 -0.026663052681698555 -0.023461940548757207 -0.029648753924309178 0.0038753907239143285 -0.05616611065299191 -0.02571224353548763 -0.02189329989326656
-0.05868306694467625 0.018561449054870387 0.010928570991777844 -0.09024361708674897 0.04329220776401487 -0.0020434075827005316 0.02289195182427853 0.10747343981074203
0.020801163467779993 -0.06963892246661639 0.028703988102472378 0.014193220389756563 -0.06150090181567348 -0.039245836700473664 0.01458652000425665 -0.07726490498700829
-0.027627806432871063 -0.05237544563495599 -0.026687663420482604 -0.029418106162034958 0.005111402896783318 -0.06208911853360296 0.022040092484288194 0.019789707966159597
0.08729298550161987 -0.15216923785283223 0.042787172882008416 -0.05356794259265966 0.051431604741367855 0.10192511190435541 -0.10454595026952646 0.09566787324912374
-0.05154955836767661 -0.020927694445471642 -0.031614854475460315 -0.05187087451301822 -0.13546897813123907 -0.06877395297244814 0.02953534734732088 0.003882941598745143
00000000: a296 ad02 3db4 b1bf c29a e64f 30ec a9bf
00000010: b424 2559 02f0 b83f e6be 6523 7492 95bf
00000020: b6c2 d66a eca7 ad3f a3d0 7150 f38c 873f
00000030: 049b bcc8 5c03 99bf 8b55 ba0a 026a adbf
00000040: f424 b61f f124 afbf 5f3a 0ac1 a8e3 b2bf
00000050: 02e8 8884 e17b 543f c70e 37fa 2a06 b13f
00000060: 3dc2 c7fb 0dfb aabf 10b5 43b0 b083 7abf
00000070: 0c88 8200 d8a6 a9bf 3170 a7dd b9b9 b33f
00000080: d4d3 ffc1 1e7f 82bf e178 be94 6ebb 7d3f
00000090: 7a1b 656d c13d 97bf 5213 f39d 2b0c 9ebf
000000a0: 6ec9 cc19 fbe9 8b3f 23bd 8599 17a8 9dbf
000000b0: 8a30 b2bf 2ea6 ac3f 36a8 f7ee e3a0 74bf
000000c0: 0f00 a9da 6876 98bf 3eb7 1b10 58a4 9bbf
000000d0: 572e 7407 6ac5 563f 361f 1af7 46b3 b2bf
000000e0: 26c7 f8a3 1eaa 97bf 5b52 c1f1 1880 57bf
000000f0: ac78 082c 2664 a33f 8346 5c11 b5bb 9abf
00000100: 8103 c3c0 9158 6dbf 67cd 0f7f f4fa b93f
00000110: 9176 b4bd a518 8f3f 9114 a38d 4da2 6abf
00000120: c946 5de2 920c b0bf efb8 4ba6 4ead a5bf
00000130: 2565 5991 dbc7 903f 82c3 dcf4 3e21 a83f
00000140: 9ff3 5b7a f5c6 9abf 044e 86c6 32da b0bf
00000150: d27e 1a31 3350 8ebf 2953 bfd2 157d a73f
00000160: 0d46 f811 f158 a73f 334c 8f77 f57e b03f
00000170: 9af0 6602 5f80 6bbf c073 a93f c199 9c3f
00000180: 45d6 9978 23d8 713f fc37 5b5a 13e8 a0bf
00000190: 06c7 7fbf fa15 c03f 7094 1e81 aac5 9f3f
000001a0: 2cf0 b5ca e147 b1bf 3135 e502 91ee 9ebf
000001b0: 356b 47f4 89cc 933f e20b 0a8e 9c51 8abf
000001c0: 5cce c270 1a59 b0bf e4aa 3b85 973e aabf
000001d0: 151d d699 e384 51bf 65ef 1e73 6c3f b5bf
000001e0: 52f6 ad42 4225 a5bf 996f d77b 2e9f 763f
000001f0: c14c 2500 74b6 89bf 9917 1b2a 3fa5 a7bf
00000200: c4cc 69c5 2c97 92bf 2ac9 7dd3 7165 a13f
00000210: 1a6d 4ce6 4509 b43f fa31 dea1 6c11 90bf
00000220: 3faf 3de4 c4d8 a1bf 95b9 dcb5 ca90 74bf
00000230: 2cd8 7e73 3385 b7bf bb77 bc20 512e a0bf
00000240: a183 c096 790b 903f 2cc7 6019 bed7 b3bf
00000250: f284 306b 9b47 a1bf bb01 6cf4 092b aa3f
00000260: bef9 b3f0 4f7c b8bf ca40 3d75 c2a6 a83f
00000270: 8912 c473 ae9b b13f afd7 5226 4554 6b3f
00000280: 2153 a2f1 5b82 b83f 2855 7e01 07dd bbbf
00000290: a662 ebcd 7b12 a6bf a75d 164f 5b9c 8ebf
000002a0: ef0a 5bc5 fb2f a0bf 97bd 35f6 4162 b5bf
000002b0: 8bbe eaf9 b468 743f a92f 2564 3343 653f
000002c0: e9dc fa19 7d51 92bf 130d 9c24 ae50 9bbf
000002d0: 2f30 fae0 c807 7d3f 840f 5442 a2b3 a33f
000002e0: 4a9a bcb1 48c7 b0bf 0368 8279 9565 a43f
000002f0: 94ac 5ccb e3d7 97bf 6b4d c3bc 9fb9 85bf
00000300: 91d6 6d56 465a be3f 9f41 0c44 5490 b43f
00000310: 6d1b 9cd5 434b af3f 83a2 33cd 5533 a43f
00000320: 3ea8 b83d 0191 9b3f d174 f390 e55e a7bf
00000330: 6c49 1267 994e 94bf 7b2e 5c68 793c 74bf
00000340: 51df 7856 df43 8dbf f261 2ac3 9cf6 ac3f
00000350: cc3d 1d59 95ce 81bf 9075 f19d b2fc 743f
00000360: 1c1d faa4 35bf a23f 4e43 9a48 c1f3 8e3f
00000370: ea7e 5f81 77dd b13f 63f5 4f3f 0b93 bc3f
00000380: cbac 02db 88c6 79bf d571 9f95 e161 a2bf
00000390: efdb 55bf 5e26 b9bf 9747 83c9 84ea abbf
000003a0: 9b57 2062 cb96 83bf 5a5c 50ce 5374 8b3f
000003b0: 7d9b b943 e5d7 9cbf 1c53 fcde 183b 923f
000003c0: 3d19 1f78 b676 9d3f e82a 5e90 2a87 7ebf
000003d0: c042 cda6 2850 a33f 0ded 07a1 5164 7d3f
000003e0: a5fd 00c6 1fc3 b4bf 70eb bb8c 4632 9cbf
000003f0: a66d 2415 cd68 933f 2ada 5b66 eeb8 693f
00000400: 9a51 6578 8b22 a9bf 37b3 cfc3 c65d 9dbf
00000410: 7977 fc5a 43f2 b1bf 3843 20d0 01a4 b23f
00000420: ab7d dcb8 9cfa b3bf 5df8 a343 a417 91bf
00000430: db11 2949 327b bcbf cac3 ea9b 2a84 b03f
00000440: 9bb0 ecfc 51d8 a13f 6c0a 6249 3d39 adbf
00000450: 0a23 3b50 4ac9 a5bf 05ad ae8c 9dcf adbf
00000460: d381 6ffc b02d 9c3f 6e60 faaa d6ca 56bf
00000470: d1f8 64c7 6d1d aebf 01a3 12ad 92ff a23f
00000480: d5bd f1d5 f235 b5bf c5cd e086 dcf9 a8bf
00000490: dcd7 1f67 2ef1 8ebf 442c c952 ec17 903f
000004a0: 74ea 28f4 2cab b9bf 1376 b177 b33f b6bf
000004b0: 6d7f b977 63a9 64bf 6d69 27c1 2d61 bdbf
000004c0: f24e 6cf8 dd95 8ebf 5951 4e21 66b0 b2bf
000004d0: af6a 054a 2e48 bcbf 1faf 8e79 60bc 6e3f
000004e0: 50df 2fc7 5352 a33f f153 34f7 66f2 a03f
000004f0: 1c19 77de 832b b9bf c553 1904 96c6 9a3f
00000500: f36d ea59 8750 a1bf 074b accc 99d7 a0bf
00000510: 5c1a 6b8f 934a b6bf c993 b2dd a1fb a5bf
00000520: f9fd d56b 6613 b33f 0235 ea75 78a5 8f3f
00000530: c5db aaca a02f ad3f 4525 6e93 62ac 533f
00000540: 63c2 80c1 f7a1 9dbf dacb 0f2e 6e54 ac3f
00000550: 074b ff34 a6ab b8bf 8ddf aa7f f255 b5bf
00000560: f804 b5ff 53be a73f 74cd 6711 9fd1 98bf
00000570: da22 4917 64fd ac3f d6da 82b7 26aa 9ebf
00000580: 3042 7ede 1d51 90bf c70a 8f08 bc5e a6bf
00000590: a644 29f7 c9cb a13f f2ff fadd b584 a2bf
000005a0: ede9 c756 e939 733f 90ac 3c5f 6080 b23f
000005b0: 0621 8f7d 7e7d a0bf 6ef7 7e0b e3dc 9c3f
000005c0: 10ee a470 448b ae3f 7611 c84e 5757 a33f
000005d0: 7b74 7a40 babe 8cbf 3001 6907 7b76 703f
000005e0: d559 6684 ed6c 7d3f cb80 a386 29f3 a23f
000005f0: 1f12 a8c6 efe7 673f e377 57a0 bacf c1bf
00000600: c0f7 3d4d 3952 6ebf 3a85 953b 0488 9e3f
00000610: 2c04 d8ec 088d 9b3f 1007 709c f71e adbf
00000620: 240b 4793 18d0 76bf 17e7 362f 9eb7 863f
00000630: f2dd e933 ee29 923f e151 84cc f7f1 923f
00000640: 8e04 14fd 8349 913f b521 555c 9f08 adbf
00000650: 543b e482 be91 8d3f f69c d749 1b68 a1bf
00000660: 71ce 7158 cca3 87bf f900 bd44 70c4 853f
00000670: d958 0085 5aa4 b13f f281 4e8d 1323 a63f
00000680: 4d96 4ffa 791f adbf 6120 1e2d 8f4d 9bbf
00000690: ec30 6e2d 6806 98bf 9663 e331 3e5c 9ebf
000006a0: 4bcf 638d 48bf 6f3f 0dd6 cbf0 cdc1 acbf
000006b0: 62e8 5d74 4f54 9abf 7322 2c7c 326b 96bf
000006c0: 3b75 b6fa b40b aebf aece a0c2 c501 933f
000006d0: 5b7b 03f8 b761 863f 0672 0fa8 341a b7bf
000006e0: ef41 0971 652a a63f 52e0 ae17 56bd 60bf
000006f0: 0921 b5e1 fc70 973f b4fe 2c1d 6183 bb3f
00000700: b05f 4073 e64c 953f 07d6 853e dbd3 b1bf
00000710: 70d9 a808 9464 9d3f 7eff 30cb 5511 8d3f
00000720: 1116 f2d3 0b7d afbf 11f0 43c2 0718 a4bf
00000730: 44bd 0b93 89df 8d3f 3539 0c00 a2c7 b3bf
00000740: 948b 5bb4 764a 9cbf ef2a 3b54 f4d0 aabf
00000750: abf8 63c6 0254 9bbf 9539 81af c71f 9ebf
00000760: d32d 74c4 b1ef 743f 1b1e 141b 25ca afbf
00000770: e5ee ae91 ad91 963f d355 0cd2 c043 943f
00000780: 1650 e645 d558 b63f 1d80 0416 487a c3bf
00000790: 43dc 6e48 33e8 a53f 4555 19e3 416d abbf
000007a0: 5da0 b048 3e55 aa3f 7235 459e c317 ba3f
000007b0: 5c3c 56fd 85c3 babf 1803 e292 b07d b83f
000007c0: c0f4 9f26 b464 aabf 6c5b e5cc 116e 95bf
000007d0: f16d 147c d22f a0bf 54f2 4bbb d18e aabf
000007e0: 711d 5927 0c57 c1bf 9753 d576 2b9b b1bf
000007f0: 1f21 bb9b 833e 9e3f 0c74 b965 1ecf 6f3f

weights_hidden_output f8 [128, 10]
-0.43101080991270646 0.0880329739433835 0.014435154596537745 0.14975512582547468 -0.06615284020965569 0.0975607326590411 0.011266804672170753 -0.34075570935422933
0.2712110818548323 0.15793141106948738 0.001359911027704782 -0.061482570705363705 -0.09459655561134235 0.08704982564678057 0.06803166317484158 0.07597225266594437
-0.00910497968721804 0.17766019674925423 -0.4165217849449649 0.02471450505154363 -0.0036215970359333004 0.15868193801869523 0.1365047245292539 0.20924033622300198
-0.03944235249655473 -0.0438807516893071 -0.6234858733864023 0.19250436333923962 0.07143291124841983 0.1501221133468905 -0.16190312683343727 0.14982359620634178
-0.10337263417664377 0.18634710209848895 0.6133336152350317 -0.08124285906306472 0.11618819032142849 -0.36067730222165834 0.07536147951235148 -0.10008632132334952
0.07843772360709922 0.07127147948043634 0.4372020697561351 0.34767411238487106 -0.15976971788146002 0.04152790220405457 -0.2318908872514221 0.6292661675704286
-0.0896864037550782 -0.8390952749438174 0.14626632341459161 -0.00223273765793519 0.10834587730924154 -0.06271587369011994 0.17800960229300747 -0.26210630533265994
0.06175827865486416 0.04996122274411028 0.09909130992826616 0.20780862979615566 0.1167251301129617 0.005847024292971489 0.04703049684155508 0.2413309014419148
-0.16264443586084903 0.21811190618594326 0.14417320366884787 -0.3542933872905518 0.0003497117131838189 -0.39807360287759724 0.31810341977841156 0.03984590257327074
0.08001299303163119 0.007594849236629031 0.0840507610152657 -0.5493715280802115 0.10652487536570956 0.06155650096002668 -0.12180691606332303 0.10311976979785846
-0.08816029752471596 0.04143893000972483 -0.09954789382361225 -0.41140989068700096 0.2134857124468793 -0.052320040283160445 0.0895256849242745 0.08743696793283126
0.027054914851164038 0.18402265810378793 0.19069273214533738 0.03567219475310184 -0.06641214857809732 0.18212865172383672 -0.2087537740255619 0.08189838270560923
0.1511402942940505 -0.26176299569301764 0.12498637505205565 0.06741795201222323 0.07238578988973597 0.16821848152817934 -0.056575564738452884 -0.04532115001804317
0.18416752097700212 -0.07009612846759915 0.04128916562399505 0.11993618947060473 -0.4833555139825088 0.13745027062803397 -0.3958245172462993 0.22988462236325477
0.17264183783728468 -0.16207347992470317 0.11592051893918176 -0.5763550830472624 0.15742043943104517 0.0836642058027928 0.3193914115232279 -0.03519028569484973
-0.06082317820600122 0.4066531383859901 0.05602653655838933 -0.35386676133237455 0.17897957816917248 -0.08900918889454235 0.019837928990074857 0.18263983700350003
-0.2109737291854191 0.12065889137102834 -0.04241254746980541 -0.01004795024931173 -0.582594157481505 -0.12719888460470036 0.09443668610797058 0.12893785133070343
0.17490303370610027 -0.12322866928406934 0.04895215917864743 0.060499899835290444 0.18724256906520073 0.4397505092162833 0.12635927880308298 0.01164532695472888
-0.1415655502534273 0.14780068954695383 0.2021121139578908 0.10732732769398826 -0.622002386279117 -0.6654100928343679 -0.08564718667020911 0.2425039388067403
0.30309768244134194 0.2725667129754267 -0.26979345686695666 -0.05081012773881454 -0.17997589347959675 0.409508183813507 0.06407714379338969 -0.8368075846275939
0.1522169702866073 -0.20150845705180914 0.19134659434284756 -0.0007576848510668781 0.16951215679470225 -0.04200211829451407 0.16560482337600124 -0.3576114071280175
-0.13158958629580228 0.127138563886759 0.0830509146738766 -0.036563279981236214 0.17558495932987853 0.2760788319745042 -0.7402819653254125 0.27179765407544676
-0.26976645637303387 0.15318577722779425 0.16819546729986437 0.09578085889729737 -0.3459263503587398 0.325494935681955 -0.15843898181796945 -0.3150460381624823
-0.6097234776495702 0.6398985070770992 0.490933379894617 0.06574480981742532 0.208670161246977 0.07495029890076979 0.037664509485052414 0.06830789487996512
0.20710935974609573 0.30001891340277903 -0.3270067471223912 0.28410279156591056 -0.6512506614158412 -0.13726842937543443 0.03333800195282242 0.2512282498972598
0.3339344449664957 0.1182860590381508 0.1733498384286563 -0.0013651374440725413 -0.8513504375673173 -0.18471585137145333 -0.06764090331963825 0.021990529952163967
0.03581066976549688 0.05461418541097036 0.21390576020812635 0.3511075479280466 -0.26426436189883906 -0.54419328973534 0.2574404900838636 0.026197201303349293
0.12974645291290743 0.1253976794173943 0.0016266296665959307 -0.26618867811284735 -0.06282032540416936 0.23446102873777439 0.08964940066110146 0.18194261040127555
0.3221112532395206 -0.47961389706045826 -0.5637605550788312 0.18979225316776616 -0.017822915357507647 0.3100910038756012 -0.012902746610660954 0.2770501131197507
-0.35768455187455594 -0.19779781700539334 -0.37032115972083013 0.23680352013593778 0.02730626319797614 0.10454131073692569 -0.012308562077000103 0.06252215557122726
0.15063100101239496 -0.04328257780677793 -0.19449248937206157 0.05532081256312419 -0.1701987832984532 0.12486598685778061 0.14702712305140472 -0.25437925595030747
0.16889916711770414 0.11552923820463834 0.0918002414046094 0.06035661408004452 0.1422474247292637 0.05001645265862498 0.07009651637439394 0.05263455327999375
00000000: 020b 335d ae95 dbbf a873 0e38 5489 b63f
00000010: 7219 3da7 2d90 8d3f 6c15 ea0b 2d2b c33f
00000020: 95ec 3c7d 64ef b0bf 21f6 247c bdf9 b83f
00000030: 2f76 c7ec 0c13 873f 3182 e608 f1ce d5bf
00000040: 2f46 b8b9 855b d13f 80fc c6b2 1837 c43f
00000050: 23f1 ec58 e147 563f 0537 e8bc a47a afbf
00000060: dd3a aad8 7a37 b8bf 3a82 46ba e548 b63f
00000070: baad 6de8 856a b13f c48a 9ae4 ea72 b33f
00000080: 8d15 e6af a1a5 82bf 7363 6bbf 91bd c63f
00000090: 3740 1afd 4aa8 dabf 899a bb5b c24e 993f
000000a0: 9c16 841a 0aab 6dbf 00cb 2093 b04f c43f
000000b0: 2123 cd9f fc78 c13f a879 8a28 63c8 ca3f
000000c0: 749a 19bc c931 a4bf 97e3 dbb2 8977 a6bf
000000d0: 93cd 76a5 98f3 e3bf 118e 70a4 fba3 c83f
000000e0: 5487 ab61 6d49 b23f 3b9b 9d8f 3337 c33f
000000f0: 1254 6fdd 3db9 c4bf 640b f06a 6b2d c33f
00000100: f80d 1703 a176 babf 35d3 9bca 38da c73f
00000110: e019 5fd1 6da0 e33f 409b b5fe 54cc b4bf
00000120: 5aa9 9c5d 82be bd3f e1e5 5c40 5615 d7bf
00000130: b63b e2d1 e34a b33f 0a59 dcd4 419f b9bf
00000140: 2049 aaa1 7e14 b43f d189 8101 d93e b23f
00000150: af26 d663 1efb db3f 65f7 96eb 4a40 d63f
00000160: 0594 9888 5573 c4bf 5201 ad2b 2543 a53f
00000170: b21d 7ec0 99ae cdbf 4537 46cd f222 e43f
00000180: 211f 062b b0f5 b6bf 1094 8355 ded9 eabf
00000190: ba31 c9d9 dab8 c23f fe89 15e7 634a 62bf
000001a0: 5b1a b32f 8ebc bb3f f46a 70c2 250e b0bf
000001b0: b578 1cc6 04c9 c63f a3aa 5e86 59c6 d0bf
000001c0: 30e8 28f6 c79e af3f ad1c 8273 8494 a93f
000001d0: 1daf 754f 0c5e b93f 2089 6622 7999 ca3f
000001e0: 30de 74b8 b2e1 bd3f a32c e0a1 0cf3 773f
000001f0: 98be b29b 6114 a83f 4b86 9a54 eee3 ce3f
00000200: 2209 736a 88d1 c4bf 95ea f747 17eb cb3f
00000210: cfce 5b7d 4474 c23f e086 e62b beac d6bf
00000220: eadb 035f 30eb 363f a7a6 70b4 097a d9bf
00000230: 1b6b 2c72 ce5b d43f e614 dda0 ae66 a43f
00000240: 4570 5344 bb7b b43f 9a11 6ed1 c61b 7f3f
00000250: d3b4 c3c5 5984 b53f 61a8 4e99 7394 e1bf
00000260: a2fc e7d7 3645 bb3f f881 f56c 5584 af3f
00000270: ae28 ebf0 bc2e bfbf 6b54 daa6 0e66 ba3f
00000280: ee9d ac5a ac91 b6bf 9a93 58c2 7b37 a53f
00000290: 1dac 5b84 f87b b9bf 481a 7026 8a54 dabf
000002a0: 94b1 8ff4 7f53 cb3f 5716 e23b b1c9 aabf
000002b0: b1d9 e6c0 27eb b63f 0ea0 bbe5 4462 b63f
000002c0: b760 ed99 48b4 9b3f 5cae 23f1 0d8e c73f
000002d0: 1a16 1394 9e68 c83f a7a6 ae3b a043 a23f
000002e0: 9234 33f6 6200 b1bf 0fc3 68dd fd4f c73f
000002f0: 4a9d 2d94 71b8 cabf c0dd 50db 4af7 b43f
00000300: c7e5 8cae 9058 c33f ec7c 7394 b9c0 d0bf
00000310: ae4e 4b69 1bff bf3f a848 0e8b 4d42 b13f
00000320: df83 4508 e087 b23f 1987 5fe6 2e88 c53f
00000330: 79d8 9bf0 78f7 acbf b209 4a72 5534 a7bf
00000340: 7672 ca23 cd92 c73f 9f34 58e3 d1f1 b1bf
00000350: da80 1180 da23 a53f 4b13 625b 23b4 be3f
00000360: 755a 39f7 4bef debf 9d3d 9670 f897 c13f
00000370: 30c8 215b 3055 d9bf 8ba5 73fb db6c cd3f
00000380: 475b b7b3 2019 c63f 66aa e9e3 d2be c4bf
00000390: 5875 c795 f7ac bd3f 8c48 1237 8071 e2bf
000003a0: 5605 8a5b 5a26 c43f a2d0 c473 046b b53f
000003b0: 0865 c7ac e870 d43f 517e 640c 7604 a2bf
000003c0: 8c94 7732 3724 afbf efbf 8be2 9a06 da3f
000003d0: b5ee 739c 82af ac3f 5918 c4c5 c0a5 d6bf
000003e0: 6eb9 7185 cde8 c63f b075 5863 4ec9 b6bf
000003f0: df53 eee0 6450 943f 173b 70ff bd60 c73f
00000400: 0b51 95e9 2f01 cbbf c601 6948 80e3 be3f
00000410: 244e a5f0 18b7 a5bf cb76 b30d 0594 84bf
00000420: dc28 a780 9ca4 e2bf ba80 bb94 0d48 c0bf
00000430: 8d58 60ae 002d b83f e347 5717 0981 c03f
00000440: d493 defc 3863 c63f 8c32 8100 ea8b bfbf
00000450: 3954 7be5 4110 a93f cc5e 68c6 d7f9 ae3f
00000460: 63eb 4683 90f7 c73f 1dee de51 df24 dc3f
00000470: 89b0 0075 8a2c c03f 4ad2 5f53 81d9 873f
00000480: 5313 4ae8 d11e c2bf dd17 f70b 22eb c23f
00000490: 628b c94b cfde c93f 4aaa 69c2 cd79 bb3f
000004a0: dd49 638c 71e7 e3bf a5dc 641b 0a4b e5bf
000004b0: 5132 be59 f9ec b5bf c9be 297b 5e0a cf3f
000004c0: a20d 65d2 f365 d33f 924a 8da7 bb71 d13f
000004d0: 80c6 7ac6 4b44 d1bf 8f38 e3f9 c803 aabf
000004e0: 8018 4838 7309 c7bf 7b18 3bd0 6135 da3f
000004f0: b881 0315 5c67 b03f 09a6 20b3 20c7 eabf
00000500: b47a a37e d87b c33f 1ad5 7374 07cb c9bf
00000510: 2ea6 7392 0b7e c83f 7f08 f8d3 ebd3 48bf
00000520: f194 da08 93b2 c53f 2215 e038 4d81 a5bf
00000530: 20da 3af2 8932 c53f e9a5 92f4 1ae3 d6bf
00000540: e73b d174 edd7 c0bf df1d fa92 1346 c03f
00000550: 185c 6d22 d342 b53f 51ff 8117 6cb8 a2bf
00000560: 85e3 fe64 9179 c63f 2cb2 9c8c 46ab d13f
00000570: 2485 dccd 63b0 e7bf 548c d8fc 2165 d13f
00000580: fa84 eb86 da43 d1bf 90ee b36f 979b c33f
00000590: 9db5 b1d7 6d87 c53f 68f3 8b28 1885 b83f
000005a0: 2163 6746 a823 d6bf b020 f1b5 e8d4 d43f
000005b0: 80ec a882 ba47 c4bf 491a a9db b629 d4bf
000005c0: 1f77 83cf da82 e3bf c1f8 146f 0c7a e43f
000005d0: 3d60 cad6 736b df3f 4d2e 0ce0 a6d4 b03f
000005e0: d778 1a2f b4b5 ca3f e2ae 9a5a f12f b33f
000005f0: d296 ea38 c348 a33f 1f6c 914e a07c b13f
00000600: 9609 673b 8f82 ca3f e3c4 4f87 8233 d33f
00000610: 9c91 1db5 aded d4bf c295 9e79 bd2e d23f
00000620: e7f0 88a0 0bd7 e4bf 5e6b 780b 0392 c1bf
00000630: fde4 33b8 ad11 a13f 84f6 48a7 1f14 d03f
00000640: 8ee5 0894 2e5f d53f c73e 24c3 fe47 be3f
00000650: 02b3 68d7 5330 c63f 6f4a 512b cd5d 56bf
00000660: 6e2e d945 433e ebbf 69ba 58de c4a4 c7bf
00000670: e936 a10b ea50 b1bf 5871 dd7b af84 963f
00000680: 7438 fbae c655 a23f a9c0 79f8 63f6 ab3f
00000690: c48c 4292 4361 cb3f 9db3 eeca 8b78 d63f
000006a0: 06a5 f611 b5e9 d0bf c3b5 c30b 086a e1bf
000006b0: d8e3 64ad e779 d03f 70e2 606b 70d3 9a3f
000006c0: 6c37 0422 889b c03f afc6 0bfa 070d c03f
000006d0: e97c 204e 94a6 5a3f 81d9 c33c 3c09 d1bf
000006e0: 678e 222b fe14 b0bf bfc0 4ea9 d102 ce3f
000006f0: cd07 f25b 43f3 b63f 7f0f b63c e549 c73f
00000700: 9296 9584 789d d43f dd3b a57c feb1 debf
00000710: 10d4 5a93 530a e2bf f4e1 31d0 1c4b c83f
00000720: d5c9 519a 2b40 92bf 327d 1bf0 87d8 d33f
00000730: 4d5a c555 c16c 8abf 9cf4 cc65 30bb d13f
00000740: 047b 25bf 4de4 d6bf d811 a159 7051 c9bf
00000750: f222 8185 57b3 d7bf 39e0 47e7 934f ce3f
00000760: 8225 a54d 2cf6 9b3f 9c31 b226 38c3 ba3f
00000770: 24ea a63c 3b35 89bf 342f 74b5 7301 b03f
00000780: 5655 8e6b e047 c33f f357 5550 2229 a6bf
00000790: 45d7 9540 21e5 c8bf e557 7e71 0253 ac3f
000007a0: 0dfd 0ae0 12c9 c5bf e0da efa1 37f7 bf3f
000007b0: 73bc 90e6 c8d1 c23f b397 45ee bf47 d0bf
000007c0: 7ccc 8be7 7c9e c53f 681a d2fb 5293 bd3f
000007d0: 0803 997a 3880 b73f 2b65 24e7 0fe7 ae3f
000007e0: 2582 93e2 2935 c23f 3088 dca8 c19b a93f
000007f0: a73c 6465 d8f1 b13f 0c4c f489 eaf2 aa3f

bias_hidden f8 [1, 128]
0.06811661879192304 -0.03603355399670452 0.1345907602281882 0.04458736575089705 -0.05189773407774063 -0.1819583962969404 0.11653158698650694 0.004644009093544384
0.07399167711690482 -0.09912882630819439 0.14800508539180907 0.17580886619405567 0.17722381618993888 0.17628655036682997 0.37411101336084096 -0.2616965271489865
0.1732466502223806 0.008257663353718074 0.018160145352940846 -0.004197845235741036 0.1247722313857082 0.1139844994786043 0.019525097329004523 0.24539558608577505
-0.024217579851807444 -0.2756186719311299 -0.09209716941848106 -0.20368464959489077 0.12001833066033712 -0.15108825261256262 0.11546284459347735 -0.16378407469307396
0.001258692566496897 0.3951495918853584 0.015521420383033963 -0.13249292509364674 -0.07379016000618875 -0.13689199872593955 0.2104489733168393 0.05570167046439285
-0.0006645943524735429 0.14366932335365623 0.15808933976781223 0.10220794760884883 -0.04926532848939164 0.24926123158292518 0.22109999683592244 -0.17085122608661515
0.1433382121783184 0.23491360961237073 0.3143944100844751 -0.10539905769766442 -0.02472619000640154 -0.08979556018746777 0.11578000305040687 0.08347709606842538
0.19852466957730988 -0.02442289428377265 0.04217630156312045 -0.01147150695901449 -0.18883908293152898 0.1591189986804969 0.12067145691947787 -0.112226456720198
0.08271232060742464 -0.020430759506540084 0.25544997835512756 -0.24859397680160383 -0.0023670524159080976 0.236207923466715 0.026876648432560626 0.038063828608254066
0.016597034524749425 -0.005206242191212721 0.04033172951232671 0.18847406636551547 -0.04463754823272766 -0.08739522017391628 0.2614027384228501 0.029788978162043754
0.1751000770107694 -0.006742196836709781 0.10575032718160121 0.10447124502117665 -0.05319526224057494 0.13286734613092116 0.3844364823894435 0.23692844252632045
0.02001616994238707 0.22179334820482982 0.05298598086740888 -0.07549364415015387 0.026887428716224085 -0.01311566305831259 0.0033877275373344617 -0.04454291147085253
0.0828011085553467 -0.1829114693031086 -0.002432584403654198 -0.231125981927248 0.04942613533927226 0.05098791156833402 -0.022598978910262753 -0.26176866967828044
-0.19030510784717106 0.165018802165057 0.20291341755649292 -0.004400991769862291 0.10324268708964061 0.05431384550187665 0.07345187266930016 -0.11632365352517451
0.24284273431066153 -0.031217315103358432 -0.06582094663457955 -0.014005792082216756 0.1556338737370999 0.09759298553945776 0.14413075232377448 0.03857512893145883
-0.09226681301272482 0.11864995785476992 -0.19565625371694953 -0.08297339595127906 0.056044124008765586 0.031403315651189874 0.1350343299398866 0.07588685631301662
00000000: 2c81 063a 1770 b13f 24f1 f26f fd72 a2bf
00000010: 610d c320 453a c13f 7f06 6ebb 27d4 a63f
00000020: b967 33fd 5692 aabf cffa a9a8 694a c7bf
00000030: d3da 0e9b 03d5 bd3f af97 ddb2 9805 733f
00000040: 2aaf 6459 1ef1 b23f aea5 15bb 8160 b9bf
00000050: 0e23 b3a4 d4f1 c23f 543d 53a9 e780 c63f
00000060: 50d6 4d1f 45af c63f ad6c 46c4 8e90 c63f
00000070: a853 dd51 6ff1 d73f 223a 65ca a2bf d0bf
00000080: df5f 6c3c f22c c63f dc61 5dd0 64e9 803f
00000090: 9ca4 86b9 9298 923f 57d2 0480 c231 71bf
000000a0: cc24 40ad 12f1 bf3f edf3 8291 162e bd3f
000000b0: 5ccb ea19 63fe 933f a81b 6960 1f69 cf3f
000000c0: cf9f ce45 7ecc 98bf 2e1d 877f bca3 d1bf
000000d0: 4ce0 b41a ae93 b7bf 0188 5aae 5612 cabf
000000e0: 344e 1b75 85b9 be3f 63ef e31f dc56 c3bf
000000f0: 219f 6e15 f98e bd3f abc8 3466 e0f6 c4bf
00000100: c125 2ada 569f 543f 1f39 8b83 214a d93f
00000110: 4af6 75c7 b1c9 8f3f 7442 1d36 87f5 c0bf
00000120: 8f41 fe73 e9e3 b2bf 7e55 ce50 ad85 c1bf
00000130: 67b1 eff0 fdef ca3f 3a4b f4e9 ed84 ac3f
00000140: 1243 2681 05c7 45bf 0c07 9fa2 c163 c23f
00000150: f711 1380 453c c43f ac0c 5fd0 4c2a ba3f
00000160: a994 601d 4e39 a9bf a698 e7c2 cae7 cf3f
00000170: b12a c733 014d cc3f 8302 43f6 73de c5bf
00000180: 9f57 c912 e858 c23f 18d1 552f a611 ce3f
00000190: 04ea 56bb 091f d43f 2e37 d7c1 6efb babf
000001a0: 848c ba85 d251 99bf cdc7 5482 d7fc b6bf
000001b0: f4dc a11e c2a3 bd3f 3a35 9445 c15e b53f
000001c0: fd51 a4a1 4169 c93f e1ce e3b0 5002 99bf
000001d0: de79 c2d7 2198 a53f db65 cc99 5f7e 87bf
000001e0: e1e2 b20a e12b c8bf e2a3 c0e7 025e c43f
000001f0: f6a2 0719 53e4 be3f 2df5 5b81 dfba bcbf
00000200: 2a33 fc77 a22c b53f 89f1 a60f cdeb 94bf
00000210: c725 b3dd 4a59 d03f 6638 2c6c edd1 cfbf
00000220: 4814 db96 1164 63bf 023d 2cad 0f3c ce3f
00000230: f7fd 2c58 8d85 9b3f 6ee5 1026 1a7d a33f
00000240: 313f fa21 d0fe 903f 2a1a 24ff 2353 75bf
00000250: 473d 7e46 5ca6 a43f 0d8e 970f eb1f c83f
00000260: 9b97 aa93 bbda a6bf bd43 797c 885f b6bf
00000270: 5c1a 278d d2ba d03f 06ee f27b 0081 9e3f
00000280: 32e8 24e8 ad69 c63f b578 abae b49d 7bbf
00000290: 7449 c914 7412 bb3f ef04 bda4 a0be ba3f
000002a0: 2436 40cf 683c abbf da57 2b15 cc01 c13f
000002b0: c81f d079 9b9a d83f 0646 12d4 ab53 ce3f
000002c0: bcc7 2c6d 1e7f 943f 724a 8174 b963 cc3f
000002d0: 5caa f17d fa20 ab3f 1d47 ae2c 8d53 b3bf
000002e0: 64f2 09cc 6088 9b3f c8da 347f 62dc 8abf
000002f0: 8028 615f 94c0 6b3f 0e66 1218 54ce a6bf
00000300: b658 5115 7432 b53f 2e2e 5c9d a469 c7bf
00000310: a7a8 abce 7fed 63bf d113 d142 8995 cdbf
00000320: c81e b3e5 614e a93f 9dcb 5a69 161b aa3f
00000330: 42cb 5ecd 2f24 97bf 59ae d860 d1c0 d0bf
00000340: ad90 3bf3 ea5b c8bf e212 430b 561f c53f
00000350: bb90 291e 11f9 c93f 6f5c 8b3b c606 72bf
00000360: 23e6 99dc 1c6e ba3f cc15 4d3c 06cf ab3f
00000370: 55d1 f1ee bdcd b23f ea50 a40f 63c7 bdbf
00000380: bdbe f780 7815 cf3f 195c c08d 6ef7 9fbf
00000390: 9cf1 2f3d a4d9 b0bf 03e2 9497 11af 8cbf
000003a0: afe1 ec8e cfeb c33f 4302 3699 dafb b83f
000003b0: e00b ca61 e072 c23f da31 668a 1ec0 a33f
000003c0: 2c53 6540 cc9e b7bf ae73 a8f8 d75f be3f
000003d0: 4970 7c9d 430b c9bf 507e 0c96 be3d b5bf
000003e0: d250 80bf d0b1 ac3f 1968 6a6b 1814 a03f
000003f0: 4fec 760f ce48 c13f 4087 0f2e 526d b33f

bias_output f8 [1, 10]
-0.3318078338257234 0.1121569863445723 -0.19835939654159618 -0.16063847882714694 0.19400571746408324 0.3011516258160457 -0.08768260869934552 0.07352035407188061
0.2842101606229153 -0.18655652642562995
00000000: 2da3 b5ec 563c d5bf da2b 5efc 51b6 bc3f
00000010: c80e 8038 d763 c9bf 3259 853a cd8f c4bf
00000020: 7864 dfe9 2dd5 c83f ea18 0178 1146 d33f
00000030: d8a9 ca10 5e72 b6bf c73d 54dc 3ad2 b23f
00000040: b93e 44d0 7f30 d23f 893d ed91 15e1 c7bf
