models/model_cv_digs (6000).npz (npz, 815236 bytes, 4 tensors)

weights_input_hidden f8 [784, 128]
000000 6e 71 9b fc e0 b2 b1 bf 04 1f af ba 32 ea a9 bf
       -0.06913572470825155 -0.050614915169317626
000010 d8 91 3c 21 18 ee b8 3f 02 db d1 13 cc 90 95 bf
       0.09738303004684867 -0.02106016989679472
000020 43 d6 ed 71 a5 a5 ad 3f 94 61 3a 5c 24 8b 87 3f
       0.057904405743937314 0.011495861115051999
000030 a5 76 62 14 71 01 99 bf 51 bf f1 d2 bf 67 ad bf
       -0.024419562215021746 -0.05743216943744634
000040 ad 6e cc e4 8c 22 af bf 8f cc 5d 6e 35 e2 b2 bf
       -0.06081047337485521 -0.07376417107097864
000050 96 48 19 d9 4e 7a 54 3f 33 c5 fe 51 dc 04 b1 3f
       0.0012498636246119125 0.06648041726909497
000060 5b f3 eb 99 fb f8 aa bf a6 af da 78 a7 81 7a bf
       -0.052680838145511465 -0.006471304118956944
000070 02 56 77 be df a4 a9 bf 1b db e2 1a 36 b8 b3 3f
       -0.05008601379419632 0.07702959209823883
000080 a4 1f b5 27 b3 7d 82 bf 70 04 57 1c 26 b9 7d 3f
       -0.009028815888669169 0.007256649846966487
000090 ca be fa 8d f8 3b 97 bf 6a c4 66 f2 dc 09 9e bf
       -0.02268970839094101 -0.029334499640473778
0000a0 75 25 2a 5f d6 e7 8b 3f 5d f1 4b 9d d0 a5 9d bf
       0.013625788478082804 -0.028952846146226608
0000b0 a7 26 6b 91 fb a3 ac 3f c8 5e 01 6c 4e 9f 74 bf
       0.05593858862046135 -0.0050347388606366075
0000c0 3f 6b 23 f9 87 74 98 bf 90 59 62 ae 38 a2 9b bf
       -0.02388203104133457 -0.026986013072553272
0000d0 26 19 b1 65 aa c3 56 3f cc b2 83 5b d7 b1 b2 bf
       0.0013894237552150661 -0.0730261419700568
0000e0 92 bf 59 72 4d a8 97 bf 27 7e 33 fa 4a 7e 57 bf
       -0.023102960686116676 -0.0014339191628137766
0000f0 6b 18 86 fb a8 62 a3 3f d6 32 c6 8c a7 b9 9a bf
       0.03786209173544893 -0.026098840682197665
000100 44 c2 c8 df 50 56 6d bf 32 04 92 c7 f5 f8 b9 3f
       -0.003581197697961865 0.10145507929156919
000110 a4 89 79 74 42 16 8f 3f 80 21 72 fc 41 a0 6a bf
       0.015179175548102837 -0.003250244979032313
000120 31 f1 a0 64 57 0b b0 bf 87 b4 d5 86 a4 ab a5 bf
       -0.06267305571322336 -0.042325154742550324
000130 53 8f 03 b2 91 c6 90 3f c9 a9 79 9d 64 1f a8 3f
       0.01638248108873992 0.047114509795239075
000140 a4 32 97 18 e7 c4 9a bf 45 c5 a6 7e e7 d8 b0 bf
       -0.026141749263660544 -0.06580969659878118
000150 60 64 3d 4c df 4d 8e bf b4 14 68 16 48 7b a7 3f
       -0.014796967043070264 0.045862438903023245
000160 ed 47 22 1c 26 57 a7 3f a8 47 42 31 b1 7d b0 3f
       0.04558676808768767 0.06441791012392051
000170 6f c9 d3 63 42 7e 6b bf 51 df af 05 8f 97 9c 3f
       -0.003356103580352591 0.027921900484187138
000180 b7 f9 ce b0 c4 d6 71 3f 4e a4 af 01 c7 e6 a0 bf
       0.004355209658511708 -0.03301069160063062
000190 22 03 de 88 be 14 c0 3f 9c 0f b7 ee 39 c3 9f 3f
       0.12563306506128763 0.031018166728031468
0001a0 6d 40 b1 16 8e 46 b1 bf ab 02 e3 f4 30 ec 9e bf
       -0.06748283437741671 -0.03019787306471026
0001b0 03 e2 b0 bf 04 cb 93 3f 70 51 11 2f 97 4f 8a bf
       0.01932914180744839 -0.012847119449511196
0001c0 4c 8e 9e 12 d9 57 b0 bf 9b b2 25 9c 93 3c aa bf
       -0.06384045319151105 -0.051243412791199115
0001d0 58 d8 8c 36 8b 83 51 bf 72 3a bc c3 ca 3d b5 bf
       -0.001068960142402561 -0.08297412184422528
0001e0 e4 44 a3 95 a2 23 a5 bf e6 78 a6 c9 71 9d 76 3f
       -0.0412874992049497 0.005521244509877321
0001f0 e3 5a 41 8b 7a b4 89 bf 14 c3 46 58 6e a3 a7 bf
       -0.012551267027601514 -0.04616875484078356
000200 ba c7 41 52 bf 95 92 bf cf cc 55 da 1b 64 a1 3f
       -0.018149365802351027 0.033966894533386964
000210 c4 ad ce 07 bc 07 b4 3f cd c2 c7 c4 30 10 90 bf
       0.07824301901444303 -0.015686761866109223
000220 b2 a4 0d 10 66 d7 a1 bf f2 d4 5c 6f 36 8f 74 bf
       -0.03484648652995172 -0.005019390713461679
000230 d9 e5 9d 17 65 83 b7 bf 1d d1 ae 0b 13 2d a0 bf
       -0.09184867693502187 -0.031593890358097655
000240 9d d7 9d 2e 3e 0a 90 3f 71 ac 8c 08 38 d6 b3 bf
       0.01566407355809184 -0.07748747071006946
000250 af 37 93 bc 47 46 a1 bf e3 b4 b4 8b 07 29 aa 3f
       -0.033739320535104304 0.05109428005594354
000260 e1 af 25 9b 6e 7a b8 bf dd 90 42 dd dd a4 a8 3f
       -0.09561816489957621 0.04813283277442946
000270 f5 28 6e 50 54 9a b1 3f 07 15 ae ea 2b 52 6b 3f
       0.06876112903242755 0.003335080885735867
000280 12 9c 35 25 7a 80 b8 3f 09 ff 7e 45 e3 da bb bf
       0.0957104054301541 -0.10880871245080583
000290 e3 4b 8c e9 c9 10 a6 bf 7c 79 25 91 01 9a 8e bf
       -0.04309683776786934 -0.014942180864349501
0002a0 8a 81 8a 8f bd 2e a0 bf 69 e6 0f 9a 9d 60 b5 bf
       -0.03160660149774504 -0.08350548754960986
0002b0 19 81 66 c7 23 67 74 3f 92 7c 82 6a 91 41 65 3f
       0.0049811742414081145 0.002594741836290001
0002c0 9f 6e b4 00 15 50 92 bf ff fc 88 2f 95 4e 9b bf
       -0.017883613746660584 -0.026666956926644222
0002d0 ff 7f 0d 34 8e 05 7d 3f 3f ff 51 f7 1e b2 a3 3f
       0.00708537624527139 0.038468330088106566
0002e0 17 fc ad dd fe c5 b0 bf 7a a6 62 84 04 64 a4 3f
       -0.06552117263889588 0.039825574074097994
0002f0 e6 90 ff 15 0f d6 97 bf 19 5a 2e ab f4 b7 85 bf
       -0.02327750751273152 -0.010604773973494951
000300 8e 44 84 ab f1 57 be 3f be ba a4 06 c0 8e b4 3f
       0.11852941930216529 0.08030319368547631
000310 d8 e5 58 a9 dc 48 af 3f 02 10 dc b3 c8 31 a4 3f
       0.06110276763179073 0.03944232173492425
000320 92 d0 29 58 e3 8e 9b 3f 6a 25 0d 26 1a 5d a7 bf
       0.026912262207091482 -0.045632187981548736
000330 a6 bf c6 35 0a 4d 94 bf 8a fa 5c 9b eb 3a 74 bf
       -0.019825133831261298 -0.004939003314403787
000340 75 14 5a 0c a0 41 8d bf e0 e6 cf 67 63 f4 ac 3f
       -0.014285326363515186 0.05655203478086235
000350 69 e7 27 4d 37 cd 81 bf 15 e5 3e 0e 16 fb 74 3f
       -0.008692199747190892 0.0051222669171065065
000360 17 42 d3 1e c5 bd a2 3f d4 15 99 d4 60 f1 8e 3f
       0.03660408021244537 0.015108829963660954
000370 7c a6 d6 50 18 dc b1 3f 96 98 42 89 d9 90 bc 3f
       0.06976463292689944 0.11158523179128318
000380 54 34 fe 29 8e c4 79 bf f7 2b 1b 3a 78 60 a2 bf
       -0.0062909653933163785 -0.035892254918131465
000390 8e c4 ce 5a 70 24 b9 bf 4e 05 4e 04 60 e8 ab bf
       -0.09821226326927698 -0.05450725605534022
0003a0 67 c2 09 4e 4a 95 83 bf a3 5d 7e 1c 38 72 8b 3f
       -0.009562092310461524 0.01340144955592743
0003b0 99 9a 32 44 ae d5 9c bf 81 3b e1 7d b2 39 92 3f
       -0.02815887728925279 0.01779822247800267
0003c0 c2 c6 96 46 73 74 9d 3f 81 1c fc 72 d2 84 7e bf
       0.02876453512516864 -0.007450887743977509
0003d0 4c 58 42 ff ac 4e a3 3f d3 49 15 d9 0f 62 7d 3f
       0.03770962348896542 0.007173597246337998
0003e0 e8 6e 14 a2 87 c1 b4 bf 67 95 f0 44 1c 30 9c bf
       -0.08107803065325536 -0.027527276714086748
0003f0 e6 4e 2f 89 4f 67 93 3f f9 fa c0 c0 f4 b6 69 3f
       0.018948786495299873 0.003138998063178075
000400 4f b6 10 5f 9d 20 a9 bf 47 4b 79 7c 85 5b 9d bf
       -0.049076955656670244 -0.028669439050939684
000410 be 29 a4 91 e2 f0 b1 bf 41 60 b7 60 93 a2 b2 3f
       -0.070081863934468 0.07279320822942827
000420 d9 26 92 fa 13 f9 b3 bf c5 78 ec 43 54 16 91 bf
       -0.07801937930539839 -0.016686741491064767
000430 63 23 e6 67 02 79 bc bf c9 09 3f ef e5 82 b0 3f
       -0.11122145687671785 0.06449734774563533
000440 fc 67 8f 31 f3 d6 a1 3f 55 ed 48 d0 fe 36 ad bf
       0.034843063163592064 -0.05706020634212431
000450 11 e0 ae 0a 9e c7 a5 bf b5 b7 83 87 53 cd ad bf
       -0.042538584522333285 -0.05820714024763111
000460 80 e9 c1 0e 87 2b 9c 3f 5c a3 95 9e 16 c9 56 bf
       0.027509794498180806 -0.0013907166379231927
000470 14 17 95 c8 1d 1b ae bf bb ba ac 35 1d fe a2 3f
       -0.05880063127055571 0.037094986726847044
000480 50 65 d1 e0 51 34 b5 bf 86 9d 4b 8d f1 f7 a8 bf
       -0.08282958735198531 -0.04876665925786043
000490 b4 d8 b6 25 ce ee 8e bf 34 25 f2 f5 af 16 90 3f
       -0.015103922391841308 0.01571154535898707
0004a0 43 1c f6 5c 34 a9 b9 bf 6a b2 71 1a fe 3d b6 bf
       -0.10023810643734614 -0.08688343186958894
0004b0 8d e1 b4 4d cd a7 64 bf 76 38 ef 36 ec 5e bd bf
       -0.0025214204630651994 -0.11472965565846657
0004c0 a7 c3 0d ba 84 93 8e bf 92 7d 4c be f6 ae b2 bf
       -0.014929806640539512 -0.07298223634687975
0004d0 f4 f7 9d 53 02 46 bc bf 03 1e 2b 46 04 ba 6e 3f
       -0.11044325391227955 0.0037508090475488766
0004e0 9f 5c 04 f5 d7 50 a3 3f ef 00 89 d3 19 f1 a0 3f
       0.03772616258555072 0.03308945376602589
0004f0 8f 39 cc 14 95 29 b9 bf 81 26 a9 a9 87 c4 9a 3f
       -0.09829074628598831 0.026140327196378713
000500 71 eb eb fb 32 4f a1 bf 2b c2 dc b7 4e d6 a0 bf
       -0.03380736661161777 -0.03288503641522696
000510 78 0e 62 5c dd 48 b6 bf 4a b6 88 ba f1 f9 a5 bf
       -0.08704932694859646 -0.042922548313395995
000520 2e d6 ad 6e ef 11 b3 3f e9 90 67 5c 0a a3 8f 3f
       0.07449242069363812 0.015447693772280906
000530 9e ca 81 0e 63 2d ad 3f f5 d3 ea d6 df aa 53 3f
       0.056986899872659466 0.0012004075939959756
000540 c2 67 ab 3d b1 9f 9d bf 81 78 db 46 41 52 ac 3f
       -0.028929490460406056 0.055315055751393956
000550 63 e8 e5 3c c1 a9 b8 bf 13 07 84 15 4f 54 b5 bf
       -0.09634025322694266 -0.0833177020577092
000560 5b e0 d4 40 81 bc a7 3f 6a 2b db 2e b7 cf 98 bf
       0.04636005321884858 -0.024229871973868645
000570 80 d2 ad 36 2a fb ac 3f a7 11 66 ea cb a7 9e bf
       0.05660373609035663 -0.029936968022882173
000580 c0 e3 59 1d dd 4f 90 bf 1e 2d 42 49 04 5d a6 bf
       -0.01592965594906892 -0.043678411429107764
000590 1a d1 22 22 6c ca a1 3f c4 c2 cb d5 49 83 a2 bf
       0.03474748532008416 -0.036157901142251286
0005a0 50 9c 92 64 6f 38 73 3f c5 b9 3f ac f4 7e b2 3f
       0.00469249260746725 0.07224969106002906
0005b0 54 58 0d 54 3a 7c a0 bf bc 8b d9 a9 ab da 9c 3f
       -0.03219778324152914 0.02817791198902929
0005c0 9e 90 a4 02 ec 88 ae 3f 03 1f 0d 1a db 55 a3 3f
       0.0596383813119996 0.037764403276524326
0005d0 06 3e b3 2f 85 bc 8c bf 5c 23 c6 67 37 75 70 3f
       -0.01403144885844566 0.0040180362960960635
0005e0 67 01 38 13 ab 6a 7d 3f 30 8b 35 03 b5 f1 a2 3f
       0.007181804906850032 0.037000328675978245
0005f0 15 de d8 d5 19 e6 67 3f 1f e9 dc 7d 5c ce c1 bf
       0.0029173378559581666 -0.13911014695788368
000600 b7 ef 97 40 e5 4f 6e bf 1b 90 7c 0d ac 85 9e 3f
       -0.0037002065262168 0.029806793521075386
000610 15 c3 53 55 eb 8a 9b 3f f3 3f cb 27 bb 1c ad bf
       0.026897122462233265 -0.05685982571378636
000620 fa a7 88 1f 58 ce 76 bf f4 4c a8 9c df b5 86 3f
       -0.0055678789436033275 0.01108908364134329
000630 79 83 44 24 89 28 92 3f 08 4c 90 60 83 f0 92 3f
       0.01773275646076253 0.01849561001661118
000640 42 7b f2 28 30 48 91 3f e1 30 f0 9e 64 06 ad bf
       0.016876938342302646 -0.05668940010227331
000650 e3 be fa 3d 79 8f 8d 3f bd 8a 5b 1c c5 66 a1 bf
       0.014433810428584553 -0.033987197600955345
000660 2b fb 16 a3 fb a1 87 bf 57 ad 90 5e c4 c2 85 3f
       -0.011539426722149656 0.010625394950770568
000670 e4 ad 30 b7 ff a2 b1 3f 0d d3 c1 62 60 21 a6 3f
       0.06889341566482404 0.04322339253932315
000680 88 14 a8 7b 3d 1d ad bf bd 08 65 75 76 4b 9b bf
       -0.05686370977859051 -0.02665505496521158
000690 55 d9 a3 e5 8f 04 98 bf 35 11 49 60 e9 59 9e bf
       -0.023454903021922508 -0.0296398606317478
0006a0 71 47 74 78 d8 bc 6f 3f c5 5a 88 a3 98 bf ac bf
       0.003874228281014185 -0.056149263346176016
0006b0 2e 93 57 e0 49 52 9a bf bc d7 e1 c7 79 69 96 bf
       -0.025704531018976677 -0.02188673288807029
0006c0 9e 4f 46 58 66 09 ae bf d5 df fd 1f 50 00 93 3f
       -0.05866546466418686 0.01855588145505734
0006d0 68 49 0d fe ff 5f 86 3f e0 b0 7a 83 6e 18 b7 bf
       0.010925292912052867 -0.09021654806082635
0006e0 1b ee 97 b6 b1 28 a6 3f c3 fa 2c 07 0d bc 60 bf
       0.043279222048991005 -0.002042794652339226
0006f0 b9 1a 2d 13 30 6f 97 3f 6b 3d 77 43 44 81 bb 3f
       0.022885085268422787 0.10744120261300842
000700 31 11 f2 ba 43 4b 95 3f a9 70 e8 ca 7c d2 b1 bf
       0.02079492405438649 -0.06961803392227019
000710 02 d6 9c 3b 52 62 9d 3f bc 88 86 62 1a 0f 8d 3f
       0.02869537819716151 0.01418896306205785
000720 34 56 17 d5 a0 7a af bf 7c 97 ad c1 7c 16 a4 bf
       -0.0614824543114704 -0.03923406471476107
000730 1d e3 e2 54 3e dd 8d 3f f2 0b e7 2b 1d c6 b3 bf
       0.014582144704364414 -0.07724172899092688
000740 fc be 13 91 4a 48 9c bf e4 e5 f8 2d e5 ce aa bf
       -0.027619519333653905 -0.052359735357139475
000750 de fe d7 8f e9 51 9b bf a3 26 79 82 77 1d 9e bf
       -0.02667965832188101 -0.029409282053427643
000760 b0 a5 5f 34 16 ee 74 3f bb e0 a0 30 b4 c7 af bf
       0.00510986970582776 -0.06207049459084276
000770 dd 7c f1 e8 f1 8f 96 3f 28 70 f6 75 32 42 94 3f
       0.02203348144791738 0.019783771943920808
000780 55 c0 9b fa 1d 57 b6 3f bc 6c 6e 32 c9 78 c3 bf
       0.08726680153245188 -0.1521235939261255
000790 10 9d 42 a3 84 e6 a5 3f 52 74 42 bc 26 6b ab bf
       0.04277433865473246 -0.05355187461939494
0007a0 bc 6b 53 a2 38 53 aa 3f e0 5d 74 b0 c2 15 ba 3f
       0.051416177573365 0.1018945389554271
0007b0 8e 55 1a df 77 c1 ba bf c4 b4 3f 22 cf 7b b8 3f
       -0.10451459118697512 0.09563917719033826
0007c0 59 96 57 50 ad 62 aa bf 1d 58 8d 88 6c 6c 95 bf
       -0.05153409581889141 -0.02092141707847627
0007d0 cf 7d 6f 49 94 2e a0 bf 91 db 1c a9 c7 8c aa bf
       -0.03160537144116981 -0.051855315583842494
0007e0 7b 88 35 49 b7 55 c1 bf 67 5b 8e 5d d1 99 b1 bf
       -0.13542834353126296 -0.06875332388004339
0007f0 c2 97 88 12 31 3c 9e 3f 32 09 80 19 ad cc 6f 3f
       0.029526488071631503 0.0038817768909221945

weights_hidden_output f8 [128, 10]
000000 ed 50 ea 98 bf 04 d0 bf 21 2d a4 eb 45 11 8a 3f
       -0.2502898209870768 0.01272825837488384
000010 f3 36 56 bc 74 64 89 3f a4 47 57 85 90 bf b7 3f
       0.01239863586195209 0.09276679282564132
000020 9c ef bc 36 14 8b 55 3f db 90 7f 07 c8 76 ab 3f
       0.0013148972893324068 0.05364060489208252
000030 21 f1 2b a3 44 57 98 3f af b9 84 25 92 c4 cd bf
       0.02377040143891052 -0.232561367339668
000040 9c 0e b7 85 77 a8 c0 3f a5 4b 38 ce b3 be bb 3f
       0.13014120129638662 0.10837863716760283
000050 0d d4 dc f3 cd 69 ac bf 45 1d 4c e0 a8 4a a1 bf
       -0.05549472429121503 -0.033772733097118514
000060 74 0a bd cf 50 06 c3 bf 2b 66 2d fc 4b 66 79 bf
       -0.1486302389476638 -0.006201073471709099
000070 97 0a cf 30 48 da 82 bf 97 a9 0d 93 55 52 c9 3f
       -0.009205402364277844 0.19782514267292292
000080 d7 6c 4a db ef bd c1 bf 3a 7a 0a f5 a5 bb df 3f
       -0.13860891540102813 0.49582814149644927
000090 9e 26 4f b2 b2 44 e0 bf 88 08 28 71 7a 9a ae 3f
       -0.5083859903908949 0.059772325814280214
0000a0 0d 32 e7 43 26 23 a4 3f 2f ec 79 b0 eb 06 c1 3f
       0.03933066920180659 0.1330237018299569
0000b0 6d e3 57 0c 08 b2 bd 3f 00 cd 82 99 9d e0 c2 3f
       0.11599779416418494 0.14747972484256167
0000c0 fe b9 b3 de fb c6 8f 3f 46 70 03 a5 2d cc 38 bf
       0.015516250356509605 -0.00037838091249198615
0000d0 97 90 96 51 84 c9 e2 bf e5 92 dc d7 09 12 c2 3f
       -0.587099227287143 0.14117548980825415
0000e0 05 0d ee df 96 40 b4 3f 40 a3 9c 33 c5 b3 bf 3f
       0.07911055533445584 0.12383682737403223
0000f0 84 25 ae 44 00 cf b8 bf 9d 32 03 19 b3 f5 ba 3f
       -0.09690858532680663 0.10531157837540168
000100 bb 70 a0 e2 d7 76 ae bf 37 c3 a9 b7 d2 19 b3 3f
       -0.05950045243682341 0.07461277946437127
000110 5f 67 a2 9d 22 2d de 3f b3 34 0a 62 c8 62 63 3f
       0.4715048350714052 0.0023664392213676665
000120 3e ed ea de 60 a8 c1 3f d7 e6 35 04 d7 91 cb bf
       0.13795100102093188 -0.21538818078607022
000130 df 06 f5 4a f7 50 4b 3f e0 c2 d5 12 ef 4c b6 bf
       0.0008336265072232638 -0.08711141786421761
000140 39 f1 6c 7e a8 f4 96 3f 1b b6 00 c7 ae 13 ba 3f
       0.022417671886828947 0.10186283453432347
000150 be ee 68 58 a4 70 d3 3f 86 2a fd 36 b3 78 d1 3f
       0.30375012048510175 0.27299194688809114
000160 19 35 52 56 ed ac aa bf cb 32 e8 12 de fe aa 3f
       -0.052100579058882164 0.05272573452757497
000170 74 b1 49 5d 3d 10 cd bf f7 ee ef 0f 9c d5 db 3f
       -0.22705809645720942 0.4349126964223013
000180 85 72 9e 7f 1d c3 95 3f 10 d8 75 3b 3c ab e4 bf
       0.021252118028871187 -0.6459027444204839
000190 4c ee f9 87 29 a7 bb 3f 11 75 72 7c 37 d3 a5 3f
       0.10801944322332097 0.04262708086137413
0001a0 65 2d 07 a9 de 41 b2 3f aa 4e 14 16 81 f9 a5 bf
       0.07131759287510915 -0.042919191308241025
0001b0 33 0d 95 ce cf cc c1 3f bf a5 a5 63 81 19 c4 bf
       0.1390628584577854 -0.15702836385325544
0001c0 02 49 fd 77 61 91 aa 3f 36 6d aa 3d dc 98 b0 3f
       0.05189041700090692 0.06483246331702194
0001d0 2b 7b 1a 47 bc 30 b5 3f 85 1b 7a eb fd eb c4 3f
       0.08277489410327792 0.1634519004621461
0001e0 1f b8 a0 e5 a2 e1 b3 3f 57 31 c9 7d 29 0e 8b 3f
       0.07766168695590679 0.013210605765515622
0001f0 96 de aa 9c e8 79 a6 3f 4e b5 be 21 00 35 c7 3f
       0.04389883911556784 0.18130494735434372
000200 6a fd ec 05 1f 4c c1 bf 2e 58 4f d8 f2 cd c5 3f
       -0.13513553418486463 0.17034755289086106
000210 51 68 99 a8 dc a4 ba 3f 63 f4 2e a8 f0 3e cf bf
       0.10407809368317202 -0.24410827838974844
000220 01 35 b7 ed f3 2c 92 bf 46 5a 6c df 25 6f d5 bf
       -0.0177496064987297 -0.33490893191029547
000230 2e 67 e9 c2 02 2a d4 3f f1 e0 d0 d4 ff 13 8a 3f
       0.315064134925353 0.012733458215834466
000240 43 cb 44 83 54 66 b1 3f 56 19 0f 98 f6 d3 62 3f
       0.06796768383791822 0.002298337582462266
000250 74 3c dd 75 5c 87 8b 3f 30 01 3c 8a b3 e2 db bf
       0.013441774699144406 -0.4357117509789701
000260 fd 28 15 fa a8 9e b9 3f 29 c7 49 97 bc 45 a3 3f
       0.10007721047910319 0.03764142367152907
000270 07 2d 76 52 fe eb a1 bf d2 5b b7 dd 8f 27 aa 3f
       -0.035003612104526786 0.051083083929988185
000280 53 cf 24 df 53 4b a6 bf 2b 76 a6 81 67 58 93 3f
       -0.04354345415995788 0.01889192322561521
000290 85 ec c2 85 1b 8c a7 bf 52 b2 ad 80 a8 44 d1 bf
       -0.0459908104689584 -0.26981556478748303
0002a0 e9 0d 96 49 fe 11 ba 3f d2 18 87 58 4c 5e 80 bf
       0.10183705612694606 -0.007992359592105567
0002b0 71 13 82 67 22 dd bd 3f ed 27 88 be f5 0f ab 3f
       0.11665549304059454 0.052856139667781445
0002c0 97 3d c0 f6 13 b3 87 bf e0 34 56 55 2d 88 b4 3f
       -0.011572032897702296 0.080202897390524
0002d0 db 7f 16 5b d3 6e bd 3f ea 1f d7 a8 5c f6 a0 3f
       0.1149723145849743 0.033129592523948606
0002e0 a6 ac 64 8b d8 7d 7c 3f c1 88 0b a0 72 05 c1 3f
       0.006955953480694143 0.13297875227642034
0002f0 c7 ec 2b 93 a4 a4 bd bf 61 71 4d 49 27 17 b5 3f
       -0.11579350083404726 0.08238454379665462
000300 a0 e6 25 68 c8 73 ba 3f dd d5 a8 81 44 2c d0 bf
       0.10332920592000017 -0.25270188009321065
000310 24 f7 5b 1b ea e2 c0 3f 53 8f ec 98 12 96 ae 3f
       0.13192488037014372 0.059738713424194366
000320 1d b2 76 c7 f1 40 a1 3f 40 1c 83 76 a5 32 d0 3f
       0.03369861183032106 0.25309120725109224
000330 67 da 7c 30 f1 60 ae bf e5 6c 13 94 47 1d 94 bf
       -0.059333359879407514 -0.01964294282229852
000340 c1 fb 7b d4 a6 6e b5 3f ea ac 9c 61 e8 f0 ac bf
       0.08371966064076643 -0.056525480189827906
000350 4e 8f a7 96 8b 21 88 3f 55 56 79 b4 82 10 b9 3f
       0.011782732520209695 0.09790818124869223
000360 de 56 12 3f 39 1a d6 bf ae 48 78 e4 53 98 b1 3f
       -0.34535056266154907 0.06873058631780068
000370 ae 17 dd 77 2b 79 db bf 23 ef 3b af 9e 0e c9 3f
       -0.42927061753686757 0.19575866276124385
000380 35 59 ff 4c e1 36 c3 3f 16 6e 78 e0 66 86 b4 bf
       0.1501123071636329 -0.08017580967173674
000390 3c 9c 68 e3 e8 42 b3 3f ee d1 7e 3b 86 83 db bf
       0.0752397113034115 -0.4299026089677501
0003a0 0b 7a 96 0d 3f 46 c8 3f 9f a1 2a 37 41 09 b3 3f
       0.189643746981304 0.07435996624793127
0003b0 5f 40 6e 82 62 f0 c7 3f 58 d9 91 74 3c d7 97 bf
       0.18702346199688955 -0.023281998267031895
0003c0 86 5f 7a c8 fd bf a5 bf 52 67 ef 29 5a 2b d3 3f
       -0.04248040268174606 0.2995210084460399
0003d0 ba 0b 7c 6b f3 dd a1 3f df 4e e0 d2 94 76 c9 bf
       0.0348964756685954 -0.1989313153904879
0003e0 bd 33 d8 f3 72 0b bf 3f 5b 1a 7a 49 e9 48 a6 bf
       0.12126844838367297 -0.04352501890121082
0003f0 b4 d8 9a 63 42 06 95 3f 85 3e aa b9 d0 fc bb 3f
       0.02053168995799899 0.10932640583836857
000400 7e 7d 01 b6 20 db c0 bf dd f8 13 ba cd c4 b4 3f
       -0.13168724905970558 0.08112798493309321
000410 d8 66 0a a7 fb f8 98 bf 5c df 70 17 d4 6c 96 bf
       -0.02438729483637911 -0.02189952271530103
000420 16 28 a3 94 26 5c d9 bf f1 ac bd b6 f7 23 b4 bf
       -0.3962494327103071 -0.07867382251213308
000430 8d 40 00 20 e6 3a a6 3f 43 95 8e 06 b4 a1 a9 3f
       0.043418113142366634 0.05006182270089223
000440 ed 36 67 c9 08 69 b9 3f e4 fd d0 3b 32 18 ab bf
       0.09925894658155317 -0.05291897754841182
000450 79 0c 67 dd 5e b6 95 bf 3e 7e 0e 5a a5 8d 99 3f
       -0.0212035009988196 0.02495439874803495
000460 ec 32 f2 ad 66 b8 b0 3f 62 63 0b 36 28 a6 cf 3f
       0.06531373736124707 0.2472582115067566
000470 38 82 23 6d 39 36 92 3f 8d 6f e6 e1 81 fa 7f bf
       0.017784974371240575 -0.007807261803829746
000480 01 f6 4e 12 dc 39 88 bf e1 d1 3c 28 0e 73 b0 3f
       -0.011829108532647405 0.06425560457575542
000490 ed 38 a2 a6 27 5a cc 3f 88 46 2d 07 14 88 a4 3f
       0.22150130878839694 0.040100694538193926
0004a0 a3 55 35 0d 90 bb db bf 1a e0 34 7b 59 3c da bf
       -0.43332291879536394 -0.4099334433735763
0004b0 dd ba 82 33 0c 62 b3 bf b7 0d 92 c5 57 42 c7 3f
       -0.07571483857712331 0.18171212336538442
0004c0 5f 26 5a 94 94 fe cb 3f e4 12 34 69 a0 f6 c9 3f
       0.21870667690045573 0.20283894669423497
0004d0 b4 b7 e6 6b 2f 17 d0 bf 8c 34 1a 42 c8 3b 7d 3f
       -0.25141511475782896 0.007137090929643663
0004e0 19 61 2f 07 63 5f c0 bf ee d2 82 be cb ac d2 3f
       -0.12791097498735196 0.29179662327378153
0004f0 e1 94 a3 ed cb 01 b8 3f de a5 ca e3 68 82 e5 bf
       0.09377741386159101 -0.6721691559843597
000500 f5 42 2d fd 41 86 bd 3f fa f1 19 41 41 be c6 bf
       0.11532986098360339 -0.17768111876274856
000510 01 a0 71 95 cd e2 bd 3f bd a3 dc 44 a1 6e 70 bf
       0.11674199007541121 -0.004011754948614885
000520 8b 2a 84 e5 fa 8d bd 3f 20 6d c8 84 31 57 8e bf
       0.11544769385742819 -0.014814745773995386
000530 4e 90 03 f8 15 35 ba 3f ee 19 d9 4e 1d 06 cc bf
       0.10237252526309357 -0.21893659925463232
000540 47 98 0f b0 2f 48 b1 bf 96 aa fc b1 b5 fa ba 3f
       -0.06750772522318114 0.10538802714715198
000550 32 09 b2 47 d5 3a c1 3f 69 3d 13 22 7f 98 a1 bf
       0.13460794449572117 -0.034366581830563465
000560 f0 95 98 21 52 3b c1 3f e8 70 f9 63 15 52 c8 3f
       0.1346228279154924 0.19000499135552862
000570 76 57 89 5e db 7f e1 bf 50 da cd 6f 3a 4c c8 3f
       -0.5468575331130825 0.18982630213914087
000580 88 c3 df 43 34 05 cb bf 4e d2 cb d8 04 97 bf 3f
       -0.21109631838001186 0.12339811604381021
000590 46 48 34 6e 46 78 bd 3f 62 56 c7 71 ca ed b4 3f
       0.11511650267155557 0.0817533996372162
0005a0 df 33 eb a1 4b 8f d3 bf b5 ab 34 cb 09 ce cc 3f
       -0.3056210595357793 0.22503778860240478
0005b0 dc ef be cf 49 fe b9 bf 63 c4 96 7d bb 7c bf bf
       -0.10153638193054298 -0.12299701515327537
0005c0 0e 97 bc 3e 39 69 e0 bf 9c a0 fd c1 80 a6 db 3f
       -0.5128446793866901 0.43203753418357294
0005d0 a7 ac f7 df 84 bc d4 3f c3 dd d4 02 09 4a c5 3f
       0.32400628921340985 0.16632187498338
0005e0 32 66 2e 3a 66 ec c3 3f 95 c2 d2 6f 9c cb bd 3f
       0.1556518348777885 0.11638810854015909
0005f0 47 14 2d 5b 8e 15 9c 3f 4c 85 81 07 fe 09 9c 3f
       0.02742597991461462 0.027381867607237084
000600 48 66 cc d7 b8 52 c3 3f 75 c5 39 ec 4d 50 cb 3f
       0.1509619764045047 0.21338819536644463
000610 84 a5 3d 86 34 f3 d4 bf 40 a8 23 07 e9 9b ca 3f
       -0.3273440657563571 0.20788300369832946
000620 28 76 6a e6 86 69 dd bf aa 2e dd 6e de 4c ae bf
       -0.4595658540873466 -0.059180213006212526
000630 b7 0b d7 53 77 57 ba 3f 20 2b 45 bc 18 58 c7 3f
       0.10289712712169218 0.18237599556808792
000640 4a 6d e6 3a fa 98 cf 3f 18 73 7a df de 3c b0 3f
       0.24685600162488647 0.06342881160749092
000650 3e cd a9 2b 69 c6 bd 3f a5 2b a9 2e 61 57 75 3f
       0.11630875888822786 0.005210284822690624
000660 78 9e 24 16 f7 7d e5 bf 6e 37 ef 61 7d 19 c3 bf
       -0.6716266090852079 -0.14921538621859604
000670 81 de 87 75 1e 90 a6 bf a0 94 da 5c 28 c7 a2 3f
       -0.04406829056455042 0.0366757024142228
000680 3c 78 65 0a 9d 22 78 bf f7 85 6f b7 f3 18 a2 3f
       -0.005892384948621706 0.03534661878780903
000690 4f 0d 32 01 34 f8 bc 3f 94 c6 90 03 8c ac ce 3f
       0.11316227940738098 0.23964071439836643
0006a0 58 26 96 2b 94 b7 c6 bf 1e 03 a4 6c e5 09 d8 bf
       -0.17747738006828473 -0.37560401544037514
0006b0 fe 78 a5 a6 41 a0 c5 3f 85 5b be dd aa d9 91 3f
       0.16895313870458745 0.017431897911218925
0006c0 35 5a c2 dc 9b 26 b5 3f db 0c 46 de 9f c6 b3 3f
       0.08262037410381924 0.07724951912500748
0006d0 27 b2 5e 0b 14 b9 95 bf bf 79 6b 8a 27 10 b8 bf
       -0.02121383017918013 -0.09399649743452353
0006e0 4e 55 86 31 fd 88 a5 bf b5 83 b1 8c 3b 83 c9 3f
       -0.04206076840925253 0.19931740159793568
0006f0 b5 86 47 5c ad 7e c7 3f 10 81 6f 2e d0 d1 c2 3f
       0.18355338102178612 0.14702799098359565
000700 7c ac c2 c9 38 1d d1 3f f4 16 8b 2a 42 72 d9 bf
       0.2674085588757362 -0.3975987830602741
000710 e5 c4 95 ec 17 c7 e3 bf 7f ca 78 7c 76 ec c9 3f
       -0.6180534001161077 0.20252877309538417
000720 3d 19 af d4 f6 94 a9 3f 85 37 b6 93 e9 1e cb 3f
       0.04996463152160622 0.21188087189187513
000730 90 92 9c 44 04 7e 75 3f 73 de 3d 92 48 fc c7 3f
       0.005247131988458734 0.18738658085543455
000740 1b 1e 29 f1 29 75 d0 bf a7 bd dc 3d ce dc cc bf
       -0.2571511130413186 -0.22548845310801122
000750 c2 7a 60 33 da 1d cc bf 11 60 a0 b5 a1 ac c2 3f
       -0.21966102131496795 0.14589330070953158
000760 c2 05 d3 9f 10 3e a5 3f 98 08 c3 9f 7b 57 a8 3f
       0.04148914290409379 0.047542441608599606
000770 e5 17 1b 34 76 e2 4b bf 49 2c cc e0 e6 d4 a0 3f
       -0.0008509709516253376 0.032874312344653385
000780 02 39 dc aa 7f f4 bf 3f e7 ac 46 05 6d 5e 92 bf
       0.12482450410263726 -0.01793833107664691
000790 23 4e 57 fd 5d 6b ba bf 31 3f 34 14 ba 83 a7 3f
       -0.10320079264720809 0.04592687126762341
0007a0 4b 2a 8b b9 45 b8 c5 bf 91 75 c4 7c d4 d3 bb 3f
       -0.1696860462164572 0.10870101972655834
0007b0 d6 e4 98 ab 22 c0 be 3f 31 33 cb d0 d7 b6 ca bf
       0.12011925401101861 -0.20870492644316976
0007c0 ab 5e ea 46 bb 0e bc 3f ae 9a 7f 7f 8d 1a b7 3f
       0.10959978562675114 0.09024891245608543
0007d0 71 b1 ec 2e 59 6c b1 3f 99 29 ad 6e 51 84 68 bf
       0.06805951495761577 -0.0029927816844168118
0007e0 41 ca e9 52 e8 3f e0 3f c8 aa 54 b4 0a 2d a7 bf
       0.5078012103461519 -0.0452655167703902
0007f0 c5 18 d0 ca 95 53 3e 3f 48 d9 8f 1a 7e d7 9b bf
       0.0004627457336144998 -0.027189226504526404

bias_hidden f8 [1, 128]
000000 e7 c1 bb ce 67 fd b3 3f 9d 07 47 9d 36 b3 c0 3f
       0.07808541104510135 0.1304691570240352
000010 95 5f 3f c1 c0 6c c8 3f fd d9 3d 9a 24 86 a5 3f
       0.19081887660899768 0.04203905470687983
000020 03 ba 99 98 37 c3 b5 bf 75 2b 44 06 59 ce cb bf
       -0.08501002765272152 -0.2172347336384878
000030 19 16 fa 83 d7 81 be 3f 48 3e a3 cd 82 44 93 3f
       0.11916872951595571 0.018816036034705413
000040 aa 0c f2 19 7e 4f ba 3f ce 4a fb 57 c7 97 bd bf
       0.102775460562088 -0.11559720895756273
000050 52 fc 99 8e fa 6a ce 3f 6c 47 f0 04 13 33 c3 3f
       0.23763973200763872 0.14999616376058655
000060 dc eb 04 d1 d6 f2 cf 3f c7 16 d4 5f f8 10 c6 3f
       0.24959836202637475 0.17239288977741848
000070 bd 08 84 ac 3c af e2 3f 82 65 b3 f4 78 ec d7 bf
       0.5838912362526326 -0.3738081349998411
000080 7a 88 4b 46 7a 2e c8 3f 7c 25 95 da 45 64 91 bf
       0.18891838486075924 -0.016984073129866925
000090 1c 76 61 61 91 36 98 3f 36 b8 cb 46 31 58 aa bf
       0.023645659989020115 -0.05145410527426046
0000a0 a3 d1 0d 13 8b a2 b6 3f aa d4 43 c6 5f d7 ca 3f
       0.08841771331009922 0.20969769650370057
0000b0 41 4a e5 cc 26 c9 ad bf 53 59 3f 1a 61 60 d6 3f
       -0.05817528964202668 0.34963252604702183
0000c0 68 8e a5 c1 d8 f5 91 bf 98 94 e1 be 84 cf c5 bf
       -0.01753939325261769 -0.17039546318406873
0000d0 72 f9 9e 43 55 b2 a9 bf 7a 74 e0 0c 5b 0e c8 bf
       -0.0501886982960852 -0.1879381001353158
0000e0 23 57 11 72 c8 2e ce 3f 90 f9 35 88 e7 01 b5 bf
       0.23580270356858887 -0.082060309176063
0000f0 ce c8 4b 36 b9 6a c5 3f f3 52 f2 de 3f f1 cc bf
       0.16731944228337742 -0.2261123503309573
000100 b3 16 1d f7 b2 4f a0 bf 6e ae 24 3d cf f7 e0 3f
       -0.031858055749166246 0.5302501863674942
000110 64 ef 2f b5 30 65 9b bf 99 30 b5 77 48 4e 98 bf
       -0.02675319772605124 -0.023736126238234154
000120 e1 ec 4b 54 e3 a2 c1 3f 20 e5 bb c1 b6 84 c7 bf
       0.1377834474186335 -0.18373760661760574
000130 f3 ba 6d 64 27 64 cc 3f 6d de 79 c7 66 64 5b 3f
       0.2218064537405194 0.0016718867972524102
000140 e1 92 1c 84 10 ce a4 bf f1 f3 5c d7 42 4c c2 3f
       -0.04063464749041202 0.14295230403686746
000150 dc 8a 23 86 94 42 c8 3f 0a 62 fb 35 95 fb c7 3f
       0.1895318655943673 0.18736519943082924
000160 23 29 66 b0 a9 af b1 bf 84 b1 4b a3 8e 77 da 3f
       -0.06908665234201243 0.41354719111293314
000170 a3 35 2a e8 e0 f4 d1 3f ea 3c 0b 51 a3 e5 b3 bf
       0.2805712001071134 -0.07772274712191388
000180 f3 b9 dd 7b 9e 76 c6 3f 1e f8 d6 3f fa d7 d5 3f
       0.17549496696615527 0.341307222693901
000190 ad eb 05 52 4b f0 db 3f 70 14 7f 62 c3 10 c7 bf
       0.4365413952834228 -0.18019907292742543
0001a0 89 0c d4 32 d8 97 a4 bf d5 89 e6 3b 8c 9b c1 bf
       -0.04022098179304929 -0.13755944180327498
0001b0 77 0e 74 e2 60 d6 c1 3f 22 37 34 97 0e ec c1 3f
       0.13935481126110336 0.14001638777738729
0001c0 19 be 67 a3 30 92 d2 3f db 45 f1 9e d3 bd 7a bf
       0.2901727290872898 -0.006528689044971138
0001d0 5f 7c 06 11 eb f1 9c bf 44 9f ea 14 f2 c7 b5 bf
       -0.02826659480490112 -0.0850821782174736
0001e0 22 55 bb 42 7d a9 d0 bf bf bb 5b 4a 33 6e d1 3f
       -0.26034480587743947 0.2723510957866288
0001f0 4e 74 62 4f 93 1b d0 3f 1e 5e fb fd 83 c0 cf bf
       0.25168307068253604 -0.24806260968647192
000200 ff eb 7b 72 2d 9b c3 3f 7c 4a 77 d3 64 2d b6 3f
       0.1531731423382041 0.08663015520805034
000210 61 cc d8 f9 55 1f d5 3f 36 20 8f 19 ba ea d1 bf
       0.33003758811100253 -0.27995159622196597
000220 5a 70 35 ef 99 6e a4 bf e6 fd 48 a4 2e 61 d5 3f
       -0.03990632100132592 0.3340565304133335
000230 8e 97 42 55 2a 1c c0 3f ee 39 76 70 55 a2 80 bf
       0.12585953868000072 -0.008122127050936147
000240 78 bf c9 41 2f 9b 8b 3f 6f e1 cc 38 42 1e 82 bf
       0.013479584880059056 -0.008846776350410505
000250 92 7c 7a da ef fa b2 3f b8 e4 21 74 4e d9 cb 3f
       0.07414149364420755 0.21756916685607108
000260 b9 e0 3a a7 93 32 bb 3f 8d 47 08 8c 45 f2 8c 3f
       0.10624049027217354 0.014133971534679346
000270 5e 8a 21 d7 1e 15 d9 3f c8 bb ad ac ca 52 b9 3f
       0.3919140911949962 0.09891955104625005
000280 7a 72 d1 c8 f0 b5 d2 3f a6 73 b1 c1 3c 50 a9 3f
       0.2923547707667137 0.04944028725069609
000290 a1 1e 90 c4 11 fe bf 3f b1 2d 80 c8 f9 02 cc 3f
       0.12497054146671839 0.2188408116347609
0002a0 b9 1d b2 21 14 f0 83 bf 39 9c 5e 2a 86 5a cc 3f
       -0.0097352574141628 0.2215125758059189
0002b0 37 ba 05 b3 e9 e5 e1 3f 08 d6 e5 c3 5e 48 d3 3f
       0.5593155380755154 0.3012921250404763
0002c0 cc eb e6 78 53 db 99 bf 7c 42 a5 0f bb 2b cf 3f
       -0.02525072503497565 0.24352205528204596
0002d0 51 23 64 a2 63 66 b8 3f 67 db 37 32 03 2f a2 3f
       0.09531233515384697 0.035514926796102846
0002e0 ed fd bb e8 31 75 ab 3f 45 ff 77 69 38 b4 80 3f
       0.05362850156779673 0.008156243055963972
0002f0 41 4c 94 2e e1 16 a8 bf 11 a4 89 b9 58 c3 a4 bf
       -0.0470495576247676 -0.04055287613739023
000300 82 ec b9 a8 8d fd b5 3f e5 42 6c e7 39 c7 b4 bf
       0.08590016717237073 -0.08116495037053147
000310 c9 58 db 40 06 70 b8 3f 2e 41 3b d2 c7 a6 d2 bf
       0.09545935710352461 -0.2914294770280489
000320 5f d4 17 d7 fa bc 68 bf 54 61 a4 1f 8c fe b1 3f
       -0.0030198001120376595 0.07029033443939642
000330 25 bd 1e 6b 2b a3 7f bf 8b 3a 58 76 d3 88 d3 bf
       -0.007723970034859283 -0.3052261977872283
000340 95 ca db db 97 d8 bb bf 8f 68 9d c3 56 e8 c8 3f
       -0.1087736999286711 0.19459042121417666
000350 68 f4 5c a8 ca 14 ce 3f 98 68 dc 03 a6 42 bf 3f
       0.23500951023916916 0.12211072534811007
000360 ac a8 06 87 96 3b cb 3f 58 3f d1 dc f4 34 a6 3f
       0.21275598137919383 0.04337277598881312
000370 24 7b 44 a7 f3 ff 46 3f 2b d8 d1 5c 2b 94 c8 bf
       0.0007018985475360823 -0.19202177078449387
000380 2d 4d c6 99 8c 72 ca 3f 71 8a d2 3f 8d b7 ab 3f
       0.20662076481367234 0.054134763756583555
000390 6e ed 3a 6d c6 d3 aa bf ff 43 3a 93 bc 28 b0 bf
       -0.0523969658219937 -0.06312159151481465
0003a0 82 05 e9 21 04 6a c5 3f f6 56 d6 c2 1f ba a1 3f
       0.16729785590909435 0.03462313893684936
0003b0 2e 24 20 20 64 a9 c4 3f 79 46 4c 80 04 ea 66 bf
       0.161419406591706 -0.0027971351540905767
0003c0 35 55 ec 67 19 ce c1 bf 7f 76 7d 0d d8 f1 c6 3f
       -0.1391021497189883 0.17925549181648034
0003d0 87 c2 a1 67 a2 cd d6 bf 73 c5 6f 8f 37 66 b0 bf
       -0.3563009273557686 -0.06405970813627508
0003e0 60 99 2e ef 97 aa 99 3f 01 60 8a 7b 23 57 c6 3f
       0.025064825032722893 0.1745342591500503
0003f0 c4 aa 3d 0e e2 8e c5 3f 11 78 e4 d4 4a b8 b5 3f
       0.16842294402461822 0.08484332749910119

bias_output f8 [1, 10]
000000 f7 cd 57 15 11 bd d7 bf d1 10 50 34 b0 6b b0 3f
       -0.3709147175242999 0.06414319302718076
000010 bb 01 8d f1 b2 37 d2 bf 84 c9 dc a5 3e 30 d1 bf
       -0.28464959706255016 -0.26856962392334816
000020 24 a9 02 44 0d 9a d3 3f 98 a0 d9 d7 ea 09 d7 3f
       0.306277576843643 0.3599803073798369
000030 91 5c a5 1c 20 e4 b5 bf 33 d8 79 15 23 5b b4 bf
       -0.08551216792453632 -0.07951564096751511
000040 59 59 9b c9 16 35 e2 3f a5 28 bb 85 7c e8 ca bf
       0.5689805925019683 -0.21021992235029532
