models/model_cv_digs (24000).npz (npz, 815236 bytes, 4 tensors)

weights_input_hidden f8 [784, 128]
0	0xbfb1aabb091c24c1	-0.06901139233027022
1	0xbfa9de4470b47d1f	-0.05052389026445269
2	0x3fb8e29de7e57175	0.09720789824991079
3	0xbf9586de61d5a8f8	-0.02102229568610256
4	0x3fad97ff4813abae	0.05780027155727595
5	0x3f87804d8d188f4b	0.011475187176138177
6	0xbf98f5edf2c71b29	-0.024375646536806492
7	0xbfad5a36282fe53b	-0.05732888451161463
8	0xbfaf14375e15909f	-0.06070111297120317
9	0xbfb2d983d4ce41f2	-0.07363151498271472
10	0x3f5470e15d7c8258	0.001247615893540074
11	0x3fb0fd067c0f70cb	0.06636086014572411
12	0xbfaaec90a59d5f70	-0.052586097923891795
13	0xbf7a75737476f019	-0.006459666248186857
14	0xbfa999115ef15556	-0.04999594005554779
15	0x3fb3af21fb40ccf5	0.07689106353864246
16	0xbf82752fd3fe7efc	-0.009012578637168193
17	0x3f7dab76f7efc245	0.007243599625312462
18	0xbf97314631da2d1b	-0.022648903649082102
19	0xbf9dfc08a520791a	-0.02928174503187462
20	0x3f8bdafd73c49d36	0.013601284118137085
21	0xbf9d982a5f91e2d7	-0.028900777896043586
22	0x3fac96cc0776237c	0.05583798972208506
23	0xbf7495cfe7d1345e	-0.005025684481620633
24	0xbf986945b7118937	-0.02383908204900217
25	0xbf9b957fcfd61edb	-0.026937481937720924
26	0x3f56b92f6c975bed	0.0013869250418474491
27	0xbfb2a93c067b4666	-0.07289481313935084
28	0xbf979d69366689a2	-0.023061412759156526
29	0xbf57737a157411e9	-0.001431340429747791
30	0x3fa359bc3ed9e49c	0.03779400126672636
31	0xbf9aad59c042f038	-0.026051905021390293
32	0xbf6d48cf3bb4616d	-0.003574757339844739
33	0x3fb9ed00b1c56b16	0.10127262439838733
34	0x3f8f07f29655db62	0.015151877606269518
35	0xbf6a93ffe128bbe5	-0.0032443998000171053
36	0xbfb003f46eb54b0d	-0.06256034567676867
37	0xbfa5a1aa78df9017	-0.04224903798584039
38	0x3f90bed889acbbc8	0.01635301914501122
39	0x3fa814498dac5faf	0.04702977995310619
40	0xbf9ab8941e605e00	-0.02609473643687288
41	0xbfb0d125e55ad8c2	-0.06569134568676119
42	0xbf8e3febaf7dbfe9	-0.014770356457773874
43	0x3fa770789490bb44	0.04577996076147042
44	0x3fa74c673cd947ef	0.0455047857073082
45	0x3fb07619961aa91c	0.06430206217433859
46	0xbf6b719a13b9160a	-0.0033500680272335924
47	0x3f9c8a653401dc12	0.02787168626715803
48	0x3f71ce8e376cd333	0.0043473773319433915
49	0xbfa0deff055324b0	-0.03295132579803217
50	0x3fc00d573ebbc90d	0.1254071289363953
51	0x3f9fb49a6ef1ab71	0.03096238424442838
52	0xbfb13e9a02199635	-0.06736147452610271
53	0xbf9eddf474de6c17	-0.03014356578169605
54	0x3f93c1e7f7772a5e	0.019294380644888746
55	0xbf8a437a371ca7f5	-0.012824015433199757
56	0xbfb05052e3bc22e3	-0.06372564372953664
57	0xbfaa307f6526f917	-0.051151257608113614
58	0xbf517b7b0de69c6d	-0.0010670377447270743
59	0xbfb5340348a071db	-0.08282490275491432
60	0xbfa519e7255a9236	-0.0412132485483067
61	0x3f769308693e1a85	0.005511315208315386
62	0xbf89a8a4fc956add	-0.012528695066682466
63	0xbfa7988c5a795b38	-0.04608572582644971
64	0xbf928d30ec5565c6	-0.01811672632661556
65	0x3fa15c1a2a92fd35	0.033905809113543496
66	0x3fb3fe834badf74f	0.07810230825086005
67	0xbf9008cb9359325a	-0.015658551090654484
68	0xbfa1cf2f4c606481	-0.03478381926851971
69	0xbf7485bf53f4f7e1	-0.005010363936262836
70	0xbfb77891d98d77fe	-0.09168349801390716
71	0xbfa025a08e085f9c	-0.031537072504021796
72	0x3f9002dbba295ad0	0.01563590358486061
73	0xbfb3cd1618448466	-0.07734811871024902
74	0xbfa13e53c85f265e	-0.033678644380029196
75	0x3faa1cfc54827e33	0.05100239307034506
76	0xbfb86f29a19a9417	-0.09544620700269522
77	0x3fa899855a6df2d5	0.048046271599536595
78	0x3fb19239aa4e34ff	0.06863747032021549
79	0x3f6b4597e6b4752d	0.0033290831394327176
80	0x3fb8753263338735	0.09553828164964957
81	0xbfbbce105052e051	-0.1086130329230184
82	0xbfa606a14aa55b6f	-0.043019333231021466
83	0xbf8e8beae75c058e	-0.014915309129267109
84	0xbfa0274a4d878d0d	-0.03154976078419667
85	0xbfb556c616b0fb03	-0.08335531286227753
86	0x3f745dbf1eee8665	0.00497221619198882
87	0x3f6537c8325e6ac7	0.002590075501712394
88	0xbf9247a6ad71ac76	-0.017851452194389293
89	0xbf9b4202d287cf8c	-0.026618999576342214
90	0x3f7cf831be4af93f	0.007072634038819025
91	0x3fa3a90da57e07e6	0.03839914937181259
92	0xbfb0be45f8f048e6	-0.06540334060290184
93	0x3fa45aa14be2a033	0.03975395251592353
94	0xbf97cb15c9420be9	-0.02323564568406403
95	0xbf85adf4f204d9a3	-0.01058570254882058
96	0x3fbe49f96bb9076d	0.11831625823927334
97	0x3fb4854921c06762	0.08015877794278262
98	0x3faf3a757f474267	0.06099288157168275
99	0x3fa4287c9bd51496	0.03937138941049871
100	0x3f9b82336037fdff	0.02686386370441873
101	0xbfa75258891eeb8e	-0.04555012391889256
102	0xbf9443b19167cba9	-0.019789480686039394
103	0xbf74319b4e89c585	-0.004930121104380962
104	0xbf8d3427eedab912	-0.014259635903127097
105	0x3face70ed95a89b5	0.05645033267252889
106	0xbf81c50539982830	-0.00867656785978363
107	0x3f74f16d4901d9a4	0.00511305512929142
108	0x3fa2b5244be24ce3	0.036538252127820824
109	0x3f8ee321f13f023e	0.015081658529994543
110	0x3fb1d3df63a96a1a	0.06963916953228769
111	0x3fbc83b2ce49420d	0.11138455902369788
112	0xbf79b8b1348ca14e	-0.006279651840295065
113	0xbfa258025b6cbbf3	-0.03582770696663564
114	0xbfb918dd1c7ae260	-0.09803564019501598
115	0xbfabdb86d989d1c8	-0.05440923123834157
116	0xbf838c464228f15c	-0.009544896024743003
117	0x3f8b6595576d05f1	0.013377348642850758
118	0xbf9cc867d8e4e2e9	-0.02810823689762546
119	0x3f92314e78dd0fbf	0.017766214491771622
120	0x3f9d66e3c2e90bd5	0.028712805529959546
121	0xbf7e76c589ec47e6	-0.007437488208568132
122	0x3fa345c975e98a1e	0.03764180721625031
123	0x3f7d5488cca2e141	0.007160696384908073
124	0xbfb4b7f95c5b49fb	-0.08093222145843264
125	0xbf9c232213896f50	-0.027477772180972082
126	0x3f935e60a86608b2	0.01891470935653023
127	0x3f69ab1e0e19ff15	0.0031333529485094804
128	0xbfa9150be37289a0	-0.04898869658906624
129	0xbf9d4e0172e0fc7e	-0.02861788047470925
130	0xbfb1e8a0122d15d4	-0.06995583003762046
131	0x3fb299ff12dc5c8c	0.07266229830234944
132	0xbfb3efe1fdd56174	-0.0778790707312334
133	0xbf910e76632b8238	-0.01665673237119078
134	0xbfbc6be6a6b7d050	-0.11102143831505029
135	0x3fb07b4bee842951	0.06438135693693893
136	0x3fa1cebca2c47af0	0.034780402058677384
137	0xbfad298b979ac00e	-0.056957590347678985
138	0xbfa5bd971ba9df69	-0.04246208393754964
139	0xbfadbf9b1906ed2b	-0.05810246162897167
140	0x3f9c1e8ef97bf705	0.027460321404752203
141	0xbf56be99265dd3d1	-0.0013882155994597754
142	0xbfae0d4189dc2a7c	-0.058694885328880425
143	0x3fa2f55ec338b9cd	0.03702827580524435
144	0xbfb52a8ec21792dc	-0.0826806281907681
145	0xbfa8ec72cb20f441	-0.048678958221423325
146	0xbf8ee090719c4f12	-0.01507675978385906
147	0x3f900f47c6cded12	0.015683290013368163
148	0xbfb99d63ff0bb2af	-0.10005784012509865
149	0xbfb633c0abdf5b34	-0.08672718235116578
150	0xbf649e4ae03bfcea	-0.0025168859882566024
151	0xbfbd51669c780025	-0.11452332801854988
152	0xbf8e85710ce4c81d	-0.014902957159026948
153	0xbfb2a65cbc64736c	-0.07285098647521487
154	0xbfbc38fe0d442edb	-0.11024463485608342
155	0x3f6eabdedfa82066	0.0037440636635928557
156	0x3fa347f36c2cb146	0.0376583165692375
157	0x3fa0e94d1675347c	0.033029946319040854
158	0xbfb91dff7844a9f2	-0.09811398206935687
159	0x3f9ab834db61f796	0.026093316927009967
160	0xbfa1473aec8b4608	-0.03374656808376747
161	0xbfa0ce8e509e8849	-0.03282589658853447
162	0xbfb63e9aec709795	-0.08689277908760425
163	0xbfa5efd3a00d1a23	-0.04284535721540219
164	0x3fb30927dc208a1c	0.07435845493504484
165	0x3f8f9479ae035ee6	0.015419912932358181
166	0x3fad1ff442435ff5	0.056884415711181115
167	0x3f53a1d1db29ab96	0.001198248803712975
168	0xbf9d920dd189f57e	-0.028877464212646135
169	0x3fac45375d388828	0.05521557820272022
170	0xbfb89e6679f4062c	-0.0961669967400886
171	0xbfb54a7d3c9909c2	-0.0831678650802479
172	0x3fa7b193b7db42b2	0.04627668017713428
173	0xbf98c44af1e8e435	-0.024186297430990506
174	0x3facedd2898a3b44	0.05650194100336717
175	0xbf9e99aee74a4f47	-0.02988312994655409
176	0xbf90485a9b79b7eb	-0.015901008357495455
177	0xbfa652b892387a18	-0.043599861001201556
178	0x3fa1c23b57d3d925	0.03468499610055379
179	0xbfa27ac3ef6b0ab9	-0.03609287545761703
180	0x3f732f96187a9b53	0.0046840537176312145
181	0x3fb27670c4836e98	0.07211975858393271
182	0xbfa074a3657ab85e	-0.03213987935792838
183	0x3f9ccd62f27377bd	0.028127237365758385
184	0x3fae7add3660d1a7	0.05953112877651572
185	0x3fa34cf44277b056	0.03769648848887701
186	0xbf8caf4a59c6db45	-0.01400621496655464
187	0x3f706da3b38ecd80	0.004010810335717152
188	0x3f7d5d2010701d09	0.007168889284918886
189	0x3fa2e8fc47080265	0.03693378798562178
190	0x3f67db19266b3240	0.0029120913708083063
191	0xbfc1c629e35223e5	-0.13885997390414598
192	0xbf6e41f0b562d91a	-0.0036935521448767774
193	0x3f9e779ec03e4370	0.029753189548105963
194	0x3f9b7e3d3123afbb	0.026848751186591118
195	0xbfad0f540696b14e	-0.056757570080068306
196	0xbf76c3d83bdd86a0	-0.005557865775558973
197	0x3f86ab6afd145416	0.011069141243334395
198	0x3f92202d05e2df96	0.017700866207377063
199	0x3f92e7cb31188bce	0.01846234786183825
200	0x3f91403b53e179b7	0.016846587176013474
201	0xbfacf907c676b16e	-0.05658745095874705
202	0x3f8d81dd495e7bd1	0.014407852937265904
203	0xbfa15ec232f48f49	-0.03392607566845968
204	0xbf87971a4ff4b596	-0.011518674435673042
205	0x3f85b8bfab31902a	0.010606286441721197
206	0x3fb19ae11348f57c	0.06876951905083745
207	0x3fa6173020d70946	0.04314566040877081
208	0xbfad0fd61e734847	-0.05676144715984371
209	0xbf9b3ee5881ccbf2	-0.026607119019171628
210	0xbf97f9813018c140	-0.023412722168530964
211	0xbf9e4bf03897adb2	-0.029586556867725107
212	0x3f6fae3be8b497b3	0.0038672609422460646
213	0xbfacb25c6313d7d1	-0.056048285574362595
214	0xbf9a462baa66cb3e	-0.02565830447720007
215	0xbf965f2854727349	-0.02184737220214864
216	0xbfadfb92419a4d03	-0.058559961803576165
217	0x3f92f790aa6167ca	0.018522510909271074
218	0x3f8655b2e76a29f3	0.010905645072189584
219	0xbfb70dcc83f56b58	-0.09005430432936856
220	0x3fa61e7e163932c0	0.04320138951570618
221	0xbf60b458b6806d96	-0.002039120929124126
222	0x3f97646622b1c7f6	0.022843929164487485
223	0x3fbb749a90ec3cc5	0.10724798238901474
224	0x3f9541760bfbab62	0.02075752685679378
225	0xbfb1ca484a0f691e	-0.06949283416853233
226	0x3f9d54cb109a6452	0.028643772972462074
227	0x3f8d01b9877ff227	0.01416344589960612
228	0xbfaf6c22c1a1b460	-0.06137188543002803
229	0xbfa40d3d3accd9e7	-0.0391635069158161
230	0x3f8dcf7e926b3286	0.014555920451493575
231	0xbfb3bd02a5ba09d6	-0.07710281892835921
232	0xbf9c3b453dc02f63	-0.0275698489131594
233	0xbfaac28d9a0daa67	-0.05226557260069314
234	0xbf9b4555aa6add7b	-0.02663167812963028
235	0xbf9e0f9a2eb990b0	-0.029356392957553268
236	0x3f74e4736b3ace3a	0.005100680212922587
237	0xbfafb912a123119f	-0.0619588681888985
238	0x3f96858ebf92621a	0.021993856852164574
239	0x3f9438decf81b0d6	0.01974819318313411
240	0x3fb64cd4fae4e67c	0.08710986256928693
241	0xbfc36fd2460942d5	-0.15185001773581655
242	0x3fa5dc6f7a510a3e	0.042697414094182026
243	0xbfab5e873833cea2	-0.05345556794227703
244	0x3faa4719fe76f608	0.05132371169336741
245	0x3fba09c058463520	0.10171129374630938
246	0xbfbab52679abc4bc	-0.10432663412554438
247	0x3fb87089866822b2	0.09546718150535119
248	0xbfaa56878ee1fdb0	-0.05144141787695433
249	0xbf95628f9577a205	-0.020883792398224816
250	0xbfa027211a6d04a9	-0.03154853293973165
251	0xbfaa808e85754f78	-0.05176205996636346
252	0xbfc14dbc39c4fde3	-0.13518479176307982
253	0xbfb191b6f3b7d986	-0.06862967920446836
254	0x3f9e2e459997ffa9	0.029473388194673742
255	0x3f6fbe093ffabfc2	0.0038747959768769833

weights_hidden_output f8 [128, 10]
0	0xbfcfaf51cd2ffc99	-0.24753782767217983
1	0xbfa6a9325a559d6c	-0.04425961830821276
2	0x3f9424a8976598a0	0.019671091309100164
3	0x3fbce13cbb77c15b	0.11281184746599619
4	0xbfb1f292a42efc28	-0.07010761745822036
5	0x3fa5908ffde666fe	0.042118549102452704
6	0x3fb5bd3b0e3b6f13	0.08491868112053806
7	0xbfd38f8cf2a8162b	-0.30563663193638274
8	0x3fc10656be807a7c	0.1330059461769969
9	0x3fcd1b1a6d4acc17	0.227389624944039
10	0x3fb2ec0d9d127604	0.07391438565033331
11	0x3fb73abea1ba4b6f	0.09074012230329996
12	0xbfa2666e0f61db63	-0.035937728288380176
13	0xbfb49a5ffd9eaa08	-0.08048057500733574
14	0x3fc4b6855c52e1df	0.16182009704586073
15	0x3fca217f27133225	0.20414723785360525
16	0xbfe5d4d6fa485ae7	-0.6822314155895953
17	0x3fd42d535ac69a47	0.31526645531485936
18	0xbfdbe1834daa225a	-0.4356392153208951
19	0x3fcef304746495ee	0.24179130252120679
20	0x3fbad88e419290a7	0.10486687756435008
21	0x3fc1cc709d611065	0.13905151066331026
22	0x3fbb023a43003716	0.1055027402473708
23	0x3fc2af6348e14978	0.14597741182894786
24	0xbfb079905a4065fc	-0.06435491755873807
25	0xbf67254d3d3d3636	-0.0028254040316031638
26	0xbfe3446c2ac32ec3	-0.602102359314323
27	0x3fc5bf4f13de6896	0.16990078420787275
28	0x3fb10c940eda6da3	0.06659818041446512
29	0x3fc28f8227898b3f	0.14500452929049776
30	0x3f993f956e7799ea	0.02465661513078913
31	0x3fc0d792183bdeb0	0.13157869513792297
32	0xbfb45c121ab89e0c	-0.07952988769886121
33	0x3fb90652106db8ce	0.09775269414032836
34	0x3fd26872e2299c9c	0.2876250465983021
35	0x3fb435fc4351e0e8	0.07894875186491712
36	0x3fc015c0012cd04a	0.12566375787139555
37	0xbfb748a06e266ee4	-0.09095194520198963
38	0xbf9275b15e9abfb9	-0.018027087592315392
39	0xbfccc12b90366097	-0.2246450857317128
40	0x3fb0c1f178b1393d	0.06545933910931452
41	0x3fc48d9d7e3e8e9c	0.16057175316119732
42	0x3fce0abccfd4a595	0.2347026839063743
43	0x3fcecd79295b092d	0.24064554709736666
44	0xbfa16e623fb529f2	-0.03404528644258055
45	0x3fb52abc495672df	0.08268334188910441
46	0xbfc8a6817d1f8f04	-0.19258135423216782
47	0x3fd3fced9ad93ef5	0.31231250879225964
48	0x3fbd30eba43ba19a	0.11402771720498209
49	0xbfe661c95333b520	-0.6994368195570679
50	0x3fc34416200352b3	0.1505153328240759
51	0xbfbe60505ba25cf2	-0.11865713345683895
52	0x3fbbc2091cd1506e	0.10842949822955614
53	0xbfb0146cbd30cc99	-0.06281165713226002
54	0x3fc8d04247955d24	0.19385555739675298
55	0xbfd11b9bc0afae0b	-0.26731008355156466
56	0x3fb0805286016797	0.06445804378145535
57	0x3fc237dbf90acdc6	0.14232968960059916
58	0x3fb40180da1b4b40	0.07814793896549777
59	0x3fcdf7f4a26394f5	0.2341295044817923
60	0x3fb88061f265eb1e	0.09570896308825325
61	0x3fac5f628aef5ab3	0.05541522928222289
62	0x3fa9a123de1ef057	0.050057526459085615
63	0x3fc0bf17cc35f7b7	0.13083169432860384
64	0xbfa2849d2df6e5ad	-0.036168014393705185
65	0x3fc2bbfe186672a1	0.1463620776311432
66	0x3fc18072f5d7c7cf	0.13673245433852663
67	0xbfcdbb6458b85595	-0.2322812493518255
68	0x3f9028a106c27630	0.01577998737103864
69	0xbfe01d5e4b2ace35	-0.5035850017652083
70	0x3fd1f97088822d31	0.280849583920559
71	0x3f8205823a0fcf0a	0.008799569508461075
72	0x3fb4f91881514c35	0.08192589909712995
73	0x3f50e4f11576e406	0.0010311464628627322
74	0x3f93daa81948621d	0.019388796370636386
75	0xbfdcdac11a51068c	-0.45085170335742286
76	0x3fbcb6768c705a3d	0.1121591656559326
77	0x3fb02abba923eb2f	0.06315205459024463
78	0xbfb27fce47d0990c	-0.07226266148845556
79	0x3fb5cd7e709906f7	0.08516683815926372
80	0xbfa0d3e441c2d2b6	-0.03286660483118935
81	0x3fa5d640dce709a4	0.04265024849475488
82	0xbfc14ed87a219dab	-0.13521867717211697
83	0xbfd5b7be5c13ec4f	-0.3393398188779359
84	0x3fb7b7eb7f538f92	0.09265014513544959
85	0x3fa280898554bf4a	0.03613691093994349
86	0x3fbc9ea2452cafa1	0.11179556073028475
87	0x3facea719e8b40ca	0.05647616443968813
88	0x3f9db7638f75d084	0.029019885665050996
89	0x3fc0abba3bb4d04b	0.1302407065901455
90	0x3fce822d1a25a3a0	0.2383476617499385
91	0x3fae870f2befe033	0.05962417041149628
92	0x3fad61369df27e47	0.057382303982418885
93	0x3fcb905df19f4710	0.2153432302280227
94	0xbfc60b42e3a1f746	-0.17221866717221185
95	0x3fc767fb46bb9390	0.18286076501604187
96	0x3fca06ef47078a7a	0.2033366295646209
97	0xbfd836e8c62f838d	-0.3783513961225758
98	0x3fc5ff0289488cfb	0.17184478476801943
99	0xbfd208c372b999b3	-0.2817848797189086
100	0x3fb316fb0405268d	0.07456940506122063
101	0x3fd6c339d3f177b5	0.35566564271527606
102	0xbfb1111d398c1228	-0.06666739134750144
103	0xbf9e69f863fcbded	-0.029701119520891984
104	0x3f9db137edaedaf5	0.028996347314854416
105	0xbfb0e3d01be821a0	-0.06597614938085039
106	0x3faac4da99d15065	0.05228312614113476
107	0x3fb72474bf46dcd3	0.09040002508014604
108	0xbfdcdacf523a8530	-0.4508550932897206
109	0x3fb4492a411b5cf3	0.07924141015552148
110	0xbfdb1769e06f8458	-0.42330405156650874
111	0x3fc9aae81ee2078f	0.2005281592174097
112	0x3fc8f7bfd99c721a	0.19506071210425163
113	0xbfa09a3e93d25dc0	-0.03242679171051632
114	0x3f68e34e8fb51164	0.0030380758668419484
115	0xbfdb1678993749eb	-0.4232465263604854
116	0x3fc63afe8511cb0e	0.17367536065611272
117	0x3fc0f1cf9688fc3d	0.13237948274942993
118	0x3fd0b6d031261de4	0.26115803527542725
119	0xbfc6ae41b8444e4e	-0.17719289300349533
120	0xbfb30a3129f25395	-0.07437426828467004
121	0x3fd031fe8e1c18ca	0.2530514133253631
122	0x3fa99cce2e2cd4ac	0.050024455200778334
123	0xbfd3e47d184f4556	-0.31082084058751513
124	0x3fc8257fab2ba612	0.18864436967787462
125	0xbfbbdd0910000463	-0.10884148254992136
126	0x3fb15d15996dd594	0.06782660480333497
127	0x3fc4deee673986ae	0.16305332222241503
128	0xbfc11a8e88e0a43b	-0.13362294848892184
129	0x3fc3cbd2fd40386a	0.15465772023930252
130	0x3f4c4065cd57ea51	0.0008621689873387716
131	0x3f818b20b6006706	0.008566146425482934
132	0xbfe31f91e209e5bf	-0.5976037421052566
133	0xbf8e1f0a82686051	-0.01470764360878732
134	0xbfadba3d3f06dead	-0.05806151766176746
135	0x3fc3540a1a6228c1	0.1510021809411395
136	0x3fc27a2814d6e589	0.14435292260695246
137	0xbfb7d1b6bab13abc	-0.09304372842710057
138	0x3faa7cccb7c76a69	0.05173339599032973
139	0x3f9ea8825124187d	0.029939686014607936
140	0x3fb774033f81eccd	0.09161396313168098
141	0x3fcee22c0c3c1428	0.24127722356220827
142	0x3fb6f198d882e4d2	0.08962397848053463
143	0x3fa6a70e576b246c	0.04424328629608784
144	0xbf96d252a844fb98	-0.02228669311557105
145	0x3fb3c5dfec003975	0.07723807822933344
146	0x3fcc9a57ace52462	0.22346015874998942
147	0x3fb03c87e8668d92	0.06342362808077542
148	0xbfdb9f0acf9f127d	-0.4315821673920153
149	0xbfe2aa8a73326793	-0.5833179712237658
150	0xbf5702a5e1a7bc51	-0.0014044399200619127
151	0x3fc6103dafb6f085	0.17237063484015294
152	0x3fccf6a28838df91	0.22627669955704424
153	0x3fcb9d0958262358	0.21572987369679697
154	0xbfcf0baac7897124	-0.24254355185520027
155	0x3fa36d6c300dbfad	0.03794420324891177
156	0xbfa5c4b146bedc4b	-0.042516269575053466
157	0x3fd1e19fa37550d8	0.2793959709426992
158	0x3fc53b209f5bc714	0.16586692601372788
159	0xbfee25e3d1e0bc07	-0.9421252345254069
160	0x3fc78d90ebaf8d44	0.18400775440304973
161	0xbfd889c595bf2111	-0.3834089243287205
162	0x3fc56cb93708747b	0.16738047778281726
163	0xbfb2b29e838a8382	-0.07303801261379131
164	0x3fca1aedf59cab4d	0.20394682400486844
165	0xbf8563ca3b09331e	-0.010444240500100895
166	0x3fc2292360e06ee9	0.14188043813998455
167	0xbfd1737000886518	-0.2726707463458111
168	0xbfaba95f38dcc579	-0.0540265805160613
169	0x3fc593bccac6ce64	0.16857108975601698
170	0x3fc823ed39df540f	0.18859639478492382
171	0xbfb39363ab8bad79	-0.07646773279309639
172	0x3fc918b0d0b7626d	0.19606599990108312
173	0x3fd00c5aa0255483	0.2507540286945373
174	0xbfe574c0f2498024	-0.670502160279288
175	0x3fcfad3c214276fe	0.24747420906071932
176	0xbfcd0e7235fa397c	-0.22700336108796282
177	0x3fc6320f2c80ef9d	0.1734026877692231
178	0x3fb85b0d9504fd36	0.09513935936137305
179	0xbf492b5587b9df23	-0.0007681052806693716
180	0xbfc36d3590564683	-0.15177030132013067
181	0x3fbab90c4d1eb5ca	0.10438610918819005
182	0xbfb91badb84c9fcb	-0.09807859181876137
183	0xbfa0035278e0665e	-0.03127534604591341
184	0xbfd8d234756c9e91	-0.3878298899385096
185	0x3fd0538c38447a21	0.2550993489730065
186	0x3fc947f1ea919e00	0.1975080867152741
187	0x3fc36a142a9bcaef	0.15167476730820037
188	0x3fc21b359605d1ee	0.14145536256150087
189	0x3fc8e8945046f3fb	0.19459775848181934
190	0x3fb82934bc98722f	0.09437875370390068
191	0x3fbbeb255a121f23	0.10905679177278364
192	0x3fc713abdb8c4ea2	0.18028782100792734
193	0x3fcd3e3520a97fcb	0.22846092314557462
194	0xbfe3b39e30e623e0	-0.6156760172899531
195	0x3fccd13764300300	0.22513477699251183
196	0xbfd48e57afa896f8	-0.32118789819865823
197	0xbfac98c720da275c	-0.05585310245540029
198	0x3fb01df27d01d480	0.06295695831234305
199	0x3fc44b3b7cd0e3ab	0.1585459098294256
200	0x3fc27aca741b44be	0.14437227887404974
201	0xbfa156c218d9ea84	-0.033865037473295195
202	0x3fb133d4566cb661	0.0671971045491886
203	0x3f8b4f8a6049d9e7	0.013335305274478194
204	0xbfe05404c6317600	-0.510256182762248
205	0xbfb41d78cb839618	-0.07857470482448325
206	0xbfc4716e4d469621	-0.1597116353342907
207	0x3f9beb1199cb4c74	0.02726390362915905
208	0x3f9e34ecdee4df7d	0.029498768905994666
209	0x3fc134cb795dedcd	0.13442367006415026
210	0x3fbbbdafb6c1569f	0.10836313449666556
211	0x3fd06198d16ffd5b	0.2559568448341076
212	0xbfc52aa8a9964389	-0.16536434441198036
213	0xbfd7598fe7f468c8	-0.3648414387877321
214	0x3fc646645f188670	0.17402319568013835
215	0x3fa99c5b6ffe2e0e	0.05002103559590064
216	0x3fb8c5d08bffc180	0.09676841180749385
217	0x3fbad092e341fb18	0.10474508331570254
218	0xbfb21babcd2d8189	-0.0707347274706135
219	0xbfc440c29b3966eb	-0.15822632388408606
220	0x3fa04b3f436e02a4	0.031824089986007636
221	0x3fc1c4cdfbdaf82e	0.13881850049614414
222	0x3fc1493c1dcf6564	0.1350474496419266
223	0x3fc13a3171aca9bb	0.13458841372023564
224	0x3fc97bc11cd66f81	0.19908918293083036
225	0xbfd1f8ee4aaa58cf	-0.28081853190941514
226	0xbfe0676b8452eccd	-0.5126245102359462
227	0x3fc14837c44ed01b	0.13501641354889746
228	0x3fb2ad801627b751	0.07295990506073947
229	0x3fc329666cf77913	0.14970093079222888
230	0xbf96b238a03090ef	-0.022164234902576515
231	0x3fbfc82917d1734d	0.12414795714853462
232	0xbfd1b99575201cee	-0.2769521373561038
233	0xbfcc27a8f0f88065	-0.21996032491825016
234	0xbfc47084f5409a83	-0.1596838185807493
235	0x3fb94883c6273a88	0.09876273715711126
236	0x3fbc9451986fab4f	0.11163816424929716
237	0x3fafd99d9fca9ac9	0.06220715118006621
238	0xbf8d98c739bd501c	-0.014451557588167012
239	0x3fabbcaefcf82b20	0.05417391622548551
240	0x3fbdf85c969b0ab7	0.11707094838042563
241	0xbf87a1302ece6c7d	-0.011537910869995333
242	0xbfb688538d20b140	-0.08801767535687066
243	0x3fb48aafecca03bc	0.08024119883522379
244	0xbfd06c37e3ecfd8f	-0.2566051221692413
245	0x3fbaad88acd0ea53	0.10421041697638005
246	0x3fbbc3c2b642c2f8	0.10845581960417039
247	0xbfcfac6e5f5c35a9	-0.24744968086490118
248	0x3fb2e252ec5110ea	0.07376592893075765
249	0x3fcc1b16bff7e04d	0.21957668660593513
250	0x3fc1a28580edf602	0.1377722625292535
251	0x3fc7b49eb6fc71c5	0.18519958433979702
252	0x3fdf75a6fdce5079	0.49155592714055946
253	0x3fd4e16c334b74d8	0.32625870713475313
254	0xbfef7a08f8b05403	-0.9836468560412189
255	0x3fd0abc5a404857a	0.260484132932184

bias_hidden f8 [1, 128]
0	0x3fb5240feeed9874	0.08258151610570669
1	0x3fed05c9f6885fc7	0.9069566550342579
2	0x3fcbe21c1083d671	0.21783781820674933
3	0xbfabc335d10af0f7	-0.05422371079245807
4	0xbfb18e313ad1e0da	-0.06857593236952955
5	0xbfd77604047915d7	-0.3665781062776125
6	0x3fc1e54e95b745be	0.13981039343211238
7	0x3fb210e780891a06	0.07057043922495873
8	0x3facc5f560f70d8b	0.056197803579858784
9	0xbfd7e70745de5e11	-0.3734758550940294
10	0x3fc9f42e733a0ae9	0.20276432634644628
11	0x3fb094a41f819a3e	0.06476808327861591
12	0x3fd133db481b4dcd	0.26879007379212966
13	0x3f83c7717a12fb4a	0.009657751596362413
14	0x3ff1094a1f724a24	1.064767954671546
15	0xbfe2e2f7a3e1675f	-0.5902059746542639
16	0x3fb8b9a9b1c4e151	0.09658299055161491
17	0xbfb57939b4b4f7b4	-0.08388100301541962
18	0xbf7e245deb504123	-0.007358900901650397
19	0xbfb6b8ca6a107a24	-0.0887571820207787
20	0x3f79272b6719dd81	0.006140870611140215
21	0x3fd0c92ff3f0a81c	0.2622794992663573
22	0xbfd8d770741098f7	-0.38814936956840945
23	0x3fe47be018724964	0.6401215054959661
24	0xbf978b76bcc75300	-0.02299294974530408
25	0x3fe624b9bd9e4d67	0.691983099316002
26	0x3fec08dfbea5c288	0.8760832522949196
27	0x3fe051ee1fe0cf54	0.5100012419338591
28	0x3fcbb380dd70b371	0.21641550838958382
29	0xbf935ba553a1118a	-0.018904288510627455
30	0x3fbaeb5041e7f80e	0.10515309914623591
31	0xbfdd2b13c17d55c8	-0.4557542218729762
32	0xbfd8e031fdcb876a	-0.3886837938754214
33	0x3fe90471c4114e92	0.7817925290532506
34	0xbfd6916f8310beb1	-0.3526266841827051
35	0x3fd92038bb91d1c5	0.39259165112823907
36	0x3fefa663edadcd38	0.9890613214651358
37	0xbfd956705cd4b439	-0.39590081277384886
38	0x3fda1a7b19bd13ad	0.40786626351865146
39	0xbf93cd44dc8e5bb1	-0.019337726556468208
40	0xbfc862641285e282	-0.19050265221064328
41	0xbfb80b4fea461057	-0.09392260999271805
42	0x3fd9f073f4f3d858	0.40530108376640817
43	0x3fb664decbb897b7	0.08747665856989682
44	0xbfd02d8968928184	-0.2527793427671201
45	0x3fea8548f291f794	0.8287701356600672
46	0x3fca12c39a75f136	0.20369763414408631
47	0xbfe06e1f8eaa2616	-0.5134427820605107
48	0x3fa32f39ef9430ce	0.03746968316599607
49	0x3fe35632afe1d79e	0.6042722163390299
50	0x3fe144a4214fb4fa	0.5396290445911796
51	0xbfde8018e1b227d4	-0.47656843224160395
52	0xbfd44f0f4ecb1874	-0.31732542700445454
53	0xbfd7cc106ff166cd	-0.3718300908272852
54	0xbfa2a0a6c2c1ad46	-0.036381922983162826
55	0x3fd4fd02c5cae6f1	0.327942555577109
56	0x3fdf0a87adbc9700	0.48501769987557
57	0xbf65c3735071cd5c	-0.0026566745978528327
58	0xbfc6ccb18de5c388	-0.1781217520579299
59	0xbfdc736b00c04ca6	-0.44454455445629504
60	0xbfe1540d619504b6	-0.5415102868938877
61	0x3fd5f5b3df86564d	0.3431214983805589
62	0x3fe34176eba91615	0.6017412760490425
63	0xbfea96a7d0086fe6	-0.830890566171999
64	0x3fcd548b95d73b05	0.22914261642878145
65	0x3fde4e67dcc16be2	0.4735355048957769
66	0x3fdcb8c17efba823	0.44877660179793305
67	0xbfe46f26c0f65c8d	-0.6385682839198964
68	0xbfd71d1d122fadec	-0.36115195060730687
69	0x3fe31eec580a0ec8	0.5975248069302888
70	0x3fdb0db783da8de3	0.42271221042957857
71	0xbfbc9de79e26107d	-0.11178443537761669
72	0xbf87fc8764153f56	-0.01171212934664793
73	0xbfc7bbe809f6bd25	-0.1854219483043177
74	0x3fbb87115db617aa	0.10752972162126065
75	0x3fb68530f8fa0c94	0.0879698379376797
76	0x3fe965df34bdf3d6	0.7936855344884133
77	0x3fe84067567fb07d	0.7578617753438405
78	0x3fddd3e03a1580ee	0.46605687782540783
79	0x3fa3cbf641df9ef6	0.03866548112983807
80	0x3fe379ef19611990	0.6086345191659337
81	0xbfc3017b500192eb	-0.14848271757650564
82	0x3fc7ec96e2e94092	0.18690763549466688
83	0x3fd450dd47fdbfd6	0.31743557005301903
84	0xbfc3cd0ea14aa04b	-0.15469534755289013
85	0x3fd8319021b1106c	0.3780250863094412
86	0x3fe7f937f523944a	0.7491721904631359
87	0x3fdc81e32990f84b	0.445427694885329
88	0xbfd1756f588645c9	-0.2727926601883977
89	0x3fb7a50c1f80dca0	0.0923621727859989
90	0x3fcfcf40f95864f6	0.24851238417685523
91	0x3fad3596de9db457	0.05704947917443153
92	0xbfb0a2495559f596	-0.06497629483961584
93	0x3fadb1305373bda8	0.057992468058610414
94	0xbfa2e29ab9ed8691	-0.0368851043665589
95	0xbfd6a0a78b9e621a	-0.3535555709327426
96	0x3faafa5384eccb0a	0.052691087700074205
97	0x3ff3299b71452ca2	1.197658007108466
98	0x3fc4dd65b1d315f6	0.1630065077098803
99	0xbfe24bbb89f05f50	-0.5717446989174082
100	0xbfd110ab78e3c9dc	-0.2666424446644251
101	0x3fd2b4337524b8b2	0.2922485965708673
102	0xbf9dfa5ed914de4b	-0.0292754001613658
103	0xbfe55b49b115d0e1	-0.667393537396972
104	0x3fd2de8c79b023fc	0.2948332966194014
105	0x3fd1901f43a54867	0.27442151647586005
106	0x3fd37aa57dcfded6	0.3043607452996019
107	0x3fd5031e5a4f21f6	0.3283153421330377
108	0x3fd8ca3ebc7c734d	0.3873440590557962
109	0xbf4cd70590db3bb7	-0.0008801247765520746
110	0xbfc912268f3e5dd9	-0.19586641306226119
111	0xbfd75856296a1264	-0.3647666363179154
112	0x3fa81cf7b63295f5	0.04709600543109708
113	0x3fbe64b349b46218	0.11872406529835933
114	0xbfd13c227092063e	-0.2692953204460514
115	0xbfddd660fc000494	-0.4662096463144476
116	0xbfb131770bd7e05f	-0.06716102637426634
117	0xbfd0a5d6cf0aa7ed	-0.26012201517971684
118	0x3fcd7ed07cacfa91	0.23043256843262275
119	0xbfcc938408c5c15b	-0.2232518236956008
120	0xbfd53d2f1f9dc28d	-0.331859379649395
121	0x3fd1116fa4db886f	0.2666892156540887
122	0xbfe5f608c3355b7f	-0.686283475176296
123	0x3fae693a8cbb4584	0.05939658134378603
124	0xbfd1267b281fa63b	-0.2679736987907721
125	0x3fc5c9133646c38a	0.17019882345405463
126	0x3faf63649004250f	0.06130518205652368
127	0xbf933c2386541323	-0.018784098695522233

bias_output f8 [1, 10]
0	0xbfe0c079d2b31aff	-0.5234955897547876
1	0xbfdd7e58981c1eff	-0.46083655218579617
2	0xbfd9315db2cb2c2e	-0.39363806209866226
3	0xbfcf5cba08c07951	-0.24501729419075471
4	0x3fd96b9cc32c44bc	0.39719313678603974
5	0xbfc892814109f3d3	-0.1919709746906891
6	0xbfbe1243b45c87f6	-0.11746619370799735
7	0xbff271b99cd1a67a	-1.152764904569635
8	0x4000bf617a60f6ca	2.09344764336024
9	0x3fe3068b2fae5935	0.5945487910528643
