models/model_cv_digs (5).npz (npz, 815236 bytes, 4 tensors)

weights_input_hidden f8 [784, 128]
000000 fb 21 aa 70 ee 13 a7 bf c5 f8 c4 00 da b6 80 3f
       -0.04507393956470548 0.0081612617001351
000010 ac e2 69 d6 9d 47 a0 3f fa 18 9b 15 f5 98 a8 3f
       0.03179639093736361 0.04804197205298695
000020 7f 80 40 9a 40 9e 95 bf 90 4f 32 69 72 33 5f 3f
       -0.02111149732093098 0.00190435574476042
000030 71 56 b3 9d 73 68 b5 bf 1f 72 d3 bc c4 b4 bc bf
       -0.08362505531416688 -0.1121333085060958
000040 e6 cb 06 e5 97 78 a6 3f da 91 a9 96 21 aa a1 bf
       0.04388880415662992 -0.034501123086360955
000050 22 8f c4 b8 f8 2d 41 3f 82 23 08 cf e7 8c b1 3f
       0.0005242790662447242 0.06855629734503846
000060 21 f0 91 1b ec 46 b4 3f 28 ee 0a 75 44 86 ac bf
       0.07920718834969921 -0.05571187905067304
000070 3b fb 93 f3 70 a3 a5 3f 60 ea 88 9f 24 03 9c 3f
       0.04226258252491851 0.027355739819748925
000080 18 4c d5 97 ff 59 ac bf 4b d3 44 a2 a4 45 a3 3f
       -0.055374133381200064 0.03764070969410812
000090 df 0d dd 23 e2 0a 9e bf ca 6d 59 b4 15 2f 9a bf
       -0.029338391722616094 -0.02557023919358218
0000a0 be cf be 10 b9 c0 aa bf 18 ad 4a b8 29 d8 97 3f
       -0.052251609129057894 0.023285533784172946
0000b0 61 27 4a 6b 85 fd a0 3f d0 c9 26 36 1b dd b0 3f
       0.033184213015444504 0.06587381431635397
0000c0 fc a7 1a 11 8f 51 81 bf 92 17 f6 e8 2e 31 41 3f
       -0.008456342420078748 0.0005246619274863354
0000d0 94 13 32 29 e1 2c b2 3f de 10 80 4a fe 2e b4 3f
       0.07099730735542514 0.07884206122259083
0000e0 59 37 a9 07 dd 5e b0 bf 1e 4a 31 8c a8 93 87 bf
       -0.0639475005820861 -0.011512104776703554
0000f0 61 5d 83 4c 08 21 9a 3f a2 91 37 08 f4 bf 76 3f
       0.025516633672706294 0.005554154634840465
000100 93 c0 25 10 e0 b9 69 bf db a0 63 aa 4d 73 93 3f
       -0.003140390036769311 0.01899453499291402
000110 f0 a2 74 99 dc 21 a5 3f 54 7b 4b 82 68 e1 a3 3f
       0.04127396939504091 0.038829103379376534
000120 93 a6 6d a1 4b 11 af 3f d2 86 20 b2 d9 f0 a0 bf
       0.0606788286739405 -0.03308754252817682
000130 96 f8 57 04 82 e4 90 3f 1e 01 b3 79 81 33 a0 bf
       0.016496688380350642 -0.031642957788337464
000140 de 8f 83 cd 99 13 a8 3f 87 b1 25 f9 fa bb a6 bf
       0.047024542176387504 -0.04440292636249681
000150 ee d8 41 38 61 a1 98 3f 7d 4f 93 fd 4f 8e ad 3f
       0.0240531149470024 0.05772638292697161
000160 cf eb 46 89 85 85 9d bf 83 9b a6 a1 53 7c 95 bf
       -0.02882965708134205 -0.02098208116663215
000170 d2 ac 0d b6 cc 1c 97 bf 7d 1a 3d 01 33 a5 96 3f
       -0.022570799457224684 0.022114560080149993
000180 2e 92 07 64 df b8 b1 3f f9 08 3c 94 94 6f a1 3f
       0.06922718231323507 0.03405441579345054
000190 ba 26 a1 ca 34 06 a2 bf 54 57 33 7f 9d 93 96 3f
       -0.035203599677129785 0.022047482384400865
0001a0 3c 46 a0 a6 59 f8 53 bf 82 be f8 45 48 a7 a3 bf
       -0.0012188792702584458 -0.03838563779970362
0001b0 d6 80 34 59 cf ea 81 3f 5e 14 04 a8 e6 e9 ac 3f
       0.008748645696471529 0.056472023019559656
0001c0 68 71 f7 00 50 c6 a1 bf 70 3a 78 1f 0e 94 57 bf
       -0.03471612941550256 -0.0014391076964589654
0001d0 bc f0 5a cf 33 77 9c 3f 9b 6b 93 8b c5 28 9b 3f
       0.027798471003493516 0.026522719043764558
0001e0 5a 5e 7e 00 0b 08 34 bf 2c 4f 40 94 aa c2 a5 3f
       -0.00030565517999423463 0.04250081119258051
0001f0 8f a3 50 a6 ad 64 88 bf 8f 40 6d c6 ac 64 a1 bf
       -0.011910778654127955 -0.033971213552491546
000200 4c cb d2 99 27 12 89 3f 75 b2 6f 8a f3 37 b3 bf
       0.012241658574884483 -0.07507249955933466
000210 63 02 6d 01 52 21 a1 bf 02 d0 2c 98 be 97 85 3f
       -0.033457338975954064 0.010543335932744927
000220 f8 09 7c 54 52 13 9c bf 7b 8f d7 96 cb 03 95 bf
       -0.027417456060911477 -0.02052229030768114
000230 3e a4 f9 ff a9 13 a3 3f 60 98 10 23 6b 65 9e 3f
       0.03725939988800818 0.029683755889117314
000240 48 7c 87 f0 24 f2 b6 bf a5 7e 4b 74 61 68 a3 3f
       -0.08963232872291471 0.037905736395029956
000250 f4 91 ba 6d f9 ca 9a 3f 5e 05 cc 8c c6 85 b3 3f
       0.026164910623849694 0.07626000344682413
000260 43 ed 69 13 14 b7 9b bf 12 1e 03 25 18 47 a9 3f
       -0.027065576252863776 0.04937053157624062
000270 9c 36 7d 86 7e eb b2 bf 62 1a 58 84 bc 0e a0 3f
       -0.0739058569281163 0.0313624297669335
000280 e0 f8 9a 3b 81 55 8c 3f a9 d3 b4 1b 02 1d a1 3f
       0.013834962493430358 0.03342444027149522
000290 15 d1 7e 1f f4 58 a9 bf b3 9d 12 49 08 be 87 3f
       -0.049506787151957145 0.01159292672157517
0002a0 2d 4d cf 05 3c 19 b3 3f f5 63 e2 d4 01 bc 80 bf
       0.07460379735794183 -0.008171095189299019
0002b0 8e 40 85 68 40 af 9c bf 1b c8 45 67 25 e4 b5 bf
       -0.02801228177969555 -0.08551248332312904
0002c0 bf c1 46 30 c8 53 86 3f 87 72 7c 13 d3 05 7b 3f
       0.010901988957670803 0.00659735156639541
0002d0 92 8b 9d 9d c9 dd c2 3f c7 6a 40 e8 32 3c 91 bf
       0.14739341922821986 -0.016831202912821277
0002e0 73 af 51 1a e4 c1 8f bf c0 0f 0d d9 e6 44 8f 3f
       -0.015506536534495052 0.015268138407584675
0002f0 42 5a 46 6a ab fd a2 3f cc f7 4f 81 bb 90 9f 3f
       0.037091595385551304 0.030825547950364116
000300 6a c7 e1 49 55 24 af 3f cb 9f ff 54 88 79 80 3f
       0.06082407500151883 0.008044304937314358
000310 d4 42 97 6e 83 f5 9f 3f 47 4c c2 97 87 5f 86 bf
       0.03120999681943 -0.010924395865265292
000320 fa 52 30 33 89 2c 9d bf 22 c2 b6 a6 91 cb 9e 3f
       -0.028490203618349398 0.030073428917321128
000330 0d 8c f0 61 bb 3c a5 3f b6 1d 40 4c 6b 50 a2 bf
       0.04147897310783586 -0.03576979928771655
000340 9f a3 2d 2d f9 bc 07 bf f6 2c e6 34 70 d6 ab bf
       -4.5276979696868456e-05 -0.054370409448063414
000350 62 8f e1 11 96 64 95 3f ff 52 9e 82 aa 0a af 3f
       0.02089151844155824 0.06062825054610776
000360 a3 fe ce 3d 2d 75 84 3f fb 81 da 80 da e3 a1 3f
       0.009989121865032152 0.034941509465401276
000370 f0 84 06 03 4d 3a b8 bf f9 55 19 e0 07 59 92 3f
       -0.0946396000276939 0.017917750409045727
000380 ad ab b5 8c 06 19 96 bf 8b 99 5f 84 a6 e1 93 3f
       -0.02157984002898743 0.019415475682671917
000390 75 99 91 ab a5 42 97 3f d4 a2 9d 97 1b 12 a9 3f
       0.02271517619774373 0.04896627641466514
0003a0 5d c5 c3 d0 e5 66 bc 3f 62 f6 47 c4 5f d5 73 3f
       0.11094509455485509 0.004842161263238861
0003b0 89 2a 17 4f cd 2b 9c bf 2d ff d0 d1 6e cb 82 3f
       -0.0275108413241392 0.009177079942787348
0003c0 a3 bd 93 6f 72 9a 9f 3f fd 24 51 de 5e 9a 89 3f
       0.03086260610592507 0.012501469764304657
0003d0 a6 24 83 6d eb 65 ac bf fa ec 37 97 86 55 b5 3f
       -0.05546508514232444 0.08333626930100371
0003e0 28 2e 44 b8 aa 44 a6 bf 3a 7b fd f4 e8 af 92 3f
       -0.043492636674354934 0.018249168351185598
0003f0 f9 52 9d b8 dd a6 91 bf b8 2a ca 4c df d0 81 3f
       -0.01723810614869856 0.008699173479972941
000400 3d 4c 1d d0 2e 17 ae bf 7e 53 e5 96 04 42 b3 bf
       -0.058770621208758624 -0.07522610362987156
000410 83 d9 e1 89 4a 2f aa bf 43 e3 49 03 27 97 a3 bf
       -0.05114205296642906 -0.03826257624763809
000420 eb b7 be 78 52 78 97 3f 9e 5e e5 95 ae 7e b3 3f
       0.022919930095376555 0.07615176353044226
000430 b8 16 3a d3 5c 3b 6e 3f 8b ec 15 8f 09 5c ba bf
       0.0036904156675657517 -0.10296687835027478
000440 48 9b dc e3 f3 ef a3 3f b3 fd 7c 38 98 9a 94 bf
       0.03894006878390727 -0.020120981643456392
000450 7e 1f 1a 7a f7 2b c0 bf ca 91 53 7f a3 62 98 bf
       -0.12634175741208858 -0.023813776632680285
000460 14 d5 ff 02 35 f6 9d 3f 2d 7a e3 48 91 39 a9 bf
       0.029259517963471884 -0.049267330310375314
000470 dd 7b 60 29 d3 f1 93 3f 27 42 e6 e1 22 b9 a9 3f
       0.01947717609447951 0.050240602565399244
000480 ef dd b6 42 af 67 82 3f 89 50 23 30 3d ca b5 3f
       0.008986825202426522 0.08511717248194563
000490 6a 19 e4 61 cf 67 b5 3f a6 2c d1 63 c6 5a af bf
       0.08361526622693352 -0.06123943298788363
0004a0 9a 1e 23 89 50 35 92 3f f9 22 dc 72 f0 7a 92 bf
       0.017781504030408436 -0.018047101030819388
0004b0 07 93 31 b1 fa 0c a2 3f 6d 3d 27 5a 6d 39 b6 bf
       0.03525527394302768 -0.08681376887328947
0004c0 29 0e 95 d8 b7 5d 71 3f 0a 4d be 96 b6 1d a8 3f
       0.004239767216236903 0.04710169401291793
0004d0 4f 95 6f 63 53 ba 64 bf e6 46 d0 a9 9c 7e ac 3f
       -0.0025302532844643576 0.05565347264213276
0004e0 e2 a0 29 1b bd 30 aa 3f 6e 9f 45 98 06 1b 83 3f
       0.05115309673857539 0.009328891298266941
0004f0 ec 27 3b 13 aa 1e b0 3f b9 ea 1c 60 b2 9d 96 bf
       0.06296790093907106 -0.022085940471906016
000500 8e 55 7e 67 1c 14 a4 bf 5b e0 28 03 13 42 97 bf
       -0.039215934403880146 -0.02271299082551113
000510 44 5c 69 6c f1 90 ad bf b2 2e 36 8f 81 50 a8 bf
       -0.05774645279296256 -0.04748921273411834
000520 fe 6f 32 88 69 cf bb bf e4 a5 07 17 66 4e 77 3f
       -0.10863360953447906 0.00569000128641892
000530 79 02 75 3c b2 69 8a 3f 29 d8 b2 33 94 77 9e bf
       0.01289691206932385 -0.029753032355721274
000540 78 f3 fd 8e a6 6d b1 bf 34 69 a3 9f 62 e3 81 bf
       -0.06807938567176375 -0.008734484192633653
000550 94 27 ba 08 b2 3e ac bf 18 8c 99 f1 2b 76 9c 3f
       -0.055165828290298397 0.027794539090233966
000560 78 8b f5 e6 fb 49 9f 3f e5 28 67 95 c6 08 7c 3f
       0.030555664035442714 0.006844306676109667
000570 db 0e b8 f0 be 20 b0 bf 99 c3 32 2f e4 e0 90 bf
       -0.0629996621792616 -0.01648289239955467
000580 a1 69 49 69 c3 3b 88 bf d9 57 2e 6b b3 2a ab bf
       -0.011832739496800583 -0.05306015666353376
000590 0d 69 2b 5c 0f 8d 89 3f a9 80 1b d8 a6 e7 77 3f
       0.012476081848423104 0.005836154685056418
0005a0 50 6c be dd d8 6e 95 bf 8f a4 1b b3 67 86 ab 3f
       -0.020930660757226882 0.05375980435730653
0005b0 71 69 03 c0 46 df b3 bf 91 28 93 b3 dd 06 a0 bf
       -0.07762567699265845 -0.03130238358569771
0005c0 71 3b c7 15 17 4c 9e bf 6d ed 21 81 9b e2 a5 bf
       -0.029587135986555994 -0.042744502557037524
0005d0 bb e1 bb 56 c9 cf aa 3f 53 6e a9 fa c1 94 ad 3f
       0.052366535031925086 0.05777555641972456
0005e0 a3 7c f0 1f 6c 33 a5 3f e3 86 d5 39 f4 c4 96 3f
       0.04140794649014736 0.022235694913780867
0005f0 1c ea 69 f3 d8 27 8c bf 03 21 a6 8a ae 54 b4 3f
       -0.013747878006360507 0.07941714177116314
000600 51 af de 1c 27 49 a9 3f dd 90 6c ff 2a 01 bf bf
       0.04938623645224872 -0.12111157165469728
000610 64 a1 b9 91 be c9 6d bf 3d 98 73 81 ad e0 a0 3f
       -0.0036362382941669703 0.03296415524691596
000620 2f 45 c8 e1 f0 e8 67 3f 44 24 2b 62 f0 32 b2 3f
       0.0029186920858214264 0.07108976742451129
000630 9e 96 3b c6 1e 44 a3 3f 47 19 ae 31 b7 14 8e 3f
       0.037629090975127996 0.014687949374785915
000640 ad e4 e0 39 f0 f4 b3 bf 47 8a 10 07 e6 84 a9 bf
       -0.07795621312188201 -0.04984206043470301
000650 8f 27 2a 61 12 59 a7 3f 5e a3 1d 3a b3 08 4a 3f
       0.045601438866540105 0.0007944941646488115
000660 bc 26 cd 83 4a ee a8 3f d4 09 da 7c b0 09 a7 bf
       0.04869301661399336 -0.04499579929417377
000670 e3 a8 dc db 9f ae b0 bf 1e be 4d 80 c4 20 98 bf
       -0.06516455762599409 -0.023562498408351222
000680 40 b6 e8 bf c6 1a c0 bf c4 36 ba eb 8a 77 a8 3f
       -0.12581714983518744 0.04778703811198917
000690 87 74 7c 64 42 26 a5 bf 2c dd c9 9d fa e3 aa 3f
       -0.041307520643592936 0.0525205915081933
0006a0 e8 46 42 b5 4f ea a6 3f 88 0d bf 3c ab f7 b0 bf
       0.04475640380509366 -0.06627912743629427
0006b0 94 cc 61 32 d7 9d 82 3f 50 a2 27 ff dc 3a 7f 3f
       0.009090119576489898 0.007624495762208541
0006c0 c6 8d c6 b8 7b bd 96 bf 54 c3 8d 2c a6 77 ac bf
       -0.022207196381385484 -0.05560035032147562
0006d0 8f 5d a2 8f 91 18 a2 bf a5 47 0d d1 e9 f6 a6 3f
       -0.0353436935267225 0.04485254933264508
0006e0 2d 76 6a 56 c6 c4 b0 bf 6c 83 7a 07 c2 a2 7f bf
       -0.06550254449617716 -0.007723577429403199
0006f0 ef 7d 6b 38 bf 7a b6 bf c2 d6 ec 8a ad 06 8e 3f
       -0.08781046988905648 0.014661174585494211
000700 fe 07 6f fc 83 ca 93 3f bb c7 83 ff 8d 77 97 bf
       0.01932722309334877 -0.022917002411254588
000710 26 40 8e 23 16 bd 84 3f 97 5b 24 da 1b 21 ab bf
       0.01012627883918078 -0.05298697507730948
000720 83 ef 28 10 5b f1 b4 3f 5a 3b 9f bb 1c 71 9f bf
       0.08180779594925806 -0.030704926444566773
000730 c8 74 b8 84 a8 1a b1 bf c8 8d e9 cf 2f 27 b6 bf
       -0.06681302299735414 -0.08653544260010115
000740 60 4c 3f 51 00 e9 12 bf ce 82 5e 15 bc 3c 81 bf
       -7.213653981290443e-05 -0.008416623499046063
000750 c2 bd 43 3d d3 e4 b1 3f 30 46 cc e8 e7 ad bf bf
       0.06989784475057717 -0.12374734338325122
000760 9e 66 19 bb 8c 50 94 3f 71 5c b1 44 97 c2 7f bf
       0.019838522834425214 -0.007753935710829927
000770 58 55 5d dc c6 18 4a bf 42 5d b7 10 8c 03 aa bf
       -0.000796410655974948 -0.0508083124547576
000780 27 bd 5f ea 6c 6b b6 bf cc 0d 43 46 d3 56 87 bf
       -0.08757668230076786 -0.011396074849819103
000790 bd 7c f8 fe 9b 80 b4 3f ac fc e0 d0 25 5d b8 3f
       0.08008742308492152 0.09517132138806755
0007a0 5a ed 8a 3f 67 65 ae 3f ee 70 f4 87 68 66 a7 bf
       0.05936739588420421 -0.045703188510943224
0007b0 d0 d2 0c 3d f6 72 b0 3f 4e 03 fe 92 25 b7 9b 3f
       0.0642541789100719 0.02706583699864789
0007c0 78 aa 0b 4d 2c 0c 9f 3f 73 3b 43 31 2b 71 a0 bf
       0.030319874002922437 -0.032113408816818366
0007d0 d0 04 8f 72 47 69 64 3f 99 3c 9a c5 df 63 a7 3f
       0.0024916072329409303 0.04568385398044334
0007e0 8b 77 0c b5 2f d5 a0 bf 73 b0 11 3c 8c 7c 99 3f
       -0.03287648282115104 0.024889174619986364
0007f0 10 9a 30 0b 12 b3 b4 3f f8 ba b1 d4 f8 ee 9e bf
       0.08085739873113362 -0.03020848081763014

weights_hidden_output f8 [128, 10]
000000 2a 4f f3 6e 03 e1 b1 bf 81 4c 9b 5c 7f 39 c1 3f
       -0.06983968218565609 0.13456718465622333
000010 d2 e8 67 ee 3d 56 a4 bf 93 46 ff 7d 72 a8 b0 bf
       -0.03972047362545229 -0.06507030082800673
000020 12 e1 fc 32 24 78 53 3f 4c 7a 8c a2 1d d1 b8 3f
       0.0011883119113474433 0.096940853295089
000030 06 f8 18 8e 88 f0 9f 3f 32 ee 4b 16 2f 49 b4 bf
       0.03119099967283747 -0.07924169821119945
000040 0d 3b 80 7c 94 7b b2 3f 00 d2 11 d0 c1 a5 a2 3f
       0.07219818152973918 0.036420876168367755
000050 1e 81 8b bb 55 7e 92 bf 66 b1 4c d2 ba 1a a6 3f
       -0.018060054370722438 0.04317268197187012
000060 e9 92 7e b0 25 b0 c5 3f 29 cd 8d 06 92 f4 b9 bf
       0.16943808668033647 -0.1013880983353387
000070 f5 ec a1 fc b5 0c 93 bf 60 f4 7e ec 52 9d b5 bf
       -0.01860317568251176 -0.08443182252718051
000080 e9 00 1c 04 57 8c a9 3f 64 b6 f3 49 97 fe b9 3f
       0.04989883351481856 0.10154099994152826
000090 7d 03 e6 24 6b 40 ae 3f e0 27 f8 68 99 0e 92 bf
       0.059085224394045156 -0.01763381674940223
0000a0 d5 98 01 48 6f 45 b6 bf de 4b 9d 9e 2e 46 b4 bf
       -0.08699698932614137 -0.07919589397833657
0000b0 9c a3 04 d6 08 6d a9 bf e4 8a f6 2b d5 73 a8 3f
       -0.04965999233747384 0.047758733383735735
0000c0 d8 ea 30 0f af 38 9a 3f 3c 95 18 05 ce c5 a1 bf
       0.025606856634321357 -0.034712255594323754
0000d0 d5 fc 4c b4 2d 79 93 3f 95 05 1f 47 8b d5 a1 bf
       0.019016946916278272 -0.03483233683756307
0000e0 f4 af 80 67 cd f4 bc bf 23 e4 e1 a5 be 0d c1 3f
       -0.11311038758202568 0.13323195552564568
0000f0 dd 96 e7 45 2b 9a a7 bf 65 ec d8 7c 1e 65 b4 3f
       -0.046098091395647 0.07966795490294627
000100 38 35 98 be 08 29 b1 3f 80 d4 57 23 08 36 a2 3f
       0.06703238156497526 0.03556847983774336
000110 e7 8e 90 e0 31 ab a2 bf 3e a2 e0 18 88 a8 b0 bf
       -0.0364623629214103 -0.06507158858642811
000120 64 f0 fa 36 fc 5d c7 bf ee 48 d5 c3 12 c3 c7 3f
       -0.18255570110875674 0.18564066469350088
000130 9b 58 b1 25 e2 a1 a5 bf 25 98 1d da 29 f0 b2 bf
       -0.04225069723240545 -0.07397710394943198
000140 3a e4 69 01 3c cd b5 bf cb d7 d5 62 3e 73 97 bf
       -0.08516287836563743 -0.02290055731051392
000150 26 76 63 f3 3a fa ad bf af 36 03 a6 2e e0 c5 bf
       -0.05854973050166405 -0.17090399843293855
000160 ed 66 bd d3 66 12 a4 bf 65 fe c9 69 8b 85 69 3f
       -0.03920289358820903 0.0031154368319333153
000170 9c c7 38 42 e4 76 86 3f 6e d6 66 83 6e b0 b4 3f
       0.010968955298355891 0.08081713398026988
000180 a7 1e 10 a2 8f 1f c0 bf 48 85 d2 1b 1a 6c c0 3f
       -0.12596316731673093 0.12829901083481787
000190 27 60 da d3 43 51 d0 bf 8e 94 4f a0 95 15 a2 bf
       -0.25496001900455884 -0.035320926493832436
0001a0 ad 9d 78 5a b9 0c 64 bf 88 4a b6 98 7f 08 b7 bf
       -0.002447473543515341 -0.08997342565843713
0001b0 57 9e 54 36 a6 98 c2 3f df 96 be 9b a4 9e a8 bf
       0.14528348591669513 -0.04808535004785396
0001c0 3a 0f 5f c7 15 fc 95 bf f0 c7 88 b2 51 6b 9e 3f
       -0.021469440740261116 0.02970626499354262
0001d0 15 23 2f 1d 55 67 9e bf 6e a4 64 21 83 cc ad 3f
       -0.02969105711580074 0.05820092947608023
0001e0 23 68 54 f6 12 e8 a0 3f 03 2d 86 ea ed a1 c3 3f
       0.03302058464960591 0.15337919188855417
0001f0 b4 03 11 cd 33 a3 97 3f 05 f5 7f b1 6d 4b aa 3f
       0.02308350504995689 0.05135672370668413
000200 f0 80 dd 8f a5 00 a7 bf 79 0d 5f 1a b5 53 a0 3f
       -0.044926809131313195 0.03188863703646922
000210 eb a4 55 8e 76 30 b5 3f 23 8e e1 e6 bc 36 a4 3f
       0.08277073836292785 0.039480117019391046
000220 c2 f7 57 22 dc 14 b5 bf 6e 55 38 26 29 31 bd 3f
       -0.08234954679934872 0.11403138335329796
000230 24 9a 55 bf 04 51 b0 bf 76 92 ba 03 30 34 6f 3f
       -0.0637362448811492 0.003809064653824297
000240 c9 25 5d 01 95 85 ba 3f b0 df f7 8a 9e 5e b9 3f
       0.10360080035493192 0.09910002606181822
000250 70 93 c4 28 3e eb 48 3f 80 d9 c8 3c 0f fd 79 bf
       0.0007604650032005788 -0.00634485199093715
000260 b4 c0 f8 32 55 22 c0 bf a2 fc bc 08 6f 0a ad 3f
       -0.1260477541814048 0.05672022802036138
000270 b1 c2 ea b7 7f 2b 75 3f 57 b3 62 d6 a2 4c b5 3f
       0.00516843690881845 0.08320062383672898
000280 54 3f 36 e8 e5 52 a9 3f 4c 86 dd d9 a0 13 b5 3f
       0.049460587116412796 0.08233075446107668
000290 49 5a 7f f2 8d a2 c6 bf 21 6b 75 94 bf b3 87 bf
       -0.17683576908776136 -0.011573311536883292
0002a0 b0 b4 84 9a f8 ce a3 bf d1 13 bd 8b ba 8a ad bf
       -0.038688439237696826 -0.057699040944988796
0002b0 b0 9c 0d d2 6f 7d a7 3f 31 ba a5 3b a9 98 b7 3f
       0.045878881827598916 0.09217317301020313
0002c0 ba 4d 7a 21 cc ac 82 bf 77 5d 51 21 9d 91 c6 bf
       -0.00911864735761624 -0.1763187802014092
0002d0 92 3d f1 0e 81 ae b8 3f 14 ca c4 a9 60 75 92 3f
       0.096412721775087 0.01802588497339215
0002e0 61 6c 8a c9 3a bb b1 3f af d2 90 eb 3e b9 cb 3f
       0.06926314754893916 0.21659075262291114
0002f0 26 b2 35 9c 6c 80 77 3f 33 85 19 95 08 41 ad 3f
       0.005737709292003268 0.0571367914205986
000300 07 72 95 57 8f ce bd bf 37 90 2c d8 bc 23 aa bf
       -0.1164331044032637 -0.05105390681117721
000310 83 8a 04 c9 c3 c3 9a bf 97 77 c9 22 4a bb c4 bf
       -0.026137408394002037 -0.16196562479575213
000320 d2 42 8b de 3a c1 bc bf 34 e0 06 7e 8b ce d1 3f
       -0.11232345517351952 0.2782314997416535
000330 9e 19 26 e6 27 20 9d 3f 83 4a cc c3 01 3a aa bf
       0.028442977354211522 -0.05122380747902346
000340 97 e2 a9 cc 00 b9 a0 3f ff 33 87 ff 03 72 bd bf
       0.03266146181426171 -0.11502099026183997
000350 ba d5 5a d7 e9 5d 8b bf 8e d9 98 b0 24 7e b9 bf
       -0.013362719425780923 -0.0995810443062963
000360 b7 cb 09 5e 27 eb a7 bf cd b3 53 ee 3d dc a3 3f
       -0.04671595595291172 0.038789687483450665
000370 49 01 38 b9 ba 5a a3 3f 4f e2 c1 b9 7a a2 ab 3f
       0.037801585302079284 0.05397399442239658
000380 03 3f 76 79 21 02 9c bf 03 b2 e9 ea 98 a3 b6 bf
       -0.027351878202863677 -0.08843379721810866
000390 d4 11 13 8c 8a 48 41 3f ed 1a ec 46 30 72 6a 3f
       0.0005274464130243192 0.003228277484029865
0003a0 71 18 26 55 63 25 c0 3f e6 64 cd ba a2 ec 99 3f
       0.1261409917607952 0.025316755916127053
0003b0 b5 34 53 5c 2a 3e a7 3f 2b a3 d3 fe 5f 24 b9 3f
       0.04539615990652505 0.09821128817897022
0003c0 c2 39 7e 4b 19 bc 82 3f e8 56 33 2e 06 3f b5 3f
       0.009147832504621149 0.08299292209570874
0003d0 28 df 5c 01 65 b7 bb bf b1 59 91 2a e0 53 b5 bf
       -0.10826712878485678 -0.0833110908436996
0003e0 92 bc df f3 3f 8c c5 3f 7a 3e 9d 18 b0 bc 95 bf
       0.16834258468540902 -0.021227599623044636
0003f0 72 fd 87 17 de 6b 79 bf a1 88 3d 59 ec ea b4 bf
       -0.006206386133725915 -0.08170964411468386
000400 a8 7e 65 75 03 de bc bf d2 81 8e c0 b6 2b a0 3f
       -0.11276265731930357 0.03158351040406483
000410 79 06 3f 26 b0 60 c3 bf 91 c7 3c a2 74 03 73 bf
       -0.15138818614473218 -0.004641967392489025
000420 64 f7 8a 01 b0 60 a2 bf 15 df ec 5f d8 83 ab 3f
       -0.035893917263350145 0.053740274152401714
000430 90 c0 ff 04 21 85 c4 3f 10 77 3a 85 57 00 a5 3f
       0.16031277412503586 0.041018233311872376
000440 66 b8 73 87 1d b6 c5 bf 81 a0 8c 82 51 b2 b5 3f
       -0.16962021936291477 0.08475217282523496
000450 ac 86 c9 9c 38 68 ca bf 1e d6 e9 a1 a4 2e a6 3f
       -0.20630557685494944 0.04332460857851238
000460 da e9 2f 58 1b 87 98 3f 67 bc ca f4 fe f8 90 3f
       0.023952891595380034 0.016574844065584318
000470 61 a7 cd 63 ac b5 97 bf 7a bc 73 22 8a 1e a8 bf
       -0.023153966514122163 -0.04710799856717869
000480 5c 6a 5d 61 f3 a1 be bf 31 91 26 0d 5b b1 a6 bf
       -0.11965867163727623 -0.044321866374306025
000490 fb b3 a3 e5 a8 a3 c4 bf 09 30 53 e8 6b 6f 85 3f
       -0.16124449932922844 0.010466425921912064
0004a0 11 da 4d 67 8e a4 70 3f c5 fb ee 0b 3a 9c b9 3f
       0.004063183082385639 0.10004008094163826
0004b0 30 62 94 00 4f 63 a5 3f d7 6c 2e 16 e4 e0 a0 3f
       0.0417732895095394 0.03296578188675319
0004c0 49 e5 c3 e5 c3 b0 c5 3f f6 e2 fc 34 7d 3e d1 3f
       0.1694569465542293 0.26943903135865754
0004d0 88 7a 2f 61 61 6a a8 bf 2e bf 75 c9 bc 2f ae 3f
       -0.04768661795946111 0.05895795783260237
0004e0 fa ce a4 b6 b2 4e c0 3f 48 77 1d 2a d5 d7 bf 3f
       0.12740167539742925 0.12438709524346081
0004f0 8c 08 db 9a d8 b9 c6 3f 34 6e 38 24 bc ae bb bf
       0.17754657326992562 -0.10813499340331917
000500 f4 06 aa 10 f0 07 90 3f b1 0d 1f cc 4f 4c b6 3f
       0.015655280129528173 0.08710192426138154
000510 8a 91 e8 d2 82 38 7a bf 31 db 22 d3 dd c6 c5 bf
       -0.006401549368579737 -0.17013142403967543
000520 14 dd 83 2e f2 fd a3 3f ca f4 8b 5b ba ec b1 3f
       0.03904682939349349 0.07001843199755622
000530 5e 27 c5 84 40 80 c1 bf c8 c6 35 6f da ff bb bf
       -0.1367264412204418 -0.10937276091660941
000540 a0 4b b1 a7 20 b4 82 3f 98 ea e0 aa ce 8b 9c bf
       0.009132628552981192 -0.027877072505570227
000550 d5 7a 00 8b a0 1c ad bf e2 20 cf d7 65 ec 95 3f
       -0.05685903260040496 0.02140959863371073
000560 44 7f c9 fd d8 78 ac 3f 81 03 66 c6 03 30 c3 3f
       0.05560949419009245 0.14990279376436536
000570 ea 2d 25 05 82 a7 a3 3f c6 3d 57 3a d0 86 9b bf
       0.03838735878761297 -0.02688145977100278
000580 33 5d 2a a5 8b d4 b6 3f bc a0 91 70 a9 69 9b bf
       0.08918068678245987 -0.02677025556150235
000590 cb 0b ea 53 2c 86 b1 3f 3a 8e 50 dd 40 61 ae 3f
       0.0684535698765522 0.05933573438258262
0005a0 97 7d 7f d3 ab db c1 bf c8 1f ea 39 8e d6 58 3f
       -0.13951633288432383 0.001515997784425226
0005b0 8e b0 e6 74 27 54 b4 3f 60 28 f3 32 2b 55 a8 bf
       0.07940909008056193 -0.04752478596636034
0005c0 7e cf cf b8 e8 5f a4 3f 4b 8f a7 d4 cd ee ca bf
       0.03979422813418319 -0.2104127205230902
0005d0 ae b8 ad 18 60 82 92 bf e8 2d 6a 17 c2 f4 b6 3f
       -0.018075467592489396 0.08967221328401076
0005e0 ea e0 f9 88 a0 29 a0 3f b2 10 fb 7d b1 ad a2 bf
       0.03156758949347867 -0.03648142493105534
0005f0 b4 e6 f2 cc 24 8b b7 3f b1 86 38 ec d0 fd a2 bf
       0.09196691516526806 -0.03709271319918395
000600 11 6f b4 8a f9 00 be bf d5 8b e7 17 92 21 b4 bf
       -0.11720237385128153 -0.07863724788289457
000610 0a 0e f5 43 df 3e 92 3f d3 28 32 a4 39 77 ce bf
       0.01781796314504728 -0.23801346318607006
000620 e9 68 2e 5b 7a a2 a1 bf 63 9c 4a 4f 12 11 aa 3f
       -0.03444273341229282 0.050911495379573755
000630 c6 a9 83 bc d0 10 88 bf c6 55 bb 2e da d9 b5 3f
       -0.011750822785377656 0.08535541191971338
000640 84 a1 ba 5f e1 59 90 bf 2a f3 1f 84 d0 d1 a9 bf
       -0.015967866390071986 -0.050428882721439486
000650 69 f2 4d 90 c8 e3 be bf 75 52 ff fe 12 25 96 bf
       -0.12066319964464757 -0.02162580186252901
000660 0a a1 a3 f0 00 48 a4 3f 46 89 28 12 21 2f a6 bf
       0.03961184442033712 -0.04332831713351708
000670 ae fc b2 b7 73 e1 91 3f 65 31 4e 7d 8b bf c6 3f
       0.017461593711001804 0.17772048586301561
000680 72 a5 d4 11 0a e9 8f 3f cd d5 dc 92 d8 b8 af bf
       0.015581206006191482 -0.06195713799244693
000690 29 f9 4e b5 ec 65 b0 bf 28 c7 c8 27 b7 8e b2 bf
       -0.06405524660565177 -0.07249016495987048
0006a0 70 94 7b e7 4b 1e ac 3f 9c 08 1c 89 28 80 9a 3f
       0.05491864395825352 0.02587951027727141
0006b0 eb a2 73 28 94 e3 82 3f 97 35 1b d2 1d 1a c1 bf
       0.009223134502876337 -0.1336095119390108
0006c0 52 57 04 25 18 b3 ad bf d5 4e 53 0e 41 73 b4 3f
       -0.058007006186172064 0.07988363837949504
0006d0 41 35 0c d2 05 27 c1 bf 37 02 08 b9 82 d1 bf 3f
       -0.13400337940439935 0.1242906285988362
0006e0 2c 2a b4 8b e2 27 d2 bf 53 89 68 26 09 40 c9 3f
       -0.2836843838019003 0.19726671576888552
0006f0 10 2c 36 cb 36 1f 95 3f 32 09 48 3e 92 02 97 bf
       0.020626884606411322 -0.0224707460893196
000700 bd 10 57 c9 8b 48 c8 bf 4b d6 82 a5 cc 2e b5 3f
       -0.18971392947253732 0.08274535218046102
000710 16 f5 45 b0 65 78 92 3f 32 fd 91 9e a2 5c 53 bf
       0.018037403949610363 -0.001181753929159712
000720 d5 2f 4a 07 0e 9f c7 3f 52 f2 da d4 1b e7 a4 bf
       0.1845414672465028 -0.040825719579036815
000730 c7 14 73 81 6e 96 be bf 32 ba a2 d5 cd 97 99 bf
       -0.11948290501011903 -0.0249931489603858
000740 b0 4c 9f 72 62 91 60 3f ef 90 91 59 63 3c 9f 3f
       0.0020224497611508116 0.030503799764475422
000750 4f d3 34 21 99 e6 d3 3f 50 c4 57 28 7f b8 a7 bf
       0.3109495949059253 -0.04632947318521785
000760 46 63 a6 5d 63 3f c0 3f a8 ee a3 2a 17 2c ca bf
       0.12693445275069787 -0.20447053510712476
000770 bb e0 23 76 59 fb 8d bf ea 60 43 24 3a 50 c1 3f
       -0.014639567296839897 0.1352608372751612
000780 50 35 33 1f 81 4e 85 3f 3d c7 8f 8a ff 10 bc bf
       0.010403641476296827 -0.10963437207081213
000790 c0 c2 0f b2 f2 a9 b0 bf c8 6a 95 ce 9d 03 5c bf
       -0.06509320113378703 -0.0017098465999284985
0007a0 98 3a 63 eb 6d 9c b1 bf 10 10 74 9e 68 a7 92 3f
       -0.06879317280547992 0.018216738387323572
0007b0 88 4b 5d 8c 3a 4e b7 3f 52 15 aa f5 fe f9 95 bf
       0.09103742529741343 -0.021461471313633247
0007c0 16 b5 ac ec d1 2d b6 bf 59 29 67 93 1a 83 8e 3f
       -0.0866366579836789 0.014898498175985141
0007d0 2a 0d 21 d8 49 7e ac bf 77 92 0c bf c8 0c be 3f
       -0.05565100444121136 0.1173825708797923
0007e0 6e b9 a9 84 74 9a cc 3f f8 35 5b ef 13 90 c4 3f
       0.22346359708485458 0.16064690768546064
0007f0 13 91 e9 d2 5c 46 c6 bf 73 ec bd 2c 62 eb 87 3f
       -0.17402229593711435 0.011679427137769793

bias_hidden f8 [1, 128]
000000 0f e8 28 1d 59 28 71 3f 3a ad f6 9b 85 ab 82 3f
       0.004188869572823619 0.00911621458256794
000010 36 dc 18 9c ce 71 7b 3f 50 e5 c1 5a 34 b9 4c bf
       0.006700331754067304 -0.000876570285540593
000020 00 c2 b0 9f 46 2d 14 bf 2e 55 1b 8f 1c 7a 6c bf
       -7.696860841189396e-05 -0.0034761960786037415
000030 94 48 a7 6f 68 19 6f 3f 02 4a 47 55 51 04 90 3f
       0.0037962951439363766 0.015641470746979642
000040 ac 71 02 60 2d a5 8d 3f fa 5b f0 51 b0 06 97 3f
       0.014475206844786502 0.022486453057435775
000050 5a 8b c3 c5 b9 93 99 3f a7 31 55 4f c5 38 60 bf
       0.024977591224238573 -0.001980195399175783
000060 14 6e 27 98 28 20 53 3f d0 2d 20 f5 b2 17 98 3f
       0.0011673351697173472 0.02352790471199545
000070 b4 5c 22 a2 04 cd 7c bf e4 00 86 5d 06 be 70 3f
       -0.0070314579953880026 0.00408747183280431
000080 3b 40 10 90 95 4b 83 3f 80 ce 85 7b 05 59 32 bf
       0.009421509226768978 -0.00027996429300645304
000090 5e 7e 30 32 d3 52 89 3f 03 5f 84 21 14 88 77 bf
       0.012365007371101185 -0.00574500907557485
0000a0 74 e7 5a 67 11 02 7c bf c2 7d 59 7d a3 75 59 bf
       -0.0068379096825824555 -0.001553926141603643
0000b0 18 17 f3 9f eb 5a a3 3f 94 75 6e c1 2e 99 72 3f
       0.03780304267415441 0.004540617598562408
0000c0 a8 97 d2 c0 ff 13 50 bf fa af e9 32 dc dc a2 3f
       -0.0009813306417440857 0.036841279234835114
0000d0 00 7c 31 eb 39 7e 77 3f 88 ea 4d 89 1d 44 7d bf
       0.0057356131029271396 -0.007145038009975686
0000e0 e9 cf f7 09 c7 24 7b 3f 1d 9d e9 a6 e8 50 87 3f
       0.006626870628213746 0.011384790033118148
0000f0 68 d2 a6 12 16 d9 3a bf ff 77 ce 48 d5 82 90 3f
       -0.0004096678627789952 0.01612408882976268
000100 c6 45 93 c5 57 ba 9a 3f 84 57 85 92 50 b8 61 3f
       0.026101466592825216 0.0021630834273009287
000110 e8 40 d8 89 64 68 72 3f 2d 76 e7 29 e1 3f 6c bf
       0.004494087913841073 -0.003448428891018171
000120 fc 33 87 62 e7 06 6a 3f 4f 71 6d ed 8a 95 59 3f
       0.0031771201358652395 0.00156153266080768
000130 37 be c3 6b 3b 32 72 3f 70 a9 ee d5 0f 78 52 bf
       0.004442436326129554 -0.0011272577901118817
000140 48 8a 5b 8e 73 30 53 3f c4 78 ef d2 d7 bd 33 3f
       0.0011712196805368103 0.0003012325204830963
000150 56 e5 c7 2c a1 26 79 bf a2 48 96 5a 4b 77 90 3f
       -0.006140355672408523 0.016080071834558958
000160 ab 0f 19 71 bc 95 64 3f 12 7e 50 d4 7f 86 98 3f
       0.0025128059867558137 0.02395057423939135
000170 20 ca 62 75 da 69 62 bf 88 5c da 0b 40 24 82 3f
       -0.0022477404373486692 0.008858204232906411
000180 70 88 a5 68 08 9a 73 3f 11 52 77 37 b1 2a 6b 3f
       0.004785569044857593 0.0033162556899049085
000190 44 b2 d6 e6 ea fb 84 3f d4 58 0f 0d 61 10 3a 3f
       0.010246119660984772 0.00039770478639179524
0001a0 4c ad a6 3f fc 99 93 3f 9c 06 cc 3b 43 d3 70 bf
       0.01914209497924206 -0.004107725745372239
0001b0 25 e0 69 ea 88 8a 90 3f 74 49 ac 4f fa e7 74 3f
       0.016153468425244583 0.00510404374905914
0001c0 2a 6c fc b1 74 7b 81 bf 28 50 8d a6 f1 0f 62 3f
       -0.008536254579260289 0.0022048682916793357
0001d0 42 75 68 00 e1 5c 7a bf 64 04 cc 17 a5 ac 6a 3f
       -0.006436232483364281 0.003256151625806102
0001e0 17 21 87 76 2a 93 8d bf 63 f4 fe 7a a9 7f 89 bf
       -0.01444085287302292 -0.01245052725414037
0001f0 ca 2c 58 b2 98 5a 95 3f c8 cd 5c 84 9d 25 61 bf
       0.02085341061142002 -0.0020931316857059935
000200 5c aa bd 26 16 1b 92 3f 5a e6 c0 dc 9f fa 70 bf
       0.01768145190673419 -0.004145264112645453
000210 c6 62 c7 e6 3b 22 52 bf b0 d4 d8 82 0c 91 65 3f
       -0.0011067948317899242 0.002632641254218436
000220 67 3a 4c 67 23 56 60 3f ce e4 70 ec bb 4c 81 bf
       0.00199419893977586 -0.008447139886003898
000230 e4 5b de f2 3e 11 71 3f 03 7d 6f 8f 01 53 7c bf
       0.004166837590580539 -0.0069150982808132725
000240 36 40 35 cc e5 8b 8b 3f 2d 9c 83 bb ad c6 93 bf
       0.013450427336152964 -0.01931258637423754
000250 a2 b5 30 e9 89 3e 56 bf f5 46 a7 df a8 bc 75 bf
       -0.001357683828938285 -0.005306872999840219
000260 73 6e 75 d8 1e 99 87 3f 5e 6c a7 e7 14 6e 79 3f
       0.011522522908016008 0.006208497676619988
000270 70 8c 35 c9 2b cc 6d 3f 73 72 47 47 f6 3c 71 bf
       0.003637395400504277 -0.004208528542645073
000280 60 b6 8c 17 bd 57 46 bf 1c 09 29 dc 61 d9 76 bf
       -0.0006818459797607972 -0.00557840563357306
000290 05 e5 a1 fa 1d 5a 89 3f 38 e0 a8 6c 3a 82 70 bf
       0.012378915988153336 -0.004030445309176449
0002a0 cc d5 3a bf b5 72 61 bf 4f 2f da 59 63 9d 71 bf
       -0.0021298932786872667 -0.004300487603938154
0002b0 1a ca 10 cd 79 8d 8f 3f 8a 3c d6 4e e6 c0 77 bf
       0.015406562395672774 -0.005799197807745968
0002c0 59 d4 1e ea 95 05 8a 3f fc fd 8c 35 90 b9 53 bf
       0.012705966193474237 -0.001203909711151029
0002d0 08 6e f0 f0 d0 7f 63 bf ea b7 b4 25 5a f9 61 3f
       -0.0023802834398460905 0.002194095677302767
0002e0 86 6c 50 6a 65 3b 86 3f 00 b4 96 3a e4 59 85 3f
       0.010855476672125396 0.01042536071585154
0002f0 23 79 ed 07 b5 cd 73 3f 4b cf 2d 62 2c 8f 66 bf
       0.0048348495027694975 -0.0027538172593554503
000300 48 3d 5d 36 22 4f 80 bf 78 03 5f ac bc 71 83 bf
       -0.007963435443939418 -0.009494279871320663
000310 6a be a8 99 da 8f 90 3f b9 34 69 0a 97 fb 7c 3f
       0.016173759106264653 0.0070758724237524545
000320 3e 6d 74 43 d9 df 62 bf a9 e4 18 05 b9 da 91 3f
       -0.0023040049960748868 0.017435923515425476
000330 5e c2 da c1 ec b7 8e 3f df 48 6d 77 3a 31 90 3f
       0.014999246278734887 0.01581279138492497
000340 f6 fb 04 ff cc 52 9d 3f 58 c4 6b ff 2f 78 30 bf
       0.02863617235675161 -0.00025130435771731274
000350 e0 7e bb 74 cd 50 72 bf 02 4b ff 5b 99 b8 89 bf
       -0.004471590578503742 -0.012559126014740855
000360 0c b1 71 b3 9d 1e 89 3f 76 33 5b ee d4 7b 70 3f
       0.012265426672648981 0.004024345171001245
000370 77 20 b2 28 8a ed 79 3f 68 b7 2d 22 07 30 64 bf
       0.006330051120251415 -0.0024643077207916926
000380 9a 0d b8 8a 79 a3 72 3f 88 8d bb 9b ae 58 6d bf
       0.004550432942326843 -0.003582325965781844
000390 34 c6 78 b9 f8 27 9c 3f fa 7f 4a c1 c3 99 8c 3f
       0.0274962294772136 0.01396515782954565
0003a0 7e 1c fb 98 f0 e3 33 bf 2d 5e 51 a7 41 3a 92 3f
       -0.0003035032650413118 0.017800355756064135
0003b0 72 06 8d 8b cb 2f 99 3f c6 94 08 e3 70 73 8c 3f
       0.024596386330137006 0.01389206116534537
0003c0 fe 07 a0 2b f7 d7 8f 3f 18 96 ab d1 fd fd 8a 3f
       0.01554864026912028 0.013179762803200254
0003d0 0d ca 5d c5 47 13 5e bf 99 89 3e cf 9b 88 9b 3f
       -0.001835651482420378 0.026888308071315235
0003e0 1a cb b3 0a 15 01 7d 3f 8c fe 89 90 14 36 70 3f
       0.007081110186151896 0.003957825022211769
0003f0 6f e4 6b 86 23 bd 7e 3f 50 2a 46 bb 46 0c 40 bf
       0.007504595537050836 -0.0004897446984142937

bias_output f8 [1, 10]
000000 26 b0 96 fe eb b5 b9 bf 91 f5 b5 cb 2d 19 ac 3f
       -0.10043215718786822 0.05487959968284451
000010 81 38 d6 d4 a4 b3 91 3f 40 23 51 fd 3e 46 64 bf
       0.017286849489714932 -0.0024749021781968195
000020 dc bb f0 4c 0a e1 80 3f 7f 71 c8 95 a3 05 a5 3f
       0.008241730187448164 0.041058647188239476
000030 87 3d 69 a4 fe 89 75 3f 24 03 31 3f ba 80 aa 3f
       0.005258555122579784 0.051763363088417585
000040 06 fe cc 7d 8f ae 9b bf e8 ea fa c6 5c db a8 bf
       -0.027033083012836932 -0.048548602380341255
