models/model_cv_digs (26000).npz (npz, 815236 bytes, 4 tensors)

weights_input_hidden f8 [784, 128]
00000000: 7732 b37e d3a9 b1bf 125d ff69 f1dc a9bf
00000010: 09f8 4ac3 57e1 b83f dee9 fe40 c485 95bf
00000020: f60b e46d 7b96 ad3f f261 178c 197f 873f
00000030: fc8d 10d1 a6f4 98bf 4ac4 c177 b558 adbf
00000040: 40e7 c90c a012 afbf af22 23ca 8cd8 b2bf
00000050: 0fa6 ee77 d56f 543f bf6e 36d6 27fc b03f
00000060: 745f 6ac8 2feb aabf d05b 5cb0 1874 7abf
00000070: 8ef5 27e3 c197 a9bf 3202 ef00 20ae b33f
00000080: 4618 37ec 3d74 82bf 777b 9c1e f2a9 7d3f
00000090: 67ee 963c 1630 97bf 1559 dfab 7ffa 9dbf
000000a0: e9f4 cb61 90d9 8b3f a281 2d83 a696 9dbf
000000b0: 8af0 1c58 5595 ac3f 8a2d 3d1e c294 74bf
000000c0: d4ed cac8 0568 98bf 8588 9a4c 1694 9bbf
000000d0: e67b 339d 05b8 563f 0f69 9274 47a8 b2bf
000000e0: d5b4 e8b7 339c 97bf 4ba7 8bbc 4672 57bf
000000f0: 949b bda3 be58 a33f 4131 8b1f fcab 9abf
00000100: 2bfe 576f 4f47 6dbf 7a8b f1e9 aceb b93f
00000110: 95ea d4e5 5b06 8f3f bb87 b08c a392 6abf
00000120: 7cba 2689 2203 b0bf 383b d5f8 8ea0 a5bf
00000130: 0296 be12 fdbd 903f 25a1 33f9 0d13 a83f
00000140: 9679 81ea 35b7 9abf 45e9 8e7e 49d0 b0bf
00000150: d4d4 843c 5f3e 8ebf 1a58 0d63 456f a73f
00000160: 2611 09e4 354b a73f f3dd 92d8 4175 b03f
00000170: 1327 f566 3270 6bbf a594 3127 ef88 9c3f
00000180: de63 7fd7 a4cd 713f cb30 09e9 21de a0bf
00000190: 0d39 2ade 840c c03f 0868 a2e7 fab2 9f3f
000001a0: 1424 d100 b83d b1bf 2d83 b7ea 5fdc 9ebf
000001b0: e6a8 1a07 e5c0 933f 6bde f401 2242 8abf
000001c0: 346e 4b15 7d4f b0bf 2459 be28 282f aabf
000001d0: de43 beee 957a 51bf a205 b065 ed32 b5bf
000001e0: 1fb9 9b98 d218 a5bf afa0 df8d e091 763f
000001f0: 0aca a6b4 54a7 89bf e682 b61b 5797 a7bf
00000200: 5e0e f5c9 3d8c 92bf 26ca a8a6 365b a13f
00000210: ef43 0341 7dfd b33f eb8e 5a6e f907 90bf
00000220: 36d6 33e4 45ce a1bf 60ee eb5c b284 74bf
00000230: 220a e63d 5e77 b7bf e36e 2bef cc24 a0bf
00000240: a9ae f9e2 0902 903f 6146 6195 12cc b3bf
00000250: 5d12 afca 713d a1bf 0ea4 d217 a61b aa3f
00000260: 6863 2166 e96d b8bf 7a21 d0f3 4298 a83f
00000270: b75c 0f61 5391 b13f 3fc9 b57a 3244 6b3f
00000280: b6ee a4d8 f173 b83f 776c c3e7 a3cc bbbf
00000290: fe73 619f 8005 a6bf 2527 6190 5a8a 8ebf
000002a0: c1cd de98 7626 a0bf 8ecc 2d6c ae55 b5bf
000002b0: 3484 2434 b45c 743f 34f3 071e b236 653f
000002c0: 2a9b 731a b746 92bf e545 7c95 9d40 9bbf
000002d0: 3142 7712 b6f6 7c3f ec64 d9fa 0ba8 a33f
000002e0: ca01 8389 6abd b0bf ecd0 f089 9659 a43f
000002f0: 78a1 2af4 ddc9 97bf cb2f e5d0 d8ac 85bf
00000300: f604 fd74 6c48 be3f ab6e c430 3c84 b43f
00000310: 293c c738 dc38 af3f ed7c 0f6b 7427 a43f
00000320: 3d37 e9d9 ca80 9b3f 18be 6ce2 2651 a7bf
00000330: 8036 10fc a742 94bf 0ce2 3da6 9230 74bf
00000340: 261c 2d31 a932 8dbf 21fa 1c0e 94e5 ac3f
00000350: a216 a256 1cc4 81bf c568 bcce 5af0 743f
00000360: 4521 eb1d 2fb4 a23f 596d 3c23 8de1 8e3f
00000370: 3899 0cbe f5d2 b13f a2ae 3d19 3d82 bc3f
00000380: 0424 4c1a 60b7 79bf f065 0bf2 1157 a2bf
00000390: 2439 ec30 9417 b9bf ee71 88c0 19da abbf
000003a0: b57b b010 468b 83bf 7d72 2c48 2e64 8b3f
000003b0: 7444 619f eec6 9cbf 6960 b70a 6030 923f
000003c0: 3162 526c 6265 9d3f cf60 1448 3675 7ebf
000003d0: 4337 3ee0 cc44 a33f d84b 9c66 0853 7d3f
000003e0: ba49 0ed3 e9b6 b4bf 6605 1150 b121 9cbf
000003f0: 4a8c 72d0 625d 933f 7771 c2a5 cda9 693f
00000400: 4040 eb29 c313 a9bf a7f0 6a62 814c 9dbf
00000410: e9d8 945c b5e7 b1bf b2f0 a848 0b99 b23f
00000420: 2c39 e8b2 dcee b3bf e414 cbd8 960d 91bf
00000430: ab58 8f29 726a bcbf e701 e1ec 737a b03f
00000440: d1ad 7640 d3cd a13f 8e33 fd64 0d28 adbf
00000450: 244e a62d 7abc a5bf 90fc bb37 15be adbf
00000460: dae1 f771 1e1d 9c3f a5c8 0810 6fbd 56bf
00000470: 5391 e4ae b70b aebf f966 7c4b 66f4 a23f
00000480: d14a 125b 7929 b5bf 6e6d ac25 2ceb a8bf
00000490: d6d4 42c5 fbde 8ebf 4ce0 d04c 750e 903f
000004a0: 5603 9b4a 149c b9bf be56 3cb1 9d32 b6bf
000004b0: 6276 83a7 3c9d 64bf 88ce 825f e64f bdbf
000004c0: 8f8e c90a e183 8ebf 6035 2050 68a5 b2bf
000004d0: a587 4f2b 8c37 bcbf ba78 e7e5 4caa 6e3f
000004e0: 4e34 25ba f646 a33f 9a09 1d73 6fe8 a03f
000004f0: 0b2a 6c49 b61c b9bf 8390 63ac d6b6 9a3f
00000500: 2b05 2d7a 5846 a1bf 836a cb0b b2cd a0bf
00000510: 4e1b 9263 773d b6bf e902 a51f b4ee a5bf
00000520: 979b 1561 2e08 b33f fed2 c4cb db92 8f3f
00000530: ab27 598d 761e ad3f e964 528f d0a0 533f
00000540: 6176 3e45 8a90 9dbf a074 0fdb c443 ac3f
00000550: f855 63d3 239d b8bf a4f0 1533 6649 b5bf
00000560: 8d32 1231 5db0 a73f c3ed ba5a 06c3 98bf
00000570: f05a a565 57ec ac3f b749 e6db 1d98 9ebf
00000580: 40ba 7c35 8547 90bf db46 b701 9451 a6bf
00000590: 5fd6 6999 52c1 a13f 9f06 87be d179 a2bf
000005a0: dfd6 c4a5 9a2e 733f 28d5 4dcc 7e75 b23f
000005b0: b504 1bbb cb73 a0bf ff87 a877 e9cb 9c3f
000005c0: 7938 e6be 4d79 ae3f cfb0 dd4e f74b a33f
000005d0: 5583 6b69 d2ad 8cbf d7db e864 cc6c 703f
000005e0: e434 d239 9f5b 7d3f 0ab7 9b71 04e8 a23f
000005f0: c7f7 757f e0d9 673f 7576 60f1 40c5 c1bf
00000600: f6e1 f127 6440 6ebf f699 4773 0f76 9e3f
00000610: 56b1 c0de d47c 9b3f 1b32 922b d70d adbf
00000620: e42b c6e0 adc2 76bf 8851 1fe2 41aa 863f
00000630: 1567 4078 3f1f 923f d7ab 4a6b d3e6 923f
00000640: cdaf 3b3d 593f 913f 39e6 ad0f 8cf7 acbf
00000650: 42c4 4091 5a80 8d3f 14ed 398c de5d a1bf
00000660: 0e95 2324 e595 87bf 8df3 a1fc a2b7 853f
00000670: 7a31 9f58 fa99 b13f 7e67 919c 0e16 a63f
00000680: 5bcc c53c 590e adbf 9176 e273 803d 9bbf
00000690: 80c8 a2fa 46f8 97bf 0c06 1e28 634a 9ebf
000006a0: 72cd deb4 9cac 6f3f 33cb 7a4a e4b0 acbf
000006b0: 7125 f351 d344 9abf 3542 f320 035e 96bf
000006c0: 14c4 684e 09fa adbf e3d7 e015 98f6 923f
000006d0: f5e9 e12f 8e54 863f 06aa a15f 9e0c b7bf
000006e0: 7918 3832 5c1d a63f 2e9e 2cc9 7db3 60bf
000006f0: 736c 658f 3363 973f 2192 d0bc 3273 bb3f
00000700: a0c5 ca78 5f40 953f 85dd 2222 5fc9 b1bf
00000710: 0d57 2fa7 4a53 9d3f 16aa c45e 3d00 8d3f
00000720: 05ae 12f0 866a afbf 27cf 216f 360c a4bf
00000730: 5f63 e4e0 f7cd 8d3f ca65 87f5 ffbb b3bf
00000740: df50 f03d d339 9cbf d01a 75e3 2ec1 aabf
00000750: ca44 d041 f043 9bbf 27fe 0135 100e 9ebf
00000760: 1e61 059b 61e3 743f 0d19 40df 72b7 afbf
00000770: f6ce ce94 6784 963f a259 03c8 d537 943f
00000780: fd05 92b7 b04b b63f ece7 7789 d36e c3bf
00000790: ed84 0cf8 50db a53f 3311 6a85 205d abbf
000007a0: d7ce cf99 c145 aa3f b490 ab17 6b08 ba3f
000007b0: 892c bb72 c8b3 babf 7c10 eb38 496f b83f
000007c0: e048 0860 2e55 aabf a87d 7950 7761 95bf
000007d0: 883a e067 4d26 a0bf dfd0 cd2f 337f aabf
000007e0: 5b7a 2572 d94c c1bf 381e 2ab1 d090 b1bf
000007f0: ce9c ec0d ba2c 9e3f 502a 0b3d 69bc 6f3f
-0.06899759143125005 -0.05051378649630513 0.09718845861331728 -0.021018091647173047 0.05778871265831491 0.011472892368076668 -0.024370771894735896 -0.05731741988064039
-0.06068897396194339 -0.07361679015151411 0.001247366395299546 0.06634758930016015 -0.052575581755433115 -0.006458374444057349 -0.04998594186688897 0.07687568686288485
-0.009010776301590206 0.007242151050177329 -0.022644374321073715 -0.029275889268171335 0.013598564133185014 -0.02889499831815246 0.055826823240267734 -0.005024679445181044
-0.023834314709103868 -0.026932094979777794 0.0013866476845618646 -0.07288023563379319 -0.023056800937571637 -0.0014310541902724124 0.03778644322192473 -0.0260466951611289
-0.0035740424598314133 0.10125237189781258 0.015148847533614155 -0.003243750984908337 -0.06254783485813137 -0.042240589022745245 0.016349748868057297 0.04702037493717829
-0.026089518011184497 -0.06567820873070669 -0.014767402681722087 0.04577080568439858 0.04549568565974686 0.06428920304721668 -0.003349398080591545 0.027866112487022438
0.004346507943375292 -0.03294473619152568 0.1253820500173294 0.030956192386476317 -0.06734800357766374 -0.03013753767106946 0.019290522154428745 -0.012821450886448113
-0.06371289987458156 -0.05114102837903747 -0.0010668243585067942 -0.08280833942992286 -0.041205006722395014 0.00551021305543757 -0.01252618957810105 -0.04607650960247671
-0.01811310334347948 0.03389902862945275 0.0780866893503711 -0.01565541969342991 -0.03477686319994826 -0.0050093619636260855 -0.09166516314693543 -0.03153076571990512
0.015632776716684536 -0.07733265063259288 -0.033671909324344475 0.05099219361120087 -0.0954271196691373 0.04803666330559771 0.0686237441981231 0.003328417389348775
0.0955191759030026 -0.10859131248746388 -0.04301073022427458 -0.01491232636557844 -0.03154345146267757 -0.08333864346586692 0.004971221848138408 0.0025895575383842132
-0.017847882260777194 -0.026613676308505325 0.007071219653383796 0.03839147030948617 -0.06539026124210703 0.03974600252004898 -0.023230999019376836 -0.01058358561990493
0.11829259735261019 0.08014274778946155 0.060980684214534904 0.03936351591959828 0.026858491468650703 -0.045541014804595104 -0.019785523185467557 -0.004929135178706644
-0.014256784260977606 0.05643904373436138 -0.008674832719644702 0.005112032620468725 0.03653094520774628 0.015078642499750815 0.06962524309037554 0.11136228433832199
-0.006278396035448889 -0.03582054214139052 -0.09801603502657891 -0.054398350479662 -0.00954298723632783 0.013374673440517565 -0.028102615812092016 0.01776266160399623
0.028707063542784354 -0.007436000859591909 0.03763427960721668 0.007159264388763874 -0.08091603663186833 -0.027472277175779956 0.018910926792738793 0.0031327263405513356
-0.048978899828967304 -0.028612157470647628 -0.0699418402699369 0.0726477672951116 -0.07786349647378604 -0.01665340135766237 -0.11099923624655854 0.06436848195244914
0.0347734466734796 -0.05694619996811588 -0.04245359236952265 -0.05809084229803674 0.027454829889366518 -0.0013879379840884634 -0.05868314752504724 0.03702087089022927
-0.0826640937178056 -0.04866922340280665 -0.015073744733266652 0.0156801536688536 -0.10003783055709667 -0.08670983864825652 -0.002516382661368153 -0.11450042564211504
-0.014899976865485413 -0.07283641773411409 -0.11022258813275572 0.0037433149256989847 0.0376507856586633 0.03302334099000177 -0.0980943612341109 0.026088098785195257
-0.03373981944469969 -0.032819332065362715 -0.08687540226865773 -0.042836789000380744 0.07434358473038426 0.015416829257995254 0.056873039965082604 0.0011980091779036312
-0.028871689297025663 0.055204536190765596 -0.09614776526299085 -0.08315123316964673 0.046267425766108074 -0.0241814606549562 0.056490641744565084 -0.02987715391788878
-0.015897828473663944 -0.04359114190050458 0.03467805979464055 -0.03608565760397408 0.004683117000515684 0.07210533607379388 -0.032133452024490174 0.028121612480511256
0.059519223740708456 0.03768894994468185 -0.01400341400352693 0.0040100082538207715 0.007167455650358454 0.0369264019662819 0.0029115090107429717 -0.13883220468499116
-0.0036928135082769887 0.02974723950492294 0.02684338197302457 -0.05674621970056056 -0.0055567543134982 0.011066927636343107 0.017697326387952367 0.018458655761303646
0.016843218195319132 -0.056576134599663104 0.014404971654672253 -0.03391929113146311 -0.011516370931028887 0.010604165396438403 0.06875576652163842 0.04313703213911334
-0.05675009600499755 -0.0266017981272087 -0.023408040092086413 -0.02958064014774746 0.0038664875673590166 -0.05603707703757834 -0.025653173329179994 -0.021843003164408088
-0.05854825098175112 0.018518806777329543 0.010903464161164481 -0.09003629526856835 0.04319275010134133 -0.0020387131456976104 0.022839360835274335 0.10722653493628133
0.020753375766337734 -0.06947893699076786 0.02863804479041847 0.014160613493534629 -0.06135961227968426 -0.0391556749972593 0.014553009558356754 -0.07708739990575633
-0.027564335494461353 -0.05225512053089221 -0.02662635232633618 -0.029350522265756986 0.005099660178835811 -0.061946477653736044 0.021989458520422077 0.019744243939237578
0.08709244233798326 -0.15181965076754922 0.04268887546482767 -0.05344487789719423 0.05131344797692144 0.10169095352063345 -0.10430577088406968 0.09544808997731197
-0.05143113062162441 -0.020879616057184386 -0.03154222386375688 -0.051751708589024885 -0.13515775750689127 -0.06861595464044334 0.029467494106168605 0.0038740210951336077

weights_hidden_output f8 [128, 10]
00000000: 5a41 a611 686b c8bf ceec 4489 c1b1 9fbf
00000010: 19d7 0982 b4c8 743f 061f 292a e731 b63f
00000020: 63cf 1c93 6205 a1bf ba55 6962 a6b2 a53f
00000030: 57ae ed60 dc63 b53f d4ae ebf0 ea66 cbbf
00000040: dd39 80b9 46ea b83f 2307 1fcd 473d bb3f
00000050: 6f25 dd02 94cc b73f 18c7 88ed 6375 b53f
00000060: 86ca 709c 91e2 92bf beca 7748 e6fa aabf
00000070: 8d93 4152 9ebe bd3f 6bf9 02aa 044a c93f
00000080: fabd 4837 b75a e5bf 744e fcb3 bd61 d23f
00000090: 924c 3d34 6bfe d7bf dca7 8a8f d131 c83f
000000a0: 4f89 19d5 f7cd b63f a5c1 bea0 7276 be3f
000000b0: c0c7 2cb4 e4e6 b93f 7c5c a591 a2bb c03f
000000c0: d99e fb1f 81d6 99bf 2426 8243 9f37 7a3f
000000d0: 6fc6 5515 eaae e1bf 9cd0 d58c ff9f c13f
000000e0: 1dfc 2f11 a601 b53f 38fc efac 0f89 be3f
000000f0: df41 a59e 24fd a03f 2fe9 00e9 a352 b43f
00000100: 1960 d7fc 9483 abbf 2e91 b26d 3baf b03f
00000110: 2e8f ee1f 4b4b cf3f 0d8f 5e50 536e a23f
00000120: 5465 8ae7 452d bc3f 8c53 4657 88f1 b1bf
00000130: 8ca2 1425 5372 96bf 3328 74ea bfeb b6bf
00000140: 897b d624 ef88 a73f f70d 254c a235 bf3f
00000150: d0a1 d85c adc3 c83f 3f6a 1124 1d2d c93f
00000160: b47d f76e b8ad 76bf 5201 b8cd 5f57 a63f
00000170: ae8a 648c 7a42 ccbf 49c7 b4e1 1751 d03f
00000180: 61b5 b0f7 e111 ae3f acb7 ac26 88e7 d9bf
00000190: cbf9 6431 232d c13f ba53 98b2 88ec bebf
000001a0: 731d 8a2f b521 ba3f 9821 a4a9 5e7a 97bf
000001b0: fcb0 0398 b3f0 c33f 6a55 334f 3239 c4bf
000001c0: 52c4 0c09 a317 b33f 9e38 fa33 62c9 be3f
000001d0: 044e 479c 7a24 b43f 8d7d 02e2 645e c43f
000001e0: 9f4c f241 a74c b03f 7180 9a38 c292 923f
000001f0: 7218 3bf9 12a5 a13f 1419 5dbc 494d bf3f
00000200: 7819 f518 9676 b8bf d564 efa4 4a46 c03f
00000210: 9f6a 7bfb 0dbd b53f c641 9efb 7651 c5bf
00000220: 2a88 19fd d668 79bf a991 bf70 c3b2 d4bf
00000230: aa00 6f6e d005 d03f 2dfa 9434 b3fc 943f
00000240: d6ca b52d e9db b33f 1fe0 ffd5 0968 7d3f
00000250: 2d79 d359 7227 95bf ef8b 9d0b 3a6c d5bf
00000260: 3afa a943 9014 bb3f 35a9 eac0 f8c0 a83f
00000270: dc56 9954 f9a8 abbf 3893 5181 44b5 9d3f
00000280: f203 7179 07f6 6fbf c443 8f8b d864 a23f
00000290: 6517 d384 4a0f babf 3a81 a50e ac23 cfbf
000002a0: 0b84 6c29 264d b23f cb23 4679 7058 993f
000002b0: fe7b c639 1362 bb3f 4231 aeb0 aefc 9c3f
000002c0: eef6 3470 c7a6 7c3f 29bf 9eec f1ea b03f
000002d0: 0066 430a 3039 c03f ae83 63fb 0832 a73f
000002e0: e4b0 3a0c 3799 a33f f2b7 6a5d 097e c13f
000002f0: 2a46 f10a eedb bdbf e9ae ea49 06d0 b93f
00000300: 77b2 270c 90f8 bc3f b169 5df8 45a6 d2bf
00000310: 6b15 3c45 ac8b bd3f 0f3e 665a aaa2 9c3f
00000320: c13b 9644 dafb 983f a15f 7199 9679 d63f
00000330: 91fe 5804 d8c6 abbf 3e93 3975 73f5 89bf
00000340: ac81 5bce eb34 a03f fce6 21ed 5f52 a4bf
00000350: 9307 9336 a342 773f aa2d c205 fcbc b53f
00000360: 9dcd 1192 2260 d7bf 3f92 e4fa 2e7f a53f
00000370: 1044 33c4 fc07 dabf 37a1 2937 1558 c53f
00000380: dc22 ad8a 2634 bb3f 3a00 d31e 82ab a4bf
00000390: 167e e2ce 1ee2 a23f 4bda b76b 0bb4 d5bf
000003a0: e3cf d8e7 e59f c53f 3031 f2bc 1ca9 af3f
000003b0: dd4a 4c8d b45e c63f d20c 8e21 e0ff 93bf
000003c0: 79d7 ceb7 c6c5 abbf 3e9f cccf 22a7 ce3f
000003d0: 108c 25a1 0c21 a13f 4eb4 9f94 e943 c6bf
000003e0: 680d 5b70 e5cc bc3f b2d5 fdaa 45fa a7bf
000003f0: 3d53 5e54 2710 843f ef3e 25dd 487c bd3f
00000400: ddcc 4b7a d8d7 b2bf 6a1f 1d9a 1a78 b63f
00000410: d42a 62f9 513e a5bf ec45 c81c 9a1e 9dbf
00000420: dcfd 1956 e33b d9bf 07a7 96bf 8efc 94bf
00000430: 491b 99de bddf 873f 90b5 fa6d 52dd ad3f
00000440: 749f 9ce9 e202 ae3f 0a30 739f 87ec a1bf
00000450: 1e16 8c7d 821b 95bf 5ce3 878f 1bd6 a13f
00000460: bd2f 5f4e f73c 913f 8673 8904 3f43 c33f
00000470: f2d0 e6f8 0cea 973f 1c3f 87cf c7da 72bf
00000480: 5f25 fbb7 c10d 893f 4edd 6d68 ebde 9a3f
00000490: 09f6 2c15 4a97 c13f 6dfb 81f3 3309 943f
000004a0: 1ac4 6c37 3e72 d3bf 79c1 83b0 6e2c d2bf
000004b0: 1c47 51ef 920f a4bf 0c52 174e de60 bf3f
000004c0: 8d02 d0d3 2b8d c33f 845e 088c 1079 c13f
000004d0: 92de 227c ea66 c9bf b797 b5c5 bb5e 813f
000004e0: 9360 31b7 389e afbf 3b6b 5fc4 56ed c73f
000004f0: 5f84 9d77 2fcd b93f e822 c7f0 8444 e1bf
00000500: b36d 39f7 8194 c03f 7aee 0530 fd14 d4bf
00000510: ea78 8b4f 37ab bb3f 96a6 eeb5 407d a6bf
00000520: f860 761c dd44 c13f 2829 7544 854e 2a3f
00000530: 8843 1845 12c9 b93f 19a6 1a1b dd9d c3bf
00000540: 9521 c613 4737 a1bf 4c4f 4334 3258 c23f
00000550: 8a8e 1d23 6de6 c43f 923f 567d 14f6 aebf
00000560: f6e4 a163 8772 c13f 9d15 c02d b4fc c33f
00000570: e4cc 5f6b 1cd5 ddbf c9f5 2449 becf c23f
00000580: dfdd e655 c544 c5bf 09ff bc1d 7602 bf3f
00000590: c55e bed7 c399 b23f 91b9 2147 52ab b23f
000005a0: ef01 fa8e 6c8a c2bf 82da b75e 7239 be3f
000005b0: ba83 a42c 4573 b0bf 8ac7 6220 96bb 92bf
000005c0: 6416 7747 f582 d1bf d5bf 0cdb 91c5 cd3f
000005d0: 4025 c043 5b29 c73f e045 00de c47f c23f
000005e0: 67c5 cb8c 86a2 ba3f 9e39 1388 d8b6 b83f
000005f0: 8ae4 9d24 b823 b93f cd2a d66a 3f3f a93f
00000600: d13b 995b d01c c13f f3ec 7826 0c98 c53f
00000610: 853f 2d21 5c55 e2bf c671 d4be edbc c53f
00000620: e321 7335 1d2d cdbf 88f4 1176 94a7 a3bf
00000630: 08fa 7400 4130 bb3f c19a 7180 8df6 c63f
00000640: a3b6 84af 3893 be3f e6fc 5da1 ea86 8a3f
00000650: 55d4 d311 30f3 b03f 2def 7437 b2a4 49bf
00000660: ac9f 4f7b 5273 d9bf 1752 51d3 4b9d babf
00000670: c17e 8b70 ebec babf e3d3 fafc c17f 973f
00000680: 2c87 b3a0 e3cc 5abf f341 8b3b a4f2 953f
00000690: ff03 5c2f 8235 b03f cff3 95fe 594d c33f
000006a0: e762 1706 d111 bfbf 9385 a5d8 1a48 cebf
000006b0: a413 ab0f b146 bf3f e719 fe2b 3866 923f
000006c0: b9b7 1798 52cd a93f f589 e4b1 6ea6 ae3f
000006d0: a2cf 8b0e 8186 9abf d939 471f d694 a9bf
000006e0: 9590 ca22 28a5 a03f d37e 64a9 df80 bf3f
000006f0: 3510 8188 04d3 be3f af93 01f2 4af3 b93f
00000700: 5aed dabe 3397 c43f ef8b a2a3 278e cbbf
00000710: aac6 d1ef a6c8 dabf e9bf de2a 3055 c03f
00000720: b396 efff cc97 a83f b2c7 2d80 0e9d bf3f
00000730: b50f d8c8 15a3 913f 4cd5 bc37 8369 bb3f
00000740: 4aaa 40fd 10b4 cdbf 533e ac3b 210e cdbf
00000750: 09ac a080 073f c3bf c344 08b1 1d93 ba3f
00000760: c791 e8b3 06cf be3f d446 fc65 1857 a33f
00000770: bf77 6bdc 984f 97bf ad65 49dc 2b6b 6e3f
00000780: 1145 250c f929 c03f 4fcf 1763 962b 9bbf
00000790: 5d7d 7b89 743c b0bf f767 bbe5 6ea4 aa3f
000007a0: 54ac a3ab 4422 c3bf 4dc7 d7f3 7774 b73f
000007b0: 015a e7bc dcab b93f a282 59f6 16b5 c6bf
000007c0: fa81 a0c6 96b5 b23f 9bf9 d24a 50bf b23f
000007d0: 35f4 5fff c954 c13f 3d71 bf92 bcec c53f
000007e0: 60d5 0f79 0277 de3f c14b c480 d947 d33f
000007f0: a079 7d3a 64ef eebf ef0a acc7 8892 ce3f
-0.19077778684414676 -0.030951522830247317 0.005074219807843305 0.08669895915329215 -0.03324420972640387 0.04237861586868115 0.0835550057069495 -0.21407830012991858
0.09732477215604925 0.10640381582109319 0.09296536512296937 0.08382248448540641 -0.01844241635644519 -0.05269546160333992 0.11618985660750365 0.19757135678623725
-0.6673236922997028 0.2872156388923266 -0.3749034891272426 0.18902034291141845 0.0890803237212243 0.11899486946527434 0.10117940329362707 0.13072616683595928
-0.025232331826287122 0.006400701640936233 -0.5526018540096639 0.13769525887221767 0.0820564071618581 0.11927888843637013 0.03318132816878338 0.0793859905105918
-0.05373826586190961 0.06517383030092525 0.24448527392552805 0.035997966347421785 0.11006581213805094 -0.0700917447159794 -0.021920489443035637 -0.08953475450485442
0.04596659969978762 0.12191213950159595 0.19347159417635718 0.19668926488050606 -0.0055367664749321095 0.043635362493662413 -0.22077876906503974 0.2549495414888168
0.0587301840645107 -0.40475658203910814 0.13418998634183618 -0.12079672203283467 0.10207683954842199 -0.022927741149972286 0.15578312800005978 -0.1579954992982196
0.07457941981262309 0.12026036995868813 0.0786816245593443 0.15913067851668608 0.06366963729878926 0.018137964920811493 0.03446254055374788 0.12227307175371421
-0.09555948361694344 0.1271451287600828 0.08491599454593278 -0.16654860769314278 -0.006203498649115994 -0.32341085444047707 0.2503548696950114 0.02049522407946307
0.07757432332963829 0.0071792968956217165 -0.020658289654300766 -0.33473063597028746 0.10578252460434437 0.04834725718440539 -0.05402354390814221 0.02901179351137559
-0.003901495550536976 0.03592564300163972 -0.10179582350528234 -0.24327612605248722 0.0714897013790649 0.02475143184850363 0.10696525726824288 0.02830765679714032
0.006994990402118024 0.06608497645242707 0.12674522877823335 0.04530361241064128 0.038278312914686 0.13665883122797556 -0.11663711325788798 0.1008304529629488
0.11316776558641971 -0.2913985181272905 0.11541248979854905 0.02796426941637092 0.0243982414590922 0.3511711595979197 -0.0542514329249545 -0.01267519189350141
0.03165375608455476 -0.03969096917803758 0.0056787848963625485 0.08491492405499082 -0.3652426172695529 0.04198595822007122 -0.40673751030141236 0.16675057595717543
0.10626450429584672 -0.0403710043551659 0.0368814113182873 -0.33911405104973785 0.16894220181131833 0.06183709913702484 0.17476517581288578 -0.019530775115993056
-0.05424328798055362 0.23947558542681152 0.03345527140734117 -0.1739475227072113 0.1125014685922473 -0.04683129989909264 0.009796435606213566 0.11517768286762096
-0.07360604272598743 0.08777014029067023 -0.04149109048110736 -0.028437049872143946 -0.3942802754245045 -0.020494680827744662 0.01165722213330657 0.05832917778512148
0.05861577130991594 -0.03500770398531479 -0.020612753784936648 0.03483663680157775 0.01683412948459283 0.15048969003228424 0.02335376996207201 -0.004603176603680283
0.012233270098834735 0.026240995644426328 0.1374294856449725 0.01956635640862763 -0.3038478413828344 -0.28396193731079894 -0.03918131991726012 0.12257184416314021
0.15274570314797523 0.13650709950956152 -0.1984532457479316 0.008481471034155292 -0.061754009592449276 0.1869305094577046 0.10078713102622448 -0.5396141722386263
0.12953209468365187 -0.3137810677505751 0.10808129970562033 -0.0439243528447381 0.13491405381933652 0.0002007043533274824 0.10072435557255066 -0.1532551176399444
-0.03362485996609902 0.1433165316763002 0.16328205313321958 -0.06047119169227168 0.13630764355529096 0.1561494086637766 -0.4661322640015 0.14696482249739365
-0.16616121954369498 0.12113130785018823 0.07265876786402277 0.07292665707220737 -0.14484936696318537 0.11806406795936122 -0.06425888385685044 -0.018293710447955948
-0.27361804942152035 0.2325918502406227 0.180949600297291 0.14452420081992923 0.10404244363214375 0.09654000589509912 0.09820128339733195 0.04931066683919525
0.1336918303736341 0.16870262030156588 -0.572919907377568 0.16982814615120229 -0.22793927297449476 -0.038387908375605184 0.10620504628330008 0.17939919253986683
0.11943392071835972 0.012952645349058444 0.0662107509159154 -0.0007825727651957541 -0.3976637081345824 -0.10396264943239718 -0.10517760751417439 0.02294829470220695
-0.0016357634474890121 0.02143341649463255 0.06331647545086126 0.15079808169312378 -0.12136560820307417 -0.23657546595044873 0.12217241890455327 0.017968061146825944
0.050394612375256505 0.05986352845708957 -0.025903717530084365 -0.04996365672888076 0.032510046240788494 0.12306020627556373 0.12040737469311653 0.10136860283235082
0.16086432284451285 -0.21527572145450288 -0.41849683208338695 0.12759973614947676 0.04803314804284522 0.12349024419179847 0.017223682769340793 0.10707874403745626
-0.2320576893410638 -0.22699370778763014 -0.15036100178380732 0.10380731174543016 0.12034646885201204 0.03777385945262571 -0.02276457639060658 0.0037132126474658995
0.12628090947195195 -0.026533460424573104 -0.06342247349265535 0.05203577570291878 -0.14948328381373932 0.0916209192580741 0.10027865993411213 -0.17740141896049005
0.07308332776347717 0.07323171450386783 0.13540005654786716 0.17128712811871508 0.47601377317854165 0.30126035284882496 -0.9667225973496905 0.23884687184916895

bias_hidden f8 [1, 128]
00000000: 72ef 7835 5c72 c03f aa33 2e4a e169 ee3f
00000010: ca64 7d21 94b0 d13f 0cfc d725 c017 96bf
00000020: be05 de60 8e3b b1bf edac 69ca 5334 d7bf
00000030: 7c55 c9a3 c90f c63f 6b97 c4ea a5e0 be3f
00000040: 184e ff52 14ae b73f a0ed fbf4 cc9f d3bf
00000050: 08f9 9283 5c7d d03f ae28 e43b 31d5 c33f
00000060: 27d3 a24d 03ad d53f ebdf eaf6 ec9f b23f
00000070: afb9 7c8a 6ead f23f 4027 2c38 3548 e3bf
00000080: 345b 4bf6 2121 c03f d120 b4d2 a04a a5bf
00000090: 1efd 751f 0aea 633f 17bc 155b 436f a0bf
000000a0: 781e 3098 7cf7 69bf 2383 8b45 61f3 d63f
000000b0: 534f f6de 5f64 d8bf ed4b d53f 3907 e63f
000000c0: 5d44 c44c ce1a 813f c488 4b07 76bf e83f
000000d0: 41ec bc12 b061 ee3f 3587 669b 3255 e23f
000000e0: 00fc 60b8 77ac cd3f 3e23 699e 6dcb 94bf
000000f0: 9519 8149 8a32 c23f 6dca e3af f215 dbbf
00000100: 24ab 89db af7b d8bf 35fe 9eb7 39dd e93f
00000110: 3fc2 d6a3 7275 d6bf 0a30 73ab 9284 db3f
00000120: 3ae0 5e8e 4f06 f13f 8b3b c56e 60a6 d7bf
00000130: 4cca 3e08 4942 dc3f 9053 35fa 5f60 10bf
00000140: 255f ddb8 447b c6bf 9af0 3a2c 06f1 afbf
00000150: 9636 91df 6760 dc3f 6936 effd 46e4 b33f
00000160: 8652 78a1 8dfd c9bf 2860 4259 004a ec3f
00000170: ff24 25e0 5fdf d33f dabb 6300 2fb1 e1bf
00000180: 77ca 1339 1ddb c23f 048f afd5 9738 e43f
00000190: acb3 4f8e 6423 e33f bf00 0c05 d9fd d9bf
000001a0: df80 8da2 aba3 d0bf 5670 1ed8 9ab6 d5bf
000001b0: d4ac 611e 6206 6bbf ea8b 0a43 b74d d63f
000001c0: dab2 c799 4188 e13f 8b6e 73cc 740d 4b3f
000001d0: a729 1533 727b c5bf 5caf 219c 7a6a d5bf
000001e0: b6fd 431a 8246 e1bf 203b 9338 0f48 da3f
000001f0: 6d2e 70e4 b967 e43f 5eab 1b4e dda1 e7bf
00000200: b2fd 96bf b79f d23f 46a7 2971 64cc de3f
00000210: 532f bfe6 a4f9 df3f 71f2 5b4d 01ba e4bf
00000220: 24f0 5891 64b9 d5bf c8bc b813 8af3 e33f
00000230: 5738 7d64 1fc0 de3f fffb 4e75 1084 b5bf
00000240: 40a6 ba18 87f0 a33f e628 b6f8 1b3d c4bf
00000250: 57c8 eabb 1cf0 c13f 16f8 e018 8519 c73f
00000260: 9ac3 e471 bd54 eb3f f05c a0f9 06cf e93f
00000270: 4751 c2ba 7f4e e03f 799c ddca 9912 c13f
00000280: 374e ac62 b46c e63f c91b cf91 8c7d b6bf
00000290: 4797 3e70 07d0 ca3f 49eb eb18 200c d53f
000002a0: ab7d 63ed 388c aabf 15b5 d24f 136e dc3f
000002b0: 69b1 4742 5ad8 e73f cf74 33de 368b de3f
000002c0: ee82 b2c3 de51 c8bf e07d 5a40 31a9 c53f
000002d0: 90f2 2781 7605 d03f 45c0 b9a0 c1ad b03f
000002e0: 9b28 889f a39a 943f 08dc 6165 a6c1 b63f
000002f0: f513 59b3 e01e 96bf 0910 713f 92e5 cebf
00000300: d8b3 6adf 16ef b23f aec0 43d9 e283 f43f
00000310: 7ca6 1a88 a81e d03f 2e6e 4ecd fb4a e3bf
00000320: 9bd4 c95b cdce cebf 00a7 80d0 a8c6 d43f
00000330: 972e cc72 c35b 8cbf c9fc 7aa6 49e3 e3bf
00000340: 4b67 4d84 28ab d13f c4ef 0104 2254 d43f
00000350: 76ea 1bfc 5932 d63f 97b9 57e0 6373 d63f
00000360: 0eeb 104f f9a3 db3f 6af3 29c3 3d97 a43f
00000370: 2eb7 09a5 5d65 c7bf cde2 487b d49d d6bf
00000380: 7be3 3f6b 22fe b03f 0897 f9f9 799a cb3f
00000390: 98fb 5f53 cc93 cfbf 0a2e 7740 4e5e dcbf
000003a0: 8011 2b69 b1dc b6bf 0146 0279 89b0 cdbf
000003b0: 9504 3363 8d48 d13f 619b ceba 3700 c7bf
000003c0: bd16 a09b 6ab1 d3bf a5ff 9448 318b d63f
000003d0: e590 32cb 31bc e6bf d7c8 85db fe97 b23f
000003e0: 5c3d 004a d93f d0bf b26f 8afe f019 ce3f
000003f0: 7a2e 5086 6a12 c53f 4f32 fc44 2d2c b93f
0.128489996060917 0.9504248093449992 0.27640250463953164 -0.02157497626285125 -0.06731500496791562 -0.3625688053786707 0.1723568010080888 0.12061535817755746
0.09249999071408188 -0.30662845539310446 0.25765145157846847 0.15494361328484757 0.33868486959117877 0.07275277164706011 1.1673417482048583 -0.6025644394987708
0.1260111286744291 -0.04158499309602493 0.0024309346878791513 -0.03209887015224682 -0.0031697686658878586 0.3586047343397231 -0.38112637303969626 0.6883817908040989
0.008351909368260186 0.773371710060268 0.9494247785545512 0.5729001078763988 0.23182579520104696 -0.020307266992207966 0.14216736401631339 -0.42321459938754097
-0.38254925193057177 0.8082550608014062 -0.3509184455861351 0.4299666094127593 1.0640407143928443 -0.36952982728410494 0.4415457325477845 -6.247125434317839e-05
-0.17563685442541402 -0.06238574304504248 0.44338414032686424 0.07770198535509966 -0.203050330965784 0.8840333693833644 0.3105086983601523 -0.5528788573845944
0.14731183325746475 0.6319083379316628 0.5980704097288387 -0.40611863606319426 -0.25998965143481984 -0.3392703161750935 -0.0032989422207286654 0.34849340006820617
0.5478828433529899 0.0008255787187425185 -0.16782977575560418 -0.33462395903801734 -0.5398569596290403 0.4106481602183738 0.6376618825610884 -0.7385088468121059
0.2909983988756394 0.4812251191238953 0.4996120694529413 -0.6477056990548374 -0.3394404811294882 0.6234789261997316 0.4804762345637576 -0.08404639114358757
0.03894445587986839 -0.1581149067317888 0.14014014411583517 0.18046630587372253 0.8540942406162799 0.806521880675886 0.5095823905599354 0.13338014989423977
0.7007696082313889 -0.0878532272318885 0.20947354298294327 0.32886507447954166 -0.0518510618001032 0.4442184714815352 0.7451602263004534 0.4772469682628299
-0.18999847941906672 0.16922584192523882 0.2503334294595243 0.06515131162609673 0.020121151554157817 0.08889236426499292 -0.021602164217501458 -0.24138095948922025
0.07396071390640147 1.2821987616444335 0.25187123576561254 -0.6029032716646208 -0.24068610174041258 0.3246252094419191 -0.013846899929851815 -0.621495080143995
0.27607167167808616 0.317635063089025 0.34682321186088616 0.3507928553434793 0.4318831703309777 0.04021637923594919 -0.1827809387063381 -0.3533831790878537
0.06637778395078257 0.2156517477589477 -0.24669794150392188 -0.44325596137488843 -0.08930500810226327 -0.2319499817718196 0.27005324065619024 -0.17969414349974058
-0.30770363996303357 0.35224563682640514 -0.7104729622556333 0.07263176783979773 -0.25389702059415753 0.23516666821239834 0.16462451513540427 0.09833033498962006

bias_output f8 [1, 10]
00000000: 1ef5 f3a2 9bea e0bf 6958 35ec b524 debf
00000010: 89ba 1ad3 2ab3 dabf 4e2b 39f8 9b61 d2bf
00000020: 28ad 649a 1e0e db3f 878c 1fb9 86bb cabf
00000030: 34b0 133b 4f5b b9bf f7f9 9800 6f24 f3bf
00000040: e761 415e 5253 0140 8a21 5dcf 2ad6 e33f
-0.52863866640806 -0.47099063937401425 -0.4171855031553738 -0.28720759621198944 0.4227367885348081 -0.20884784735890013 -0.09904952232653913 -1.196394922575221
2.165684448595346 0.6198934602808077
