models/model_cv_digs (4000).npz (npz, 815236 bytes, 4 tensors)

weights_input_hidden f8 [784, 128]
00000000: 0442 affd c8b3 b1bf b18e 256f 86eb a9bf
00000010: 2b09 feec 5eef b83f a1b9 40c5 e691 95bf
00000020: b4e8 e412 2aa7 ad3f f9a5 16fb 588c 873f
00000030: 93ba c1dd b802 99bf 7c50 8848 4169 adbf
00000040: 9172 d906 2524 afbf 2192 a5f7 2ce3 b2bf
00000050: e609 f447 5b7b 543f 4ce1 f369 bb05 b13f
00000060: 0ed5 f72b 5dfa aabf ff10 aeee 0283 7abf
00000070: 8136 31e6 2fa6 a9bf 4d27 6c99 38b9 b33f
00000080: 0047 778b a57e 82bf 1781 f4bc abba 7d3f
00000090: e83f 061f 293d 97bf 8447 0fb5 660b 9ebf
000000a0: 742b 3d2c 44e9 8b3f c6e6 7840 55a7 9dbf
000000b0: cc33 cc00 73a5 ac3f 1a5c dabf 5ca0 74bf
000000c0: 82f4 618b c875 98bf db89 e5ea a2a3 9bbf
000000d0: 889a b6cd d4c4 563f 79ea c46a ccb2 b2bf
000000e0: af2f 768f 83a9 97bf a2d8 a0f0 7e7f 57bf
000000f0: 1647 9c18 a763 a33f 1f38 aee0 05bb 9abf
00000100: 5cb2 d870 d157 6dbf 652d 8a3d 4afa b93f
00000110: 9c6c 69f5 d917 8f3f 0354 7003 9fa1 6abf
00000120: 849e c2b5 290c b0bf 9927 2c98 c0ac a5bf
00000130: 7227 6c99 6dc7 903f 997f afd3 a020 a83f
00000140: 48c8 f1ff 45c6 9abf 5e16 6856 c4d9 b0bf
00000150: 5ab0 658a 6c4f 8ebf 6137 5ce5 7b7c a73f
00000160: 87fa 7011 5858 a73f 2ae4 5b5d 897e b03f
00000170: 8633 eec8 aa7f 6bbf c4b3 34d2 0599 9c3f
00000180: 83e9 5788 aed7 713f 15fe 4b8f a4e7 a0bf
00000190: 68bb 4155 9115 c03f 6afc fc4a dac4 9f3f
000001a0: 4845 ce8b 7047 b1bf d1cd 5e4e c6ed 9ebf
000001b0: 65fe c234 08cc 933f bf3c a214 f050 8abf
000001c0: cc56 a34e af58 b0bf e7f7 7788 eb3d aabf
000001d0: 4caf 22cb 7084 51bf c13c 1835 e13e b5bf
000001e0: 1d53 1eb0 b724 a5bf de4f a63c 9a9e 763f
000001f0: eb1c 897f cbb5 89bf 188d 8735 a4a4 a7bf
00000200: fd1b 3ef1 b296 92bf dfb9 dad2 ff64 a13f
00000210: 6813 c698 c208 b43f 3906 7a55 0311 90bf
00000220: 67ed d9ef 4fd8 a1bf 13ed 3ef0 4390 74bf
00000230: 3a79 ec50 9984 b7bf 670b 0117 e72d a0bf
00000240: 1943 5971 100b 903f 099e 7010 3cd7 b3bf
00000250: b106 162e 2a47 a1bf eb24 cb77 5e2a aa3f
00000260: 065f be7a af7b b8bf 3365 1ce9 20a6 a83f
00000270: b045 b30f 3b9b b13f fba1 db0d 9253 6b3f
00000280: 013b 0c54 bb81 b83f 65fd d168 50dc bbbf
00000290: f97c c228 eb11 a6bf 2530 4eb5 929b 8ebf
000002a0: 1fb6 b3b0 912f a0bf 9d27 e8d3 b561 b5bf
000002b0: 2be3 fc3a 2f68 743f 69db 5d0d a842 653f
000002c0: 4f64 7b0e 0551 92bf bc57 ab23 fb4f 9bbf
000002d0: 4347 77a2 0a07 7d3f db4d 0526 21b3 a33f
000002e0: 17dd 91bd dac6 b0bf bce6 0bcf 0f65 a43f
000002f0: e360 e88a 47d7 97bf deb0 ec5d 11b9 85bf
00000300: 912f b36d 7f59 be3f 3ea8 7681 cd8f b43f
00000310: 3426 9bc1 764a af3f 7749 086c d132 a43f
00000320: ae90 3e97 4c90 9b3f 20b9 6569 4c5e a7bf
00000330: c8b5 3b53 144e 94bf ccc1 4ccb f43b 74bf
00000340: c583 308e 1f43 8dbf 266c 30f5 def5 ac3f
00000350: 6f6d 79a7 20ce 81bf 30ab 3015 29fc 743f
00000360: 12c3 72ca babe a23f 2454 1372 f6f2 8e3f
00000370: b1ae 326e 02dd b13f 94bd d5fd 4f92 bc3f
00000380: 7a9d 03f1 dfc5 79bf c446 b31e 6961 a2bf
00000390: 18cb f0ee b925 b9bf c05d 6dd8 cde9 abbf
000003a0: 7095 cf02 4b96 83bf fab1 c4e3 9f73 8b3f
000003b0: e24a 0b3f 28d7 9cbf fbb8 3966 a13a 923f
000003c0: 3309 ab62 f575 9d3f a8d2 7381 6286 7ebf
000003d0: e492 6116 aa4f a33f 532d 1e04 9163 7d3f
000003e0: 4cdc 8bb6 97c2 b4bf 7af1 67c5 8d31 9cbf
000003f0: 75df 3be3 4d68 933f 2446 82d5 45b8 693f
00000400: 0fb9 11c1 e621 a9bf e2ca c551 065d 9dbf
00000410: 2d03 87bf cdf1 b1bf 11cc dca7 87a3 b23f
00000420: 69bc 69cb 19fa b3bf d41f de40 3417 91bf
00000430: 3954 f6a3 777a bcbf 49ea 965f be83 b03f
00000440: 58ed 790b ddd7 a13f be06 c8c6 7d38 adbf
00000450: 8020 ba8a bbc8 a5bf 8627 a030 dace adbf
00000460: a736 2653 f82c 9c3f b7ab b04d 41ca 56bf
00000470: 95c1 676d a81c aebf e0cd c02c 16ff a23f
00000480: e3c0 02d6 6735 b5bf 032c 29da 38f9 a8bf
00000490: fdbb 76a1 63f0 8ebf 7861 cedb 8217 903f
000004a0: 7355 74bd 84aa b9bf 4816 36aa 213f b6bf
000004b0: e754 eb10 dca8 64bf fbab d138 6d60 bdbf
000004c0: c255 2b89 1595 8ebf 1fcb d5a7 ebaf b2bf
000004d0: 2865 24f3 7447 bcbf 3a3e f00d 97bb 6e3f
000004e0: 3b4a 8e28 d551 a33f 7ac9 78e8 f7f1 a03f
000004f0: 4993 5aec de2a b9bf 00bf 208c e6c5 9a3f
00000500: 24b4 58e2 1550 a1bf 3cd8 936d 2bd7 a0bf
00000510: 76cf aa7a 014a b6bf deeb 49ce 11fb a5bf
00000520: e16a 9569 e912 b33f 26f9 c412 a9a4 8f3f
00000530: 7d23 0d87 e12e ad3f e72f a0a6 e1ab 533f
00000540: 166e 9690 35a1 9dbf 636d e886 b453 ac3f
00000550: e561 d388 04ab b8bf 1eaf 09ae 6655 b5bf
00000560: 0000 c466 b8bd a73f 7f70 646c fcd0 98bf
00000570: 3418 e31c a6fc ac3f ef65 54c3 5da9 9ebf
00000580: cf6c b5f0 b250 90bf f3c2 b46f 295e a6bf
00000590: 3d8d d557 55cb a13f 0d00 d082 3c84 a2bf
000005a0: bc29 2758 6b39 733f 977f 7820 e77f b23f
000005b0: d30b f56c 127d a0bf 3402 1be6 25dc 9c3f
000005c0: ff75 da46 7c8a ae3f 822a 4b8f d856 a33f
000005d0: 7bf5 bae0 fdbd 8cbf 1e12 c524 0f76 703f
000005e0: 03ec 11af 2c6c 7d3f d366 a657 adf2 a23f
000005f0: 330d 0b1d 53e7 673f d8b8 31e7 45cf c1bf
00000600: 83d8 4599 7251 6ebf 90bb 1827 3c87 9e3f
00000610: 9f1e 6260 548c 9b3f f132 01c6 381e adbf
00000620: 473d 8913 83cf 76bf 6d77 e24f 09b7 863f
00000630: 6ab9 a62b 7729 923f 24bb 5aa5 7bf1 923f
00000640: 00cb 77b3 1249 913f eda9 5418 e107 adbf
00000650: 1f3f 4bbc fc90 8d3f b8be c237 a967 a1bf
00000660: e557 5c6d 31a3 87bf e573 079f e1c3 853f
00000670: 20d7 1ae8 e6a3 b13f 56f6 687b 8222 a63f
00000680: 186e 8a20 bb1e adbf e143 a140 dc4c 9bbf
00000690: 9e03 23bc ca05 98bf 9ed2 423c 775b 9ebf
000006a0: 04f3 1581 78be 6f3f a466 e27c 11c1 acbf
000006b0: c471 46e9 a253 9abf 69f4 a591 9f6a 96bf
000006c0: 6620 dc14 f00a aebf 44ee e433 4901 933f
000006d0: 7cec 9a4b 2561 863f 9f6b a842 9d19 b7bf
000006e0: 579a 2b2f d429 a63f 88b6 b464 e8bc 60bf
000006f0: 741f 9943 6370 973f 138d fdcf ac82 bb3f
00000700: c5e1 e8dc 5a4c 953f e3c8 536a 66d3 b1bf
00000710: 82ee 0b6a d363 9d3f e5e4 174e 9710 8d3f
00000720: 9e43 b679 3d7c afbf e43e 0814 8417 a4bf
00000730: 6aea a5ce c5de 8d3f 5e68 ae60 20c7 b3bf
00000740: b5b0 844e bd49 9cbf 5226 5098 44d0 aabf
00000750: bdbb 9faf 4f53 9bbf f68c 1b46 021f 9ebf
00000760: 553f ea90 28ef 743f 3988 98c7 54c9 afbf
00000770: e7e9 fbaa 1991 963f 4f75 4905 3c43 943f
00000780: 0075 b8d3 4258 b63f 0707 8e71 c879 c3bf
00000790: e900 5eb8 a3e7 a53f 148f e226 8e6c abbf
000007a0: 850c 7cb7 9154 aa3f 2266 f49f 1817 ba3f
000007b0: f497 6f99 d6c2 babf 1181 e513 107d b83f
000007c0: b865 1a30 0764 aabf 7ebb 2f5d 856d 95bf
000007d0: 75a8 7b68 682f a0bf efbf c7b0 238e aabf
000007e0: 8945 0f85 9a56 c1bf 2fed 1e16 b89a b1bf
000007f0: decf ec68 bd3d 9e3f 11a4 a5f1 4dce 6f3f
-0.06914955323669153 -0.05062503916522355 0.09740250860162251 -0.021064382352216197 0.057915987783830586 0.011498160517322541 -0.02442444661613281 -0.05744365702062823
-0.06082263668642896 -0.07377892538131238 0.0012501136223482755 0.06649371468291071 -0.05269137536735445 -0.006472598509280169 -0.05009603199924318 0.07704499955812345
-0.009030621832525565 0.00725810132215112 -0.022694246786670563 -0.029340367127424397 0.013628513908448638 -0.02895863729484096 0.055949777457591304 -0.005035745909160583
-0.023886807925454175 -0.026991410815193944 0.001389701667770334 -0.07304074865980138 -0.023107581740574975 -0.001434205975340976 0.03786966491146708 -0.026104060972606754
-0.003581914009166005 0.10147537233767918 0.015182211686968032 -0.0032508950930698623 -0.06268559157853743 -0.04233362062048158 0.016385757912793016 0.04712393364002238
-0.0261469781366446 -0.06582285985504074 -0.014799926732585945 0.045871612308572514 0.04559588635355732 0.06443079499503371 -0.003356774868228776 0.02792748542303848
0.004356080787596975 -0.033017294399538745 0.1256581941883852 0.03102437098209202 -0.06749633229471386 -0.030203913243622985 0.01933300802261186 -0.012849689130489115
-0.0638532225596819 -0.051253662499206425 -0.001069173955822361 -0.08299071832901729 -0.04129575753100865 0.005522348869266806 -0.012553777532174645 -0.046177989515650164
-0.01815299603870456 0.03397368859201654 0.07825866918399316 -0.0156898995323955 -0.03485345652458243 -0.005020394692049085 -0.09186704850842356 -0.03160020976840521
0.01566720668626251 -0.07750296975483918 -0.033746069074380165 0.05110449993441953 -0.0956372904460033 0.048142460304186584 0.06877488263423603 0.003335747968652434
0.09572954942653313 -0.1088304763707036 -0.043105457997848214 -0.014945169599535355 -0.031612923450534895 -0.08352219031817616 0.004982170575936344 0.0025952608365815044
-0.0178871908272849 -0.026672290851670985 0.0070867934623082855 0.03847602452392681 -0.06553427818458989 0.03983353998587577 -0.02328216348004809 -0.010606895140505331
0.11855312755795767 0.08031925593118758 0.06111498940806506 0.039450210988564764 0.0269176451980832 -0.04564131533230609 -0.019829099254754984 -0.004939991213902716
-0.014288183714656353 0.05656334631950015 -0.008693938361082868 0.005123291472993327 0.03661140176098433 0.015111852032001556 0.06977858724956822 0.11160755107061099
-0.006292223712285655 -0.035899434087367094 -0.0982319076872894 -0.05451815859731424 -0.009564004920273844 0.01340413011401952 -0.028164509628207386 0.017801782478664468
0.028770288607810456 -0.0074523780706285195 0.03771716616828316 0.007175032109340523 -0.08109424788186564 -0.02753278272028712 0.01895257663178947 0.003139625925606253
-0.04908677202989697 -0.028675173512463632 -0.07009588170968746 0.07280776832776349 -0.07803498474253136 -0.01669007917328698 -0.1112437033937831 0.06451024850586252
0.03485003247348101 -0.05707161952524363 -0.04254709309049165 -0.05821878284048325 0.02751529700758817 -0.0013909948090808763 -0.05881239257348906 0.03710240646651264
-0.08284615492698637 -0.04877641356559794 -0.01510694347856933 0.015714687982467862 -0.10025815606453196 -0.08690081029461638 -0.0025219247976148054 -0.11475260388549195
-0.014932792900632989 -0.07299683425462121 -0.11046534477317904 0.003751559284417086 0.037733708573018686 0.03309607231894325 -0.09831040640217482 0.026145555784920838
-0.033814128761470635 -0.03289161408058347 -0.08706673855595945 -0.04293113368199618 0.07450732066846967 0.015450783620164343 0.056998298393017933 0.0012006476995365335
-0.028935276937415898 0.055326119869472355 -0.09635952320548531 -0.08333436726541918 0.04636932615721889 -0.024234718433135512 0.05661505797029101 -0.029942956015565455
-0.0159328421990324 -0.04368714798545694 0.03475443551249178 -0.03616513344604764 0.004693431199891792 0.07226414244405387 -0.03220422344249809 0.02818354813530473
0.05965031018170563 0.037771956912895824 -0.014034255429005374 0.004018839983761539 0.0071832414115489155 0.03700772948213928 0.002917921381909183 -0.13913797177105525
-0.003700946641568116 0.02981275547625334 0.026902502424973048 -0.05687119881677017 -0.005568992630812736 0.011091301679978927 0.017736303366910823 0.018499309508736364
0.016880314067701185 -0.05670073911672433 0.014436697479510095 -0.03399399572060474 -0.011541734838413429 0.010627520242389063 0.06890719572660631 0.04323203808278879
-0.056875083658465 -0.026660386509607895 -0.023459594471890825 -0.029645789197007326 0.0038750032041988697 -0.056160494322466975 -0.025709672439562473 -0.02189111067263064
-0.05867719893109395 0.018559593002676303 0.010927478189264976 -0.09023459317579217 0.043287878759475866 -0.0020432032521487432 0.02288966274343758 0.10746269300357296
0.020799083455331564 -0.06963195892220457 0.02870111784703378 0.014191801138610358 -0.06149475203267872 -0.03924191231283006 0.014585061425113472 -0.07725717888243497
-0.027625043790224086 -0.05237020835199914 -0.02668499478744101 -0.029415164498357314 0.005110891782024248 -0.06208290993187444 0.022037888585126366 0.01978772909420928
0.08728425663908368 -0.15215402168910705 0.04278289437843503 -0.05356258606596334 0.05142646183778602 0.101914919902264 -0.10453549619668917 0.09565830693964396
-0.05154440366932128 -0.02092560178055746 -0.031611693147923704 -0.051865687684653376 -0.13545543191007095 -0.06876707592066532 0.029532393960110308 0.0038825533239799166

weights_hidden_output f8 [128, 10]
00000000: 999e ef0f 467d d4bf b338 a091 40c5 a43f
00000010: 627d 908c e03b 8b3f 9e54 de83 f302 be3f
00000020: 4c00 2a45 5f44 9bbf 2417 b08e 4654 b13f
00000030: b1c9 df29 753c 923f eeb3 80eb be08 d0bf
00000040: b833 f81f a4fb c53f 0841 322e f909 bf3f
00000050: 3573 caac d8e9 a4bf 1d3a e891 da05 aebf
00000060: f8b5 be5c cb42 bcbf 78c8 66f7 f080 ad3f
00000070: 8299 d1b7 dec7 9e3f 1607 5c3e 6d5c bc3f
00000080: 7c01 3034 c645 a5bf ed2d de43 0a81 d73f
00000090: b040 9de2 2403 dcbf 6356 c171 5e11 98bf
000000a0: e8cd 2a12 8bfe 893f 7667 07ee fad1 c43f
000000b0: d48e 35bf 4b42 be3f 5a56 54b2 faf6 c53f
000000c0: 5ad1 9b0a 7332 553f f753 8ba1 4d79 6ebf
000000d0: 88f0 be7f fa6b e4bf 3dd0 6991 e97f c43f
000000e0: 28f2 770c d19a b43f c67e 9d27 f848 c23f
000000f0: ac88 7706 2dc3 c2bf db6c 5962 c3c7 c13f
00000100: acb7 cd07 85ba b4bf 8502 efce 35b5 b93f
00000110: 8edc 1fde 08a0 e23f 7891 4504 9103 9ebf
00000120: 26e7 1cc8 0167 c23f fff7 38e6 a9a5 d4bf
00000130: 22c7 c968 b9fd 9c3f bb9e 7ce0 298a b4bf
00000140: 3a5d ed4e 37d1 ac3f 71f5 acaa 6d24 b93f
00000150: 429d 7226 3814 d83f 55f4 b640 d3c7 d33f
00000160: b17b 56be 031c babf c793 7ba5 5b5f a93f
00000170: b8d3 2a64 4b0f cebf 56e8 0bc2 ed63 e13f
00000180: f1ae b0da 1370 9fbf ded6 4d9c bdf8 e8bf
00000190: 24f1 ea09 5161 be3f 8141 4d8b 0d08 603f
000001a0: e462 70e3 d9a1 b53f 1671 3e98 cb9f a6bf
000001b0: 148b 9a95 da2f c43f e069 e999 6084 c8bf
000001c0: 4372 9d03 59e5 b23f 14de 86a7 29ff af3f
000001d0: a142 1636 434d b43f 33c9 f8a2 7c38 c73f
000001e0: 4b9c 3d77 03a9 b83f 05c5 5906 ca7c 943f
000001f0: 55b3 919a 934d aa3f cf9a b453 952f cb3f
00000200: e38d 69c9 aada c3bf 419f 1934 2446 c83f
00000210: d0c1 2e7a 2bc5 be3f 8676 3d1a 6e8c d2bf
00000220: 4718 ebca 4fec 93bf 740b 2dee 8a7c d7bf
00000230: 798c b41d fbc4 d53f 5149 453e d985 983f
00000240: adb0 1fd4 86e8 b23f 1b27 01c3 4492 913f
00000250: 7c34 c5d3 523a a73f 2506 4f16 0ab7 e1bf
00000260: 2677 970f df53 bd3f f4bb f63a 225b ab3f
00000270: fb4e bedf aeac b0bf 6623 02c1 8a72 b43f
00000280: 9f0b 4162 2052 b5bf 9dbf 2778 2416 a13f
00000290: 06f4 4fbe bfc3 abbf 49f0 e861 c288 d4bf
000002a0: f7df 9221 1e6d c33f be81 6c39 2986 9fbf
000002b0: a949 9681 5344 ba3f ff21 04ee 0102 b33f
000002c0: 7411 d54a c683 47bf ec3c 2e4f b890 be3f
000002d0: fd8a 9107 50db c03f 8917 ebb9 008d a13f
000002e0: 2372 145e ba19 6abf 4738 8f0b a6b8 c33f
000002f0: edbc 405b eddf c4bf 0379 c095 5091 b53f
00000300: 2a37 7083 2208 bc3f 14b5 8b55 256d d1bf
00000310: 8b83 b79c b8b5 c33f d11e 8e81 ac58 b13f
00000320: 9b07 67d8 4a9c a83f 39f9 1d44 2fd4 c83f
00000330: e57a 5da1 fb53 acbf 930d d54e c27a 9fbf
00000340: d42a 98ec eb36 c03f c47c 2097 80d8 b1bf
00000350: 4dd6 853e e87b 9a3f 4d55 62df 37d5 be3f
00000360: 034b ef42 1891 d9bf 9558 41b3 80bb bb3f
00000370: a209 dee5 0b26 dbbf 9f3c 6774 53ca cc3f
00000380: c708 8394 4755 c73f 2b46 f072 c8b1 bcbf
00000390: acf4 39d5 bade b83f c27d 632a df6f e0bf
000003a0: 9089 dd28 8292 c53f c338 f3db b819 b63f
000003b0: dcc3 2a69 b7db cd3f 6942 b59c d5ed a0bf
000003c0: 2a62 8c27 807d b0bf a6bf 5be5 a69f d73f
000003d0: efc4 0df3 85ec a73f 4072 0698 57aa d0bf
000003e0: 4a5a 4e04 c0fa c13f f0d7 e3f5 3309 b1bf
000003f0: 511a 2ef8 ca75 8c3f e048 63b0 a3e1 c03f
00000400: a6ac 3e59 7a91 c3bf 87ca ffb6 149d b73f
00000410: 3ac2 8b68 7b3c a2bf b005 f197 c003 96bf
00000420: f410 aea3 1211 dcbf 175c 0581 bdc3 b8bf
00000430: 6b35 2a81 16b5 b13f 5f3f 1352 a3bf b13f
00000440: c384 9e1c 71f5 bd3f 1e22 c52d 586b b0bf
00000450: 4ddb 90fd 7089 85bf ff30 06cd 4c4f a13f
00000460: 7ed5 49cf 531a bf3f 5b7e 4746 b8c3 d73f
00000470: 4b2a f371 65a8 b03f e91a 59ec 2a1a 733f
00000480: 706f 462f 2c59 b5bf 7287 ab30 4e10 bb3f
00000490: 1883 76e7 0101 cd3f 4b37 09f1 0ed0 af3f
000004a0: 27a1 a572 8dfa e0bf edc5 2d24 7297 e1bf
000004b0: 73f6 9ba1 1b7b b7bf 2d2a fd55 2477 cd3f
000004c0: aa04 99d7 b21e d13f 42ce fc04 fb2c ce3f
000004d0: f6e2 fcb6 231c d1bf 6e4c f77c aefa 92bf
000004e0: 6034 74eb e8d3 c2bf 5e55 4e1b 5f0d d73f
000004f0: 6c2b 1fb7 213d b53f fe40 abd9 c70f e9bf
00000500: fb47 eb7a 67b5 be3f 21df 9678 33ff c8bf
00000510: 9245 e398 b264 c43f bb7a b86e 0fd8 79bf
00000520: cd94 e11e a95d c13f dedb 47e0 eb81 9ebf
00000530: 7add c513 48ba c03f de7d b918 e8d2 d0bf
00000540: 7e0e c95d b20f b8bf 5ad7 c053 126e bd3f
00000550: 6e5f b0a7 3fc7 bd3f 3240 7e90 3cef a3bf
00000560: 177c 6873 d4a0 c43f 01fa 13ea c1ec cd3f
00000570: a9ea 9dc9 17af e4bf 52fa 406f 0e5a cd3f
00000580: d504 418e 6f8f d0bf d200 79ce fe9a c13f
00000590: 384a d9e8 ec9f c33f e4aa 9245 8df4 b63f
000005a0: 2126 7317 8691 d6bf f6c2 b2cd 02b4 d23f
000005b0: 919e 91be cc43 c2bf f54c 36af 6ecb ccbf
000005c0: 86dd 1309 d2c8 e3bf 3cb1 9321 080b e23f
000005d0: e99f 8c74 141d dc3f fd40 7978 28ac bf3f
000005e0: dfdd 21fd 484c c93f 5676 5e7a 5d2d b93f
000005f0: 1668 0429 c52d a03f 7fa3 8025 6f89 a23f
00000600: 9cd2 8963 d4dc c53f b7b2 dee1 5909 d03f
00000610: 6e4e e8f6 89cf d3bf 2597 457d 67d2 ce3f
00000620: 5e80 2a3f b361 e2bf 36bd 02ff be61 b8bf
00000630: 6f54 a546 8508 b83f b0da fb74 375d cc3f
00000640: 2241 9d8d 0c47 d43f a094 5645 405d b83f
00000650: 5962 c555 3485 c33f 8e3f 4e85 ec7d 753f
00000660: cb8d 386c 1a4f e9bf 35a3 3043 69ae c5bf
00000670: 7b64 56ee 547a abbf 1979 be7c a16f a53f
00000680: 6f1c 3327 87be 83bf 3877 9a6b 3600 a73f
00000690: c39d 0420 7337 c73f d738 928d 45dd d13f
000006a0: 026a 0cd8 6c37 cebf 562a fffa 6ac3 ddbf
000006b0: 1d11 4a76 d049 cc3f ea6b 4978 b7a4 723f
000006c0: 15aa 50a0 f98a bc3f 7037 6b4c e0e9 bc3f
000006d0: 9dcb b2d3 c8a3 8fbf a7ed 73d0 88e2 c4bf
000006e0: cf2a c251 3b2a b0bf 02bd 3820 a46d cd3f
000006f0: aea7 247d 7992 c43f f4f9 eceb b00b c63f
00000700: 2891 8da3 3c50 d43f 1a12 832e 349d debf
00000710: 2c2a 5b18 f6d0 e3bf 9945 660a e56c ca3f
00000720: d7de 4573 baaa 753f 135f 0589 eb74 d13f
00000730: 0da6 c6eb 75ec 7cbf 114f 4a43 a7a4 d03f
00000740: a13c a790 2602 d4bf 680b 8b28 c7f4 cbbf
00000750: cfe8 6b6e a965 d3bf d99d 660c 5f72 c83f
00000760: 77b4 0646 5092 a53f f48b dde8 da40 b33f
00000770: 6bd4 5238 4625 84bf a274 d51e c569 a43f
00000780: 19c5 b40a 72d4 c03f b1f2 dea2 23d7 9bbf
00000790: 0554 b74d 3112 bebf 2b4a b24a 2828 a43f
000007a0: 7a2a 5dcd 9d69 c5bf 17a7 9520 ab7b be3f
000007b0: 58d3 75c8 9907 c13f 89a3 47b0 e8f5 cdbf
000007c0: 6ea9 5107 3589 be3f 7b4d 33c4 b289 ba3f
000007d0: 7f83 a56f 9a1d b43f 2439 047a 5701 a53f
000007e0: 4b9f 527d f742 d13f fe5c d255 1eba 63bf
000007f0: 518a 7486 0457 aa3f 6d0a 647c f544 9d3f
-0.32014609867335647 0.04056741502437102 0.013297800340352498 0.11723253220982818 -0.026628006550254477 0.06769219382848896 0.017808752709194745 -0.2505338001090526
0.1717419773198381 0.12124593141402695 -0.04084660634291596 -0.05863841086476305 -0.1103942014148841 0.05762436885869787 0.030059318513303797 0.11078532001922911
-0.04154796015791626 0.36725098254893745 -0.43769189958858146 -0.023503757184093376 0.012692533962172584 0.16265808699136713 0.11819909494584674 0.1715997095822555
0.0012937663508952508 -0.0037199512702081844 -0.638180970672253 0.1601535758997005 0.08048731378944096 0.14285184797608091 -0.14658129516380336 0.13890878965580708
-0.08097106400029358 0.10042129804697637 0.582035478436312 -0.029310480008818612 0.14376852294099612 -0.3226113079325614 0.028311631222499696 -0.08023320894846624
0.0562836917730984 0.09821210305104501 0.3762340903726519 0.3090713626841695 -0.1019899692241626 0.04955564875653056 -0.23484175101262195 0.543448332783792
-0.03070097944525591 -0.7803638508618993 0.11867243282444356 0.0019569649252064174 0.0845009022017496 -0.04418789132543759 0.15771038346164146 -0.19153983607505065
0.07381206835038605 0.062493612003376026 0.0793039328621128 0.18141134221657182 0.09632894192837786 0.02000728286515587 0.051373112314513726 0.212389627334423
-0.15511069140039443 0.18964054626416707 0.12019607289290168 -0.28982117235668914 -0.019456145057823695 -0.3669764829575606 0.3401477613535416 0.023948091912936068
0.07386057547381837 0.017159532930498416 0.045366848326559656 -0.5535936771122506 0.11456102495818907 0.05342967004559532 -0.06513493502125904 0.07987277233236298
-0.08328440092831933 0.033372058551207597 -0.05422782133243946 -0.3208471256400612 0.15176750792829782 -0.03078522122371096 0.10260507501360529 0.07424938260022172
-0.0007176130508601956 0.11939575131531271 0.1316928898769091 0.03427889127264822 -0.0031860961904739567 0.15407252849985495 -0.1630837150164334 0.08424857765246334
0.10949912747329607 -0.27228673318934793 0.1539831891268729 0.06775930560081213 0.04806741611129369 0.19397536111859795 -0.055328238914389684 -0.030741725980318057
0.12667607357464894 -0.06970981301900553 0.02586329347237486 0.12044095233644221 -0.3994808820399813 0.10832981468533583 -0.4241971726225079 0.2249244993567787
0.1822900271564036 -0.11208775335423897 0.09714858728144077 -0.5136562183287696 0.1685335826433172 0.086329988192321 0.23326771388158718 -0.03306453264179227
-0.06441498723541686 0.36911938093453 0.04672640411343731 -0.26039686056336464 0.14046478472001162 -0.0665466761891762 0.013896547030310876 0.1318859683293061
-0.15287713391930885 0.09224061458352582 -0.035617691528277054 -0.021498688958905 -0.4385420416295027 -0.09673675918507772 0.06916943219603915 0.06933041337765421
0.11702639530860197 -0.06413794629509836 -0.010516054857459567 0.03380813601242671 0.12149547396423618 0.371320789939977 0.06506952316264251 0.004663627308736131
-0.0833919158380334 0.10571755111916817 0.22659324457074415 0.062134234355296934 -0.5305850257109669 -0.549737044011804 -0.0917222280076773 0.23019842337301225
0.26749869398561066 0.23574769729167327 -0.2673424994459731 -0.018534399392433114 -0.14709197518132822 0.36019113222694965 0.08296404572244648 -0.7831763507220157
0.11995550871804987 -0.1952881182494304 0.15932304825996063 -0.006309566767895343 0.1356707955157276 -0.029792485775001036 0.1306848618075767 -0.2628727189494081
-0.0939895132988173 0.11496080918081245 0.11632154315918594 -0.038934605253530555 0.16115813861048942 0.23378776483146171 -0.6463736474828085 0.22931080276790056
-0.25875462429037316 0.13754258233712463 0.1533180367428757 0.0896690649848711 -0.35263206758517823 0.2922369965336168 -0.1426940851699681 -0.2249582629707231
-0.6182642152115683 0.5638466506766586 0.4392748964478402 0.123720673954498 0.19764053688025648 0.09834846723102805 0.031599198586448704 0.03620478947443128
0.17080168590805023 0.2505707460175403 -0.3095421706395659 0.24079602829731886 -0.5744262918197014 -0.09524148679587516 0.09388001417876678 0.22159474575137983
0.3168364890052705 0.0951728982241371 0.15250257671393078 0.005247043522913842 -0.790906154030773 -0.16938510685693023 -0.05366769227402642 0.041867300488990185
-0.009640746959475003 0.04492349685209124 0.18137969077473146 0.2791303522616437 -0.23606644200556565 -0.46505236159706465 0.22100263381811028 0.004551617316418602
0.11149559177344089 0.11294366708463399 -0.015449112854502728 -0.16316328218804907 -0.06314440485054294 0.2299084813434789 0.1607200490046216 0.17223178405579598
0.31739726993534356 -0.4783449606150342 -0.6192579723077123 0.20644820220745144 0.005289772340226504 0.27276123410182257 -0.007061443928628741 0.2600496441966565
-0.31263126493736065 -0.21840753059049267 -0.3030799463591735 0.19099033456335127 0.0421319089394751 0.0752083605307659 -0.009836720079287006 0.03986946107281965
0.13148332140694022 -0.027187878433084737 -0.11746509692541458 0.0393688765699561 -0.1672856571916162 0.11907453103563302 0.13304445541475718 -0.23406704528249758
0.11928111485182111 0.10366360940979817 0.07857670999284315 0.041025861401168734 0.26971232641743786 -0.0024080841527155386 0.05144514218615782 0.028583369939051573

bias_hidden f8 [1, 128]
00000000: ce60 fb6b e472 b03f ef4b 439f 9c47 923f
00000010: e94b 2630 fa00 c43f 7982 d28a 1270 a13f
00000020: c231 e0d3 b0c7 b0bf 39c7 82ae f2a1 c8bf
00000030: 57f8 aa4b 1a69 bd3f 0126 a392 9519 903f
00000040: 9d94 c8d5 80e2 b63f 2631 197a 6136 b9bf
00000050: 218c a914 6098 c83f 47c4 026a cd88 c43f
00000060: 21a2 21e8 d6cb ca3f 7fc6 132e 399a c53f
00000070: 13f9 2111 844d de3f dc25 fdaf 5ed8 d3bf
00000080: 2203 753d f23d c73f 9b9f 1850 0845 67bf
00000090: 336b 7203 3a08 973f d3e0 d4b3 f762 99bf
000000a0: 8df8 29bc a76c bd3f 0b5f 887b 077d c33f
000000b0: a05c 3fa3 6462 72bf 8fa5 be0e acc6 d23f
000000c0: 97db eb40 fe93 a0bf fc50 a48b 5ca0 cebf
000000d0: b607 e117 c1f2 b5bf e277 1d1d 669f c9bf
000000e0: b1c1 6a63 1a96 ca3f 7271 3d21 5627 c0bf
000000f0: 6ed3 4f82 2f71 c03f a8aa 9127 de87 c8bf
00000100: 68d3 a021 566d 7fbf 37c6 1908 ca8f dc3f
00000110: 5817 fe24 2d30 8a3f 0195 59bd 73d2 b5bf
00000120: 4711 fdd8 a74b 92bf 69e7 9d57 946d c5bf
00000130: 6238 6d22 627c cc3f 32f3 585e faa5 a23f
00000140: 5ce1 215e bad4 79bf cd2f 0094 e08c c33f
00000150: 3bb9 6197 defa c53f 6d3e 1c9e f16a c43f
00000160: 5164 86d9 1919 b0bf 390a 9cf6 2431 d43f
00000170: 90a6 5c3f 5e77 ce3f 32af bbcb 58e2 bbbf
00000180: 007d 31d5 31f0 c43f 8b8a 6df0 4fb4 d13f
00000190: f05f be9c e326 d73f 7bd6 ae25 02b7 c0bf
000001a0: 37d5 c014 350a 9ebf cc79 fe46 88f0 bbbf
000001b0: 3cba b81d 868c c03f b2a7 056b 5e17 bc3f
000001c0: e27f 5dac 965d cf3f 2955 f6b3 6d54 90bf
000001d0: b41e 004d 93ad 8d3f 2638 5677 2d89 a4bf
000001e0: 6920 e6de f553 ccbf 8aaa 72e0 08eb ca3f
000001f0: 345b bc37 0774 c63f d354 c9b5 078b c4bf
00000200: 125f a40e 1435 bb3f 248c 563c 0bfd 913f
00000210: 8a72 3fca 8608 d23f 6fb3 721d 2682 cebf
00000220: eb32 4d6a 8364 95bf a408 a350 60b6 d13f
00000230: 6a6f dad9 e22b ad3f ef3c 9c8d 8f99 963f
00000240: c47a fb18 888f 923f 629f e6a8 1a95 8dbf
00000250: db70 656a 217f a83f b1ec b5ca edf6 c83f
00000260: 43ad 0da9 f6d7 31bf 1969 fb90 1b27 b1bf
00000270: e09b 3836 35cd d43f 7fec 95e5 c9c4 ab3f
00000280: ebf3 52c3 46d0 cc3f c675 eb06 0696 ad3f
00000290: 8b6b c338 0817 bf3f 60f1 ce22 389c c33f
000002a0: a2a5 2082 cd76 a4bf 5c05 cbd8 9075 c53f
000002b0: a678 c975 f6a5 dd3f 04cd 5bc1 a1ff d03f
000002c0: 0ef0 462b 71bc 8a3f 0024 dc80 112a cf3f
000002d0: 8e1e 06f0 6f60 b23f 3206 e13a 2d62 a6bf
000002e0: 5d5d bb10 d399 ad3f 45b9 02f4 ace0 74bf
000002f0: 3e91 8896 a17a 8fbf d99f a4b7 57d5 a6bf
00000300: 5f3d a146 77c3 b43f 7d9b b825 bfec c4bf
00000310: 830d 96e6 ae7d a93f 4b47 56d0 b67f cdbf
00000320: 5bd9 f95d 0758 9b3f 448a e42f 4942 b03f
00000330: f844 3054 32c2 91bf 4b18 d877 d915 d1bf
00000340: 2fda 5837 88ef c4bf de11 2938 f9bd c63f
00000350: ab82 f935 7acd ca3f dddd 670a c2a8 a13f
00000360: 4c63 8bce fd6d c33f 9fc4 ec27 e8d5 a83f
00000370: 368b 7e68 835d a73f 06f2 7726 f807 c3bf
00000380: 8bc8 afec 389a cd3f 5cd0 672b 37b5 a43f
00000390: bea3 9eaa 8706 b1bf 78c5 44c2 df73 a4bf
000003a0: ddcc 6b7f 4882 c63f 436a 4220 55b8 b33f
000003b0: 4a13 09a3 ba48 c33f 9130 5cbc ce60 9b3f
000003c0: 1ead dbbc 94d8 bcbf 7554 9fcb 7ed7 c23f
000003d0: 63ec 6f04 f325 d0bf 7ad7 c8c6 136d b4bf
000003e0: 7e2c b398 b237 a63f 20bc 3787 c826 bc3f
000003f0: fe72 b71d 64cf c43f 83ce 485c 4147 b23f
0.06425311695363975 0.01785130235732518 0.15627982474379046 0.0340581697903461 -0.06554703877208737 -0.19244225998914447 0.11488499019012131 0.015722596240072665
0.08939366549801027 -0.09848603468816872 0.1921501255884275 0.16042487789448698 0.20934568724193617 0.1687690234171448 0.47348119423976803 -0.31008116899883276
0.18157794953187884 -0.0028405344353536594 0.022492319546113037 -0.024791593886420337 0.11493919700476081 0.15225308925504807 -0.004488366237601543 0.2933759826651902
-0.03237909834381652 -0.2392688447804473 -0.08573538620933516 -0.20017696782718902 0.2077057824549349 -0.12620045302436328 0.1284541498459037 -0.19164635593491153
-0.00767263073980904 0.4462761954410754 0.012787201587126582 -0.08524249432374022 -0.01786672841923689 -0.16740659979023612 0.22254587822903021 0.036422561661743194
-0.006306388853879543 0.15273673273656954 0.17171842948614277 0.1595136663458904 -0.06288301048916024 0.315499535398121 0.2380178269752844 -0.10892252897218382
0.16358015928106084 0.27663038710867544 0.361748602933857 -0.13058497276294986 -0.02933581294219786 -0.10913898213627887 0.12928844882249446 0.1097315799030685
0.2450435964228737 -0.015947069272063494 0.01449122503983289 -0.040109082047920006 -0.22131226905571857 0.2102976890503963 0.1754158994815157 -0.16049286247531444
0.10627866132233191 0.017566848333114518 0.28177041769758004 -0.23834682882207 -0.020891240466243948 0.27675636172001306 0.05697544965116104 0.022070162790495947
0.01812565472107043 -0.014444549827046852 0.04784492896826161 0.19503567121487245 -0.0002722718427807422 -0.06700298585511567 0.32502489371330334 0.05423575332221108
0.22510609185510985 0.05778521379918859 0.12144519220184528 0.1532049341166255 -0.03996889317961495 0.1676503237304513 0.46325456144939847 0.26560253031421177
0.013054737218105596 0.2434713248442506 0.07178401575049007 -0.04371777862298777 0.057814212601153804 -0.005097079847628476 -0.015370619207779709 -0.044596425216070386
0.08110757326470751 -0.1634749349770707 0.04978701176426183 -0.23046002552706066 0.026702990637624918 0.06351144236808987 -0.017342363728009652 -0.26695858672645006
-0.16355993940824606 0.17767253153046075 0.20939567218285524 0.03449064614317952 0.1517941721456516 0.04850697982181739 0.04563532496037796 -0.14868070486399193
0.23126899296727674 0.04044506459095551 -0.06650588908691099 -0.039946548904832235 0.17585092756016865 0.07703144109329067 0.15065701447215424 0.026736479040707698
-0.11267976389688214 0.14720139448641914 -0.2523162406284369 -0.07978938677919514 0.04339368928921149 0.10996678639615753 0.16257907343869954 0.07139976981198441

bias_output f8 [1, 10]
00000000: ff65 0d4a 45e1 d6bf cbf2 022c ad03 b63f
00000010: f5c3 1c46 ac58 ccbf 81e2 ac17 8d0e cabf
00000020: 38d7 1933 cbe7 cd3f d7c4 3011 c18d d43f
00000030: 74f9 4cd2 e2ae b7bf cff7 9237 45d6 9b3f
00000040: 039f d7ff 58e0 d93f 137f 1337 693f c9bf
-0.3574994300048217 0.08599359821796353 -0.2214560835214169 -0.20356906562826185 0.23363628382838342 0.3211519878269206 -0.09251229891103724 0.02718456412980413
0.4043180941066426 -0.19724765004411235
