models/model_cv_digs (17000).npz (npz, 815236 bytes, 4 tensors)

weights_input_hidden f8 [784, 128]
0	0xbfb1ade5caed4610	-0.06905971721905524
1	0xbfa9e2e790e9c688	-0.050559269370649196
2	0x3fb8e713eb8b4d25	0.09727596760358333
3	0xbf958aba468e18a5	-0.02103701644548352
4	0x3fad9d4d6026d61c	0.05784074591376173
5	0x3f8784840cd5145c	0.011483222619640347
6	0xbf98fa676cb550ec	-0.024392715463663103
7	0xbfad5f792cd73f9f	-0.057369028781635516
8	0xbfaf19c99ee496c4	-0.060743618627652235
9	0xbfb2dce4ddc76e62	-0.07368307508971264
10	0x3f54748b6cf87add	0.0012484895304464762
11	0x3fb100121a52a198	0.06640732901235535
12	0xbfaaf1643a1fef61	-0.052622921080881076
13	0xbf7a7a31aeae6d09	-0.006464189597774402
14	0xbfa99da8177fb939	-0.05003094946720172
15	0x3fb3b2a94f6a7097	0.07694490612851933
16	0xbf82787ee0c85778	-0.009018889651126946
17	0x3f7db0c88d669c3a	0.007248671920399958
18	0xbf97356e86dc35e9	-0.0226647634327061
19	0xbf9e0168ac01a82e	-0.02930224943012421
20	0x3f8bdffbc5e738c3	0.013610808350588482
21	0xbf9d9d787f5e9671	-0.028921015523926067
22	0x3fac9bec044b5556	0.05587709000034617
23	0xbf7499809625f7a7	-0.00502920369251384
24	0xbf986da5fa10778e	-0.023855775249209503
25	0xbf9b9a71acf3acb2	-0.02695634477724402
26	0x3f56bd423a90d7c5	0.0013878962293012314
27	0xbfb2ac9467cd59cc	-0.07294585737449849
28	0xbf97a1a4edf13401	-0.023077561400260297
29	0xbf5777ae489620c8	-0.001432342718858991
30	0x3fa35d344404dfae	0.03782046633062862
31	0xbf9ab221ffc7fa8a	-0.026070147740024065
32	0xbf6d4e0f21c1a865	-0.003577260546127769
33	0x3fb9f1a676343643	0.10134354005659767
34	0x3f8f0d82a41e828d	0.015162487634200939
35	0xbf6a98c3954960ee	-0.0032466716750542057
36	0xbfb006d366cf6b67	-0.06260415325179523
37	0xbfa5a58b2b5a3061	-0.04227862266734018
38	0x3f90c1d902714016	0.016364470266410157
39	0x3fa8189a94999497	0.04706271232570563
40	0xbf9abd5e6129c438	-0.026113009147995053
41	0xbfb0d429a6085cd8	-0.06573734572917844
42	0xbf8e4557e1c90a48	-0.014780699327393468
43	0x3fa774ac3dc14dd5	0.04581201795431481
44	0x3fa750946ed81a88	0.04553665021017134
45	0x3fb0790d04786d39	0.06434708937779456
46	0xbf6b768581761bd6	-0.003352413895928201
47	0x3f9c8f82f7b64831	0.02789120327867795
48	0x3f71d1bf654b0666	0.004350421561584028
49	0xbfa0e2054182ea62	-0.03297439980220386
50	0x3fc01037e59203f2	0.12549494466296057
51	0x3f9fba49701d0ece	0.03098406550203841
52	0xbfb141b161bd6d42	-0.06740864406804284
53	0xbf9ee37cfb8e0178	-0.030164673665696168
54	0x3f93c572a929886d	0.01930789144024241
55	0xbf8a482f7bfa3a07	-0.01283299538706918
56	0xbfb0533f8c816b9d	-0.0637702672988056
57	0xbfaa353143032744	-0.0511870760252138
58	0xbf517e9d575be407	-0.0010677849326710136
59	0xbfb537d052fccbd9	-0.08288290048658044
60	0xbfa51daf817f66e1	-0.041242107923336276
61	0x3f769714605b0778	0.005515174479741584
62	0xbf89ad3e7ff88793	-0.012537468223914583
63	0xbfa79cc732dbddf5	-0.04611799712978019
64	0xbf92908446b569ee	-0.01812941247531257
65	0x3fa15f36d408e5fa	0.03392955148997241
66	0x3fb40218dab25d8d	0.07815699900890234
67	0xbf900bab69952a64	-0.015669515914206747
68	0xbfa1d260971ed77f	-0.03480817646725053
69	0xbf74896d210e5ab2	-0.005013872419019337
70	0xbfb77cc6f666febe	-0.09174769893342735
71	0xbfa028858f66cbf8	-0.031559156184265136
72	0x3f9005ba7ff18ff1	0.015646852549608018
73	0xbfb3d0a2cb098eb6	-0.07740228135076674
74	0xbfa1416b1b6c40dd	-0.03370222768546836
75	0x3faa21aab2f0d58d	0.05103810724578315
76	0xbfb8738af2e9af7e	-0.09551304274071801
77	0x3fa89dee439d254b	0.048079915765422664
78	0x3fb19560078a7427	0.06868553337194837
79	0x3f6b4a7b70d672da	0.0033314143135626363
80	0x3fb87994c96d72f3	0.09560518186249194
81	0xbfbbd30c5140f157	-0.10868908866627201
82	0xbfa60a94167f278a	-0.04304945730798611
83	0xbf8e9164b93fd60d	-0.014925753501283468
84	0xbfa02a2f9b3816af	-0.03157185334934575
85	0xbfb55a995c46b96e	-0.08341368201101826
86	0x3f746165c057e102	0.004975697961974614
87	0x3f653b95e9b3d8c6	0.0025918891893708966
88	0xbf924aed908a29d4	-0.01786395258617708
89	0xbf9b46e5b843e5bc	-0.02663763940015483
90	0x3f7cfd6330cfc9be	0.007077586616093643
91	0x3fa3ac93e2a97e03	0.03842603818770487
92	0xbfb0c146576ebb3f	-0.06544913897117242
93	0x3fa45e475e46cfa9	0.03978179002606847
94	0xbf97cf59b0d7ad8b	-0.023251916330918426
95	0xbf85b1d7d88b1ac2	-0.010593115135077883
96	0x3fbe4f676b6447db	0.11839910861843299
97	0x3fb488f6d9a99ef2	0.08021490873363371
98	0x3faf400e9b17b15a	0.06103559153766254
99	0x3fa42c19b1157647	0.03939895903270645
100	0x3f9b8721c7b2b392	0.0268826749931353
101	0xbfa75686cbd40690	-0.04558202016961588
102	0xbf9447538736f35f	-0.019803338172767023
103	0xbf74353a0650651b	-0.004933573397488257
104	0xbf8d396421171ecb	-0.014269621143184882
105	0x3facec3d39773c38	0.0564898617409359
106	0xbf81c834b1e22cb1	-0.008682643583844603
107	0x3f74f52e63a7cfd3	0.005116635521051865
108	0x3fa2b87ecfa562c4	0.036563837859551224
109	0x3f8ee8ab658acf59	0.015092219387362315
110	0x3fb1d71185898d90	0.06968793401897799
111	0x3fbc88cf5ea9d26a	0.11146255551450115
112	0xbf79bd4d986314a2	-0.006284049135676957
113	0xbfa25b4c2d3720ba	-0.035852795142603935
114	0xbfb91d5cd9962117	-0.09810428917092327
115	0xbfabe085444dc5f9	-0.054447331035486664
116	0xbf838fc756a1ab09	-0.00955157979133993
117	0x3f8b6a7e9d9ec4ab	0.013386716065584578
118	0xbf9ccd90ba54c406	-0.02812791955256346
119	0x3f9234915a8a1acc	0.017778655196276458
120	0x3f9d6c290d6147ef	0.028732911531115176
121	0xbf7e7c3b9165f162	-0.007442696273184475
122	0x3fa3493de79fb664	0.03766816570701506
123	0x3f7d59caccc1d10d	0.007165710627408351
124	0xbfb4bbb02a6c0869	-0.08098889384931031
125	0xbf9c282d54688430	-0.027497013356086508
126	0x3f9361d9829ac0f8	0.018927954288927545
127	0x3f69afb802f96b0e	0.0031355470635338117
128	0xbfa9198af15fcba8	-0.04902300068342608
129	0xbf9d5342476388cb	-0.028637920005061084
130	0xbfb1ebd5ec6ae498	-0.07000481626427513
131	0x3fb29d54b8e2d78f	0.07271317972012369
132	0xbfb3f374ed750c2c	-0.07793360516829811
133	0xbf91118521a4d524	-0.016668396166285807
134	0xbfbc70fef2ffb6a5	-0.11109918053235875
135	0x3fb07e404b5d27c4	0.06442643966616318
136	0x3fa1d1edd8f4ebc3	0.0348047568645238
137	0xbfad2ec5e2e6d675	-0.05699747462078345
138	0xbfa5c17ccfa06c98	-0.04249181780343142
139	0xbfadc4f04acb0ee5	-0.05814314759257203
140	0x3f9c2399686bb524	0.027479550360046137
141	0xbf56c2acecc00380	-0.0013891876906202139
142	0xbfae12a4a71709ba	-0.058735986134269294
143	0x3fa2f8c4ca8156f2	0.03705420467364985
144	0xbfb52e5a1a8af402	-0.08273852489487868
145	0xbfa8f0ea91f5f672	-0.04871304542301126
146	0xbf8ee619700aabd0	-0.015087317210903978
147	0x3f901228c6a69d4e	0.01569427216022961
148	0xbfb9a1fb7dfa864c	-0.10012790513658237
149	0xbfb637bb8e748de0	-0.08678791263496732
150	0xbf64a1fd13bd5269	-0.0025186484253175057
151	0xbfbd56a80cc98291	-0.11460352241693729
152	0xbf8e8ae9b5979cbd	-0.01491339288163684
153	0xbfb2a9b499e72ae2	-0.07290200002095618
154	0xbfbc3e0d3949a4f3	-0.1103218331205829
155	0x3f6eb15e6be91626	0.003746685425798163
156	0x3fa34b684130e129	0.03768468662059583
157	0x3fa0ec552b8d32cb	0.033053075376846396
158	0xbfb9228020fd7b62	-0.09818268590377735
159	0x3f9abcff0d17afe6	0.026111588644127347
160	0xbfa14a53d8290c71	-0.033770198952446935
161	0xbfa0d1919a577a70	-0.03284888276151754
162	0xbfb64297c10f4aae	-0.08695362532970805
163	0xbfa5f3c2556d0515	-0.04287535946651581
164	0x3fb30c916f64dc99	0.07441052407817707
165	0x3f8f9a22ecca6e89	0.015430710650711237
166	0x3fad252cd5691d12	0.05692424874410497
167	0x3f53a556cc602282	0.001199087871557009
168	0xbf9d975ad8df43e7	-0.028897685515236218
169	0x3fac4a48ba3615f3	0.05525424264036962
170	0xbfb8a2d0430f0f42	-0.09623433720758803
171	0xbfb54e4e4e6d8e98	-0.0832261029695992
172	0x3fa7b5d30cd7d43a	0.046309085195311586
173	0xbf98c8bb85f2acd2	-0.024203233767065076
174	0x3facf302201449aa	0.056541506210254625
175	0xbf9e9f2b30e6ebb9	-0.029904055461638743
176	0xbf904b45d67fdfba	-0.015912142960558852
177	0xbfa656b901fb0142	-0.043630391589888365
178	0x3fa1c56a5024ec3d	0.03470928409884564
179	0xbfa27e13fc3686c0	-0.03611814931651969
180	0x3f7333068f5ffc85	0.004687333703258583
181	0x3fb279c00ad5997e	0.0721702600909335
182	0xbfa0779690c47009	-0.03216238515071274
183	0x3f9cd28cb87749b8	0.02814693332568094
184	0x3fae8053f9a98c23	0.05957281515727455
185	0x3fa35069fd171b14	0.03772288526993442
186	0xbf8cb46ebaa505c9	-0.014016022749845274
187	0x3f7070959da95fd5	0.0040136188859704785
188	0x3f7d62639ace171e	0.007173909264457183
189	0x3fa2ec6015f70eee	0.03695965068939509
190	0x3f67df5fecddcff2	0.002914130548498755
191	0xbfc1c9599012d500	-0.13895720991937566
192	0xbf6e475d445cfa7e	-0.0036961385366390256
193	0x3f9e7d14eea8113c	0.029774024073064384
194	0x3f9b832ae2d0374f	0.02686755189284123
195	0xbfad14899ec085b8	-0.056797314289961986
196	0xbf76c7ecf3038816	-0.005561757643791429
197	0x3f86af7b534103e7	0.011076892355164914
198	0x3f92236cd56a1ec0	0.017713261152066506
199	0x3f92eb2ec956d3ef	0.018475276030319007
200	0x3f914352fe54a1e6	0.016858383916003826
201	0xbfacfe395f59b3c3	-0.05662707604356101
202	0x3f8d872769bdfd1b	0.01441794196557438
203	0xbfa161df56520799	-0.03394983223644416
204	0xbf879b54e601913e	-0.011526740330915271
205	0x3f85bca480f8adce	0.010613713441748465
206	0x3fb19e08fda92ba3	0.06881767456904568
207	0x3fa61b25e48e66b2	0.04317587294572202
208	0xbfad150bcdef40f9	-0.05680119408464352
209	0xbf9b43c7deec34fc	-0.02662575052368242
210	0xbf97fdcd69eeb114	-0.02342911681232447
211	0xbf9e515e926511b8	-0.02960727470896682
212	0x3f6fb3e9c59528b4	0.003869968972741134
213	0xbfacb78150da3571	-0.05608753311126236
214	0xbf9a4ae16adc1c54	-0.02567627157898429
215	0xbf96632afeefaee1	-0.02186267071731052
216	0xbfae00f233427991	-0.058600968129428506
217	0x3f92faf71664747c	0.018535481206630497
218	0x3f8659b3dfd51b13	0.010913281696628674
219	0xbfb711ee7cf5ba44	-0.0901173644140068
220	0x3fa62275292751ef	0.043231641076690745
221	0xbf60b7574d71447e	-0.0020405488135471486
222	0x3f976897a1e1f0b0	0.02285992551377153
223	0x3fbb7986886c3198	0.10732308226233156
224	0x3f9545457f80c429	0.020772062213101492
225	0xbfb1cd78b3d3e8ff	-0.06954149618460191
226	0x3f9d5a0d1c9a55e8	0.02866383063390812
227	0x3f8d06ecaf619e32	0.014173363783085955
228	0xbfaf71c4c52d375e	-0.06141486079159962
229	0xbfa410d56da048a4	-0.03919093096932727
230	0x3f8dd4d69d54dab7	0.014566113163352197
231	0xbfb3c08c76c00064	-0.07715680979890888
232	0xbf9c4054d250f17f	-0.02758915456455346
233	0xbfaac759a695a0eb	-0.05230217131139788
234	0xbf9b4a3928ad39c1	-0.026650326831537677
235	0xbf9e14fdb7a0bfc8	-0.029376949627646615
236	0x3f74e832326420da	0.005104251939208571
237	0xbfafbec26f6b0f25	-0.062002254582266304
238	0x3f9689984c49edd6	0.02200925794248384
239	0x3f943c7ed49f4a55	0.019762021758490473
240	0x3fb650d45c662b2b	0.08717086082303342
241	0xbfc3734e40c2b9cb	-0.15195634996548643
242	0x3fa5e05ab5cdf78d	0.04272731274885109
243	0xbfab636f3aa055c5	-0.053492999941379384
244	0x3faa4bcfe9a577ea	0.05135965087059431
245	0x3fba0e6b4404a5da	0.10178251658057694
246	0xbfbab9f01f210152	-0.10439968833907656
247	0x3fb874eb16cc177f	0.09553403193066677
248	0xbfaa5b403e12fb78	-0.051477439477358666
249	0xbf956664f7fa0a86	-0.020898416171358146
250	0xbfa02a0660bada75	-0.031570624645088786
251	0xbfaa854ebd54b43b	-0.05179830609481725
252	0xbfc150d64fe98fd7	-0.13527945425005214
253	0xbfb194dd39858043	-0.06867773680051052
254	0x3f9e33aea1f6a40d	0.029494026790107642
255	0x3f6fc3b9f2091de2	0.0038775092837430728

weights_hidden_output f8 [128, 10]
0	0xbfc876aceb58e0e4	-0.19112168780862426
1	0xbf991c1e74f00545	-0.024521327864936344
2	0x3f80873bfbea5470	0.008070438981386568
3	0x3fb869df2d4c7821	0.09536547523427476
4	0xbfa4343b1131cae3	-0.039460988854349364
5	0x3fa8b5d932c59edc	0.04826239342474789
6	0x3fb046f667b4341f	0.06358280212244026
7	0xbfcd6efda5a8961d	-0.2299496706847756
8	0x3fbb3ed220e78469	0.10642731955842212
9	0x3fbd9d98045159ed	0.11568594079412949
10	0x3fb77a27098c76a6	0.09170764906999782
11	0x3fbd2a8901591f06	0.11393028529084512
12	0xbfb05ecd49c55fa8	-0.06394656230020124
13	0xbfb11d535a2b5469	-0.06685372306249494
14	0x3fb7d0ed0ffbc768	0.09303170814726303
15	0x3fd10e27946554fe	0.2664889287164697
16	0xbfe3a53668fa3f02	-0.6139175463049187
17	0x3fd714ca4d846bd8	0.3606439358715625
18	0xbfe11d36706a5f34	-0.534815997659257
19	0x3fca7f9bf9efb569	0.20701932624744337
20	0x3fb616d96d4b45df	0.08628615301429175
21	0x3fbe187c8ee0bf18	0.11756113517980926
22	0x3fb9648a074e755d	0.09919035604840105
23	0x3fc2d3badf182f37	0.14708648579868974
24	0xbf92d5e0def61da3	-0.018394006355746517
25	0xbf724b7392496c75	-0.004466487360868067
26	0xbfe1c90d3ab3c48d	-0.555792441036958
27	0x3fc1bfaf4076c03c	0.13866224906587543
28	0x3fb382eb293706f3	0.0762164092657505
29	0x3fbf150bbc91c0b8	0.12141488412612744
30	0x3f7e08cf5e226b31	0.007332620649459541
31	0x3fb884dd7011dd76	0.09577735887602565
32	0xbfa81809decfc49c	-0.047058399628334885
33	0x3fb326fcfa506ce7	0.07481366263566579
34	0x3fd20feb70a4241c	0.2822216606151089
35	0x3fa21881cd8fdede	0.03534322389890375
36	0x3fbc32427e141035	0.11014190271458875
37	0xbfbc7c1707e172e3	-0.11126846258543881
38	0xbf9b99029e032d45	-0.026950875181495765
39	0xbfb648c584666238	-0.08704790575428312
40	0x3fa8ec370a648dae	0.04867717744698595
41	0x3fc06247704841ce	0.1279992388013071
42	0x3fcb30d7fb23d430	0.21242809069340884
43	0x3fcbde42c5c33690	0.21772036224722457
44	0xbf96d661523f3a12	-0.022302170414883866
45	0x3fab9b8e13868d25	0.053921165355200786
46	0xbfcdb79b735551a7	-0.23216574794299769
47	0x3fd38fe5906b8529	0.30565775969997105
48	0x3fb17b7eee0a959e	0.06829064666324888
49	0xbfdfb95a186dd1a8	-0.49568798432963
50	0x3fbe2f82f457d4ef	0.11791246858031788
51	0xbfa7933d1a974c77	-0.046045217033360446
52	0x3fb67f73640e2953	0.08788224404103077
53	0xbf8e7ab36eeec2fe	-0.014882470915695386
54	0x3fc34b5e70c79dff	0.15073757654975847
55	0xbfc3ab4e72a87baf	-0.15366535757581576
56	0x3faae391cdc7c1d5	0.05251746785131998
57	0x3fb89c820831d2e4	0.09613812160553042
58	0x3fb5e3e00e1f54d2	0.08550834984574188
59	0x3fc2dc5bafc323e7	0.14734979707853244
60	0x3fb1b64cce8335b8	0.06918792764482518
61	0x3f8c66ae257099c8	0.013867722051213685
62	0x3fa50476f57740d6	0.0410496878281507
63	0x3fc0baec4e8c8133	0.13070443950074093
64	0xbfbbda1ffbde888f	-0.10879707240249757
65	0x3fc172b18e3de90b	0.1363126701870175
66	0x3fb7562ceeea0eec	0.09115868409031308
67	0xbfc59d39517c53a3	-0.16886059263984263
68	0xbf7cb0d635ad896f	-0.007004582172927306
69	0xbfd5aff2db90a8bb	-0.33886405412580317
70	0x3fd0fc8b7255a541	0.2654141060398452
71	0x3f91903e9db5f820	0.017151811958221796
72	0x3fb66bc2f9c9b8e1	0.08758181188906945
73	0x3f72922331200a20	0.0045338988002208425
74	0xbf8636c73a4e39a3	-0.010846668688625999
75	0xbfd8adcf6bec5f17	-0.3856085351885538
76	0x3fbc1a33344d14fb	0.10977478052980764
77	0x3faccc64bfe73940	0.05624689905708857
78	0xbfaedf2448af5c79	-0.06029618632572293
79	0x3fa74b6ddbd54770	0.04549735363492757
80	0xbf877b2353d9aba4	-0.011465335842521025
81	0x3f916f29013c10a9	0.0170256049159582
82	0xbfb11ff6d95e94bb	-0.06689398581382282
83	0xbfcf345be7c112dd	-0.24378537002680548
84	0x3fb3af2669a4c722	0.07689132765952114
85	0x3f8806f729579598	0.011732035588418552
86	0x3fbb2a9c230a000e	0.10611892562337763
87	0x3fa486c8eaa63979	0.0400908266484405
88	0xbf7c1f8b734fd887	-0.00686602089716904
89	0x3fb195b4e7b0db1e	0.06869059235110028
90	0x3fc1e1f78742cf35	0.13970846275844342
91	0x3fabd3e1161a7fe0	0.054350885341818644
92	0x3fa1e2f436eac4b3	0.034934646323912764
93	0x3fc3352316a6f448	0.15005911451399556
94	0xbfc092f8f67c6db8	-0.12948524508906956
95	0x3fbbc192d174c4b2	0.10842244733500442
96	0x3fbe3d6661173295	0.1181243884122501
97	0xbfd4f562f8510ba3	-0.3274772095648421
98	0x3fc0ede25a2d8b33	0.13225964930742293
99	0x3f901259f8b7ace3	0.015695005231390346
100	0x3f95fae358cc8019	0.021464874548769417
101	0x3fd708cc27026d4f	0.35991195497054645
102	0xbfaf95dc672ed1d8	-0.06169022330815083
103	0xbf926bd7762ddeb4	-0.017989508236012156
104	0x3fa4ef30773401ea	0.04088736968151692
105	0xbfac591737dd34c5	-0.05536720807013177
106	0x3f73e4ba0d42447e	0.004856802716077911
107	0x3fb93b13796c692e	0.09855767931404522
108	0xbfd7b06d78e6e52a	-0.37014328772382277
109	0x3fa853ee140f0d49	0.04751533503397327
110	0xbfda3371e95361fb	-0.409389951569693
111	0x3fc54faba77b9dc2	0.1664938514506798
112	0x3fbd74ab5f5e4ac9	0.11506148413017593
113	0xbfa8c244dccacbbe	-0.04835715480057655
114	0x3fa7a37fd5fe9d49	0.04616927611578576
115	0xbfd7b171e366aaae	-0.37020537573941226
116	0x3fc6df75371fba46	0.17869439307783547
117	0x3fb0fc9bb172e08b	0.06635449487919425
118	0x3fc716549be423e5	0.18036897289155643
119	0xbf8fea563604197f	-0.015583680652082375
120	0xbfab795552a2fea6	-0.05366007455586201
121	0x3fd047a8eeb0bfb0	0.25437377271282013
122	0x3fa4e0f9af303deb	0.04077892554789372
123	0xbfc81f1b40e3754d	-0.18844929378875933
124	0x3fbc958f632edef7	0.11165710612737799
125	0xbfa8bcd282a86825	-0.048315599870150806
126	0x3f930cb28bb2bba1	0.018603124405384034
127	0x3fbf3d865537d46b	0.12203254299659398
128	0xbfb841c63beacc3f	-0.09475363695928339
129	0x3fb666cf686c177a	0.08750625895853928
130	0xbfa53bf0ab80a053	-0.04147293180022928
131	0xbf99a6148de70a97	-0.02504760852913054
132	0xbfd96d74bb1f0289	-0.3973056628565606
133	0xbfa5cfd3071c459e	-0.0426011987857564
134	0x3f885d7b872f4919	0.011897053778657839
135	0x3facb17edb07fc86	0.05604168342323938
136	0x3fb254c88f72a5e1	0.07160619260925884
137	0xbfa06723c3835081	-0.03203689347870498
138	0xbf8a4b2d66a4b927	-0.012838701910905371
139	0x3fa1ae6fd2abafcf	0.034533972231514214
140	0x3f9d99c39a1a6b2e	0.028906875878060116
141	0x3fc4b044fe2822de	0.16162931833266375
142	0x3f9d06ba3563bcbc	0.028345975407259458
143	0x3f6cad4d6e9efd13	0.003500605806919696
144	0xbf82064c913aae29	-0.008801077062648837
145	0x3fa0e84d9a97e38e	0.03302233230710448
146	0x3fc64524f5f3bb36	0.17398511895540886
147	0x3f98a932e1a7f0a1	0.024082942030859148
148	0xbfd5e4b02d1ae63d	-0.34208301930229706
149	0xbfd3c74fedda3684	-0.3090400526788033
150	0xbfaab1cd1d37b57b	-0.05213776570949854
151	0x3fc29565bf2fa637	0.14518424830684903
152	0x3fc5e0642ff261a3	0.17091038075592477
153	0x3fc484e493ee33e9	0.16030556891601513
154	0xbfcc1ea510a84527	-0.21968520463318805
155	0x3f8f431b9ca5b3d2	0.01526471683311029
156	0xbfb006ea1a96f041	-0.06260550641212694
157	0x3fcb42a3bd60c412	0.21297117945644622
158	0x3fbc87b6fb007a53	0.11144584300971276
159	0xbfe39ba6b1666ee9	-0.6127503838392531
160	0x3fbec92988b08945	0.12025699221752457
161	0xbfce2211d1e80a5d	-0.2354147219594606
162	0x3fbacdc1586edc75	0.10470207604417843
163	0xbf9f507bc194273e	-0.030580457391841558
164	0x3fbf50f9e3ac0350	0.12232934769055004
165	0xbf8b850519de81c5	-0.013437309123958916
166	0x3fb8c61f42c9c352	0.09677310352868787
167	0xbfc654920424944a	-0.17445588304795684
168	0xbfacdd395027d7de	-0.0563753042551267
169	0x3fc1b8c16ccc2fb4	0.13845079243071512
170	0x3fc7101ded9ce817	0.1801793489665335
171	0xbfab31708c0d5a54	-0.0531115694963559
172	0x3fc196f5bfc34619	0.13741943229119682
173	0x3fc5915037d57fdd	0.16849711157101313
174	0xbfe0a00b55b41f99	-0.5195366548441483
175	0x3fc51254d2968295	0.16462192804921885
176	0xbfc656503c81dcc2	-0.1745090766378095
177	0x3fbef7906d7f94f1	0.12096502946186029
178	0x3fb45dd09902f775	0.0795565007747124
179	0x3fb29ea1346b38d6	0.07273299722439516
180	0xbfc4bceb430ba4e6	-0.16201535009103124
181	0x3fc00450bc13b74e	0.12513169463584933
182	0xbfb02c70a45bd7b5	-0.06317810070672077
183	0xbfa1d2980f26b597	-0.034809829568398225
184	0xbfd48903eb69801a	-0.32086275090660055
185	0x3fd0b880be4db8c3	0.26126116356216417
186	0x3fca791a66ee5c1c	0.20682077432567858
187	0x3fc263ea09ab8e3a	0.14367413971113924
188	0x3fbd93f2412ccddd	0.11553873149096412
189	0x3fbabe8b19514123	0.10446996086216535
190	0x3fb87d4219081c4e	0.09566128836751028
191	0x3faa3e55f9459aec	0.05125683467740835
192	0x3fc223cdcca5f27f	0.1417176484354918
193	0x3fc858476ee943df	0.1901940623816065
194	0xbfe1f42992c5b75c	-0.5610549799582532
195	0x3fc77a4740c01adc	0.1834191385425673
196	0xbfd1e9aab7a3ed85	-0.2798868935930943
197	0xbfa7945d30286584	-0.046053802612912725
198	0x3fbafb72c6849e3e	0.10539929720527483
199	0x3fc7be6b262f0e88	0.1854986130184566
200	0x3fc1b289338011ec	0.1382609845606021
201	0x3f9999fdaef56cd4	0.025001491359358877
202	0x3fb41a106aeed131	0.07852270708719257
203	0x3f70cbfa46d85bb0	0.004100778239737687
204	0xbfdcffc0e5ad01d4	-0.4531099551132034
205	0xbfb9e28dcd5da097	-0.10111318839847382
206	0xbfb92e7715cbc182	-0.09836525232436169
207	0x3f9d4632e44200ea	0.028588099653007605
208	0xbf82e664cceaa68a	-0.009228503707464659
209	0x3f9544ad8ff64514	0.020769798194639824
210	0x3fafbd26c0a03654	0.061989985479254855
211	0x3fc6af23f90c3303	0.17721986446886015
212	0xbfc0cf5f1b05dab1	-0.13132847613788592
213	0xbfd0a169b430e45e	-0.25985186192298737
214	0x3fbf63973aa18af3	0.12261338406964821
215	0x3f90d92bc4297faf	0.016453441474709226
216	0x3fab46b7db41a62b	0.05327391196699368
217	0x3fb06f53f2c99042	0.06419872929979056
218	0xbf984fe1d6784052	-0.023742226329034395
219	0xbfa9a5f855c17f62	-0.05009437605690327
220	0x3fa0d389941e8451	0.032863902407605956
221	0x3fc156a7050026e3	0.13545692199868772
222	0x3fc0998d07c14945	0.12968600157416624
223	0x3fbd61619aad6231	0.11476717020321626
224	0x3fc63deeea29a217	0.1737650531170096
225	0xbfcebbe09488f46a	-0.24010855915722412
226	0xbfde7ff08d159e32	-0.47655881669786304
227	0x3fc1eff05bc93f70	0.14013485414261195
228	0x3faa5a64e0211f93	0.05147090183214611
229	0x3fc235cdf9a9b929	0.1422669858033683
230	0x3f8f57be91cb424c	0.015304077934531389
231	0x3fbcbb5e3b7f921b	0.11223401024432926
232	0xbfce47ddb8d26ae0	-0.23656817936428975
233	0xbfcf5630ea17e4dd	-0.2448178427728526
234	0xbfc44982f09f7d63	-0.1584933924595858
235	0x3fbd1d5c7c819b1d	0.11372926749900754
236	0x3fbe87c2b8ad0804	0.11925904282273342
237	0x3f9eb9ff6ab556f4	0.030006400001488978
238	0xbf79c36b829867b4	-0.00628988262317336
239	0x3f8b0093bbb08cf5	0.013184694447835524
240	0x3fbd4411a2f1bcbe	0.11431989887363422
241	0xbf9cc3daf0ade7b6	-0.0280908784293172
242	0xbfb0816acd9b23c6	-0.06447474975278941
243	0x3fa43f4517fa7f6e	0.0395452110071791
244	0xbfbf5dc30d106891	-0.12252444333026548
245	0x3fb5c483411f0ef6	0.0850297960269549
246	0x3fb633fa215e2e37	0.08673060717244928
247	0xbfc5ac513df46885	-0.1693212082398682
248	0x3fb4ac14af300097	0.08075074460066599
249	0x3fb3ebb6ae171fd5	0.07781545400860009
250	0x3fc464052a0f7b35	0.1593023734448821
251	0x3fc1c348c915f0e7	0.1387721044410519
252	0x3fe27aac08664fd6	0.5774746097617889
253	0x3fd2d3baf2f11e30	0.29417299008170783
254	0xbfe88ce097028431	-0.767196936551164
255	0x3fc681d3e8885f86	0.17583702901970016

bias_hidden f8 [1, 128]
0	0x3fc2677b76f77863	0.14378302868766743
1	0x3fe59495471c519e	0.6743875874404244
2	0x3fd12986fd6d614d	0.2681596255183834
3	0xbf5c6b25de5a4c61	-0.00173453043081364
4	0xbfb4647d9b668a05	-0.0796583656688555
5	0xbfd40ea682754564	-0.3133941911701952
6	0x3fc2fb03a4b96b71	0.14828534644297123
7	0x3faea4f90acffca4	0.059852392740134236
8	0x3fbbc189152a62ae	0.1084218670533896
9	0xbfcd18a67735fc43	-0.22731476612895749
10	0x3fd0a3bdc2a05c26	0.2599939728401658
11	0x3fc48a71832cc1c6	0.16047495751401025
12	0x3fd3bf0aab857339	0.30853525877118987
13	0x3fbe452497a25b62	0.1182425375176144
14	0x3fee323e6f897de5	0.9436332872828045
15	0xbfe06c3c92689c5e	-0.5132124766868278
16	0x3fc249478799ae8e	0.14286131020650256
17	0xbf934ec125728d92	-0.018855111990558955
18	0x3f979d87ce760f0a	0.023061868645085894
19	0xbfa0cbce8f72764d	-0.03280492306769798
20	0x3fa27b3618a59085	0.03609627772201044
21	0x3fd3d4ff734f48ee	0.3098753572532037
22	0xbfd16c87891893bb	-0.2722491110637823
23	0x3fe1ad1bd2f205af	0.5523814315821961
24	0x3f925393659215cc	0.01789694125593204
25	0x3fd643dc6db562eb	0.34789190973019285
26	0x3fe03346ac99e5bb	0.5062592860332907
27	0x3fb8feddf0e4a232	0.09763896113566586
28	0x3fc14cdd15e5437d	0.13515819138640586
29	0xbf758ca537eaa3dd	-0.005261083015889204
30	0x3fc883f1f2cc172c	0.19152664523442675
31	0xbfd6eca21a29a707	-0.3581929450507321
32	0xbfcf8c048ee00ba8	-0.24646050430609745
33	0x3fe7a20748b83109	0.738528863935728
34	0xbfcfcdfcb24f0f35	-0.24847372728810915
35	0x3fd00e2f76d0d4aa	0.2508658085165033
36	0x3fe78ef8aaaa139f	0.7362025578773802
37	0xbfd178ada02e282f	-0.2729906143437146
38	0x3fd49f8aab17ea81	0.3222376509508323
39	0xbfa61c8f56edf6ea	-0.04318664489890785
40	0xbfc2c5e7239c8369	-0.14666451681935236
41	0x3f9d8024c85d924d	0.028809141854610854
42	0x3fd4c5775ffc0af4	0.324552386984734
43	0x3fc086fdcee665e4	0.12911961176432307
44	0xbfc22a0dc7586211	-0.1419083808293782
45	0x3fe73aa27c8c5ed3	0.7259075577339565
46	0x3fd4ff252497e900	0.3280728204114354
47	0xbfd9a90c7bbc8a33	-0.40094291766777984
48	0x3fc4dcb102810fa9	0.16298496839783397
49	0x3fe0ea4fc2d22557	0.5286024861426694
50	0x3fe25af06cdeb0d1	0.5736009718289329
51	0xbfd3e4eeafd47d50	-0.31084792300130903
52	0xbfc170a0c0b640da	-0.13624963197481216
53	0xbfceb4161605610a	-0.2398707969212029
54	0x3fb01f8e4e5bb623	0.06298150456469691
55	0x3fd097e718c9296e	0.25927140636908674
56	0x3fdd0d8b2fed1ff3	0.4539516418485611
57	0x3f9c4ac5e79e6403	0.027628986608394978
58	0xbfc0f8bc7709d966	-0.13259082615304435
59	0xbfd11f6157fdc2e7	-0.2675402983941652
60	0xbfdb7ae82f51702b	-0.42937664624128286
61	0x3fd78bade8559139	0.3679003495110638
62	0x3fdf575f2257535d	0.489707740341421
63	0xbfe1cb47a19b79f1	-0.5560644298928407
64	0x3fcf3c38cd60903f	0.24402532604392665
65	0x3fd78010e977f5a4	0.36719153213183575
66	0x3fdd4f0a0e26614e	0.45794917470768304
67	0xbfe01bc689d0dba3	-0.5033905688968513
68	0xbfcabdf2557f8803	-0.20892171072688379
69	0x3fe0a26c45917364	0.5198270186188947
70	0x3fd74daf8838411f	0.36411655714711516
71	0xbfadb8200a7efe62	-0.058045388489969665
72	0x3fa84fc8a27f47a7	0.04748370154960862
73	0xbfa79ab597f163df	-0.04610221366664979
74	0x3fbe3d4701fe883a	0.11812251852691782
75	0x3fcdbc08f4afa846	0.2323008723026893
76	0x3fe2572269adeec7	0.5731365264941467
77	0x3fe0518379655ecc	0.5099503870978537
78	0x3fdf115b73e52c87	0.48543440168277424
79	0x3fc418d77ab65042	0.1570081090145568
80	0x3fe161c083f5865e	0.5431826188398181
81	0xbfaac40d73c77300	-0.052277012236777054
82	0x3fc3ba0924634b42	0.154114859359277
83	0x3fd785f2cfa7dbf8	0.36755056647183393
84	0x3f7165ae6e44a637	0.004247361536081898
85	0x3fd7d96272e1833a	0.37264310091818553
86	0x3fe5bf37d6e359f1	0.6795920559914618
87	0x3fd86c43a5cc514f	0.38160792533132776
88	0xbfc0837e3cc8d99b	-0.1290128514098797
89	0x3fcafbda9f1055b4	0.21081097380435454
90	0x3fc8a13045cbf8f9	0.19241908462567617
91	0x3fa470b0b2534f68	0.039922258156052604
92	0xbfca7cabba1aee61	-0.20692965113800013
93	0x3faed18be96e8f12	0.06019246315488948
94	0xbfa523bad4936e50	-0.041288221787649904
95	0xbfc5af040b1a73bb	-0.1694035581794234
96	0x3fb21de3f298cdbe	0.07076859162116642
97	0x3fe96f3c3ba56263	0.7948285260163853
98	0x3fcdee2d7686806a	0.2338311032044687
99	0xbfe1c473f6fa2294	-0.5552310775538722
100	0xbfc261d63f082a7c	-0.14361074521760375
101	0x3fc97ec81d17d0bf	0.19918157024915747
102	0x3f74cd3368c08882	0.005078507249011934
103	0xbfdf1c8b4b5c4995	-0.4861171947424279
104	0x3fcb8e7db0969668	0.21528597948524753
105	0x3fd2b4240f8c64f7	0.2922449256744381
106	0x3fd353d0a8a0578d	0.30199066607871644
107	0x3fd310bb059e0b13	0.2978961520058629
108	0x3fd7389c6c5e1562	0.3628302629734518
109	0x3fa53253a974e22c	0.04139958804666252
110	0xbfc1983723300ed8	-0.1374577447714873
111	0xbfd2863526a5b8bf	-0.2894413831153421
112	0x3fbe9923809e467a	0.11952421083540257
113	0x3fc0482b2f20bd05	0.1272024135700819
114	0xbfc58f2d39092bca	-0.1684319046492802
115	0xbfd00f66a8c838b5	-0.2509400032294125
116	0x3f74adc3530e76b2	0.005048525796977609
117	0xbfc3826d7054a53f	-0.15241783127684447
118	0x3fcc60e4d2ac6901	0.2217069653205002
119	0xbfbdc84f3fd5ebd1	-0.11633773144232797
120	0xbfcdba4541c82743	-0.23224702560428953
121	0x3fd3f7268d334cad	0.3119598750028654
122	0xbfe2ae7d95c3783c	-0.5838001179761316
123	0x3f9a5c86b481664a	0.025743584410838495
124	0xbfbbaf2228efa0eb	-0.10814107417502654
125	0x3fa2eb8a67943380	0.03695328249350549
126	0x3fa452196f288f92	0.03968886835016784
127	0x3fb9e53fc2faf52e	0.10115431318532295

bias_output f8 [1, 10]
0	0xbfddfd4c600720b6	-0.4685851037761596
1	0xbfcfd2e2a02e1178	-0.24862320729529208
2	0xbfdc797230ac3ade	-0.44491247895432007
3	0xbfd22c39699eb34b	-0.2839492351002277
4	0x3fdb20c921bdf5d1	0.42387607855911563
5	0x3f9bd4ac5696bb67	0.02717847136016918
6	0xbfb4ed42ebc2920f	-0.08174532180652981
7	0xbfe887e9bdfef05d	-0.7665909491402193
8	0x3ff9a611540cf505	1.6030438693263147
9	0x3fcec26893f913dd	0.24030787682764201
