models/model_cv_digs (10000).npz (npz, 815236 bytes, 4 tensors)

weights_input_hidden f8 [784, 128]
-0.06910807594710675 -0.05059467325089137 0.09734408462248696 -0.021051747513003944 0.05788124861221701 0.01149126368992242 -0.024409796342952067 -0.05740920116248426
-0.060786154048478834 -0.07373467130142247 0.0012493637791128381 0.0664538304185827 -0.05265977002310518 -0.006468716114815303 -0.050065983394024294 0.0769987864214056
-0.009025205084342167 0.0072537477673372125 -0.02268063432206571 -0.02932276818647822 0.013620339252336928 -0.028941267323108165 0.05591621765838537 -0.0050327253677171085
-0.023872480138748393 -0.026975220825377965 0.0013888680968242846 -0.07299693735312134 -0.0230937213493708 -0.0014333457098182245 0.03784694992656136 -0.026088403233031954
-0.003579765505268704 0.10141450537314853 0.015173105091752341 -0.0032489451409606547 -0.06264799150286114 -0.04230822806536802 0.016375929406400664 0.04709566775903735
-0.02613129465449354 -0.06578337798289974 -0.014791049439556777 0.045844097595051134 0.04556853702599646 0.06439214811132876 -0.003354761407305845 0.027910733956889488
0.004353467922931543 -0.03299748996383367 0.12558282188205666 0.031005761941842607 -0.06745584664022367 -0.03018579633038845 0.019321411696464154 -0.012841981629107081
-0.06381492211550992 -0.051222919523984646 -0.0010685326438296416 -0.08294093883087367 -0.04127098750700164 0.005519036453603673 -0.012546247524507016 -0.046150291030932225
-0.018142107507422945 0.033953310491883826 0.07821172806388008 -0.01568048841582284 -0.034832550721990235 -0.005017383358573675 -0.0918119448093262 -0.03158125532849701
0.01565780918131427 -0.07745648191840768 -0.03372582750500159 0.05107384642989714 -0.0955799252801382 0.048113583490470714 0.06873363007959692 0.0033337471200857983
0.09567212892188025 -0.10876519766718672 -0.043079602479187955 -0.014936205186920147 -0.03159396138470513 -0.08347209203246908 0.0049791821700527735 0.002593704147055284
-0.017876461731302723 -0.0266562922764126 0.00708254266138618 0.03845294583235846 -0.06549496940952557 0.03980964702929338 -0.023268198371213408 -0.01060053291196236
0.11848201701316396 0.08027107882979573 0.0610783314110862 0.0394265479604069 0.02690149945436457 -0.045613938755532275 -0.019817205363131734 -0.004937028108046869
-0.01427961337535797 0.05652941848937916 -0.008688723562401517 0.005120218419963971 0.03658944150756443 0.015102787639918685 0.06973673265276051 0.11154060662196416
-0.006288449510243415 -0.035877900886444186 -0.09817298621793918 -0.054485457511827505 -0.00955826823821157 0.013396090047810186 -0.028147615990183956 0.017791104612323607
0.02875303161139952 -0.007447907984722514 0.03769454265518365 0.007170728381107313 -0.08104560592475095 -0.02751626800473937 0.018941208496023786 0.0031377427149764108
-0.04905732879905951 -0.028657973567995494 -0.07005383679329472 0.07276409676736155 -0.07798817779283465 -0.01668006812889607 -0.11117697718827398 0.06447155396434757
0.034829128724703465 -0.05703738682265457 -0.04252157249030702 -0.05818386204631882 0.027498792780321718 -0.0013901604624827184 -0.05877711572029534 0.037080151698617975
-0.08279646214087229 -0.04874715649399493 -0.015097882030735324 0.015705261997285454 -0.10019801921074663 -0.08684868544485218 -0.0025204120965163115 -0.11468377297105849
-0.014923835911810115 -0.07295304928868244 -0.11039908544278892 0.0037493090238795907 0.037711075137452914 0.03307622063066138 -0.09825143784772046 0.026129873155924965
-0.033793846368526 -0.0328718850304556 -0.08701451417909432 -0.042905382726558576 0.07446262968247082 0.015441515930113904 0.05696410966991533 0.0011999275269541825
-0.028917920977694207 0.055292934152601975 -0.09630172482991871 -0.08328438163974794 0.04634151290494388 -0.024220181962725976 0.056581099122484 -0.029924995629712615
-0.015923285360573393 -0.04366094355746998 0.034733589104689655 -0.036143440873318 0.004690615985679808 0.0722207969613652 -0.032184906703068075 0.028166643077602745
0.05961453072871697 0.03774930053520826 -0.014025837400988022 0.004016429402897347 0.007178932759211515 0.036985531503399775 0.0029161711541133718 -0.13905451402364744
-0.003698726739509398 0.02979487318729664 0.026886365764193634 -0.05683708633054371 -0.005565652237285498 0.011084648894673489 0.017725664776255094 0.018488213251686276
0.01687018891660341 -0.05666672887564621 0.014428038058675438 -0.0339736054398488 -0.011534811874261083 0.010621145642496098 0.0688658638079192 0.04320610663885371
-0.056840968842032547 -0.02664439507481272 -0.02344552293638692 -0.02962800705777524 0.003872678899521271 -0.05612680813105724 -0.025694251262143534 -0.021877979945182723
-0.05864200316975981 0.01854846058637698 0.01092092366857654 -0.09018046865615974 0.043261913821182364 -0.0020419776978392364 0.022875933064420633 0.10739823472396565
0.020786607747721137 -0.06959019227600972 0.028683902340633206 0.014183288611515061 -0.06145786624645717 -0.039218374226397464 0.014576313012607178 -0.07721083847630072
-0.02760847373463524 -0.05233879565017022 -0.02666898859210698 -0.029397520692447242 0.005107826166578355 -0.06204567135674298 0.02202466981734106 0.019775860017238644
0.08723190179050767 -0.15206275665377927 0.042757232339906304 -0.053530458152055455 0.05139561521405365 0.10185378928828426 -0.10447279370846346 0.09560092916766427
-0.05151348630171169 -0.020913050184716873 -0.03159273182005405 -0.051834577604444376 -0.13537418302396606 -0.06872582804864946 0.029514679837616686 0.0038802244905889777
00000000: 1e12 151e 11b1 b1bf ccc3 ed85 8be7 a9bf
00000010: a5a2 e9bb 8aeb b83f 9535 5edc 968e 95bf
00000020: f2a6 ae6b 9ca2 ad3f 5c47 e74d bb88 873f
00000030: 28e1 fab3 e1fe 98bf 3ff7 f622 bd64 adbf
00000040: db2b 60df 5c1f afbf c427 d281 46e0 b2bf
00000050: 173b 9d24 3678 543f 737c 5744 1e03 b13f
00000060: 10d4 20ac 38f6 aabf b957 90c2 f07e 7abf
00000070: 288a a3a2 3fa2 a9bf ebf9 8245 31b6 b33f
00000080: d860 6a85 ce7b 82bf 7043 f216 1bb6 7d3f
00000090: 67c9 a99a 9739 97bf b073 8ea9 c906 9ebf
000000a0: 2a96 31fd fae4 8b3f f652 a192 c7a2 9dbf
000000b0: fd4b 51ec 0ca1 ac3f d054 d3ed 319d 74bf
000000c0: 359f e105 0772 98bf 4350 fd6c 649f 9bbf
000000d0: 79f2 79c3 55c1 563f 0bcb a362 edaf b2bf
000000e0: 1a02 c167 e1a5 97bf d259 a43c e37b 57bf
000000f0: 7238 60e8 ac60 a33f 7d4f c31a ebb6 9abf
00000100: c823 b8f8 4f53 6dbf aeed ea0f 4df6 b93f
00000110: 9cca 2eb1 1313 8f3f 2dc3 0f24 889d 6abf
00000120: 3735 aae2 b209 b0bf 2cf1 c88f 6ca9 a5bf
00000130: e5e7 f704 dac4 903f a9df 9d61 ec1c a83f
00000140: 6fd3 c57f 29c2 9abf fc94 0ef1 2dd7 b0bf
00000150: 3e6b ee0c c54a 8ebf 1e50 c5a7 e078 a73f
00000160: 0aa6 8160 c254 a73f 60e1 41fa 007c b03f
00000170: 0ce7 f7d0 717b 6bbf 2373 35a6 a194 9c3f
00000180: e79b a625 f1d4 713f 6050 7d08 0ce5 a0bf
00000190: 2e1f 7610 1913 c03f 2b71 1c76 f9bf 9f3f
000001a0: 8a66 3e4f c944 b1bf c7c2 2b80 06e9 9ebf
000001b0: fa3c 65fd fdc8 933f b41c e798 e54c 8abf
000001c0: 7b9f 7bbb 2c56 b0bf c582 52f8 e339 aabf
000001d0: 8a21 a330 c081 51bf 1c34 c70b 9e3b b5bf
000001e0: 1f7e 3b8b 7821 a5bf afb5 2d11 219b 763f
000001f0: e735 71d6 d8b1 89bf 4a83 5bcd 02a1 a7bf
00000200: 5d18 b339 d893 92bf 58a1 4e0c 5462 a13f
00000210: ceb0 320e af05 b43f c89d b9c3 8b0e 90bf
00000220: e4d9 5f74 92d5 a1bf 552f fc96 1b8d 74bf
00000230: 2095 56d4 fc80 b7bf f4e3 9a15 6b2b a0bf
00000240: 5269 71c9 9908 903f 26e9 b320 30d4 b3bf
00000250: d93b 54fc 8244 a1bf d6d5 31e8 5926 aa3f
00000260: 2479 3b0d ed77 b8bf e57c 2bf7 57a2 a83f
00000270: 63c5 53f5 8698 b13f bb2b 53db 5f4f 6b3f
00000280: 1fb1 dbf8 f77d b83f 476d ec36 09d8 bbbf
00000290: 7fab 8b97 870e a6bf 6cef 6e86 df96 8ebf
000002a0: 7cfa cb6d 152d a0bf f87c 6851 6d5e b5bf
000002b0: 7d9b 4c09 0d65 743f f956 964f 643f 653f
000002c0: 783d 040a 354e 92bf b43e 3d7e c94b 9bbf
000002d0: 719e a691 9502 7d3f 6ed6 91c1 1ab0 a33f
000002e0: 569b aa3f 47c4 b0bf 94bb 1c18 ee61 a43f
000002f0: df30 2a5c 9ed3 97bf 2f99 6a71 bbb5 85bf
00000300: e053 3c64 d654 be3f fc7b 633a a58c b43f
00000310: 6f4a cfb7 a845 af3f 3012 2b6c b72f a43f
00000320: f8bb 7a11 118c 9b3f 79bd 64ce b55a a7bf
00000330: 2b27 bb23 f64a 94bf 8b45 3764 d938 74bf
00000340: 74d0 9243 a13e 8dbf daf9 5887 6cf1 ac3f
00000350: 5c22 5bbc 64cb 81bf 4a0d 982a f0f8 743f
00000360: 37cb 4eed d9bb a23f c360 efd7 35ee 8e3f
00000370: 02d1 123a 44da b13f ce09 9ed9 ec8d bc3f
00000380: 6c1e d3cf eac1 79bf 34ae e995 965e a2bf
00000390: fc1d 2865 dd21 b9bf 2be6 3d94 84e5 abbf
000003a0: 7086 ea0b 4993 83bf c869 32c5 686f 8b3f
000003b0: 1286 8d88 bad2 9cbf 87ea e0d1 d437 923f
000003c0: be2d ba49 6f71 9d3f 0eee 7c93 b281 7ebf
000003d0: 4b25 e2f7 b24c a33f ef69 2abe 0d5f 7d3f
000003e0: 476a eea2 67bf b4bf bbd8 c07c 392d 9cbf
000003f0: e607 26fc 5265 933f 81c0 02cb 52b4 693f
00000400: 8a64 a4cd 0a1e a9bf 8208 fa0c 8458 9dbf
00000410: ba8c fc59 0cef b1bf 0355 f0f7 aaa0 b23f
00000420: a248 1881 08f7 b3bf b544 6f6c 9414 91bf
00000430: 8d7e 1729 1876 bcbf 8996 cc2f 3581 b03f
00000440: b23c a4a1 1fd5 a13f bfee 1a1e 0134 adbf
00000450: 47d3 7036 63c5 a5bf 39af 4971 46ca adbf
00000460: d810 afbe a428 9c3f 7859 3e6e c1c6 56bf
00000470: 5433 8bbb 0818 aebf 2ca8 c06d 2bfc a23f
00000480: bd9a 1e21 2632 b5bf da53 d425 63f5 a8bf
00000490: a8ab 7c6c a3eb 8ebf b222 9d4a 0a15 903f
000004a0: c556 a2cf 93a6 b9bf dbac af27 b73b b6bf
000004b0: e705 ddf0 afa5 64bf d9e6 4a6e ea5b bdbf
000004c0: 3b73 6059 6390 8ebf 3b9f d610 0dad b2bf
000004d0: bc2e 7c4d 1d43 bcbf ed31 7cf4 deb6 6e3f
000004e0: b720 d3b4 dd4e a33f dd97 c4cb 5def a03f
000004f0: 9547 5798 0127 b9bf 8001 9d1a cac1 9a3f
00000500: aff0 ea51 6d4d a1bf b4cd 536e 95d4 a0bf
00000510: 9f31 ad4c 9546 b6bf b70f 44bf b1f7 a5bf
00000520: ada7 429f fb0f b33f 4730 5d2f cd9f 8f3f
00000530: 58f5 2758 662a ad3f d4f9 175f dca8 533f
00000540: 4554 78d3 a89c 9dbf f446 c5ff 5a4f ac3f
00000550: 5f61 b1d6 3aa7 b8bf 7009 690f 2052 b5bf
00000560: 496f bf24 13ba a73f 9478 bbe5 2ccd 98bf
00000570: 0109 9ba4 32f8 ac3f 5d0f 4076 a8a4 9ebf
00000580: 1a62 7997 314e 90bf 4238 6229 ba5a a6bf
00000590: 0800 8eda 99c8 a13f 5018 08a1 6481 a2bf
000005a0: adfd 1aa4 7736 733f 4945 0ae9 0f7d b23f
000005b0: 72d1 6d43 8a7a a0bf 5ff6 6c6b b7d7 9c3f
000005c0: 9744 b1b7 cb85 ae3f 99be 7d56 e053 a33f
000005d0: 6974 7d07 94b9 8cbf 6508 ea0e 8873 703f
000005e0: d366 bc16 a867 7d3f 5fed 7680 c4ef a23f
000005f0: 240b 9177 a7e3 673f e0de 0bcf 89cc c1bf
00000600: a1cf 41cc ca4c 6ebf 152d b617 8c82 9e3f
00000610: 547a a976 1988 9b3f acae fa25 c019 adbf
00000620: bcd8 7065 02cc 76bf 2710 ec63 8cb3 863f
00000630: 3135 0e3a ad26 923f 2520 1cfd 92ee 923f
00000640: 3f55 b236 6b46 913f 269b 95e6 6b03 adbf
00000650: 0511 dc7c 728c 8d3f ea2c 9508 fd64 a1bf
00000660: 7eab 1f3e 909f 87bf 99d0 7109 8ac0 853f
00000670: 44a5 dd78 31a1 b13f efb2 005e 1c1f a63f
00000680: 78bc 7f6c 421a adbf b641 df15 ab48 9bbf
00000690: a362 ff68 1a02 98bf c069 6fe5 cd56 9ebf
000006a0: 2853 15a7 98b9 6f3f 9719 b42a a7bc acbf
000006b0: 61e6 7603 984f 9abf 06ea 7761 2e67 96bf
000006c0: b774 921b 5306 aebf ed43 701e 5efe 923f
000006d0: 783b fd8f b55d 863f 9bbc 9d33 1116 b7bf
000006e0: 6d77 0cf2 6c26 a63f 4cdf cd6d 56ba 60bf
000006f0: 4b39 82e1 c96c 973f cc9d c961 737e bb3f
00000700: 658d e2a1 1549 953f e9a3 f2af a9d0 b1bf
00000710: da11 e619 505f 9d3f b7b5 e3c5 200c 8d3f
00000720: 4990 38cb 6777 afbf 09ca 6845 6e14 a4bf
00000730: b3b6 7b9d 2fda 8d3f f806 27ea 16c4 b3bf
00000740: d984 214f 6545 9cbf e44e 428f 26cc aabf
00000750: 4030 4887 1d4f 9bbf 7686 d437 621a 9ebf
00000760: 8cfb 6ca5 f1eb 743f 7ed0 ab42 73c4 afbf
00000770: da5f 4892 a28d 963f c3e5 1880 1f40 943f
00000780: 61ad 5b75 d454 b63f 5640 62db ca76 c3bf
00000790: 787e 22a5 46e4 a53f 1cb9 341e 5868 abbf
000007a0: 2d1b 01ad 8650 aa3f e083 f705 1713 ba3f
000007b0: ecb2 4ca0 babe babf 6009 3e70 4d79 b83f
000007c0: fd05 f0c5 f95f aabf d96f 690a 3b6a 95bf
000007d0: 6eb7 ea2b ec2c a0bf 58e3 39cf 0f8a aabf
000007e0: 77c3 67f4 f053 c1bf 2806 dc0f 0498 b1bf
000007f0: 802e 9ea2 1839 9e3f c914 39a9 6bc9 6f3f

weights_hidden_output f8 [128, 10]
-0.244439029039046 -0.010782013337122986 0.017178373841929516 0.0999525463043935 -0.03982086441969669 0.06496353002867934 0.06253581088445019 -0.278395814203702
0.14418087247288328 0.13693390917546816 0.04413584059019617 0.05280873218534874 -0.17139889640359468 -0.048857108820645416 0.02700118010585231 0.3079122466352832
-0.38573477939793804 0.4709299913440551 -0.6199391663429787 0.17632722976598428 0.06478313534079921 0.12339352088334 0.10086491318330455 0.1537396330705336
0.005850130548766165 -0.014383384662981879 -0.6011615809171258 0.15066144839132595 0.0908084714788055 0.13335393666656084 -0.06199873176719513 0.11669849185828358
-0.0899090444640699 0.09027157641886462 0.3755654002023995 0.033547546583831994 0.12877570766646967 -0.16902562721125805 -0.002204491272347342 -0.08818264673399483
0.023750862495133248 0.12380764737324147 0.2607615845310633 0.25317269629334743 -0.04536292749671265 0.05256457836166945 -0.2470980786855947 0.38995383616484364
0.06104530171915281 -0.5878577158213634 0.11851082481486691 0.067011227206006 0.09647512059080422 -0.05221674101719705 0.15530809547177576 -0.23066141376802066
0.051250063058173395 0.07921951068136497 0.08499367172368903 0.15392916664618098 0.08048794065672536 0.008346551515714444 0.03330854656515714 0.17110015336498116
-0.10856028129702358 0.16623085013910513 0.1235003325196567 -0.24840490373276705 -0.006546610484112502 -0.36080665552334235 0.2895832911212247 0.02405682867457452
0.07835056162133076 0.021898062962450192 0.025292059012709492 -0.48079161584309404 0.126590598703304 0.03364583594986168 -0.0347654286401568 0.04567972436128972
-0.0199961006021971 0.042370477072162 -0.08002637842078256 -0.43411884978018345 0.12428276778928696 0.020499893148321378 0.1505776291995237 0.03896760841939062
0.015710609584484277 0.13326501874282706 0.15297201439245978 0.033927328441393415 -0.01474123110926731 0.1566507715181394 -0.1254344657854866 0.11191425888011047
0.1347903222429273 -0.3616771754939408 0.15611985118716348 0.0522781574904687 0.03508477695062981 0.36017713805435586 -0.08366827054249108 -0.02910848180058987
0.07416681270294903 -0.09028052336407016 0.017621286693561795 0.11092098123329504 -0.40647965875279374 0.0796173470714432 -0.44899440021479925 0.1882109283340254
0.14314869137287375 -0.05892514171032154 0.08623587881268084 -0.44054346075495066 0.19296301326814977 0.07044488271843521 0.18668741280482662 -0.009684792585383994
-0.056721231290118676 0.3084455536661663 0.07896237398903108 -0.26893740772328717 0.1495116848992669 -0.09727638242829811 0.04124485384962897 0.14203965418692546
-0.14261853074482758 0.09529745957542318 -0.016688637840290742 0.007636248344306923 -0.5472120306896505 -0.08591654115899243 0.03530213886054503 0.08061654097857474
0.13080184948718107 -0.05325494705462533 0.014369079599539971 0.05685805483339839 0.020822388099787856 0.24140295819308236 0.016516073576745855 0.01685373888829109
-0.006157388554022817 0.05697359322835048 0.22163381059748605 0.0229786696403603 -0.42072084847024543 -0.37689854181104243 -0.06353971446983259 0.16342340072295677
0.1921537367142739 0.19135693442290017 -0.25208549942918396 -0.008046637837223905 -0.1249683832557714 0.25902602095899796 0.13390043052854683 -0.6224090116488045
0.15886670986593446 -0.23088906137816506 0.12737687329406344 -0.043327593813282106 0.14488439153709998 -0.004671008212483722 0.1279069661443861 -0.2739716556480754
-0.06822579353753518 0.1343493996342571 0.1446593002550007 -0.060546243633011206 0.15011225123375135 0.19335643953347045 -0.5724765855196959 0.18220189967264555
-0.20815877598587815 0.13985560573258904 0.12089186466311519 0.08704310527778684 -0.21072906003449565 0.14113917382611882 -0.1009379799612912 -0.08226922081659709
-0.4186111695674608 0.3358758782659045 0.26442465971351586 0.1530980428512081 0.16511471062020863 0.12918871188355552 0.07564178093240756 0.04460712779172575
0.14865848486311145 0.20960085377803492 -0.49123990624104313 0.21767741082228895 -0.3953930482767719 -0.04971709489346768 0.12219847447339877 0.18416344527205986
0.18215470169689718 0.06661030627321901 0.10862086006336233 0.013967862715306648 -0.6167006388739565 -0.13684261269158957 -0.054799205065783244 0.0304407701723994
0.008793699138325024 0.0309245251503639 0.1006696826041192 0.2232193165155909 -0.16270731596407115 -0.353668902612431 0.16322507286558657 0.0330433614412944
0.07906700709841716 0.052404274366453944 -0.03310753477549985 -0.07139106503130851 0.024595535493065344 0.1831273475734008 0.16258194737677925 0.15812874444632455
0.22464263531791412 -0.3610728751863549 -0.6000975681874344 0.1765718924087881 0.07100184666523843 0.1644075803428371 0.018972889413376628 0.17016503308695674
-0.29137077903852715 -0.2677770075757916 -0.1803697186043425 0.12896450917029195 0.08691400685016451 0.05745716643259614 -0.0019534475665815895 0.03637576787585537
0.1299627033181594 -0.054028870982337225 -0.07713318152543068 0.06209374330274749 -0.17154005512371961 0.10871211559206445 0.12369337373813263 -0.21158262287741722
0.10868225548360484 0.08099084176921673 0.13219586043830656 0.002749426456682699 0.6583764138005526 0.14408729342044882 -0.23438815176440794 -0.03052207587207153
00000000: 6b5a cb31 c749 cfbf 6605 5855 e114 86bf
00000010: 36f0 6527 3597 913f ed7f 8775 7d96 b93f
00000020: a218 c37c 6663 a4bf 85e8 e72c 73a1 b03f
00000030: 9bda 93ce 5802 b03f c948 56ad 3cd1 d1bf
00000040: 7169 fdd1 8474 c23f fe9f cfe2 0c87 c13f
00000050: 632d d50f f998 a63f 9dcc 5b03 bf09 ab3f
00000060: fadc 4f27 66f0 c5bf 4fa2 1f89 cc03 a9bf
00000070: 073c 0886 32a6 9b3f 0788 5591 d5b4 d33f
00000080: 2969 9ced e0af d8bf 56cf e18b b723 de3f
00000090: ae7b 9ea9 8ad6 e3bf 759d 9e02 e491 c63f
000000a0: bcfe 9ea7 a095 b03f f973 bbc0 b796 bf3f
000000b0: fda8 6f6f 48d2 b93f 9f88 1184 bdad c33f
000000c0: 0e04 2676 4ef6 773f d9c9 dd35 0975 8dbf
000000d0: a4d2 3436 b73c e3bf 16eb cdd4 df48 c33f
000000e0: 0c83 3357 393f b73f 414b 63e6 bd11 c13f
000000f0: eaca aa3a 4cbe afbf 0d1b 06ce f3df bd3f
00000100: 6979 9675 4704 b7bf 1f36 7abc 091c b73f
00000110: a638 d875 4309 d83f 848f e0de 242d a13f
00000120: e62e 79ee b87b c03f 7174 87ba a1a2 c5bf
00000130: 00da 683d 270f 62bf 3317 cc4f 2393 b6bf
00000140: 7f6e ac66 2552 983f 4178 76a4 dbb1 bf3f
00000150: b34c 675b 51b0 d03f fd7b b440 fb33 d03f
00000160: bd30 1944 cf39 a7bf b998 fb91 bee9 aa3f
00000170: cef5 6deb e8a0 cfbf 95c6 51ef 00f5 d83f
00000180: 039b ea6c 5441 af3f b6ed 04fc bacf e2bf
00000190: 4c45 cdb4 b956 be3f 048b 50d5 a527 b13f
000001a0: 59ae d0ef 97b2 b83f cbf3 f115 27bc aabf
000001b0: 367b 6dbb 22e1 c33f 4d98 4a2e 5086 cdbf
000001c0: 046e 81c1 723d aa3f c5e2 94d7 ba47 b43f
000001d0: 8392 6b30 25c2 b53f 3dac 5270 f3b3 c33f
000001e0: 6fd0 d790 db9a b43f 1ce0 5a2e ff17 813f
000001f0: d06a 595c d10d a13f df86 851d 9ce6 c53f
00000200: fab5 d049 9bca bbbf 9584 7770 0d47 c53f
00000210: a490 37c1 b79d bf3f ad60 d95c bbcb cfbf
00000220: d9d4 dc5e 9ed0 7abf 9eb8 69cc 7417 d7bf
00000230: 765b 355b 8888 d23f 6b70 9c71 5aa2 983f
00000240: e56e c94b c80e b43f 96f0 1321 726c 963f
00000250: c47b 3b59 29e6 993f 642c 8f32 4ac5 debf
00000260: 3fb4 b4e8 1e34 c03f bd3b 1aea 063a a13f
00000270: 37f0 1436 c6cc a1bf 6bae 7134 5563 a73f
00000280: 742d 8998 db79 94bf 5e84 ae4a 95b1 a53f
00000290: ea73 22d6 9b7c b4bf 7a83 986d 9ac8 dbbf
000002a0: 6a81 1cd7 fed0 bf3f c9fa 928a ecfd 943f
000002b0: dde8 75b4 2046 c33f e07b 87f7 8ff3 a33f
000002c0: af5b 7629 7116 903f 31c3 9900 d40e c13f
000002d0: e069 8243 9694 c33f fa5f 313c ec5e a13f
000002e0: 4ffb 228c a630 8ebf 4a23 48ea 210d c43f
000002f0: b581 2b90 3c0e c0bf 6c9d d8b1 69a6 bc3f
00000300: e4e2 ec2c cf40 c13f 3531 1d06 b825 d7bf
00000310: f678 8d3b bcfb c33f 5ef3 6ee1 33c4 aa3f
00000320: 2c4a 2ec3 a1f6 a13f 2376 2d69 240d d73f
00000330: 8b60 b1a5 486b b5bf 5a9e 7a25 9dce 9dbf
00000340: 2afa 01a3 98fc b23f 7c7f 50d7 9f1c b7bf
00000350: 65c8 3f88 500b 923f d554 d642 5165 bc3f
00000360: 8147 3542 c303 dabf b1ba dd6d cd61 b43f
00000370: e59e 4002 53bc dcbf 5fe3 f8b2 4b17 c83f
00000380: 43b2 f441 b252 c23f b8b1 1da9 6f2b aebf
00000390: 4b06 3ef7 8d13 b63f e22f 1a33 dd31 dcbf
000003a0: 3b83 a913 03b3 c83f 723c 7203 ad08 b23f
000003b0: 9929 4986 5fe5 c73f f3d3 61db 9ed5 83bf
000003c0: c683 c2b2 900a adbf 64f0 656b 92bd d33f
000003d0: a2bc e5cd e036 b43f 1dec b53e 4536 d1bf
000003e0: 0b90 81ea 3223 c33f 14e6 33e1 1ae7 b8bf
000003f0: 732d d3a4 0b1e a53f 3de7 bbfa 5a2e c23f
00000400: 2922 adf2 5241 c2bf ecb0 4410 6a65 b83f
00000410: a391 f486 d316 91bf 3a69 72ce 2f47 7f3f
00000420: 0546 f9cd c282 e1bf 839b 765e a0fe b5bf
00000430: 8310 c537 1f13 a23f f805 051f 49a3 b43f
00000440: 83e1 e670 1dbe c03f c44f e67f 3b44 abbf
00000450: 9b10 a137 896d 8d3f 0718 0cbc 7f1c ad3f
00000460: 1c20 a7cf 7652 953f a968 4cc9 4ae6 ce3f
00000470: 1558 7bef 96e9 903f d9b4 5c45 1b42 913f
00000480: 8420 7e67 7d38 79bf ae80 4d8f a42b ad3f
00000490: aa1e 1a28 7f5e cc3f 1899 716a b887 973f
000004a0: 7134 3b23 17ed dabf d843 bf0f 1b1f d8bf
000004b0: dc25 a583 2344 b0bf 3bcb c0d8 0eeb c43f
000004c0: e3f9 7e5f 7e98 c83f 2dc6 9a4f 627e c83f
000004d0: e906 f637 2b22 d0bf 753d d472 c17a 80bf
000004e0: 9716 1e8f edfd bfbf f63d 35e0 e193 d03f
000004f0: c42c 0539 a623 c13f b58d b84d c6ea e3bf
00000500: 390e a68d be55 c43f 1eca cfd3 c58d cdbf
00000510: 5849 88a8 e24d c03f b084 e2cc 082f a6bf
00000520: 6425 ad5d 928b c23f 3802 3138 e821 73bf
00000530: dfa6 4266 415f c03f 7986 4269 c088 d1bf
00000540: bdc3 fcdf 3e77 b1bf 914b d572 5c32 c13f
00000550: 0f28 d429 3284 c23f 114f 99d0 eaff aebf
00000560: 2792 e3d4 e036 c33f 7b35 2260 e7bf c83f
00000570: 090d 916a ba51 e2bf 9879 2e50 6452 c73f
00000580: db0b 9e5f f2a4 cabf 9851 64da c9e6 c13f
00000590: 209e 14ed c4f2 be3f 3ba8 82fa 7448 b63f
000005a0: 0c1e 957a 2bf9 cabf 0342 e233 d910 c23f
000005b0: 1aa9 db4a 12d7 b9bf 7beb df7c 980f b5bf
000005c0: 6015 c280 86ca dabf a6b5 2a8a fd7e d53f
000005d0: 416e 6e68 55ec d03f 6853 9077 b798 c33f
000005e0: f7e4 1995 7a22 c53f b8af 4676 4189 c03f
000005f0: f6dd 507f 425d b33f 8662 11d6 bed6 a63f
00000600: da46 61c1 3d07 c33f ff5c 1866 33d4 ca3f
00000610: 9de7 f280 7970 dfbf d7a3 4778 dadc cb3f
00000620: ea86 daa4 1e4e d9bf 9438 3de1 8474 a9bf
00000630: 9cfd 7b33 6648 bf3f 9cf5 47f3 aa92 c73f
00000640: 50e7 4c63 d850 c73f fc1f 057f 5f0d b13f
00000650: 56b2 a2a1 93ce bb3f a244 75cc 2e9b 8c3f
00000660: b359 6cfa 02bc e3bf 3fd3 1a09 0f84 c1bf
00000670: 9a6b 3533 a40e acbf 360a 6c81 dd2b 9f3f
00000680: 6a04 ae51 6e02 823f 191b a9c0 adaa 9f3f
00000690: 95bf 7b02 7dc5 b93f 408d 2258 7392 cc3f
000006a0: 235c 71e4 97d3 c4bf 5249 95e4 82a2 d6bf
000006b0: 0e26 ec26 8fe4 c43f 4204 7b39 0feb a03f
000006c0: 3e28 ae41 bc3d b43f e728 26a9 bbd4 aa3f
000006d0: 1c52 3986 78f3 a0bf 7e3c 8951 af46 b2bf
000006e0: b902 4872 922f 993f 995d 6a88 b770 c73f
000006f0: 059e 7339 7ccf c43f 3d2d fa0c 903d c43f
00000700: 2225 fd01 17c1 cc3f 367a 9967 d11b d7bf
00000710: edc5 b8d0 ff33 e3bf 0bf0 a463 e899 c63f
00000720: 8eff 6151 2d2d b23f b0bb 64be 4e0b c53f
00000730: 2710 2a0e a16d 933f 94ff 03c2 f7c7 c53f
00000740: c8c0 be9f d1a5 d2bf 4629 8a2c 4223 d1bf
00000750: 7114 4cdd 5a16 c7bf 8e94 9db6 e881 c03f
00000760: da5b fc10 ff3f b63f 9266 7f95 066b ad3f
00000770: 4ca1 362d ad00 60bf 3d91 c93a d89f a23f
00000780: 68c2 392c 9ea2 c03f d160 d113 aca9 abbf
00000790: 6791 160c 00bf b3bf 9a04 8b49 c0ca af3f
000007a0: d0ee 5a47 06f5 c5bf 7c9a 25a5 8ed4 bb3f
000007b0: 5aeb ef72 5eaa bf3f 4388 d4ae 2315 cbbf
000007c0: 3d25 f5ac 99d2 bb3f b49e acd8 d0bb b43f
000007d0: bce2 9f40 cbeb c03f 93cd da16 f785 663f
000007e0: 7865 b769 6b11 e53f 2547 81d2 7371 c23f
000007f0: 37f2 3253 6e00 cebf d6d0 b4d6 2d41 9fbf

bias_hidden f8 [1, 128]
0.09250228328135217 0.36262496501136304 0.23202966796008626 0.025202651912665065 -0.0635055449866005 -0.28998855027795994 0.14554055214684697 0.01084489939489503
0.05837328457132908 -0.1710472054751926 0.23892016577951727 0.14221885059148165 0.25004491775244464 0.13262153908404312 0.7504034512179406 -0.42478797464538665
0.16168468485399165 0.010248319576598362 0.019202236578850736 -0.04500973863830525 0.057358883123885485 0.24823128193101984 -0.1419430554028775 0.4194373267552864
-0.008996222639382304 -0.001351779252841581 0.1118847758132758 -0.13108700629449271 0.17920039896943027 -0.014336425122476602 0.18714234093817922 -0.336941918676099
-0.12420988801129106 0.6253246401807719 -0.13134908922825977 0.11429178894909992 0.42795123049738787 -0.22390371579641788 0.2590734322094867 -0.019507158720422236
-0.0993334362892704 0.11416374684465362 0.24869066962335715 0.16213033106080485 -0.11230551833839678 0.5321093507824698 0.3011532140616187 -0.1891250370369092
0.1420986354005221 0.423886575177692 0.5165771740134744 -0.31157352162461416 -0.07112067569007506 -0.177462033332588 0.09463440642029645 0.18221501799576242
0.37558418007487143 0.031310917931027187 -0.07443769044798985 -0.1826082849934406 -0.35130910141786237 0.311427402344889 0.36485541567036767 -0.3821709705592794
0.18051416983482044 0.2434811710421359 0.3615415548856438 -0.35863607896599925 -0.12015223931307399 0.424008777090118 0.2423421747127417 -0.037505187834200406
0.037391158362558075 -0.020241297420305403 0.060862555899302416 0.20118726529733105 0.32399088162882506 0.2402178763972188 0.44222714369064586 0.09496759519470023
0.35766345948853406 -0.007161551839272027 0.12408032659894527 0.3187679302426828 0.013039012955711549 0.2976585007887581 0.6344441005839938 0.3397674844523211
-0.06666387328775535 0.2109594197223799 0.12387793605814688 0.031581111055760745 -0.0073585507935857155 0.03989072522534862 -0.04601943755895434 -0.09501198692313996
0.12192598192624785 0.2760987716408693 0.04233443407659158 -0.5604072723089113 -0.07915265317865043 0.043692574945599 -0.0034777126683205725 -0.4798250515684102
-0.002154545432557071 0.22466246809402646 0.18972734867125582 0.25808920637258354 0.26111128580564796 0.01896701025381804 -0.06838629005078482 -0.2458941803354351
0.1742749030485768 -0.101226647431459 -0.10179991675630048 -0.12395830663790514 0.10131777986545704 -0.07467541336552115 0.16380605169518067 -0.049644379342387336
-0.19962254194136778 0.14036981602345436 -0.4561280000405966 -0.010482520867155506 -0.04507157746307408 0.19349894146876132 0.20592745874108703 0.10427938587738618
00000000: 1bad 7fc9 3aae b73f f7f6 5b57 3f35 d73f
00000010: 438f cbed 25b3 cd3f ad10 f356 b9ce 993f
00000020: e504 d53e e641 b0bf 6b21 ea22 2c8f d2bf
00000030: e232 dba3 12a1 c23f e3fb d5c1 d935 863f
00000040: b24e 6368 1ae3 ad3f 5048 cbf4 dfe4 c5bf
00000050: d95f 309d ef94 ce3f c822 1530 3a34 c23f
00000060: d0c6 1166 bc00 d03f 323a 8e1a bef9 c03f
00000070: b72b 3919 4e03 e83f 3c81 b5e6 b92f dbbf
00000080: 8721 db70 15b2 c43f 1213 5d2b 12fd 843f
00000090: 1202 7748 c0a9 933f 5ef3 e736 840b a7bf
000000a0: d0e9 4dbe 245e ad3f 0c73 deea 0ac6 cf3f
000000b0: 26c2 6ca6 302b c2bf 03ae 48a8 0fd8 da3f
000000c0: 1580 3090 9c6c 82bf 0ce2 abeb c525 56bf
000000d0: c6ce 090d 7ba4 bc3f fa91 7b82 75c7 c0bf
000000e0: 537e 80e6 09f0 c63f 5239 5768 6a5c 8dbf
000000f0: d25f 03bd 47f4 c73f ae61 57d6 7490 d5bf
00000100: 572b d91e 38cc bfbf 44b3 ded1 a802 e43f
00000110: 2621 4c05 0cd0 c0bf 1cdb bc07 3a42 bd3f
00000120: 353b d18e 8d63 db3f 0835 6680 e0a8 ccbf
00000130: bf8a a6bb a894 d03f ade7 f742 aff9 93bf
00000140: d1ff 4284 ea6d b9bf 1b2c 16d7 d539 bd3f
00000150: f323 6d8a 18d5 cf3f 7f43 ccca afc0 c43f
00000160: 627a 6cf0 0dc0 bcbf 3f35 7030 0a07 e13f
00000170: 55b7 5e21 1846 d33f fcd2 76cc 3f35 c8bf
00000180: fafc ecbf 4930 c23f 2681 6628 f520 db3f
00000190: 66ef 87da cc87 e03f 5658 6b11 d2f0 d3bf
000001a0: ff85 28f0 f634 b2bf eff9 b86e 13b7 c6bf
000001b0: b3cb a6e0 f539 b83f 7fe0 905b d252 c73f
000001c0: 5142 943a 9209 d83f 4702 0b11 fc07 a03f
000001d0: f75a 1036 590e b3bf c342 0352 b55f c7bf
000001e0: 931e 582b d97b d6bf ef91 0933 6dee d33f
000001f0: 5da7 8487 ca59 d73f 7e17 023b 7d75 d8bf
00000200: bedb f39b 161b c73f 3aac 6819 642a cf3f
00000210: bd3e 9830 7f23 d73f e8c6 94bd e4f3 d6bf
00000220: ab0c 6412 4cc2 bebf ad6a b4b5 f522 db3f
00000230: 5997 6a81 1105 cf3f ad40 5b46 e133 a3bf
00000240: f84a a714 ef24 a33f b397 cb79 22ba 94bf
00000250: 4be6 467e 6029 af3f 6a6f 691a 81c0 c93f
00000260: 9c12 3340 44bc d43f 3433 8599 75bf ce3f
00000270: 1e82 e313 734d dc3f 417f 8adb cb4f b83f
00000280: f28e 5e47 f5e3 d63f fe33 036f 6e55 7dbf
00000290: b6c8 d170 bac3 bf3f cafa d99a b166 d43f
000002a0: cd36 bcb1 32b4 8a3f 1ee7 903d d60c d33f
000002b0: 98bf e4b6 5d4d e43f d0e1 7d1e c0be d53f
000002c0: 0f79 9833 e210 b1bf 31d1 3ee0 b700 cb3f
000002d0: 07d3 10e4 76b6 bf3f cbc9 4f3e 662b a03f
000002e0: 7f0b 12f0 ff23 7ebf 5c60 83a0 8e6c a43f
000002f0: 5290 9716 dc8f a7bf f917 90a0 b452 b8bf
00000300: 7aea e788 8a36 bf3f 9b73 aa2e 9aab d13f
00000310: d50e b5e3 dbac a53f 223c 603b dbee e1bf
00000320: 433f cb28 5943 b4bf 2452 f088 df5e a63f
00000330: 5e3c 9cc5 4a7d 6cbf e56b 1222 74b5 debf
00000340: a861 75c5 68a6 61bf 4c1e 8d60 bdc1 cc3f
00000350: 1f94 d95a fc48 c83f a988 3497 8884 d03f
00000360: 8db6 491c 0cb6 d03f d3e0 f882 166c 933f
00000370: d34c 438f c381 b1bf 38a1 68e3 7579 cfbf
00000380: feb8 8dd8 a34e c63f b5ab 3354 fde9 b9bf
00000390: 662e 3431 8f0f babf b4cc 1349 bbbb bfbf
000003a0: e484 0647 f6ef b93f ad5e 388a ed1d b3bf
000003b0: bf76 75c1 98f7 c43f e55a 69f3 fc6a a9bf
000003c0: 395e 9740 3b8d c9bf 7148 955c a3f7 c13f
000003d0: 42b6 bd7e 3331 ddbf 7ebc 6e22 dc77 85bf
000003e0: 9cb6 5d2e 9f13 a7bf 17a0 b5c4 92c4 c83f
000003f0: 0618 52ba d45b ca3f c986 fdc7 0db2 ba3f

bias_output f8 [1, 10]
-0.4011456914818409 -0.034484521804858795 -0.34416422086685605 -0.19096856793137007 0.3711372891650082 0.27371435941082356 -0.07654242607658171 -0.3736199514120738
0.9659688253749557 -0.1898950943769552
00000000: cb21 76fa 5eac d9bf 7a79 bd8a f4a7 a1bf
00000010: d8e4 445e c906 d6bf dc22 ea74 a871 c8bf
00000020: 2c8c d29d b6c0 d73f 6c5d 873b 8984 d13f
00000030: f262 c1d0 4898 b3bf 7aab 1ca8 63e9 d7bf
00000040: 6c1c 3e74 37e9 ee3f a58a 0282 7b4e c8bf
