models/model_cv_digs (25000).npz (npz, 815236 bytes, 4 tensors)

weights_input_hidden f8 [784, 128]
0	0xbfb1aa47426c506b	-0.06900449153573766
1	0xbfa9dd9aeb2e772d	-0.05051883812778466
2	0x3fb8e1fad381da76	0.0971981779456231
3	0xbf9586514f9c0c3e	-0.02102019356153683
4	0x3fad973d588066ca	0.05779449181882297
5	0x3f877fb38a9f5667	0.011474039714737217
6	0xbf98f54a5fd3db8e	-0.024373209093905106
7	0xbfad5975cd828e6b	-0.057323151909511726
8	0xbfaf136bb2d46291	-0.060695043163098046
9	0xbfb2d9084de3f187	-0.07362415219899364
10	0x3f54705b68fea82d	0.0012474911381823537
11	0x3fb0fc9727b6267e	0.06635422439117097
12	0xbfaaebe034c1bd88	-0.05258083957675824
13	0xbf7a74c6103181bd	-0.006459020313826999
14	0xbfa998699ee6fd70	-0.04999094071126364
15	0x3fb3aea0fc713bd1	0.07688337481634668
16	0xbf8274b6de8e7525	-0.009011677424320805
17	0x3f7daab488c907bf	0.007242875301530504
18	0xbf9730ae35468c7d	-0.022646638871844694
19	0xbf9dfb4425fc0ffe	-0.02927881700362888
20	0x3f8bda46e8722781	0.013599924057661418
21	0xbf9d97686ee43993	-0.02889788796260857
22	0x3fac9610ad63a7bf	0.055832406202014344
23	0xbf749549014d2be7	-0.005025181938274926
24	0xbf9868a5bde20ed5	-0.02383669825986952
25	0xbf9b94cb0be8064e	-0.026934788324075414
26	0x3f56b89a82fd7d48	0.001386786356270724
27	0xbfb2a8c1bbf623a7	-0.07288752402213437
28	0xbf979cce752c8bfb	-0.02305910673306853
29	0xbf5772e067084e07	-0.0014311973028541273
30	0x3fa3593d6fac3e12	0.037790222055374426
31	0xbf9aacaaedaa3c31	-0.026049299961013076
32	0xbf6d480f53115f1e	-0.0035743998819660746
33	0x3fb9ec56cbaec8fb	0.10126249764178745
34	0x3f8f07273b7b1103	0.01515036249419
35	0xbf6a9351b4b1ed9d	-0.0032440753762423406
36	0xbfb0038b7a961db2	-0.06255408995467951
37	0xbfa5a11cb709e912	-0.04224481329306874
38	0x3f90be6accce16c9	0.01635138392477734
39	0x3fa813abc16af492	0.04702507721001682
40	0xbf9ab7e502332631	-0.026092127093568066
41	0xbfb0d0b7b08bc5ef	-0.06568477688031014
42	0xbf8e3f257377bf8f	-0.014768879495903579
43	0x3fa76fdef9d7bb69	0.04577538299405754
44	0x3fa74bce8e7ce4bd	0.04550023545602631
45	0x3fb075adb5f54b83	0.06429563228929962
46	0xbf6b70e63b09d3fc	-0.0033497330371639027
47	0x3f9c89aa2b34e05a	0.027868899237745694
48	0x3f71ce1985f7bf15	0.004346942615924628
49	0xbfa0de9075c3e645	-0.032948030830038756
50	0x3fc00cee0d1a5271	0.12539458884988933
51	0x3f9fb3caa8a13c6c	0.030959288160655893
52	0xbfb13e29000313c3	-0.06735473871510948
53	0xbf9edd2a2d342b65	-0.03014055157567998
54	0x3f93c1667da0aac8	0.019292451303196484
55	0xbf8a42ce1a54d005	-0.012822733095710257
56	0xbfb04fe7fb257ba3	-0.06371927148346272
57	0xbfaa2fd3c4c04d7b	-0.051146142737844756
58	0xbf517b087cdb0b84	-0.0010669310462822776
59	0xbfb533785560f1b2	-0.08281662067833542
60	0xbfa5195cdd360c45	-0.041209127429305194
61	0x3f76927479aa2237	0.005510764104322655
62	0xbf89a7fcd67723fb	-0.012527442259754542
63	0xbfa797f1b91d4438	-0.04608111748405758
64	0xbf928cb75996e029	-0.01811491474447294
65	0x3fa15ba8672920d7	0.03390241870198601
66	0x3fb3fe0044ab495d	0.078094498410143
67	0xbf9008627f8193a7	-0.01565698531375728
68	0xbfa1ceba96cbb363	-0.03478034106033225
69	0xbf748538d6b7c706	-0.005009862924895142
70	0xbfb777f809c1c4e8	-0.09167433012204962
71	0xbfa02536bd3f2f23	-0.031533918954293826
72	0x3f900272cd39b735	0.015634340072600856
73	0xbfb3cc945529b675	-0.07734038428471897
74	0xbfa13de2c814d8e1	-0.033675276683810436
75	0x3faa1c5133f9d87c	0.05099729308578646
76	0xbfb86e8981d15094	-0.09543666285873292
77	0x3fa898e4250ed16c	0.04804146721235977
78	0x3fb191c684357bd8	0.06863060691601619
79	0x3f6b44e52e6b8599	0.003328750247746992
80	0x3fb874921bdf0e39	0.09552872829868243
81	0xbfbbcd5a19b61a63	-0.10860217216223016
82	0xbfa60610f32a732e	-0.043015031512572896
83	0xbf8e8b22b94eabaf	-0.014913817672853684
84	0xbfa026e071d85195	-0.03154660596570406
85	0xbfb5563a3fa52f54	-0.08334697774733729
86	0x3f745d39a7d43422	0.004971718995205017
87	0x3f65373d266b9400	0.0025898165070992185
88	0xbf92472ee26a1f1a	-0.017849667138334892
89	0xbf9b415031b8be0b	-0.026616337809342066
90	0x3f7cf773e5f31012	0.007071926810741773
91	0x3fa3a88cce858d32	0.038395309648672785
92	0xbfb0bdd83fd21f88	-0.06539680059552044
93	0x3fa45a1be934aa4e	0.03974997731923634
94	0xbf97ca79dcb76eb4	-0.023233322235553813
95	0xbf85ad66dfa38038	-0.010584644031439536
96	0x3fbe4932edd0a383	0.11830442720441962
97	0x3fb484c2a789c8d1	0.08015076246536813
98	0x3faf39a8d968b0bb	0.06098678258817488
99	0x3fa427f881c16f37	0.03936745246821121
100	0x3f9b817f1ac1eb9a	0.026861177452228803
101	0xbfa751bfb3d10d70	-0.04554556913401597
102	0xbf94432cc508df56	-0.019787501836815956
103	0xbf743116f8b2366a	-0.00492962811689566
104	0xbf8d33688d90d567	-0.014258210010761286
105	0x3face651714f2438	0.05644468792122165
106	0xbf81c490c69f8fbb	-0.008675700246335674
107	0x3f74f0e40a1d6cf4	0.005112543849317353
108	0x3fa2b4a9b3550353	0.03653459848511056
109	0x3f8ee25787a67c61	0.01508015043947192
110	0x3fb1d36a8f5c3308	0.06963220596317055
111	0x3fbc82f7f15f3033	0.11137342112414288
112	0xbf79b808a5441399	-0.006279023906476854
113	0xbfa2578a25322cfc	-0.035824124374892435
114	0xbfb91838a498a6a4	-0.0980258371206682
115	0xbfabdad04ab2f4cb	-0.054403790586982824
116	0xbf838bc627c8f746	-0.009543941582815695
117	0x3f8b64e1cd8073b4	0.0133760109748041
118	0xbf9cc7ab39b9084b	-0.02810542621433169
119	0x3f9230d74043932e	0.017764437959061734
120	0x3f9d66231526606b	0.02870993439282225
121	0xbf7e75fde6722fbc	-0.0074367444968962935
122	0x3fa3454b29760b03	0.03763804322354327
123	0x3f7d53c89729ca18	0.007159980351036065
124	0xbfb4b77195f7e743	-0.08092412864052982
125	0xbf9c2269af710bb5	-0.027475024541000887
126	0x3f935de1bacc64c8	0.018912817980070412
127	0x3f69aa75d7c70cb8	0.0031330396288652106
128	0xbfa9146784944fcc	-0.04898379796409777
129	0xbf9d4d416830b656	-0.028615018829603343
130	0xbfb1e82ab5e06b1d	-0.06994883480403442
131	0x3fb299852c3339c0	0.07265503243545535
132	0xbfb3ef5f56b2b337	-0.07787128321315327
133	0xbf910e069c8d0be4	-0.016655066781151265
134	0xbfbc6b2c65c14b5f	-0.11101033672575288
135	0x3fb07adfec50adf4	0.0643749191228194
136	0x3fa1ce47f01f3408	0.03477692419219386
137	0xbfad28cc7bd9c873	-0.05695189487313792
138	0xbfa5bd08a2d54292	-0.042457837941246926
139	0xbfadbed825e2ad50	-0.058096651673020916
140	0x3f9c1dd6b35e2001	0.027457575509771463
141	0xbf56be04194aeb66	-0.001388076784833736
142	0xbfae0c7c99db1302	-0.05868901613351875
143	0x3fa2f4e285c37977	0.03702457316261392
144	0xbfb52a040cce6fd4	-0.08267236054092503
145	0xbfa8ebcf764f836f	-0.04867409056874449
146	0xbf8edfc618d88db1	-0.01507525218318659
147	0x3f900ede88768e70	0.015681721762702272
148	0xbfb99cbc22ad562f	-0.10004783484085843
149	0xbfb6332f2cb11b83	-0.08671851006611857
150	0xbf649dc3c224fe80	-0.0025166343122292045
151	0xbfbd50a67b87de2f	-0.11451187625777302
152	0xbf8e84a90947cbb5	-0.014901466937748834
153	0xbfb2a5e284b1ddfe	-0.07284370174044594
154	0xbfbc384519ebd737	-0.11023361094325144
155	0x3f6eab15e03533c4	0.0037436892759274715
156	0x3fa34775118aeea6	0.03765455092567764
157	0x3fa0e8de435dfd4f	0.0330266434893881
158	0xbfb91d5adebd14a4	-0.098104171161213
159	0x3f9ab785c1a50666	0.026090707725649052
160	0xbfa146c9b1e922f1	-0.03374319359551759
161	0xbfa0ce202ccc15f3	-0.032822614162835516
162	0xbfb63e092623b2f0	-0.08688409024371047
163	0xbfa5ef43de02039e	-0.04284107289368609
164	0x3fb308ab1d025318	0.07435101946095946
165	0x3f8f93aaba3dfd80	0.015418371018084853
166	0x3fad1f35655ce06b	0.056878727553738205
167	0x3f53a15133987a5d	0.001198128984817657
168	0xbf9d914c08e94082	-0.028874576610463006
169	0x3fac447e19c4f3e6	0.05521005692069263
170	0xbfb89dc5249b0c90	-0.09615738052075273
171	0xbfb549f1b60e5085	-0.0831595487091495
172	0x3fa7b0f87279f65a	0.046272052740260874
173	0xbf98c3a8a43e19d6	-0.024183878922053946
174	0x3faced14f52a9c28	0.05649629109148463
175	0xbf9e98e65f073a3e	-0.029880141782820717
176	0xbf9047efe71d974d	-0.015899418336082594
177	0xbfa6522648188a0d	-0.04359550123287557
178	0x3fa1c1c6f72183eb	0.0346815277741895
179	0xbfa27a4ad56c3a69	-0.03608926635034921
180	0x3f732f185d83c015	0.004683585335655512
181	0x3fb275f7c6dc3079	0.07211254696830051
182	0xbfa074378ee985dc	-0.03213666553052594
183	0x3f9ccca632a3896c	0.02812442478251269
184	0x3fae7a1578150893	0.059525175960986186
185	0x3fa34c75c70c40fb	0.0376927190283158
186	0xbf8cae8e5f313f17	-0.014004814415016704
187	0x3f706d380adb1246	0.004010409274716914
188	0x3f7d5c5fa2aaa40f	0.007168172431797805
189	0x3fa2e8805abbcfb9	0.036930094791301334
190	0x3f67da7cd0f0552b	0.0029118001762166354
191	0xbfc1c5b568dba4eb	-0.13884608860033806
192	0xbf6e412a6c20a758	-0.0036931828081109667
193	0x3f9e76d71734b7d5	0.029750214377763335
194	0x3f9b7d8905a3d697	0.02684606644557749
195	0xbfad0e9596a4734e	-0.05675189460655493
196	0xbf76c3430c6905c1	-0.005557310016742035
197	0x3f86aad66db30bd5	0.011068034384498585
198	0x3f921fb63d8c6e47	0.01769909620916923
199	0x3f92e74f4c9ba86d	0.01846050171926843
200	0x3f913fca471c2860	0.01684490260144178
201	0xbfacf849e8a42c39	-0.056581792496296086
202	0x3f8d811bead6063e	0.014406412223937012
203	0xbfa15e505e224252	-0.033922683230347986
204	0xbf87967fb811998c	-0.011517522625763353
205	0x3f85b8315217559e	0.010605225866053666
206	0x3fb19a6db47a0ca9	0.0687626424424247
207	0x3fa6169f5cd9e046	0.043141346058235316
208	0xbfad0f17ab2c8104	-0.05675577129864176
209	0xbf9b3e32fbb69775	-0.02660445844016786
210	0xbf97f8e4135af824	-0.02341038101325678
211	0xbf9e4b29add04cff	-0.02958359835981827
212	0x3f6fad6c4c216e08	0.0038668742354681686
213	0xbfacb1a0545f1f5e	-0.05604268102575703
214	0xbf9a457f7bf8cb5e	-0.025655738774911334
215	0xbf965e95b8d27942	-0.021845187574052412
216	0xbfadfacdc57db962	-0.0585541060998931
217	0x3f92f7145e89d9c9	0.018520658750697003
218	0x3f86552089c67390	0.01090455456215425
219	0xbfb70d356fdc832d	-0.0900452993487419
220	0x3fa61ded225db0a6	0.04319706959253837
221	0xbf60b3eb3e6fd539	-0.002038917027216283
222	0x3f9763ccd7154f24	0.022841644885672654
223	0x3fbb73e6a490dc6b	0.10723725812646172
224	0x3f9540eac09acdb3	0.0207554512077885
225	0xbfb1c9d3b49b22a0	-0.06948588523222066
226	0x3f9d540ad96f0bb0	0.028640908738235715
227	0x3f8d00fb70b373d2	0.014162029625760218
228	0xbfaf6b54d63777f1	-0.06136574854802735
229	0xbfa40cb9d348c411	-0.03915959076073972
230	0x3f8dcebb3727ae3a	0.014554464932152834
231	0xbfb3bc814bf8e215	-0.07709510903158219
232	0xbf9c3a8c3b7a0b32	-0.027567092065974914
233	0xbfaac1de3c82c6cc	-0.05226034630449092
234	0xbf9b44a2f3d3fd0f	-0.026629015094838112
235	0xbf9e0ed52f584a1d	-0.029353457464887812
236	0x3f74e3ea815f7a07	0.005100170170378344
237	0xbfafb842bd88680f	-0.0619526726115539
238	0x3f9684fb284cfe80	0.021991657576335033
239	0x3f94385a4a104be5	0.01974621846245474
240	0x3fb64c42d75c9e41	0.0871011520181293
241	0xbfc36f52e61f3917	-0.15183483349250856
242	0x3fa5dbe037595d0b	0.042693144566039086
243	0xbfab5dd3dc833ee4	-0.053450222652484475
244	0x3faa466dc9ef2175	0.051318579578551494
245	0x3fba0915b5c9c74a	0.10170112312496574
246	0xbfbab47773f5fca3	-0.10431620198322604
247	0x3fb86fe95d9cd0e3	0.09545763526404331
248	0xbfaa55daf53f9707	-0.05143627399210798
249	0xbf956203712d5e47	-0.020881704123296065
250	0xbfa026b73fcbc73e	-0.03154537824401736
251	0xbfaa7fe0d8687d78	-0.05175688401890971
252	0xbfc14d4ad481adc9	-0.13517127395912912
253	0xbfb19143d0f7b9d8	-0.06862281657934177
254	0x3f9e2d7fd13a3e63	0.02947044100306896
255	0x3f6fbd393bd95d3d	0.0038744085166332585

weights_hidden_output f8 [128, 10]
0	0xbfcbc1c42d08237b	-0.2168507785684389
1	0xbfa58db24caeb7d9	-0.04209668336930834
2	0x3f789f21e41e5d19	0.0060111354704510895
3	0x3fb9911b36108a28	0.09987039632736894
4	0xbfa595f958467312	-0.04215983584001583
5	0x3fab6422fa179630	0.053498356846642614
6	0x3fb8359cc4f4bf3c	0.09456806000229973
7	0xbfcd8b5958f2f276	-0.23081509440625653
8	0x3fbb8223b178fc7c	0.10745452006175243
9	0x3fbf764a8c8c9e6c	0.12289873057727058
10	0x3fb79a2bd68d028d	0.0921962164693559
11	0x3fb7bc0d3f393e56	0.09271319192452529
12	0xbfa4f671c631e04b	-0.040942721790032076
13	0xbfa95c4290660201	-0.04953201306034672
14	0x3fbeb05add645bdf	0.1198784628398779
15	0x3fcd056079823417	0.22672658856427638
16	0xbfe5842a35e3817c	-0.67238340878616
17	0x3fd3741f5c350f01	0.3039625549756551
18	0xbfdaea6fd1ba268d	-0.42055888634841027
19	0x3fc9c5af2552322a	0.20134534189527759
20	0x3fb9b1960f9f7914	0.10036599999827828
21	0x3fc0ad8f30a80d26	0.1302966106014562
22	0x3fbb4a0ed1da69c4	0.10659878371590198
23	0x3fc274e0ee720c20	0.1441918529781967
24	0xbfa09fd447b423e6	-0.03246940017022108
25	0xbf10a035a202f9a2	-6.34224638842219e-05
26	0xbfe3701fe637eef3	-0.6074370857672576
27	0x3fc2b2c0384ca3aa	0.14608004330628194
28	0x3fb734793b3bb2f7	0.0906444329845718
29	0x3fc08fe0824df690	0.12939077723051584
30	0x3fa1de1ff7fabaa1	0.03489780332653437
31	0x3fb64fedd0fd8518	0.08715711929609815
32	0xbfad207b9fc8ac8b	-0.056888449911945825
33	0x3fb0fe92cecf1d8e	0.0663844828514952
34	0x3fd112c1ce872c7e	0.2667698399424764
35	0x3f9d1850f6cf9c98	0.028413071693560527
36	0x3fbf00d7bd9ccbd2	0.12110660914622365
37	0xbfb60441552c5778	-0.08600242928909363
38	0xbf9a463ec740be1a	-0.02565858927863305
39	0xbfba677656733b44	-0.1031412087497588
40	0x3fabbb41ad894c3f	0.054163029130585454
41	0x3fc2871afe95f19d	0.14474809103911648
42	0x3fca46e63c143f2e	0.20528867658185262
43	0x3fcad8bfd0af51e9	0.2097396630257571
44	0xbf869af14291aa13	-0.011037716716789913
45	0x3faa626081400680	0.05153180673370361
46	0xbfcccddc4225d3a0	-0.22503236036177743
47	0x3fd18fd1563fde03	0.2744029371528713
48	0x3fb432965255d982	0.07889689932003388
49	0xbfdfe59f4930cef7	-0.4983900274994392
50	0x3fc266509251bed9	0.1437473978471562
51	0xbfbfade24f2f062b	-0.12374700959392075
52	0x3fbb3ca8b4db121f	0.10639433303283184
53	0xbf9f3a102987ad79	-0.03049493077734897
54	0x3fc4f95b92075baa	0.1638597929984063
55	0xbfc6e98a3811e08a	-0.17900207269463336
56	0x3fb36792951076c4	0.07579914225831447
57	0x3fbf12c96d02659d	0.121380414117445
58	0x3fb632e4e2fd5548	0.0867140821622644
59	0x3fc445e6e0da2657	0.15838323573216215
60	0x3fb18a5c4fb6a999	0.06851746507769575
61	0x3f98c77bdf54330d	0.024198470598139333
62	0x3fa3a53906bb3177	0.0383699246136499
63	0x3fc0afef3f7b8a4f	0.13036909675345718
64	0xbfb97b18d1129f62	-0.09953456024470378
65	0x3fc1baa98b36e03f	0.1385089807279218
66	0x3fb938aaea85b67c	0.09852092958109354
67	0xbfc59af6a4aa4e4f	-0.16879160919471523
68	0x3f6467b6bf685d7f	0.002490860871386224
69	0xbfd7ec0a67f20652	-0.3737817778674969
70	0x3fd122733f200c2f	0.26772767223900734
71	0x3f842e2ba0793745	0.009853688082468568
72	0x3fb652399cf7b61c	0.08719215471474978
73	0x3f70f261e47eeb5e	0.004137403862780468
74	0xbf9439f84272f305	-0.019752387099958763
75	0xbfd87c0a342646bb	-0.38257079212881323
76	0x3fc06c1476265501	0.1282983376410485
77	0x3fad73ecc2f8f2de	0.05752506141695844
78	0xbfb0ec106c48b62a	-0.06610205310490672
79	0x3fa608e6f3ce3bec	0.04303666807310677
80	0xbf9cbdad7a1b5e66	-0.028067312791647224
81	0x3fa70f94ec06a516	0.045040754138719816
82	0xbfbcf04bd83d961d	-0.11304163007078967
83	0xbfd16aa68f38ced5	-0.2721344374324251
84	0x3fb6e727b676a134	0.08946464733765397
85	0x3f9967f753cc1897	0.02481066178281618
86	0x3fbd2c35aa9649e1	0.11395583548281919
87	0x3fa323ccef47f795	0.03738251133834961
88	0x3f861c6668eb2118	0.010796356274469107
89	0x3fb555a34d04d376	0.08333798055975969
90	0x3fc4579873769459	0.15892320287562958
91	0x3faf3c1a0973a60d	0.06100541463258589
92	0x3faa7378642cecc8	0.05166221831174195
93	0x3fc645c22b01262a	0.17400385951832337
94	0xbfc478a062d1ce62	-0.1599312288777695
95	0x3fc06b6ecb68d490	0.12827858860115215
96	0x3fc27e404bf6210d	0.14447787961058403
97	0xbfd960aedaa0e688	-0.3965260634464376
98	0x3fc2b08f2e3c1822	0.14601316220813582
99	0xbf87a89c480553c0	-0.01155206770696704
100	0x3fa03542954651d9	0.031656342241294495
101	0x3fd774c26822db21	0.36650142831369875
102	0xbfaecbe49140287e	-0.06014932892874557
103	0xbf8edd0db842b20c	-0.015070063768086527
104	0x3fa541d0e000341e	0.04151776060471256
105	0xbfa6f57e4cb7b61d	-0.04484171568388382
106	0x3f7237a416459a6f	0.004447594609109914
107	0x3fbc5337716ceec2	0.11064478415658655
108	0xbfdb269b3af67626	-0.42423134573059185
109	0x3fad6d39ceffefd8	0.05747395183422527
110	0xbfdcf3dd0844f617	-0.45238424117619175
111	0x3fc83ce8240f0856	0.1893587280338262
112	0x3fc107301c3c237d	0.133031858240681
113	0xbf98d91f704fc20a	-0.024265757780030518
114	0x3fa146b825edcf3c	0.03374267066001699
115	0xbfdaff39fd2eb78e	-0.42182779049732566
116	0x3fc802e53f55210e	0.1875883635750672
117	0x3fb5cb2e9df96caa	0.08513156277460845
118	0x3fcb1bfc9c0559ad	0.21179158800323475
119	0xbfa0a25156d9c9b0	-0.032488386012932025
120	0xbfb261bb24fdc2a6	-0.07180375722033236
121	0x3fcff6618cce9a2e	0.24970645308822398
122	0x3fa4d4a635df161a	0.040684885097601334
123	0xbfcbfee1bb0cb016	-0.2187158740356387
124	0x3fc14486688e6440	0.1349037180450825
125	0xbfacfc73e34bdd95	-0.0566135611497273
126	0x3f9353dcea9067b9	0.01887459928193611
127	0x3fc116d9e23b7168	0.13350986048215963
128	0xbfb571521ed699cc	-0.08376038792503165
129	0x3fba504745cc4e5c	0.10278745130590877
130	0xbfa121c459079c57	-0.03346074663914383
131	0xbf970653b3219268	-0.02248507290677751
132	0xbfdf54e93319dfc0	-0.4895575522455111
133	0xbf7eb2415f0152a7	-0.007494216304696855
134	0x3f92e7c62a65fc30	0.018462272966186244
135	0x3fb307dd3add9d96	0.07433874785566838
136	0x3fb41424d8c9042f	0.07843237202270424
137	0xbfa2c2da0c0d9bd8	-0.03664285084851543
138	0xbf7938042d5a6134	-0.00615693694785362
139	0x3fa8647906ee8cd5	0.04764154634110588
140	0x3fa50f43be8b3e76	0.04113208485580071
141	0x3fc86f63471ab99a	0.19089928600210443
142	0x3fa43cae0a2d7c89	0.03952545046080853
143	0x3f832312243d310a	0.009344236117293753
144	0x3f8476dbc2be2801	0.009992329483583974
145	0x3fa990cc8658f579	0.04993285312637403
146	0x3fc6220a1b64d59a	0.17291380250541694
147	0x3f9961c79a5e128c	0.02478706245121258
148	0xbfd8330ee20c2c97	-0.3781163413520487
149	0xbfd777f538ffc957	-0.36669664923023987
150	0xbf96a1cad21e96ad	-0.02210156352489061
151	0x3fc2d54ebe654ad9	0.1471346311251043
152	0x3fc780451e2d0a17	0.18360198949274384
153	0x3fc4d1f87cfbdb27	0.16265779593205673
154	0xbfcb7066b1fa0875	-0.21436771097438947
155	0x3f9ec5cb32569325	0.03005139822711835
156	0xbfab3ebe8e1ada2e	-0.05321307644537786
157	0x3fcb7907afefd8ab	0.21463104334515512
158	0x3fbf1e4abfd9b503	0.12155596908424475
159	0xbfe66e1f19948869	-0.7009425639737518
160	0x3fc1f15b385d55a2	0.14017811062028068
161	0xbfd671e156a43b8e	-0.3507006975277641
162	0x3fbc24744495c147	0.10993124651372908
163	0xbfada6101f3b8741	-0.05790758496529103
164	0x3fc3895abe40f5e4	0.15262922563299164
165	0xbf59ab2c73e88f54	-0.0015666898831420877
166	0x3fbd1619dc2be5e8	0.11361848473816105
167	0xbfc6046ac12caa65	-0.1720097964510671
168	0xbfa186c5c7ba4467	-0.034231358176051434
169	0x3fc60c490e35f49f	0.1722499198330398
170	0x3fc708d673ad02c5	0.17995720527871675
171	0xbfa95309453dcd2b	-0.049461641027756485
172	0x3fc3cced59268e9d	0.15469138005311303
173	0x3fc5c3bfcd885d9b	0.17003629241729076
174	0xbfe24c4307ed835f	-0.5718093066062514
175	0x3fc5f3a2a8baa02b	0.17149766195984859
176	0xbfc80edd401b2ad3	-0.1879536211984801
177	0x3fc23faa03f98eca	0.14256787485202543
178	0x3fb5cb6f51c62b73	0.08513541933477402
179	0x3fb4fec3874026a4	0.08201238681808803
180	0xbfc3aff99da0f6e3	-0.1538078326865878
181	0x3fc0c6309391ab2d	0.1310482712318274
182	0xbfb22f0fdea31ef5	-0.07103060899236964
183	0xbf96087da2876849	-0.02151676468370337
184	0xbfd3710c4c6de23e	-0.3037749048594697
185	0x3fce84ccc5350598	0.23842773083928814
186	0x3fc6fa49fd0e7d9b	0.17951321464805123
187	0x3fc3dd6d1106605a	0.15519488650602647
188	0x3fbc37b1862d5032	0.11022481466108117
189	0x3fbc880c339ec88f	0.11145092258701282
190	0x3fbbc2bb017259ed	0.10844010148353052
191	0x3fb04533f708476d	0.06355595379889474
192	0x3fc3393d2f7de619	0.15018429583487672
193	0x3fc87a8b6afe657c	0.1912397644453384
194	0xbfe4444fb07c407b	-0.6333387801150957
195	0x3fc8a0c20b51444c	0.19240594437227043
196	0xbfd20e091174b8ac	-0.28210665421182557
197	0xbfa4e00e88a6c7f6	-0.04077191751584046
198	0x3fbcb571ac369f28	0.11214361624172098
199	0x3fca28025793de50	0.20434598232508216
200	0x3fbfbe149784c85f	0.12399414729296286
201	0x3f993076756449f0	0.024598933138870238
202	0x3fb2bb17eb5ec4c4	0.07316731926291015
203	0x3f6937204f2dc2a0	0.0030780440369471834
204	0xbfda74f06c053bec	-0.41338739918586387
205	0xbfb9510651c073b0	-0.09889258857624728
206	0xbfbf7b56db8807e2	-0.12297575816776843
207	0x3f9b94a7300f0796	0.02693425398661694
208	0xbf7293a3b94f8462	-0.00453533129345471
209	0x3f96429cb6a0699b	0.02173848023094536
210	0x3fb64952cb339087	0.08705632649395244
211	0x3fc66c52db1c7214	0.17518077563080736
212	0xbfc165726fce5e97	-0.1359084173134206
213	0xbfd28de7163888fd	-0.28991105241779264
214	0x3fc273a2fb294db5	0.14415395034539605
215	0x3f93a7f7914fe961	0.01919543098845489
216	0x3fb0b645916d8bff	0.06528124618994012
217	0x3fb2361ca2086417	0.07113818126562453
218	0xbfa27a3b957cc23a	-0.03608881187245001
219	0xbfb1c38826865c67	-0.06938982906864198
220	0x3f9f6279d827b41b	0.030649093454418002
221	0x3fc217c6b4806a92	0.14135059178882564
222	0x3fc01f40982cb869	0.12595374517826777
223	0x3fbd023f7a1ff696	0.11331555110515476
224	0x3fc5a400b8deccea	0.16906746889944851
225	0xbfcd6af8a151c70d	-0.22982700230527833
226	0xbfddc433c9836ed6	-0.465100237646522
227	0x3fc19551763f0032	0.13736933015570824
228	0x3fab1e007080463e	0.05296326993278598
229	0x3fc05d0cea20bcb0	0.1278396743013892
230	0x3f93b76e8df5490a	0.01925442449039231
231	0x3fbed753f95d3bdb	0.12047314489357978
232	0xbfcec4b957c2a68d	-0.24037853989766625
233	0xbfd060ed46709d5c	-0.25591594580551713
234	0xbfc294b5eedfb953	-0.14516328967824652
235	0x3fbae4e138b97154	0.10505492815849965
236	0x3fbeec76e2c771ad	0.12079566036795227
237	0x3fa71fb2e79a387a	0.045163718005924516
238	0xbf956877ae35f0ff	-0.02090632439420492
239	0x3f832d9789852c0a	0.009364303478511377
240	0x3fc100f6fb7b2a71	0.13284194259024987
241	0xbfa0d9775b6000e8	-0.03290913572709703
242	0xbfb2a9d445fea765	-0.07290388783317565
243	0x3facfabb30ad70e3	0.056600427333906266
244	0xbfc56edca04b2fe8	-0.16744573428002174
245	0x3fba29fbb0b20291	0.10220311225749358
246	0x3fbafae135d9637e	0.1053906208484374
247	0xbfc894b83506b67e	-0.1920385607640362
248	0x3fb3875e0831f0a6	0.07628429126811173
249	0x3fb7782e4a5cd0d8	0.09167756381504277
250	0x3fc2387a2608f0b5	0.14234854561971635
251	0x3fc8a811e9868b7f	0.19262908842673807
252	0x3fe046865426570c	0.5086089747953522
253	0x3fd3e18e234064c5	0.3106417984250352
254	0xbfefa4b987b38436	-0.9888579988875168
255	0x3fcfbe42b73a8e14	0.24799379297938684

bias_hidden f8 [1, 128]
0	0x3fbeb0b213be159e	0.11988366109843304
1	0x3fedc405d1eda151	0.930178556457614
2	0x3fd14bd2dc12f3e0	0.27025290958027703
3	0xbf9732b7cfc6ea57	-0.022654411369993657
4	0xbfb06b5389c46dc6	-0.064137669691653
5	0xbfd712fbd44402dd	-0.36053367356366356
6	0x3fc4f72ceded7c4f	0.16379319779932408
7	0x3fba3935b378087c	0.10243545180859032
8	0x3fb4d6863260f7a6	0.0813983796114984
9	0xbfd4749d8ae04d4c	-0.31961763918043995
10	0x3fd03ecc33056b7f	0.25383286459480553
11	0x3fc1c89d38ae37b9	0.13893475787739165
12	0x3fd44ac7d4f322d4	0.3170642451846508
13	0x3fb01eccb3b49c93	0.0629699648603597
14	0x3ff23609e7f859fe	1.138193040974897
15	0xbfe30538c6ea0257	-0.5943874249497395
16	0x3fbfa9415a37854c	0.1236763806587266
17	0xbfa337a4b4148862	-0.03753390024418547
18	0x3f61a45dc4014bec	0.002153571258568734
19	0xbf9c850fe40b3b54	-0.027851341527646525
20	0x3f69a17d22707c50	0.003128761676193949
21	0x3fd57f8520c75950	0.3359082050423199
22	0xbfd7e35fbdd63c1d	-0.373252807033113
23	0x3fe5935f63422856	0.6742398203507587
24	0xbf30bb32319c57aa	-0.00025529838022586104
25	0x3fe791b731d9fe41	0.7365375493681726
26	0x3fed51ef589bd340	0.9162518244398612
27	0x3fe15d2ccaf7f793	0.5426238979559791
28	0x3fce71ae9d32d2a2	0.23784430194577505
29	0xbf8fdfd9ca17b43f	-0.015563680152775315
30	0x3fc2305527aca304	0.1420999950144265
31	0xbfdb8e977d4f6618	-0.43057811009711733
32	0xbfd885a80d61b9a8	-0.3831577425652548
33	0x3fe99908e10cb758	0.7999309916974466
34	0xbfd60e1e7244b404	-0.3446117511655873
35	0x3fda93804cb14043	0.41525275697222613
36	0x3ff08942b0ddc346	1.0335108670080486
37	0xbfd7a394245e655f	-0.3693590502894803
38	0x3fdb980de2002bd0	0.4311556536710528
39	0x3f3f6ad70a96768a	0.0004793906215015761
40	0xbfc6c9a7f6d9dc09	-0.1780290561034408
41	0xbfb0baf7a6aa1692	-0.06535289591746565
42	0x3fdb9341a81c1102	0.43086282174068924
43	0x3fb557fb9498f57e	0.08337376001232674
44	0xbfcb63d99a851fb3	-0.2139846806041966
45	0x3feba84a024d3f81	0.864293102737051
46	0x3fd1abb01e5e89b2	0.2761040016722759
47	0xbfe107059f6190df	-0.5321071732437551
48	0x3fc1614ddacd7a45	0.13578198608134265
49	0x3fe3d82118073c37	0.6201329678823474
50	0x3fe2e38d2c18cf4a	0.5902772771137077
51	0xbfd95ee97b86e5d9	-0.39641797125986283
52	0xbfd0453f7e02cd54	-0.25422656350857165
53	0xbfd50fcfe5194952	-0.329090093354485
54	0xbf8320dad64135a7	-0.009340009368453318
55	0x3fd5aa79bf989d82	0.33853000364839414
56	0x3fe11ef33b0e7875	0.5350280908057942
57	0x3f74aa3443547dca	0.005045131828665681
58	0xbfc58ba29de09d42	-0.16832382878167534
59	0xbfd6f2db3e2f0a73	-0.35857277939445636
60	0xbfe114911539572e	-0.533760587170695
61	0x3fd97cf6afffdfae	0.3982521742577728
62	0x3fe40edef44ae007	0.6268152972543256
63	0xbfe7ad75c245a53f	-0.7399243158699064
64	0x3fd19e2b7dfc414f	0.27527892401942194
65	0x3fde6cd72804527c	0.4753930941381339
66	0x3fdf1961006d988f	0.48592400590713053
67	0xbfe432503c0bf93e	-0.6311417744434846
68	0xbfd5b44d52b5be76	-0.3391297633852227
69	0x3fe3a25acddf2cf4	0.6135686894353101
70	0x3fdd661efc421243	0.45935797342852797
71	0xbfb62845e3bc37b0	-0.08655201730672846
72	0x3fa61e31e3762ac0	0.04319911862974868
73	0xbfc477580953aa04	-0.1598920865574912
74	0x3fc0c756885f5ea6	0.13108331354918795
75	0x3fc54a12d7bfed7b	0.16632304701475306
76	0x3fea882074c16fc2	0.829117038763336
77	0x3fe924cf24127cde	0.7857433037314896
78	0x3fe011e0a7e2c445	0.5021823195476222
79	0x3fbd9b5b0dd6d971	0.1156517895495648
80	0x3fe556a500fd8520	0.6668267268507044
81	0xbfb9f7beeff3d80f	-0.10143655164924346
82	0x3fca392126eda32e	0.20486845398706904
83	0x3fd53ff15984fb1d	0.33202775709280435
84	0xbfaab3f5a136451c	-0.05215423195762467
85	0x3fdb87fc6f86baa4	0.43017493144263086
86	0x3fe7d8c5c8a857e0	0.7452114981740543
87	0x3fddddb1f5226d47	0.46665619791902596
88	0xbfc977ff9df569e0	-0.19897456372093725
89	0x3fc2bd0222cf7d94	0.14639307689411096
90	0x3fd007a7fd4c0036	0.2504672978975607
91	0x3fb0ecf24ce7c197	0.06611551644869561
92	0xbfa1def3cebf0836	-0.034904116618705336
93	0x3fb5b37e9b2279ff	0.0847701195475352
94	0xbf95aa7807ed72ef	-0.02115809963594278
95	0xbfd0fd4db99ed3fd	-0.2654604256343303
96	0x3fb2955f92949819	0.07259175613998571
97	0x3ff3e2dff7077eff	1.2428893708783446
98	0x3fcdf25e657bd8ea	0.23395900683653476
99	0xbfe2d96d7924fe1a	-0.5890414587119637
100	0xbfcee3ee6c0714b7	-0.24133091234958723
101	0x3fd394bf885e70f9	0.305953868077054
102	0xbf90995d624fd874	-0.01621004021213719
103	0xbfe4487f0bacf93b	-0.6338496425667367
104	0x3fd2770d854c4822	0.2885164071786922
105	0x3fd3c1f9207c0d57	0.3087141816360676
106	0x3fd589388bac3c6c	0.33650029792710856
107	0x3fd5ed5985edaf54	0.342611676015385
108	0x3fdad2a0ce21c67e	0.41910572176048067
109	0x3f9d61e762ac8702	0.028693786046580357
110	0xbfc72f3bcd847029	-0.18112895522142594
111	0xbfd64bf47cd90ade	-0.34838592712564587
112	0x3fb1b7e5af9d495d	0.06921229875050501
113	0x3fc7ec6834713b33	0.18690207062396666
114	0xbfcfae1504e80a48	-0.2475000642735543
115	0xbfdbaa38cea5cf8c	-0.432264520458596
116	0xbfb57f9c9108a2c9	-0.08397844830382008
117	0xbfcd4cf07e39851f	-0.22891050494494267
118	0x3fd09322f475d06f	0.2589805018717532
119	0xbfc7baf62b157c4f	-0.1853931150789969
120	0xbfd3e4b7b6ca1508	-0.31083481646085476
121	0x3fd583dc622704ce	0.3361731489677141
122	0xbfe65d122042553e	-0.6988611822186284
123	0x3fb273a7eb4dedbb	0.07207726950394193
124	0xbfcfa3a6b156aa59	-0.24718173655613176
125	0x3fca6e3ef746fa70	0.20648943971714884
126	0x3fb55bcdb703f758	0.08343206136848147
127	0x3fb2e480a9635bc3	0.073799172739526

bias_output f8 [1, 10]
0	0xbfe0e1a1106cbd3f	-0.5275426216884752
1	0xbfddef4ba937d21a	-0.4677304413337723
2	0xbfd9fcc73521fb37	-0.40605335415596094
3	0xbfd0bcd708d98301	-0.2615258776113905
4	0x3fda0ad3d67dcbf5	0.40691085764336715
5	0xbfca5d3c21769a34	-0.20597030290555696
6	0xbfbcf3ee4ff71fc8	-0.11309709026602299
7	0xbff2d2b811e8720e	-1.1764450740366814
8	0x4001076b93f74498	2.128623157485503
9	0x3fe3ee3abf17f976	0.6228307468698364
