models/model_cv_digs (40).npz (npz, 815236 bytes, 4 tensors)

weights_input_hidden f8 [784, 128]
0.07343887239283498 -0.12422024998808477 -0.08685419010555655 0.0615173509715266 0.09942025208434983 0.08011475854985592 -0.019873072394795247 -0.010234619678872726
-0.0989112990020318 0.01428243708787446 0.041302307215076974 -0.06969104608172397 -0.0059945855837226295 -0.0021998812612247305 -0.02354972388888809 0.016984708753131954
-0.08009581653276944 -0.12629513499748915 0.018511792635915826 -0.016089249732391214 -0.01892531247001203 -0.04781403648444721 0.023880645471896868 0.0078019558880477085
-0.035189279649189414 -0.01845740901753061 0.03750182225875021 0.0690442340301502 0.01741115060585007 0.0348079225272017 0.035091789028209024 0.022610813930739142
0.005553961883940798 0.0007598708368439922 0.025830988951898136 0.07380495992681664 0.007364326890118585 -0.05204506488766384 0.0630020810253266 0.05031915758311507
-0.04112524963881178 -0.01163532216256144 -0.02169932144899933 0.03637334575109157 -0.006305633627105826 -0.09109832249004043 0.05815568190983563 0.0013991738233980304
0.07276606553466607 -0.07395855875630182 0.07377479318383698 0.016224618973188925 -0.055757125316711606 0.051867455516421475 0.06707176997508564 0.06984702459154563
-0.030528210782795443 -0.09213880856368198 0.15845958420825657 -0.0212909727983099 0.023951976532206404 0.060741157595809475 -0.01025673141488705 -0.03551474623546643
-0.05673264504705166 0.031441913167363125 0.01209126463326419 -0.06059068939852782 -0.06689787586001746 0.05742617994100767 0.0636377834469886 -0.04759935588781995
0.025017550606694788 -0.011951030548855254 -0.007506769721486388 0.009124640736411935 -0.06266826407123513 0.0050550087089895135 0.017828524898995397 -0.039625376090447605
-0.0567077585791162 -0.05260263747714386 0.08085856226542418 0.0025580709576809445 0.06933492306008189 -0.0012602383995745847 0.026689520338990858 -0.056260650231821814
-0.031003223325152346 -0.018300887176368637 0.008416964669336049 0.01656594404167978 -0.0544998562185642 0.03769481076517487 -0.0279367204507027 0.03158575912803774
-0.02535229649499528 -0.009797733112007219 -0.029902324466156604 0.012869497787427697 -0.018181555790942588 -0.026583778645405957 0.015319155298542858 -0.010632636127252588
-0.02652061332815716 -0.0484006333167705 0.04449911551902049 0.0069322821653502245 0.03387632938700892 0.0944819881363271 0.019174331419789428 0.012033807536819877
0.04855956550254066 0.028473334736927366 0.017820107659812325 -0.02596557725198787 -0.03597434784910047 0.036297917940159255 -0.02793158623107481 0.020170765623840754
0.0016553821404773996 0.06707300219995578 -0.08855741066283052 0.05205943147842509 0.02290747469662254 -0.06274249337081288 0.14321373420060537 -0.01737113977899586
-0.06009672805519104 0.008910278036603993 0.029433822813628486 0.009178725644399172 0.10013362993691578 0.0035238931444948156 -0.12154287566738659 -0.0017979026660283526
0.009926137364108552 -0.011875720100705886 0.020108944746767273 0.038389784773214045 0.13282709974603124 -0.08571463420596113 0.04133454825911955 0.06345581228958642
-0.04731968300146777 -0.002527544249873633 -0.0008527960996788388 -0.007602837365054824 0.038301533467393456 0.010832305771938519 -0.016082884533032197 0.0743563169190448
0.017696062167194833 -0.02521446523317321 -0.008693326146400178 0.017019660600826693 -0.06020781581079914 0.04411704327853192 -0.023866436496631217 0.04215981146769817
0.012659577042199537 -0.01619696998268238 -0.0912219036544188 0.052722028647451055 0.0017268826303539907 -0.06623200588348205 0.054721933773550585 0.0027185547307288617
0.06359428995263307 -0.020195766274160615 0.011767708731025712 0.002219236735693648 -0.047391763930400566 0.006851231297594401 0.045875958118345904 -0.030360127186217414
-0.0692824864754068 0.04880441113755196 0.026360701956033735 -0.002760773177543714 -0.019800933523926513 0.022720195923105393 0.024006017586081507 -0.0017884760367140654
-0.014393600476515578 -0.00228378389680665 -0.03031461198350973 -0.07677523065239414 0.010451637921019904 0.025295653243357193 -0.026343367747926467 -0.07597896902492363
-0.03060667070060494 -0.057392280177287786 0.038179375387102955 -0.06557859702775495 0.06651605448750095 0.01042602285236794 0.013927431952879486 0.021100893820416553
0.01781323944085916 0.005908852920065313 -0.09938007186275477 0.028848341227207575 -0.09610563400550282 0.06005315119581158 0.0011749853688497725 -0.027262929417418362
-0.030286917355896798 0.07004050407627432 0.02551353584758166 -0.007634243157344049 -0.039470595411967895 0.0063535310540931205 -0.04744568753980055 -0.03375563784880326
-0.044533591250576786 -0.05692070450570556 -0.027703159798258263 -0.09665917607183774 -0.018068921494376392 0.05094062631476296 0.04566346473475275 0.028224609509839724
-0.09960307083257344 -0.05284551061065077 0.03904543891102499 -0.03539027469939351 0.07415133494931087 -0.025183089194616867 -0.09140208284630753 -0.016903315000599883
-0.003423010999087439 0.05941802953436198 0.031836780532894814 0.0662543232162521 0.016771264068253806 0.028183317084605183 0.059681112630018934 -0.054861210907553186
-0.07255109202682014 0.025359790842329078 -0.0065229560342496325 0.01946955574743378 0.09172176213502396 0.024185228192376694 0.011162494830114247 0.015238826647639921
0.008303914467279442 -0.05916007402977547 -0.025136574330833786 -0.023258016292704426 0.01917282333424015 0.04635490877210427 -0.024266179903030306 -0.06632230511062726
00000000: 10ae 2ed3 e3cc b23f 0724 33f7 e5cc bfbf
00000010: 6b20 0682 133c b6bf 6757 1ec5 337f af3f
00000020: eb29 430b 9b73 b93f 8608 e69b 6682 b43f
00000030: b1d8 0650 9b59 94bf fa48 7666 e3f5 84bf
00000040: a229 6b3a 4052 b9bf fcc6 9841 1c40 8d3f
00000050: 4de8 7975 9325 a53f 82ba bebb 45d7 b1bf
00000060: c805 9050 c78d 78bf 112e 4e42 7c05 62bf
00000070: 9efc ba37 6b1d 98bf 5ed4 8182 7064 913f
00000080: 41fe 8dd0 2881 b4bf b5a3 3a61 702a c0bf
00000090: 9aab d85f c1f4 923f fbd2 ab45 b379 90bf
000000a0: 184a 8038 2861 93bf 781c fbd5 147b a8bf
000000b0: 6a96 3cfd 2a74 983f b5dc 2496 f1f4 7f3f
000000c0: b4b0 864a 5404 a2bf ec91 65c0 7fe6 92bf
000000d0: c191 4858 7033 a33f 9c09 2307 e2ac b13f
000000e0: 7d5d c089 3ad4 913f d5c4 ca11 58d2 a13f
000000f0: c7f4 770c 8df7 a13f 1b4f 7909 4a27 973f
00000100: b7e1 794a c0bf 763f 7be2 5b32 42e6 483f
00000110: f642 1653 7073 9a3f 9d13 2bc1 e1e4 b23f
00000120: 95dc 6672 0e2a 7e3f 85af 3897 a6a5 aabf
00000130: ab6e 9585 e720 b03f 4a0e 5dc0 6ec3 a93f
00000140: eb20 7a64 5e0e a5bf b03f 5581 42d4 87bf
00000150: 8018 e0cf 5838 96bf 47e2 e4f4 869f a23f
00000160: abf8 57a3 efd3 79bf f6af d03b 3852 b7bf
00000170: 9b36 c2df 94c6 ad3f b0c7 0674 8fec 563f
00000180: 33e0 baff cba0 b23f bd1b 1eb7 f2ee b2bf
00000190: fa65 fea3 e7e2 b23f 7b06 85bf 2f9d 903f
000001a0: 0e2d 82ab 328c acbf 71eb 5602 5f8e aa3f
000001b0: b51f 8792 9d2b b13f ecf5 579e 7ee1 b13f
000001c0: 6185 ab8b c942 9fbf fa31 79b1 6896 b7bf
000001d0: a0c3 f455 6748 c43f f59d 79ff 4ccd 95bf
000001e0: e883 85ef dd86 983f 8455 ca0a 7719 af3f
000001f0: 4a26 ed2f 7b01 85bf 8bd1 3623 fd2e a2bf
00000200: 8f71 2fae 0f0c adbf 0214 8e89 2719 a03f
00000210: 5553 5611 4ec3 883f 6b4a d12a be05 afbf
00000220: c59a fd1c 3820 b1bf 26ca 8fd9 f666 ad3f
00000230: e3da b1d6 904a b03f b29c b259 f15e a8bf
00000240: 4b24 ba66 339e 993f f8fa e22a c879 88bf
00000250: 38fa 3c27 6bbf 7ebf 38b5 678c f0af 823f
00000260: 26dc ae00 070b b0bf c9af 6091 8fb4 743f
00000270: 5228 820d a441 923f 73e3 ccfc c649 a4bf
00000280: 79b4 0da1 cc08 adbf 4c9c 4b9f bbee aabf
00000290: 6615 8890 25b3 b43f 61ae 54e3 a9f4 643f
000002a0: ad83 03fb eebf b13f 5c88 86ad d2a5 54bf
000002b0: 20f0 0164 7f54 9b3f d140 9829 32ce acbf
000002c0: 182a 0219 4fbf 9fbf d222 a4bf 77bd 92bf
000002d0: 3b1e e4df e93c 813f 63a7 8baf a9f6 903f
000002e0: ebdc 30b8 67e7 abbf 5d40 eef6 bb4c a33f
000002f0: 99e6 c592 719b 9cbf a0d1 f234 022c a03f
00000300: c549 4cd1 f3f5 99bf a4fb 537a d510 84bf
00000310: a347 a006 b79e 9ebf 6650 e7c0 525b 8a3f
00000320: 3bcc 0c8e 2f9e 92bf 8163 8b2f c738 9bbf
00000330: 30a2 1338 a65f 8f3f 6a9a 7e43 90c6 85bf
00000340: 663d a83b 3828 9bbf f405 67c2 f7c7 a8bf
00000350: 2bd2 b58b 96c8 a63f 683a fd52 0665 7c3f
00000360: b2c5 a6fd 3c58 a13f 2649 1bb9 f82f b83f
00000370: 848e 7b99 6fa2 933f 2237 894e 2ea5 883f
00000380: 6a96 7ba3 ccdc a83f 5f3d 0326 1d28 9d3f
00000390: 3abc 702e 6f3f 923f 1ae8 7964 b896 9abf
000003a0: 2f7d 03cf 3a6b a2bf 4287 ee04 a495 a23f
000003b0: d92d 8d05 199a 9cbf b53a c22a a5a7 943f
000003c0: 2a87 f709 2d1f 5b3f 55b2 e43e b22b b13f
000003d0: 3884 9dce b2ab b6bf 63df 4ba7 88a7 aa3f
000003e0: 16af 9f9a 0e75 973f 0bde 185d e40f b0bf
000003f0: bd64 5de0 d354 c23f a4e9 fa74 bdc9 91bf
00000400: 0df3 2f93 ffc4 aebf a1b4 1f46 8d3f 823f
00000410: 9dee 8569 e623 9e3f 1076 b1b3 4bcc 823f
00000420: d10e cf89 5ba2 b93f 9830 edb9 23de 6c3f
00000430: cc9f 0d14 6f1d bfbf d716 ba49 f374 5dbf
00000440: d1e9 d59a 2754 843f ab83 972b 4c52 88bf
00000450: bf80 2d70 7097 943f 0aef 336c d3a7 a33f
00000460: 1043 b778 7a00 c13f 4f05 b4ee 64f1 b5bf
00000470: 538a ef49 cd29 a53f 195f 86de a33e b03f
00000480: 8893 e515 493a a8bf ab8a 8efc a4b4 64bf
00000490: 0c05 dcad c5f1 4bbf 647b 6f1d 2724 7fbf
000004a0: f819 4233 429c a33f cbf8 3e78 3f2f 863f
000004b0: a1fd 601c 0878 90bf 4b16 6bfd 0309 b33f
000004c0: f2b5 1aa1 ea1e 923f 4c1c 401e d2d1 99bf
000004d0: 0421 f07b cecd 81bf daa3 ad16 9a6d 913f
000004e0: 4ff0 bd0f 8fd3 aebf 8daf 2754 8296 a63f
000004f0: 7d7e e670 7170 98bf fb27 eb86 f895 a53f
00000500: f6fe 04ab 43ed 893f deca 7a41 f095 90bf
00000510: 3de5 df94 515a b7bf a69f a3b9 61fe aa3f
00000520: 423b f81a 124b 5c3f 24d1 37ab 94f4 b0bf
00000530: 6cd0 dc67 8304 ac3f 9ad1 25f5 3845 663f
00000540: 1914 8f23 b747 b03f d824 a9ee 32ae 94bf
00000550: f759 3021 ab19 883f a8d9 75a6 132e 623f
00000560: d094 5cb8 bb43 a8bf 399b c465 0910 7c3f
00000570: e3f8 94b7 0d7d a73f 6704 78a5 b916 9fbf
00000580: 78f1 983d 7fbc b1bf 70ff 784b e4fc a83f
00000590: 8ffc 33c3 4cfe 9a3f a990 4bd0 c29d 66bf
000005a0: da81 a927 b246 94bf 8736 cb89 f643 973f
000005b0: 90f7 c191 0895 983f 1b6a 9785 694d 5dbf
000005c0: aded 8b5a 647a 8dbf 56ba bb24 71b5 62bf
000005d0: e68b 3d2c cb0a 9fbf e27d cba0 8aa7 b3bf
000005e0: 4bba 7b18 ab67 853f 2f0b a58d 1ae7 993f
000005f0: 657f c67b c1f9 9abf 0856 2593 5b73 b3bf
00000600: f94d cbe6 5a57 9fbf 0c03 cf5c 8562 adbf
00000610: 65b0 5641 3f8c a33f d240 8d49 c2c9 b0bf
00000620: 0eca ae36 3207 b13f 4418 6d19 3d5a 853f
00000630: ffff 0946 fc85 8c3f 190f 8003 799b 953f
00000640: af54 5643 a23d 923f 36e1 c6a0 e133 783f
00000650: 3850 86ee f870 b9bf 3d75 7568 6b8a 9d3f
00000660: bcd5 03fb 609a b8bf 23c5 d060 49bf ae3f
00000670: 7b16 e1ee 3e40 533f 5ec0 f638 d0ea 9bbf
00000680: 7532 299e 8803 9fbf ec27 67aa 2cee b13f
00000690: 2462 4868 3820 9a3f 6b4e 0c8b 1545 7fbf
000006a0: c766 e568 7d35 a4bf a794 7601 2906 7a3f
000006b0: d8ac a318 cd4a a8bf 7982 3b41 6b48 a1bf
000006c0: f343 fd5b 1bcd a6bf 3673 a2e8 b524 adbf
000006d0: 4e49 5195 375e 9cbf ba3b 16e0 a7be b8bf
000006e0: 11c1 91cb a880 92bf 458c 1ec8 e314 aa3f
000006f0: c9cc 509f 3361 a73f fc05 267b e9e6 9c3f
00000700: 6e9c ce3b 967f b9bf 4d57 a017 910e abbf
00000710: 3494 5c86 c3fd a33f 0357 dc90 ac1e a2bf
00000720: 54e1 8ff6 94fb b23f 9f34 0382 98c9 99bf
00000730: dd75 9c7c 2066 b7bf f07a 7c44 1a4f 91bf
00000740: 990e 7009 930a 6cbf 3823 493b 0a6c ae3f
00000750: abbd 6516 e94c a03f d6b2 6e17 0bf6 b03f
00000760: 0230 be7a 7c2c 913f 1c49 af64 16dc 9c3f
00000770: 3ca1 ded5 858e ae3f d773 55c5 c416 acbf
00000780: dc55 8b57 b592 b2bf bd6e 34c1 eaf7 993f
00000790: c610 72ad d0b7 7abf f8be cfc4 d3ef 933f
000007a0: 3390 b3d0 137b b73f 86bc 8730 03c4 983f
000007b0: ce99 e5b1 5cdc 863f 5ef1 a5b0 8835 8f3f
000007c0: 15a6 8688 a401 813f 78a7 5fae 3a4a aebf
000007d0: 74d4 bcf2 66bd 99bf 2554 630d f3d0 97bf
000007e0: 132b c564 0aa2 933f 44d9 5ea2 d4bb a73f
000007f0: 2d58 54c4 3bd9 98bf d40a 72a3 7ffa b0bf

weights_hidden_output f8 [128, 10]
-0.22626678478225323 0.2617049983342451 -0.00877923323589142 -0.25739244942543527 -0.1373014854066201 -0.08544350300110871 0.06169958855353145 -0.06022159033179822
-0.014293971095160946 0.10300939061075574 -0.012199741996002406 -0.06766895481391506 0.00565021082051278 -0.10443143911470204 0.03248804135123533 0.00932059826328275
-0.004244271157591687 -0.06573890877413946 0.12321081165177547 -0.0069905115769812905 -0.04853907438220513 -0.23705604757490445 -0.0042815225187193585 -0.06500858566971125
0.08090666821421659 -0.004345844208895153 -0.2621658919398027 0.031219061454563476 0.019501553863029465 0.15223364477885465 -0.12848627362011988 -0.1683216852458703
-0.08828509633389715 -0.2718191929760062 0.2743170201774007 -0.2830754092571136 -0.09758645521079388 0.42038365113228815 -0.1987300187538807 0.2224823996935735
-0.04901122439110047 -0.003795678273603717 0.08154079856767706 -0.057680881154952006 -0.0712230865271298 0.002988814759976581 -0.084825256433731 -0.13224643801943572
-0.10706019218627381 -0.047653737280115356 0.06957442920127231 -0.05005739555809556 0.19226913102611715 -0.053710974036197484 -0.10395513706410402 0.003130345046449819
-0.13187665180977 0.25140315508510613 -0.037291692717766646 0.018651896179335214 0.018052804241308142 -0.07120605489029697 -0.026949401767234576 -0.06622716763248594
-0.22852066777021923 -0.15039724106877497 0.026770680672096373 0.39313406835114467 -0.265482827216947 0.1892871016895432 -0.049265287724721094 -0.2770624204503563
-0.08923727136084167 -0.250414726101781 0.25737279172240946 0.023841733013256487 -0.08103935479431662 0.03800711661895862 0.21281024338591567 0.28127767922230906
0.15581249218321333 -0.24260609805751465 -0.2791629129865749 0.10388951363998968 -0.060118145133651206 0.09616586068848236 -0.04285514262565413 0.22581537722607714
0.06570853463315089 0.03181193501975855 0.16894946680867995 -0.056552358702760215 0.05351028642819609 -0.07926463362165184 0.004955766532732803 0.09675993291237843
-0.08281249894440197 -0.059719802108780175 0.0829864185265795 0.031295174843079095 0.17211212491940275 0.07563540858555191 0.08332245071498091 0.08299317083141446
0.023726401723243133 -0.1067496732808679 -0.14220039963543743 -0.03095741725008995 -0.23144314232723948 0.046688539497123344 0.020916353236190153 0.010791131748169236
-0.0837291944172607 -0.03064889380506383 0.188076253113952 0.06576257623126827 0.2511859055578265 -0.04731629404981037 -0.016826787676262944 0.22130771626584095
-0.03084663095791382 0.03719417063093785 -0.09397926090624803 -0.02250084554451143 -0.1079135834735052 -0.10600703876046941 -0.04969674823988919 0.0005295749304179626
-0.07197448180424672 0.013246795389406369 0.41266317913537 -0.06544822876019744 -0.06117573963523956 -0.06011138626152589 -0.026661881114665498 -0.12708071642248348
-0.01340275413385178 -0.06042894734623516 -0.11814013581532358 0.019415821623863933 0.02270681420242443 -0.012573370723279232 -0.04019405323537051 -0.10700031800155622
0.09914951337535559 -0.07607829593774737 0.14846383681939085 0.032044612585585705 0.02181625349915291 -0.13461873767098273 -0.0225611825585484 0.09024750592077511
-0.0606234445511717 -0.0329644061507858 0.04096605714791326 -0.08727394733935008 0.10295766121540738 -0.009554505910775972 0.011982281796381524 0.15694998570968915
-0.09954021808400598 0.19609952563089428 0.10544225544585664 -0.046467639059753846 -0.07289793258986282 0.13932662255340578 0.010543469045993358 0.20291477990830376
-0.146659940987159 -0.028636928090919004 0.008489599249961666 -0.11332428449054532 0.09079791192404876 0.04493899717997989 -0.052659842916315286 -0.02468431443273671
-0.18583741768513237 0.0542273996383007 -0.07203357096680155 -0.05922436294398243 0.22081185663073843 -0.11230578528203199 0.11331423146639139 0.10416051937629653
-0.1267439774381211 0.2718589491146646 0.29217717320436454 -0.21700098279996644 0.1775518785995209 -0.35628329391551494 0.053964415681804635 -0.004208889813077473
-0.1534770896557659 0.1585766487477147 -0.12268076787064608 0.09485701163580099 -0.1768755102159225 -0.051546706940884215 -0.00962806293102811 -0.31038144521945416
-0.045749119107421084 0.21782074835898912 -0.16796165668854157 0.18889816050030311 -0.07075885479269381 -0.10223834220321275 0.023517886255084275 0.1140599587598452
0.059857847254294924 -0.0013634882061608733 0.034392666675850336 0.007889408683609246 -0.0858451093814443 0.007240919788933037 0.058356720177814354 0.13761691671662116
0.06140013410663297 -0.15612683559878107 0.073417350992397 0.037653391475954257 -0.07377671340692019 0.17612459496388172 0.3886378048675524 -0.0658272445802996
-0.16170775242327654 -0.2580671552457742 0.06563926533922652 -0.0037013401321959885 0.08904323797232723 -0.13395649121405034 -0.21231733349327936 -0.10307427914124835
0.17771373649036035 0.12357398432169094 -0.06372112240857596 -0.11398992767238254 -0.11848655714441682 0.15424092075414567 0.02707233828566459 0.2342541829596906
-0.05293363781066659 -0.07413628594894063 -0.027287441915722473 -0.1576530867788233 -0.1147234902981644 0.059160844128409815 -0.017442314298383443 0.08732956478681111
0.11577903083728666 0.08102659433259687 0.1367900605992722 -0.11246690280371319 0.19790995104417408 0.037934698949065385 -0.21746272159115623 0.21512788412306882
00000000: dfc9 675c 4ff6 ccbf 7ae6 4252 c6bf d03f
00000010: a38f 0ebd d8fa 81bf c640 212e 1e79 d0bf
00000020: 6fbf c156 1893 c1bf f1a1 0b1b a0df b5bf
00000030: a534 07a6 1697 af3f 24f3 f941 5dd5 aebf
00000040: bdc9 1153 2846 8dbf 57a5 dacb d25e ba3f
00000050: 50c6 23a7 2dfc 88bf 2d59 e1ab c052 b1bf
00000060: 1aa2 08eb ac24 773f 0cff abcf 04bc babf
00000070: 96b3 3ac6 45a2 a03f 2477 c285 ad16 833f
00000080: 444d 13dd 7062 71bf d878 42df 43d4 b0bf
00000090: 86d8 8e66 be8a bf3f 14e6 af29 15a2 7cbf
000000a0: fa6f 1912 1dda a8bf 329d d341 da57 cebf
000000b0: e4aa 1e73 8089 71bf a91e 6915 67a4 b0bf
000000c0: 6325 02a6 4cb6 b43f 70ee 02ac f2cc 71bf
000000d0: 1585 0073 53c7 d0bf 2c2f d6bf e3f7 9f3f
000000e0: 4a67 4020 37f8 933f 3289 d65e 647c c33f
000000f0: 1c77 97fb 3c72 c0bf db57 aba2 908b c5bf
00000100: b971 7a21 da99 b6bf aa73 1054 7c65 d1bf
00000110: 9b7a 99f9 688e d13f 5ee9 4352 e81d d2bf
00000120: afb5 a909 6dfb b8bf 56b8 58d4 90e7 da3f
00000130: 6604 a439 fc6f c9bf bb4b 4fa3 4d7a cc3f
00000140: 7b1b cbcb ff17 a9bf faf7 a341 1d18 6fbf
00000150: 314d 2397 dbdf b43f 7778 5434 5988 adbf
00000160: e6ac 5a1b ad3b b2bf f09b bbb4 ff7b 683f
00000170: dbf7 41a6 1bb7 b5bf f129 2787 73ed c0bf
00000180: c7bd 24f8 4b68 bbbf 61f0 4c16 1266 a8bf
00000190: 4fad 0e3a a1cf b13f 169e b079 1fa1 a9bf
000001a0: 32cd e45e 469c c83f acf2 d739 0180 abbf
000001b0: bb07 f1c9 cd9c babf f7b8 3033 cfa4 693f
000001c0: 2781 5089 55e1 c0bf 6ce9 4c42 fd16 d03f
000001d0: 9d44 4591 e517 a3bf d0ff 6490 7b19 933f
000001e0: f720 452f 6f7c 923f 08f0 075d 8f3a b2bf
000001f0: dbb9 f2bc 9f98 9bbf b196 167f 43f4 b0bf
00000200: 023f 444d 2a40 cdbf 2d46 e67f 3740 c3bf
00000210: f1ca e9f7 c569 9b3f f9bd a0cb 1b29 d93f
00000220: 51f8 22af abfd d0bf e0d5 a74b 8f3a c83f
00000230: 461f 36bf 4c39 a9bf 813b b204 64bb d1bf
00000240: 663f 14fa 40d8 b6bf 07d0 c27c cb06 d0bf
00000250: 6efd d4ba cb78 d03f 31a0 499e f769 983f
00000260: dcd0 87c2 febe b4bf 2191 c935 ab75 a33f
00000270: d353 ccb5 5d3d cb3f b4b1 5618 7400 d23f
00000280: 9f19 1eeb a9f1 c33f 08cd 7b74 b70d cfbf
00000290: c423 621f cedd d1bf 7929 7bcf 8098 ba3f
000002a0: 9f8c 7d36 cec7 aebf c312 a66a 539e b83f
000002b0: adcf 15f8 1bf1 a5bf 0859 0fae 84e7 cc3f
000002c0: 7b45 5147 46d2 b03f e18e 1069 a749 a03f
000002d0: 7859 4fd9 22a0 c53f 31b0 4746 6ef4 acbf
000002e0: 0dda 6a44 b365 ab3f 2269 22e1 af4a b4bf
000002f0: a086 f472 7f4c 743f 5bfc 6b4b 42c5 b83f
00000300: c58e aa2e 3333 b5bf c52b f609 9893 aebf
00000310: b775 9511 993e b53f 317f f2d0 eb05 a03f
00000320: 340f e325 c507 c63f 2d67 4b96 d75c b33f
00000330: 09ea d7c0 9e54 b53f e123 835a 0a3f b53f
00000340: 1ef6 cfdd bb4b 983f 6e9a 9953 f253 bbbf
00000350: 5dc7 f468 9f33 c2bf 848c a11a 4db3 9fbf
00000360: 63e8 96cb ed9f cdbf acee 796c 8fe7 a73f
00000370: e971 67b4 186b 953f 73cc 8f2f a919 863f
00000380: 7218 bec7 466f b5bf d88e 3472 6c62 9fbf
00000390: 8baa 23f6 e112 c83f fac8 36f2 d0d5 b03f
000003a0: 9091 650c 6e13 d03f da11 065f d739 a8bf
000003b0: 10ad 109b 0a3b 91bf 066c dbad cf53 cc3f
000003c0: f9c3 9f5c 4296 9fbf cb66 ec44 1d0b a33f
000003d0: d436 185c 060f b8bf b1ed fb2e 760a 97bf
000003e0: 4f18 d07f 39a0 bbbf bc3c 9ffc 4623 bbbf
000003f0: 4ad4 d028 da71 a9bf bef8 e280 655a 413f
00000400: e1eb 7e6d eb6c b2bf dd5f cbc7 2221 8b3f
00000410: 6296 a9d2 1269 da3f 432e 1b12 37c1 b0bf
00000420: 6c7c 1532 6d52 afbf 7e90 386c ebc6 aebf
00000430: 00d3 bf8d 404d 9bbf 0250 7e50 2e44 c0bf
00000440: a024 7335 e772 8bbf 00e6 2a01 8bf0 aebf
00000450: f1fb ab93 6e3e bebf 680d 99bb bde1 933f
00000460: 7042 9581 7440 973f baab 7440 11c0 89bf
00000470: 9079 47a0 5094 a4bf d370 7a72 5f64 bbbf
00000480: 1789 5ccd dc61 b93f d6ef fc00 de79 b3bf
00000490: 5694 e3ed dc00 c33f 76db 22c6 2668 a03f
000004a0: 554f 33fd ff56 963f e3e2 dcd1 2f3b c1bf
000004b0: 1401 fe54 471a 97bf f7ac 79e6 751a b73f
000004c0: 99b1 6f3f 090a afbf 140a b3ec b5e0 a0bf
000004d0: 9388 64c7 80f9 a43f 9586 9ddd 9557 b6bf
000004e0: 67f6 caeb 6e5b ba3f ef6b 5413 5091 83bf
000004f0: 0e48 93a3 2a8a 883f 468a dde7 ef16 c43f
00000500: 34b9 4ebd 777b b9bf 5443 ac0c ca19 c93f
00000510: 8aa5 c17e 43fe ba3f c4fe 2a3c 9bca a7bf
00000520: 9c62 6b5c 70a9 b2bf 201d aa6b 74d5 c13f
00000530: 0654 e975 d097 853f d864 ca8b 1cf9 c93f
00000540: 6229 16c1 c0c5 c2bf a100 6fb6 ff52 9dbf
00000550: 1aee 13b9 fe62 813f 00c0 baff d102 bdbf
00000560: d245 422e 883e b73f 27f6 6786 3e02 a73f
00000570: 4cb1 461e 3bf6 aabf 4de4 d94c d846 99bf
00000580: 8b55 aa3f 85c9 c7bf 40bc fc97 b1c3 ab3f
00000590: da39 84c7 ca70 b2bf c911 f1db a752 aebf
000005a0: e826 661b 9043 cc3f e31b f06a 12c0 bcbf
000005b0: 66cc 5156 2902 bd3f e66c 4188 43aa ba3f
000005c0: 86e5 078b 2539 c0bf 69a2 e413 2366 d13f
000005d0: f43a e3e2 07b3 d23f 02b1 292e b0c6 cbbf
000005e0: afd2 f61b 05ba c63f 589c de71 58cd d6bf
000005f0: 3d90 0051 39a1 ab3f 2f1b 9841 573d 71bf
00000600: fcdd 6024 23a5 c3bf 70ee 2358 3d4c c43f
00000610: 8043 dabd 0168 bfbf 82a5 c592 8c48 b83f
00000620: 179c eb51 dba3 c6bf ca20 0e79 5464 aabf
00000630: f1fe 4cbb e0b7 83bf 672d 2023 4add d3bf
00000640: c13c c6b4 6d6c a7bf 10ca 4bdf 8ce1 cb3f
00000650: 38c9 3a7f c47f c5bf 4aca cf9e d02d c83f
00000660: 2eae 3c97 401d b2bf 63f9 28c0 4a2c babf
00000670: d0b6 58a1 1215 983f d019 a890 0833 bd3f
00000680: 5679 bb10 b0a5 ae3f b398 4050 e256 56bf
00000690: a8a4 3065 ea9b a13f 143e 3f82 5228 803f
000006a0: c099 50f1 f1f9 b5bf 7a9a fb9a a7a8 7d3f
000006b0: 21c1 5499 eee0 ad3f 9d4d 565e 6e9d c13f
000006c0: 577f ea9f d66f af3f a95d 76d2 f6fb c3bf
000006d0: 01a7 78c1 7acb b23f e006 f229 4e47 a33f
000006e0: 9a01 4adb 07e3 b2bf 2a10 b22f 408b c63f
000006f0: b24d 7919 71df d83f 7c7e a8e6 0dda b0bf
00000700: 2575 15f2 d6b2 c4bf 63f3 fc19 2c84 d0bf
00000710: 5b27 f721 bccd b03f a282 36da 4552 6ebf
00000720: 3566 05a3 89cb b63f 02f6 6c7e 7c25 c1bf
00000730: b220 dde1 362d cbbf 896e f871 1363 babf
00000740: eb55 23df 52bf c63f ed4e 4c6d 8ba2 bf3f
00000750: c72a cf08 0750 b0bf 3d21 6da3 712e bdbf
00000760: 896e f38f 2255 bebf a507 2c9f 2abe c33f
00000770: c4b1 40de d9b8 9b3f 55ac 6183 0afc cd3f
00000780: 5b9f 8226 1e1a abbf 99fc 987b 98fa b2bf
00000790: 7265 7a3a 3df1 9bbf 290c eaf1 f92d c4bf
000007a0: fee0 e9c6 845e bdbf ce75 7885 544a ae3f
000007b0: b095 e9e5 65dc 91bf 62b7 bbf8 3a5b b63f
000007c0: 963b 02cf b1a3 bd3f 7ac7 c3ac 28be b43f
000007d0: af8a 5832 5682 c13f c8a2 6c85 a1ca bcbf
000007e0: fcd2 a4ff 1c55 c93f da5b bd46 2d6c a33f
000007f0: 49a5 aa86 d1d5 cbbf c014 627d 4f89 cb3f

bias_hidden f8 [1, 128]
0.04836694574548021 0.0055315371117758555 0.01306494911679994 0.06674615301866543 0.011513239372771558 0.00927718662422504 0.0338565129169511 -0.013329971828577803
0.0023832015729368687 -0.008687768395346417 0.005695657547371263 0.01347048457724227 -0.0020196726180320337 -0.020371572314219957 -0.0062340944472836475 0.009491792256066797
0.06046209323253991 -0.0003824095666740356 0.008299505698072633 0.022635782680427194 0.013068359895035884 0.010022060556843836 -0.0006858142803672189 -0.009562840050883504
0.0014408534837793698 0.0033442728988831096 0.010523057308511769 -0.013875518678763953 -0.00031956313843844135 -0.009687983644816446 0.05157665293828819 0.046360869359827736
-0.006690268825635037 0.013382762600713256 0.04294701089705986 0.010161422860585877 -0.004042570070510334 0.0053877798294591685 0.044491453130292694 0.005270455584546698
0.05929266496283402 0.01754935668648376 -0.002559831119221665 0.030106338135608042 -0.023017755412817274 -0.042825727298787204 0.008669151681373269 0.02474789903071944
0.02204189788072191 0.03902326992348869 -0.013788261277842166 -0.00017284853883040073 0.04500868716706005 0.008117363554915897 -0.008916905160453546 0.02839084427186944
0.00914783002500274 -0.021049224072436083 0.0017870305464732215 -0.0012820473495135385 -0.00028391542168846305 0.004645462932234891 0.022561389802277433 0.03415430200458816
0.03564794130684212 0.03679435040257592 -0.03029501115908772 0.022403619235519628 0.03892967235579674 -0.008897613874524679 0.017211405735049593 -0.013059440464984858
0.005049610287112741 0.02702969321223082 0.012177883952163624 0.017342973938178553 -0.002739702031681857 0.01642878475474327 0.0184808806344967 0.01283308614405279
-0.004580421232144746 0.018585853693896284 -0.005402696485621408 0.02279050532898763 -0.047747925407785496 0.0033032534155992546 0.04282751145654038 0.0037849873316585752
0.05392009433405944 0.01676278261545126 -0.003081293937598274 0.05738706016457634 0.010922207818962415 -0.02276494401961597 0.013330444822806287 -0.0031185153907332744
0.02110569083774429 -0.03237815998153497 0.008913906128115778 0.02036141708920069 0.01811543492434873 0.006648757758514678 0.02178495963975006 0.007554818380216327
0.03422158549340087 0.008925029450189166 -0.02079368303082639 0.04457724423340954 0.006153865640348215 0.021868032807726975 0.01930231948332662 -0.025335807497396917
0.00997900584021653 -0.02565549633519525 -0.016585959593563227 -0.04658360411247092 0.02295402293024895 0.016517575809724176 0.033985383071015965 -0.012237088201779114
0.015237412114507874 0.035349469987716785 0.0354959675451795 0.040532206443286076 -0.015394081632622035 -0.003825304534474167 0.01144107526549157 0.012575714259939974
00000000: 3555 5e64 8dc3 a83f d0f3 ddaf 3ca8 763f
00000010: 5ac9 71c9 cbc1 8a3f bc56 59a0 4616 b13f
00000020: a8d8 9dd4 4094 873f 3811 33e9 eaff 823f
00000030: ab45 780f a455 a13f 1a95 7b88 be4c 8bbf
00000040: 86e6 189a ef85 633f a6dd 1089 e4ca 81bf
00000050: 2ca3 526e 5454 773f 26a4 c3d5 6996 8b3f
00000060: ec76 fa7a 8f8b 60bf 0742 6e13 49dc 94bf
00000070: 1d13 57fc eb88 79bf 4bd6 8fca 6e70 833f
00000080: 5eb5 2932 e3f4 ae3f 9881 2195 c40f 39bf
00000090: 9c97 5ecc 54ff 803f dcc2 53a9 d52d 973f
000000a0: 926d e492 95c3 8a3f 3933 a432 7286 843f
000000b0: 6019 e1f3 0679 46bf 4d11 34aa ae95 83bf
000000c0: 0191 d5a5 609b 573f 71e6 58d7 7265 6b3f
000000d0: fdb1 f3d7 1c8d 853f d9ca 8597 c46a 8cbf
000000e0: 5f8b 853a 61f1 34bf 676f 5927 4bd7 83bf
000000f0: 83d4 364b 4168 aa3f 8ede 6da3 9cbc a73f
00000100: 66ba eb5c 4167 7bbf 0400 9afd 6b68 8b3f
00000110: 6d14 878e 26fd a53f 4cb4 ef16 83cf 843f
00000120: 7601 ea23 f18e 70bf 9632 a622 7f11 763f
00000130: c2d0 4a70 95c7 a63f 422d ee25 7996 753f
00000140: dfec d0b1 9b5b ae3f 0c1c 2364 75f8 913f
00000150: 2e44 17de 5af8 64bf a26d c726 32d4 9e3f
00000160: 46c9 e66a f791 97bf 11f6 59f4 40ed a5bf
00000170: 7bfd a4d7 21c1 813f af35 ed63 8357 993f
00000180: 6e6b 28ba 2692 963f 3e6f 35a8 dbfa a33f
00000190: 8268 0e1a 053d 8cbf 1484 93a4 d5a7 26bf
000001a0: dc3a d6ee 600b a73f 0a1f fc17 d69f 803f
000001b0: 528e 5dc0 0643 82bf 3f31 9d4e 7d12 9d3f
000001c0: 7d45 4bf6 18bc 823f 4e39 fd83 ed8d 95bf
000001d0: fa71 4270 5947 5d3f 0492 09dc 4b01 55bf
000001e0: 648e 7373 4f9b 32bf 8250 e6f5 1e07 733f
000001f0: 4a90 693d 551a 973f 543c 4134 ac7c a13f
00000200: 6f4c 2a6c 7240 a23f 8c31 5087 b5d6 a23f
00000210: 1e15 a4c8 a705 9fbf 2be1 b66f f9f0 963f
00000220: b66a 390b 97ee a33f f301 d484 e938 82bf
00000230: f13a 00e3 dd9f 913f 7efe 9b6d e8be 8abf
00000240: 2aaf a670 e6ae 743f 6343 7801 acad 9b3f
00000250: 9fe2 78ea b7f0 883f 4af9 8447 5bc2 913f
00000260: 3439 0f54 9271 66bf f846 f014 b5d2 903f
00000270: 7dad b4e7 a6ec 923f cf18 5daa 3b48 8a3f
00000280: fcae 4d76 ebc2 72bf 7754 2287 2b08 933f
00000290: 7690 744b 2321 76bf 8073 30ec 6456 973f
000002a0: 2015 2884 6a72 a8bf 3e26 7eac 6c0f 6b3f
000002b0: 1d5a 26d2 7ced a53f 3797 c499 b101 6f3f
000002c0: 8327 8623 6a9b ab3f bb47 7e4c 432a 913f
000002d0: 1c85 1f16 f13d 69bf 48aa 3d35 d661 ad3f
000002e0: 207b 0feb 615e 863f 2cf3 3c88 b14f 97bf
000002f0: add0 7004 fe4c 8b3f 104f b033 008c 69bf
00000300: 8561 a1ef ba9c 953f e660 73c4 de93 a0bf
00000310: e622 663a 7441 823f df4a fe91 9fd9 943f
00000320: da29 3642 da8c 923f 660b 1c52 ba3b 7b3f
00000330: eb24 cae4 cb4e 963f 068a ec1d cdf1 7e3f
00000340: 77d9 05dd 7d85 a13f 51cf d52c 4947 823f
00000350: 7cba 5272 f04a 95bf 59b0 411c d4d2 a63f
00000360: 5258 b5ba cb34 793f 3fbb f2d6 9264 963f
00000370: 02dc abbb fcc3 933f d8ed 7942 a1f1 99bf
00000380: 95b3 d77d df6f 843f 9da5 e336 6f45 9abf
00000390: 5dc8 1be8 e8fb 90bf 58c0 6260 ced9 a7bf
000003a0: bf2e 3067 4281 973f 6eda a5bf fbe9 903f
000003b0: e201 aa39 8866 a13f 28d0 ff2c c20f 89bf
000003c0: 2cee a8d5 ca34 8f3f 3b6d 0e63 5319 a23f
000003d0: 342b 7e07 872c a23f e69e 372a a3c0 a43f
000003e0: cc01 50a9 ee86 8fbf 0e09 eebb 3e56 6fbf
000003f0: d158 c520 6b6e 873f c023 c3cb 4bc1 893f

bias_output f8 [1, 10]
-0.17114114736536443 0.12902660482267617 -0.05014599138930788 -0.020178664221206278 0.08577288024620822 0.13151215404315944 0.009917659918043432 0.005428484721371449
-0.10717420324090127 -0.013017777534683727
00000000: 7392 77ff f3e7 c5bf e57e 039c f183 c03f
00000010: 62cc 1542 bcac a9bf bdd0 a03b b7a9 94bf
00000020: 588b 8a23 36f5 b53f 4129 52e8 63d5 c03f
00000030: dabb 01c8 b54f 843f e3a2 85c5 2d3c 763f
00000040: ccff e4c1 c46f bbbf d37c 3986 10a9 8abf
