models/model_cv_digs (8000).npz (npz, 815236 bytes, 4 tensors)

weights_input_hidden f8 [784, 128]
000000 0c 40 68 07 f9 b1 b1 bf 04 d2 9c 17 df e8 a9 bf
       -0.06912189894524107 -0.05060479319800851
000010 1c 0e 36 66 d1 ec b8 3f 38 ee db 70 b1 8f 95 bf
       0.09736355538739655 -0.021055958283780124
000020 47 17 dc e4 20 a4 ad 3f 6a dc 2a cd ef 89 87 3f
       0.05789282602022055 0.011493562172615952
000030 2a 22 cb 5b 29 00 99 bf c6 f7 16 71 3e 66 ad bf
       -0.02441467879069329 -0.05742068415155148
000040 0f 5d a4 d7 f4 20 af bf cc 35 c2 f1 3d e1 b2 bf
       -0.06079831249570066 -0.07374941971121202
000050 06 95 fc 77 42 79 54 3f 25 80 75 45 fd 03 b1 3f
       0.0012496136768700996 0.06646712251449623
000060 c2 ec f9 19 9a f7 aa bf f4 14 d1 14 4c 80 7a bf
       -0.05267030303090216 -0.006470009987485915
000070 68 12 f3 a7 8f a3 a9 bf 2d 5b 95 a9 33 b7 b3 3f
       -0.05007599759259024 0.07701418771953845
000080 cc b3 5b d0 c0 7c 82 bf b1 f1 ab 8f a0 b7 7d 3f
       -0.009027010305965442 0.007255198662047866
000090 63 db 86 0c c8 3a 97 bf d9 d5 e6 43 53 08 9e bf
       -0.022685170902799878 -0.02932863332690325
0000a0 83 45 d1 a4 68 e6 8b 3f 5a 6c 04 0e 4c a4 9d bf
       0.013623063592748568 -0.028947056155726215
0000b0 af 82 42 35 84 a2 ac 3f 76 43 ff 25 40 9e 74 bf
       0.0559274020208752 -0.005033732013502204
0000c0 30 41 4e 77 47 73 98 bf 65 97 6a 84 ce a0 9b bf
       -0.02387725511249633 -0.026980616409353248
0000d0 33 79 f2 0c 80 c2 56 3f 74 34 ce 58 e2 b0 b2 bf
       0.0013891458982367543 -0.07301153820135814
0000e0 6b a0 1d 65 17 a7 97 bf 73 43 8a 13 17 7d 57 bf
       -0.023098340555776902 -0.001433632407643351
0000f0 62 4c 72 eb aa 61 a3 3f f7 88 cd 4a 49 b8 9a bf
       0.03785452007391467 -0.02609362143574231
000100 c5 e8 68 62 d0 54 6d bf c3 e5 07 63 a1 f7 b9 3f
       -0.003580481530005649 0.1014347903036628
000110 88 59 66 08 ab 14 8f 3f 4a 3f 52 07 e5 9e 6a bf
       0.015176140016404785 -0.0032495949950045776
000120 c9 a7 43 1e 85 0a b0 bf 2d 37 0a 84 88 aa a5 bf
       -0.06266052235483167 -0.04231669055762519
000130 a8 00 dd d5 b5 c5 90 3f 8e 10 74 77 28 1e a8 3f
       0.01637920491998615 0.047105087835036405
000140 d4 84 33 43 88 c3 9a bf 83 cb 33 b2 0a d8 b0 bf
       -0.026136521436346552 -0.06579653597490957
000150 db 50 6b 22 52 4c 8e bf 73 0c 36 57 14 7a a7 3f
       -0.014794007945433332 0.045853267331971724
000160 2d 70 7d 36 f4 55 a7 3f 69 cc 39 10 d9 7c b0 3f
       0.04557765164528891 0.06440502782952397
000170 30 ab 2c 11 da 7c 6b bf 9a 1d 5b 4c 18 96 9c 3f
       -0.00335543242672056 0.027916316662211928
000180 d1 be 3e e5 da d5 71 3f 4f f1 6a 7f e9 e5 a0 bf
       0.004354338703634845 -0.033004090122150324
000190 36 fe 44 c7 eb 13 c0 3f fa e8 c1 a7 99 c1 9f 3f
       0.12560794095951316 0.0310119637146977
0001a0 d7 28 2c ad ab 45 b1 bf f8 ae 27 b0 9b ea 9e bf
       -0.0674693391594333 -0.030191834093712594
0001b0 e5 30 e7 57 01 ca 93 3f e6 93 28 5b 3e 4e 8a bf
       0.01932527636545069 -0.01284455028241811
0001c0 6d 80 91 e1 02 57 b0 bf 77 d8 6e c1 3b 3b aa bf
       -0.06382768637695486 -0.051233165132928464
0001d0 6f dc b7 ad a5 82 51 bf e0 75 a1 60 b4 3c b5 bf
       -0.0010687463717411712 -0.08295752867839878
0001e0 72 e6 57 89 8d 22 a5 bf 32 dd d3 65 49 9c 76 3f
       -0.04127924253039063 0.005520140371337677
0001f0 9a ae 39 a8 29 b3 89 bf 1d 05 e3 8a 38 a2 a7 bf
       -0.012548757025079117 -0.046159522012667355
000200 55 52 be bf cb 94 92 bf 4b a2 7c ed 37 63 a1 3f
       -0.01814573629197221 0.03396010183343331
000210 46 72 48 84 b5 06 b4 3f 67 24 dd 3e 5e 0f 90 bf
       0.07822737197461391 -0.015683624827293487
000220 26 7d 3a 3c 7c d6 a1 bf f9 d1 46 fc 28 8e 74 bf
       -0.03483951792918054 -0.005018386935649926
000230 be de 16 ee 30 82 b7 bf 0d 9e 37 0b 3f 2c a0 bf
       -0.09183030903556763 -0.031587572211545824
000240 63 13 a6 f6 6b 09 90 3f 53 aa f8 0d 34 d5 b3 bf
       0.0156609410564842 -0.07747197476479899
000250 b7 26 a8 56 65 45 a1 bf e6 91 2c b1 b0 27 aa 3f
       -0.03373257334540141 0.051084062221239
000260 af 55 fa cb 2d 79 b8 bf ad 8b f2 e1 9a a3 a8 3f
       -0.09559904317787614 0.04812320716998584
000270 cd 31 f9 9c 6d 99 b1 3f b2 3d d6 d9 c5 50 6b 3f
       0.06874737818106454 0.003334413936222546
000280 9e 60 d0 06 39 7f b8 3f 03 76 dd 34 76 d9 bb bf
       0.09569126526219171 -0.10878695288325706
000290 6e f1 24 b9 a8 0f a6 bf f5 12 86 81 70 98 8e bf
       -0.04308821926176419 -0.01493919272685094
0002a0 72 72 3d 79 e9 2d a0 bf 8f 41 90 6e 85 5f b5 bf
       -0.03160028080921941 -0.08348878812126358
0002b0 ad 4f 81 61 18 66 74 3f 10 e4 ea d5 7a 40 65 3f
       0.00498017810612687 0.002594222939788178
0002c0 58 97 37 ff 24 4f 92 bf 63 ef b9 4d 2f 4d 9b bf
       -0.01788003738138086 -0.026661624068295874
0002d0 cc 9c 1d d9 11 04 7d 3f 87 66 d6 d5 1c b1 a3 3f
       0.0070839593116495785 0.03846063719101971
0002e0 01 c2 0b 09 23 c5 b0 bf 8c 7e 68 47 f9 62 a4 3f
       -0.06550806971404911 0.0398176097553434
0002f0 c8 c6 15 b1 d6 d4 97 bf 8d 3c 03 07 d8 b6 85 bf
       -0.023272852476515365 -0.010602653230675574
000300 44 54 b2 fd 63 56 be 3f f5 92 9e 99 b2 8d b4 3f
       0.11850571578755004 0.08028713465189326
000310 a4 4d 15 a6 42 47 af 3f cd 38 3d 09 c0 30 a4 3f
       0.06109054829962737 0.03943443405897682
000320 22 85 93 2b 7a 8d 9b 3f 62 6b 62 f2 e7 5b a7 bf
       0.02690688029259037 -0.04562306245607918
000330 51 76 f1 25 00 4c 94 bf 17 b7 00 79 e2 39 74 bf
       -0.019821169200773096 -0.004938015612465005
000340 29 d9 25 9e 20 40 8d bf 5e c0 dd ed e7 f2 ac 3f
       -0.014282469583787165 0.05654072550430621
000350 42 ad c8 fe 4d cc 81 bf 9e 98 61 15 03 fa 74 3f
       -0.008690461480986959 0.005121242566110377
000360 af 7b c7 7f cf bc a2 3f 1b ca e2 4b cb ef 8e 3f
       0.036596760128069554 0.015105808499673625
000370 43 e6 76 3f 2e db b1 3f bd 05 db 27 63 8f bc 3f
       0.06975068139481615 0.11156291697536509
000380 dc aa 43 74 3c c3 79 bf 05 2f d8 61 87 5f a2 bf
       -0.00628970732598574 -0.03588507718458626
000390 ea 29 8c d7 26 23 b9 bf 40 2f e9 42 f2 e6 ab bf
       -0.09819262277975552 -0.05449635569365663
0003a0 28 4c 68 a6 49 94 83 bf b9 40 a3 67 d0 70 8b 3f
       -0.009560180083132933 0.013398769533893394
0003b0 88 ad b3 5c 34 d4 9c bf ca d6 c3 a1 c3 38 92 3f
       -0.0281532460766534 0.017794663189269845
0003c0 f3 d3 46 3e f1 72 9d 3f 1b 7f ff 78 42 83 7e bf
       0.02875878279310835 -0.0074493977153620395
0003d0 0b 17 18 f5 af 4d a3 3f d4 5e c4 c1 8e 60 7d 3f
       0.03770208231803281 0.007172162670279387
0003e0 14 db 8a 9b 77 c0 b4 bf cc df 63 d7 aa 2e 9c bf
       -0.08106181666776663 -0.027521771808977566
0003f0 ee 3f 28 3c 51 66 93 3f 24 6f 41 bd a3 b5 69 3f
       0.018944997116761834 0.0031383703263098296
000400 77 8e ec 0d 54 1f a9 bf 93 60 e0 ba 04 5a 9d bf
       -0.04906714124652194 -0.028663705736193434
000410 42 8c cb 6f f7 ef b1 bf 34 6f 13 26 9f a1 b2 3f
       -0.07006784896252419 0.07277865104282172
000420 78 e5 21 37 0e f8 b3 bf d3 61 72 52 74 15 91 bf
       -0.07800377698904082 -0.01668340447631229
000430 ff 84 f1 3e 8d 77 bc bf f0 c8 fb 89 0d 82 b0 3f
       -0.11119921480851146 0.0644844495653023
000440 bd b6 9d 63 09 d6 a1 3f a7 e5 64 ed 7f 35 ad bf
       0.03483609524742579 -0.05704879544141344
000450 83 5b 41 99 80 c6 a5 bf 50 3c 67 f2 cc cb ad bf
       -0.0425300776557185 -0.058195499983064836
000460 7f 2f 45 dd 15 2a 9c 3f 11 20 c5 fe eb c7 56 bf
       0.02750429308916535 -0.001390438522394181
000470 43 95 f6 37 93 19 ae bf 82 90 57 4b 24 fd a2 3f
       -0.05878887231964793 0.03708756847098106
000480 10 ec da f9 3b 33 b5 bf a4 9e 2f 51 aa f6 a8 bf
       -0.08281302309016803 -0.048756906900789404
000490 f3 2d b9 be 38 ed 8e bf 1e ea e1 1a dd 15 90 3f
       -0.015100901909270248 0.015708403363968164
0004a0 ec 67 b0 0d e4 a7 b9 bf 2e 7b 9a 99 da 3c b6 bf
       -0.10021806081968493 -0.08686605691989932
0004b0 c3 03 5b 98 be a6 64 bf 3e a2 c2 48 6b 5d bd bf
       -0.002520916229372423 -0.11470671202062818
0004c0 1e 27 75 ff f3 91 8e bf 11 fb 4c e1 01 ae b2 bf
       -0.014926820977638363 -0.07296764135842816
0004d0 5f e3 10 c7 8f 44 bc bf 52 c9 04 93 71 b8 6e 3f
       -0.11042116746911067 0.0037500589607130453
0004e0 bb dc 70 ce da 4f a3 3f bc cc f7 c9 3b f0 a0 3f
       0.03771861810712936 0.03308283653668684
0004f0 75 bf 20 4e 4b 28 b9 bf d1 35 28 d9 28 c3 9a 3f
       -0.09827109010143238 0.026135099653449793
000500 08 dd 1c 21 50 4e a1 bf 54 45 72 0d 72 d5 a0 bf
       -0.03380060581405969 -0.03287846006527198
000510 da c5 0d 4d b9 47 b6 bf a7 02 87 b5 d1 f8 a5 bf
       -0.08703191882320685 -0.04291396466169788
000520 b2 77 92 80 f5 10 b3 3f 5f 55 45 bb 6b a1 8f 3f
       0.07447752369850383 0.015444604542305283
000530 c7 10 8b a9 e4 2b ad 3f ec 50 68 14 de a9 53 3f
       0.05697550363177722 0.0012001675364717258
000540 07 b6 a1 fe 2c 9e 9d bf 10 14 d0 19 ce 50 ac 3f
       -0.028923705140575986 0.055303993845918
000550 dc 85 85 01 7e a8 b8 bf 07 b9 4e 8b 37 53 b5 bf
       -0.0963209871020107 -0.08330104018270755
000560 54 a0 d3 2a 4a bb a7 3f d6 76 f8 01 72 ce 98 bf
       0.04635078213488045 -0.02422502648379673
000570 bb 77 eb 63 ae f9 ac 3f a3 4e 0a 26 3a a6 9e bf
       0.05659241647457188 -0.029930981227677688
000580 a6 ba f0 54 07 4f 90 bf cc 95 d1 31 df 5b a6 bf
       -0.015926470336291708 -0.043669676619895265
000590 db 80 60 f8 82 c9 a1 3f 1f 01 34 35 57 82 a2 bf
       0.0347405365175761 -0.03615067028477114
0005a0 56 1b e4 7d 73 37 73 3f 35 87 70 44 02 7e b2 3f
       0.00469155420274244 0.07223524256599208
0005b0 87 ca 35 46 62 7b a0 bf bc 31 f5 80 31 d9 9c 3f
       -0.03219134432847164 0.028172276969870444
0005c0 59 84 ec d2 5b 87 ae 3f 66 de c8 b1 dd 54 a3 3f
       0.059626454827829085 0.03775685115072917
0005d0 38 67 f4 91 0c bb 8c bf ae a5 d2 b5 5f 74 70 3f
       -0.014028642849143944 0.0040172327691520415
0005e0 f5 d5 1b 8b 29 69 7d 3f e3 44 7b bb bc f0 a2 3f
       0.00718036868942339 0.03699292934983036
0005f0 cd 78 b0 9e e0 e4 67 3f 02 2a 7b 20 73 cd c1 bf
       0.0029167544467006757 -0.1390823277091187
000600 f2 9a 41 fc 57 4e 6e bf 6c 0f 5c 08 1c 84 9e 3f
       -0.003699466558873759 0.02980083275816929
000610 63 32 c1 5c 82 89 9b 3f 8a be 1e 9d 3d 1b ad bf
       0.0268917435753785 -0.05684845488519581
000620 a1 1e d6 3a 2d cd 76 bf 72 c2 ab f8 b5 b4 86 3f
       -0.005566765479109088 0.011086866046271047
000630 fc e1 11 29 9b 27 92 3f 34 a5 7b 28 8b ef 92 3f
       0.017729210263924586 0.01849191126431045
000640 56 31 06 aa 4d 47 91 3f be 2b 06 39 e8 04 ad bf
       0.016873563291981718 -0.056678063355398475
000650 d9 b0 80 d3 f5 8d 8d 3f 7a e2 a1 0c e1 65 a1 bf
       0.014430923955011487 -0.03398040084079397
000660 bc b1 ad e8 c5 a0 87 bf 56 61 b4 2c a7 c1 85 3f
       -0.011537119067463013 0.010623270084167896
000670 a3 7b 1c 92 18 a2 b1 3f 1f a8 f4 58 3e 20 a6 3f
       0.06887963835877868 0.043214748724793355
000680 06 84 4f ea bf 1b ad bf b7 02 7a bc 10 4a 9b bf
       -0.05685233817326467 -0.026649724487017603
000690 17 ea 42 1f 55 03 98 bf 93 9c ad 98 5b 58 9e bf
       -0.023450212510150416 -0.02963393325208281
0006a0 e7 19 1f 85 38 bb 6f 3f 09 40 79 dd 1f be ac bf
       0.0038734535127986527 -0.05613803461585582
0006b0 e4 b1 12 e9 f0 50 9a bf f7 15 28 0d 54 68 96 bf
       -0.02569939062657224 -0.02188235597897933
0006c0 c3 c3 d8 af dc 07 ae bf 18 34 d7 18 57 ff 92 3f
       -0.05865373274389853 0.01855217064967371
0006d0 5a a5 83 bf da 5e 86 3f 2f ba cc d3 3f 17 b7 bf
       0.010923108071852528 -0.09019850655452254
0006e0 72 23 e3 4c 8f 27 a6 3f 68 39 e0 b4 31 bb 60 bf
       0.04327056706967526 -0.0020423861342415035
0006f0 ad 12 7b f2 fc 6d 97 3f 4b 3e 66 c9 db 7f bb 3f
       0.022880508708811465 0.10741971652009245
000700 d3 88 45 a7 2c 4a 95 3f ed ed 72 37 93 d1 b1 bf
       0.02079076548523846 -0.06960411170705756
000710 a0 e2 e5 20 d1 60 9d 3f dd 78 75 8a 9d 0d 8d 3f
       0.02868963969510452 0.014186125553063917
000720 ab 76 98 45 04 79 af bf c0 00 ce 7c 75 15 a4 bf
       -0.0614701590495604 -0.0392262186860548
000730 c4 7e 2a ef b6 db 8d 3f 19 d0 64 04 1a c5 b3 bf
       0.0145792285669012 -0.07722628218908802
000740 f8 ad 9d e6 d7 46 9c bf 01 42 9f d5 85 cd aa bf
       -0.02761399598186462 -0.05234926445666944
000750 26 cb 65 82 83 50 9b bf bc 7c 0c d3 ec 1b 9e bf
       -0.026674322923507486 -0.029403400784869346
000760 77 cc e0 e5 03 ed 74 3f ae 00 fd ae 13 c6 af bf
       0.00510884783402609 -0.06205808173263115
000770 89 3b 0b 36 ca 8e 96 3f f3 d0 3b f4 28 41 94 3f
       0.022029075192047585 0.019779815584983273
000780 a5 14 7d 30 f9 55 b6 3f 4a 0e 60 00 ca 77 c3 bf
       0.08724934991649265 -0.15209317224808877
000790 c6 b1 d9 9c 65 e5 a5 3f bb d2 08 64 bf 69 ab bf
       0.042765784642003576 -0.053541165314901794
0007a0 78 68 d5 9e df 51 aa 3f 41 b4 75 d2 6c 14 ba 3f
       0.051405895365591314 0.10187416208437218
0007b0 02 ad b9 36 19 c0 ba bf f9 29 08 41 8e 7a b8 3f
       -0.10449369035784531 0.09562005126660002
0007c0 c8 c3 49 82 53 61 aa bf b4 7d 4b c2 53 6b 95 bf
       -0.0515237900298256 -0.020917233213251854
0007d0 e5 5c 3f 35 c0 2d a0 bf 37 35 43 b3 6b 8b aa bf
       -0.03159905099863084 -0.05184494555724444
0007e0 44 e5 fd 18 d4 54 c1 bf 52 97 cd b0 ea 98 b1 bf
       -0.135401260569589 -0.06873957458955474
0007f0 9c ba 6e d0 a4 3a 9e 3f 0b 8c b1 56 0c cb 6f 3f
       0.029520583364212358 0.0038810006131355704

weights_hidden_output f8 [128, 10]
000000 b1 41 88 9b 2c c9 d0 bf 82 7d 86 1f 42 b0 79 3f
       -0.2622787016744282 0.006271608632601457
000010 da 11 95 9c 2f 07 8d 3f d4 8e 6a 93 71 23 bb 3f
       0.01417386242486256 0.1060095772650656
000020 d3 22 36 f1 f7 b4 89 bf 4d 34 2b 4e 42 7b b0 3f
       -0.012552201317491385 0.06438078316132696
000030 9d 12 d3 78 e6 e8 a1 3f 83 4c 8e ff 18 24 d0 bf
       0.034980013131222544 -0.25220322567583525
000040 05 47 9b e8 b9 50 c1 3f fc 49 6e fc f9 44 be 3f
       0.13527606828443353 0.11823999798642854
000050 86 41 45 eb d0 6b 70 3f f0 2d 01 63 97 d1 88 3f
       0.0040090714358743725 0.01211851378334125
000060 a7 78 74 f4 08 46 c6 bf e1 10 a2 b5 31 53 a8 bf
       -0.17401229797628057 -0.04750972120476305
000070 cc 49 fb 42 51 68 8b 3f dc bf 64 81 3d ac d0 3f
       0.01338256345426183 0.2605127109154617
000080 9f 48 85 c6 f0 7f d0 bf 90 c9 3e bb 3a 2e de 3f
       -0.25780887018948734 0.4715716198508284
000090 0b fa 9e e3 0e 18 e2 bf fa 03 f1 62 3b 73 c1 3f
       -0.5654367871973717 0.13632910090566935
0000a0 a2 06 fa ff c4 4b aa 3f 69 64 c5 4b d4 0c bf 3f
       0.051359325644637424 0.12128950929526784
0000b0 fa 99 f9 f9 23 a3 bb 3f 51 c7 a1 bd 33 f3 c1 3f
       0.10795807698159612 0.1402344394623989
0000c0 47 be ca 2e f8 59 91 3f 0a 86 23 43 13 5e 74 bf
       0.016944768768267584 -0.004972529643255461
0000d0 81 5e db 42 d2 01 e2 bf 7f 85 c3 a1 47 13 c1 3f
       -0.5627223306464232 0.13340087317105184
0000e0 f8 5d 53 8f c8 10 b4 3f 1f 06 b4 cd 57 23 c0 3f
       0.07838109492455902 0.1260785822305914
0000f0 84 bf ff 96 62 c1 b2 bf d6 a5 ad 90 37 8a bb 3f
       -0.07326332270144859 0.10757777483163208
000100 d1 62 76 ad 0c 5d b1 bf f6 ca bd 16 7b c2 b2 3f
       -0.0678260730259226 0.0732800417443221
000110 38 9b 7e 0b a0 3a db 3f d7 ff 80 9c 58 73 96 3f
       0.4254531967402957 0.021924385597458098
000120 f3 41 f1 1d 95 64 c0 3f 41 1c 9f 06 29 78 c7 bf
       0.12806953393966544 -0.18335450003925938
000130 f1 76 15 0b fe 2d 80 bf 1e 6d f7 c0 90 21 b7 bf
       -0.00790022345853056 -0.09035591803642659
000140 27 1c bf 66 53 48 a0 3f 7a 31 f4 21 0f bd bd 3f
       0.03180180196027776 0.11616606310798785
000150 2e 13 1b 6a e8 4b d1 3f a5 14 44 87 d2 42 d0 3f
       0.27025804864779246 0.25407851419033484
000160 ac 60 e6 52 12 29 a8 bf 3a f5 6e c4 33 ad aa 3f
       -0.04718835126840423 0.05210267804020892
000170 c5 97 09 dd a2 c0 cb bf ff 48 d3 07 d5 3c d9 3f
       -0.216816289833501 0.3943378998202575
000180 88 fc 1e f7 94 17 a4 3f b8 a1 b8 eb 77 7e e3 bf
       0.039242415586607626 -0.6091880420618088
000190 17 8c d3 f2 fd 75 ba 3f 88 b6 b4 b3 0f 51 b0 3f
       0.10336291483285752 0.06373689782477687
0001a0 24 6d dc 3a 33 8c b2 3f 78 4c a5 de ba 2a a7 bf
       0.07245178401028746 -0.045247878721647206
0001b0 b1 d1 d6 2e 0b 26 c1 3f 3d af ff 7d 5e 83 c4 bf
       0.13397350108210795 -0.16025906708034113
0001c0 62 25 20 df 26 7e aa 3f 34 47 6b bd c7 00 b1 3f
       0.05174371217442332 0.06641815542687085
0001d0 83 54 1b 09 e6 01 b6 3f c9 09 ae 8d 74 6d c3 3f
       0.08596646997769324 0.15177781026802808
0001e0 83 2d 75 59 a1 f5 b1 3f 73 23 b6 84 d5 89 89 3f
       0.0701542704966212 0.012469928848774825
0001f0 48 bf 08 62 9e a1 a5 3f af 3e 7f 7e 84 9e c4 3f
       0.04224867769914781 0.16108757187474995
000200 dc af fb 6f 91 10 c0 bf da 02 ce 45 07 9b c4 3f
       -0.12550561874320365 0.16098109157976276
000210 2f 66 f2 cc db 14 ba 3f 16 38 dd 2e d8 45 cc bf
       0.10188077691636786 -0.22088148391998236
000220 af 9e 30 6c 4a 74 89 bf c7 3e 11 1c 4f 35 d5 bf
       -0.01242883818311155 -0.33137872448876887
000230 30 7b 56 33 96 31 d2 3f 99 c4 1d 1f b4 ba 8f 3f
       0.2842765332551833 0.01549282760581354
000240 65 dc 28 0e b9 38 b2 3f f0 02 99 37 a4 a3 6f 3f
       0.07117802234357525 0.0038622100226180997
000250 94 70 01 60 32 1d 90 3f 33 52 ef d0 4c 7c db bf
       0.015736376867025628 -0.4294616737727523
000260 ae c1 d0 a0 0b 23 b9 3f e2 1a 9a 1f dc 6f a6 3f
       0.098191000711046 0.043822172982847865
000270 09 a9 73 ad 0a 65 96 bf f4 69 dc 12 c8 bf a8 3f
       -0.021869818531663508 0.04833817701565471
000280 a5 14 45 42 0e 64 9f bf 79 22 f0 8c 84 37 94 3f
       -0.030655119700231954 0.01974303350655979
000290 94 02 9d 67 e9 a8 a0 bf a6 44 fc a7 cb 22 d1 bf
       -0.032538694284544395 -0.2677487507326738
0002a0 43 94 ac 15 1c 5a b9 3f 92 1c 8e 02 ad dc 87 bf
       0.09903121499208205 -0.011651374474025897
0002b0 d2 10 bf cc cd 25 bb 3f f6 37 2e 8b 5f b1 a3 3f
       0.106045591818716 0.0384626252554056
0002c0 28 e6 fa 28 82 23 80 bf 7e d8 1a 71 2b 27 b4 3f
       -0.007880226970303175 0.07872268210744157
0002d0 b1 d8 35 63 5c 11 be 3f 93 54 d0 c6 97 10 a0 3f
       0.11745240614058862 0.03137659360815195
0002e0 a1 dc 77 90 38 3b 80 3f b3 22 55 89 6d e3 c1 3f
       0.007925455006427664 0.13975304799739305
0002f0 1e e8 ee a4 cd a9 bb bf 5a ad 2d 98 db 3f b9 3f
       -0.1080597427052514 0.09863064255994428
000300 69 01 27 e5 db f9 bb 3f 76 e5 a8 1e ce 7a d2 bf
       0.10928129524746101 -0.28874543184391344
000310 fd 75 4b 43 1a 2d c1 3f 27 64 a3 23 4d 30 ac 3f
       0.13418892179372213 0.05505600986516184
000320 63 43 d9 8d e2 17 99 3f 9a 25 2e 39 6f 5c d2 3f
       0.024505176456219312 0.2868917520905484
000330 4f 86 62 36 49 49 af bf a9 59 d8 6f 8f 11 8f bf
       -0.06110600270154675 -0.015170212364904527
000340 3c 8c a3 8d 31 34 b1 3f a7 b1 f2 cc 5c c1 ac bf
       0.0672026606367106 -0.056162738817281004
000350 93 af d9 a6 b5 05 77 3f c0 07 7e 99 75 24 b9 3f
       0.005620679452117988 0.09821257588740107
000360 80 e6 28 07 d3 f0 d5 bf b7 7e f1 19 9d 2d af 3f
       -0.3428237504882432 0.060894879738723366
000370 f2 c3 6f 6e e4 02 dc bf 43 3e 2a f5 bb 44 c8 3f
       -0.43767653260061856 0.18959760161350134
000380 7b 0a b3 be 6a f3 c2 3f e2 3c 98 5c 01 3f ad bf
       0.14805349647038554 -0.05712131743723049
000390 bf 64 9a c2 2c 90 b2 3f 8a 1f 20 41 db 4e dc bf
       0.07251243353893509 -0.4423130165091541
0003a0 c2 74 c2 ac bb be c9 3f ca 98 53 4e 21 7d b1 3f
       0.20113321242835097 0.06831558382291117
0003b0 f2 3a 18 8c b4 70 c7 3f 87 5d 10 e2 71 7d 90 bf
       0.18312699165877394 -0.016103534148070444
0003c0 97 90 c5 4a 35 94 a2 bf 46 75 6a e7 49 f5 d1 3f
       -0.036286988618287434 0.28059623336033146
0003d0 0b fe 32 83 af 5d a9 3f 67 82 47 6e e6 70 cb bf
       0.049542889371419895 -0.2143829382394131
0003e0 da e2 ac c1 9e a1 c0 3f 05 47 f0 fe d8 a0 ae bf
       0.12993225533298053 -0.059820920105393006
0003f0 3d f4 53 af 5b 1c 9b 3f b3 49 63 c0 49 06 bf 3f
       0.026475365234535742 0.12118969866722899
000400 89 e9 0a a0 4b e6 c0 bf 6f 22 be 85 2c b4 b5 3f
       -0.13202805819112154 0.08478048577502205
000410 c6 3c 6b b3 17 cc 9b bf 9e 43 34 ce ec a3 91 bf
       -0.027145738912449223 -0.01722688683100026
000420 32 66 9b 67 d8 95 db bf 26 61 65 f4 6f cf b1 bf
       -0.4310208331859001 -0.06957149235438873
000430 17 c8 a3 84 24 87 a4 3f 49 31 21 46 69 cc ab 3f
       0.04009355658662644 0.054293908892392446
000440 f9 3b a4 c2 37 be b9 3f 63 77 87 ec 0c 05 a6 bf
       0.10055874349585271 -0.04300728213614382
000450 39 43 b6 49 aa e7 90 bf 9c b8 54 fc 80 5e a0 3f
       -0.01650873255636329 0.031971007158390935
000460 3d b2 93 34 ea da a3 3f 57 0c 45 22 b5 91 cc 3f
       0.03877956287201243 0.2231966416676154
000470 4c 74 0d 29 7c 10 7a 3f e3 ea 32 53 f1 dd 65 bf
       0.006363377572452821 -0.0026693070772955004
000480 21 3c 4c 73 0a ac 80 3f da 70 30 6d 22 e0 ad 3f
       0.008140641826257124 0.0583506353652596
000490 71 68 ff 48 93 8b cb 3f 70 25 85 70 b1 6b 9f 3f
       0.21519700111713605 0.03068425416248516
0004a0 17 10 97 50 bc 4b da bf 1b 57 6f cb 74 ec d7 bf
       -0.4108725344669905 -0.3738071428937119
0004b0 0b c2 cb 7b 4a 0a b1 bf 0c f9 e6 09 65 69 c6 3f
       -0.06656327745782435 0.17509139045245836
0004c0 c3 92 2c e0 23 63 ca 3f 20 eb 73 ca 65 7d c8 3f
       0.20615051694871597 0.1913268316783041
0004d0 61 08 77 20 3c 49 d0 bf 47 30 72 c1 59 bb 9d 3f
       -0.25446990175635703 0.02903499835206016
0004e0 05 c0 e3 68 94 68 bd bf c8 16 e4 19 bc 61 d1 3f
       -0.11487700997145119 0.27159025696196837
0004f0 d9 7d 27 15 d3 b9 ba 3f 91 ad 28 b7 5e 88 e5 bf
       0.10439795748197102 -0.6728967263529048
000500 9b c8 6c 4b a6 51 bf 3f 55 91 a6 3d 11 87 c8 bf
       0.12233962384633161 -0.19162192831312078
000510 1d 54 d5 1e f6 8e bd 3f d4 c4 a1 44 e1 df 47 bf
       0.11546266796843026 -0.0007285928670751848
000520 69 76 2b 33 17 e7 bb 3f db e3 14 c8 38 c6 8a bf
       0.10899491309415911 -0.013073390584951319
000530 6c 6e 2b b1 ec cc ba 3f bf 01 7f 50 fe e8 ce bf
       0.10468940091544149 -0.24148539476847294
000540 9c 1f af 46 f5 ee ae bf f5 67 54 57 53 67 c0 3f
       -0.06041685569613195 0.12815324558397348
000550 55 95 52 e0 74 b3 c1 3f 37 9e 47 d6 c5 67 a2 bf
       0.13828907922030945 -0.035947973639676105
000560 1e 84 34 dc f5 1e c2 3f 80 54 0a 04 1e e8 c7 3f
       0.14156983616069935 0.18677115628512198
000570 9e 7e 09 6a 70 51 e2 bf 7a 2f 14 b7 fd c9 c7 3f
       -0.5724412985836869 0.18585177840611405
000580 0e 68 9a 01 4a a5 c8 bf 67 fc 00 1f e6 5f c0 3f
       -0.19254422262457677 0.127926602495765
000590 19 15 1c ea 56 a6 bd 3f f0 13 23 6a f9 e8 b4 3f
       0.1158193894917371 0.08167990533100045
0005a0 46 0c af 34 7d 99 ce bf f4 1a c6 a0 30 09 c7 3f
       -0.23905911514711614 0.17996795511518082
0005b0 1a 03 12 9e 17 5a b5 bf 0d 40 59 01 43 4a b8 bf
       -0.08340594872607845 -0.09488314421582818
0005c0 34 a3 34 f1 f1 50 de bf 62 46 c7 ee a5 83 d7 3f
       -0.4736904960177981 0.3674101669140325
0005d0 30 3f ff ce 2d 43 d1 3f a5 88 d1 98 4d 1f c7 3f
       0.2697252770858425 0.18064279519882578
0005e0 48 76 24 96 15 cd c2 3f 2e d9 5b 71 5e 6e bf 3f
       0.14688367682622272 0.12277784602688221
0005f0 0e 38 ab 9e a5 4a a8 3f 8b b6 33 44 42 63 a6 3f
       0.04744451104998869 0.0437260349516296
000600 b3 7b 59 1a e6 94 c3 3f 78 56 10 b1 d4 6f ca 3f
       0.15298153196905914 0.20653780599302585
000610 1e 10 8b 1c bb a8 d9 bf 63 58 35 e1 cd fc ca 3f
       -0.4009235171072322 0.21083997246268202
000620 10 ee 5c 45 34 12 db bf cf 3b c4 2a 2e 55 ad bf
       -0.42298609517794805 -0.05729049942066632
000630 12 08 37 f9 43 79 bc 3f 45 f9 0f dd 1d 5b c6 3f
       0.1112253650126436 0.17465565961897248
000640 ed 4d 79 cf d8 c0 ca 3f 82 2c 21 95 2e 10 aa 3f
       0.20901022081908086 0.05090470858029851
000650 e8 db 28 cf c6 86 bd 3f a3 4e 18 d9 73 36 88 3f
       0.11533777768714482 0.011822609961235136
000660 33 bb b6 6d 27 72 e5 bf cb 6b 7c c4 e5 db c0 bf
       -0.670184816632036 -0.13171074003261504
000670 d8 78 ad 87 e4 46 a2 bf 3f 44 64 e8 f6 d4 a6 3f
       -0.035697118341646294 0.044593540065883
000680 ff 47 00 07 3c 49 2e 3f d2 34 f5 a1 3c dc a3 3f
       0.0002310643935748424 0.038789648790592005
000690 ad a2 3e c5 3d 63 b7 3f b3 37 bd 03 09 c4 cb 3f
       0.09135805192512221 0.21692001993727458
0006a0 a9 70 aa 92 88 5c c5 bf cd 5c e9 34 35 f8 d5 bf
       -0.16688639794745555 -0.3432744042124341
0006b0 5b 12 e3 e1 b1 cb c6 3f 4d 1d 4e 2a 31 7d 8a 3f
       0.17809127359045615 0.012934097388792276
0006c0 41 44 da 8a f7 ca b2 3f 63 d3 e7 01 18 a6 b0 3f
       0.07340953006702568 0.06503438993952453
0006d0 79 58 9f c9 54 96 96 bf bb bc 64 1f 0a 24 b3 bf
       -0.02205784302335487 -0.07476866976206768
0006e0 19 fb 3e ab f4 39 92 bf b9 70 cc ed c2 71 c7 3f
       -0.017799208595302127 0.18315922366389772
0006f0 5f eb 26 67 95 3a c6 3f 46 ac 86 97 71 93 c2 3f
       0.17366282974929967 0.14512462519391728
000700 26 9d 77 f1 e0 e9 cf 3f cd 58 18 69 34 79 d6 bf
       0.24932491102593096 -0.35114774954980704
000710 ff 6f af b2 41 50 e3 bf 3b 2c c2 10 55 43 c8 3f
       -0.6035469522425955 0.18955481832776563
000720 1f 90 a4 d0 ed 21 ac 3f 27 87 d5 c0 81 1f c7 3f
       0.05494635745915865 0.18064901271559927
000730 61 23 e7 36 b2 66 85 3f e4 7c 8d b1 cd f2 c3 3f
       0.010449783611777343 0.15584727449002067
000740 f4 8b bd 34 7f cd cf bf f4 97 09 ad fa 07 ce bf
       -0.2484587676545683 -0.234618505946116
000750 16 c4 68 42 d1 99 c9 bf 2b 07 c2 43 21 5c c0 3f
       -0.20000663511885425 0.1278115826462963
000760 e0 2e 9b 85 f6 ba b1 3f 85 a2 ff 6e 86 cf a4 3f
       0.06925907861585356 0.04064579110110337
000770 3a 26 80 c7 7d 4c 21 3f 76 47 f4 88 c2 91 a2 3f
       0.00013197932617030496 0.036268309801143525
000780 4a 17 0f 81 01 70 c0 3f 9e 83 24 c3 80 b5 99 bf
       0.12841814805704593 -0.025106441412507167
000790 d8 36 00 6a 5f ed b4 bf 6c 1a a5 9f 7b 49 a7 3f
       -0.08174702012930923 0.045482505071551355
0007a0 77 dc 2d 53 3b 19 c7 bf 10 53 42 2e 3f a2 bb 3f
       -0.18045751153451636 0.1079444396912772
0007b0 1c 25 19 ef 90 34 bf 3f 3a cc 55 7c bb 80 cb bf
       0.1218958457694907 -0.21486610003521084
0007c0 3e 0f 25 24 c8 08 bd 3f f4 46 48 52 6d bb b5 3f
       0.1134152496570637 0.08489115961881649
0007d0 a8 a3 6e 07 6f bf b9 3f 34 61 12 19 50 8a 8e bf
       0.10057729655694791 -0.01491224838746117
0007e0 8d a0 a5 f8 96 30 e4 3f 22 8b ef 32 64 1d 4d 3f
       0.6309313637148236 0.0008885134938022325
0007f0 fd 0a 25 2d 67 5d b7 bf f8 18 eb 13 08 48 a5 bf
       -0.09126896717229367 -0.0415651821436302

bias_hidden f8 [1, 128]
000000 4a 63 ce a8 fe 77 b4 3f 64 49 ee c6 e1 17 cf 3f
       0.07995597478146724 0.24291631902139976
000010 47 ac f1 f9 a0 40 cb 3f 27 15 02 74 3d 82 a2 3f
       0.21290981487558922 0.03614990273585255
000020 64 c7 41 05 05 ca b7 bf 52 18 9c cb c9 c4 ce bf
       -0.09292632463782763 -0.24038050119287618
000030 3f e1 a0 da 13 80 c0 3f d1 02 68 5f 25 9c 8d 3f
       0.12890861678330087 0.014457981084889411
000040 0a c7 5f db af 7e bb 3f ce b7 de ef 7d 06 c1 bf
       0.10740183931173078 -0.13301061832811317
000050 dc 78 e5 0e 97 0e d1 3f 48 0d e3 98 ae c7 c2 3f
       0.26651550726627504 0.14671881165677747
000060 0f 72 a6 a0 fa 7e d0 3f 82 25 c4 08 44 09 c5 3f
       0.2577501839494127 0.16434526851689318
000070 eb b6 0b 75 f5 5a e5 3f c0 aa 2c 77 a9 71 da bf
       0.6673533712434766 -0.4131873763860021
000080 01 fc 35 6b 4f 05 c7 3f d0 30 43 89 a8 24 91 bf
       0.1798495553484543 -0.016741402986370002
000090 79 e4 6f 5c a4 a1 9c 3f 19 2e 3b 3d f1 34 b0 bf
       0.027960365430747623 -0.06330783600713409
0000a0 52 b3 a0 d0 5d 56 b2 3f 15 ab 83 6e 86 76 cf 3f
       0.07163034766626922 0.24580459972579463
0000b0 e9 16 df d0 9c 59 ba bf a8 c4 8b 90 e2 47 d9 3f
       -0.10292987918282005 0.3950125133115514
0000c0 c5 24 82 82 8d 4b 82 bf 87 5a 5d 8a 21 57 ba bf
       -0.008933167977618681 -0.10289201381724854
0000d0 9a 7f 56 ad 56 5e 90 3f 93 b1 14 54 34 ca c5 bf
       0.015984873132424228 -0.1702332888174963
0000e0 7a 29 21 65 f0 07 ce 3f 8b 0a a6 cc 55 ba a4 bf
       0.23461728036847856 -0.040484124404447895
0000f0 46 c6 ba 0a c4 a9 c6 3f cc 8f 33 6d 1c 81 d0 bf
       0.17705584072023067 -0.2578803125782059
000100 b2 4d 0c 54 3d 92 af bf 33 6d b6 1c 2b be e2 3f
       -0.061662594327710166 0.5857139168541948
000110 4e 9e 48 5c e0 c9 b3 bf 53 2e a3 5d 89 d5 a9 3f
       -0.07729913952845743 0.0504572798541544
000120 ab 8e dd 78 28 53 d2 3f 6c 62 dc c2 90 eb ca bf
       0.28632556727664377 -0.21031388773623705
000130 b6 a6 ca ac 59 1a ce 3f a2 69 e7 0f 5e f6 99 bf
       0.23517914712038185 -0.025353879662228025
000140 ac ae 9b 08 8a c5 b1 bf 37 cb cf d9 91 96 c1 3f
       -0.06942045889052889 0.13740752349220894
000150 29 aa c7 de e8 f9 c9 3f 82 c0 05 58 1c e4 c6 3f
       0.20293913724829452 0.1788363866612635
000160 50 8e 1a 23 9f 8f b6 bf f4 58 2c 43 50 1c df 3f
       -0.08812899214768177 0.4861031204212758
000170 59 19 f4 a6 07 41 d3 3f 95 11 3b 9b 03 73 be bf
       0.30084410957387814 -0.11894247569859424
000180 6f 43 65 1a de 20 c6 3f 07 f4 22 1c b3 95 d8 3f
       0.17287803925367082 0.3841369414111004
000190 8a 1a 5c ae 4f f7 de 3f 53 63 8d 61 5d 46 cb bf
       0.4838446810466982 -0.21308486235900634
0001a0 0d 3a 4b fd cb d9 a8 bf 3b 2a 0e 6a 50 4e c4 bf
       -0.048536657972011545 -0.15863995722277643
0001b0 e5 1d 12 36 c9 21 c0 3f 8c 49 2d 65 71 13 c5 3f
       0.12603106632398844 0.16465585174826136
0001c0 a3 58 68 4c 73 b3 d4 3f 28 f5 05 f6 f1 aa 78 3f
       0.32345278226547175 0.006022401008860791
0001d0 ab b5 97 0f 6e dc ad bf 44 ad 7e 15 5e 86 c0 bf
       -0.05832237186755703 -0.1291005711512786
0001e0 2e 08 1c 2c d4 24 d3 bf 9b 0e 2e 3e da 5d d3 3f
       -0.29912285144394246 0.30260330269104835
0001f0 64 a8 06 e4 f6 c2 d3 3f f0 90 1e f0 7f 6c d4 bf
       0.30877468364872684 -0.31912229966316286
000200 4d 94 d0 60 18 7f c8 3f 8b b7 8a a2 e3 5e c3 3f
       0.19137863852771134 0.15133328854193126
000210 04 69 e3 30 85 ee d6 3f 43 da 60 e2 b3 58 d4 bf
       0.35830812238931764 -0.3179139815069087
000220 35 3f a2 20 7d f6 b0 bf 97 7c a8 1a 21 89 d8 3f
       -0.06626112028811522 0.38336970904669826
000230 c3 98 a0 32 33 ff c6 3f 1d 72 09 e9 d2 62 99 bf
       0.1796630856708302 -0.024791045640414667
000240 55 5b e0 be ce 7f 8d 3f 4f 4e 90 44 97 41 8d bf
       0.014403929901204352 -0.0142852609442691
000250 6a 18 d4 99 1c 42 b7 3f 7b 13 85 c3 83 61 cb 3f
       0.0908525348241668 0.21391341254107119
000260 f4 9e 79 28 a4 68 cb 3f b3 c9 e6 bd bc 99 c0 3f
       0.21413089729616497 0.12969168922934457
000270 17 b0 c1 43 72 0c db 3f 6c a6 5b c6 c6 9b be 3f
       0.4226346646962624 0.11956446020817574
000280 77 8f 52 54 aa c6 d5 3f 7c 45 12 46 c8 71 9c 3f
       0.34025057062739655 0.0277777951019451
000290 64 ef ea 8b d7 ce be 3f 74 80 12 5b 5f 89 d1 3f
       0.12034365812263342 0.274009550988928
0002a0 47 b6 bc 64 39 3d 54 bf 71 2c 7f 8c e4 66 d1 3f
       -0.0012353001101915882 0.27190507622135046
0002b0 38 95 ba 01 66 d1 e2 3f e7 ac a8 dd c7 eb d4 3f
       0.588061335922851 0.32689091345191773
0002c0 5c 77 29 1d 5c f1 ae bf 60 78 21 58 7c 16 cc 3f
       -0.06043517929059192 0.21943620970972955
0002d0 a3 a3 e8 fa b9 fd bc 3f 8a 46 f5 6e 62 2c a4 3f
       0.11324655891134099 0.0394011269041928
0002e0 7e 3c e6 de 94 54 a9 3f 23 f2 46 4b f1 d9 92 3f
       0.04947343083323917 0.01840950986819413
0002f0 c4 c5 2f b8 ac 5d b1 bf 86 e7 46 af c1 1a af bf
       -0.06783561226600116 -0.06075101151095823
000300 22 a8 85 02 2d 8e b8 3f f5 58 f6 4b e2 af b2 3f
       0.0959194308431113 0.07299627642200675
000310 04 4c e9 e8 a7 41 bd 3f f2 b6 a0 38 d7 bc d6 bf
       0.11428307949363165 -0.35527592210824743
000320 38 ed 6e 8d b4 02 a1 bf d4 8c e0 82 15 62 b4 3f
       -0.033223764672096257 0.0796216434978761
000330 af c4 83 17 1a 40 53 bf 03 69 dd 57 d7 f1 d6 bf
       -0.0011749510577454927 -0.35851081448130645
000340 ae 36 f9 1a 96 f3 ae bf c5 2e 74 51 af 6c cb 3f
       -0.06045216635957949 0.21425429799307075
000350 e3 99 22 4d 09 ad ce 3f 9f ae 2d 66 ac de c8 3f
       0.23965564981808915 0.19429545392209932
000360 1b 39 e3 2e 7d 54 d0 3f 4e 54 99 b0 e3 ec a5 3f
       0.25515679911485883 0.04282294779537975
000370 71 f2 e4 f1 66 df 98 bf 29 8c aa 98 96 86 cc bf
       -0.024289711488778957 -0.22285730795292238
000380 b5 3b 38 a3 e1 98 c7 3f e8 63 21 30 fe c3 9e 3f
       0.1843530699702264 0.030044528663299902
000390 a6 c5 4f e0 28 94 b1 bf f1 23 de 64 c5 b4 b9 bf
       -0.06866698719365746 -0.10041459763137063
0003a0 4d 32 65 85 7e bf c0 3f 27 38 88 a2 af 52 91 bf
       0.13084393990938495 -0.016916984839603934
0003b0 d3 5a cc cd ae 11 c6 3f 85 5f 40 6e 06 84 9f bf
       0.17241463707678992 -0.030777073363509117
0003c0 52 0f 59 9c 0a ad c4 bf b9 a7 da 8b bf f2 ca 3f
       -0.16153080591368024 0.21053308800520457
0003d0 59 09 bf 4e e2 29 db bf 5d 81 ea fc 91 e7 a7 bf
       -0.42443139734327456 -0.04668861591676674
0003e0 c2 ed de 04 ce c8 77 bf cf 96 84 06 32 ea c9 3f
       -0.005806736718962426 0.20245957678087342
0003f0 52 59 d1 79 b1 8b c6 3f ec 51 8f 5a ed 15 b8 3f
       0.1761381001294447 0.09408458195623098

bias_output f8 [1, 10]
000000 58 66 5d 80 91 5d d8 bf c9 5a 21 d2 96 50 a9 3f
       -0.3807109597742957 0.04944297137324367
000010 5d cf 8d 0f 9e 6d d5 bf 54 c3 aa 3e 89 42 d5 bf
       -0.3348155166524885 -0.3321860420210687
000020 c8 ca 0f 2b 39 c8 d6 3f 29 d4 bb 79 fb 95 d7 3f
       0.3559706612133309 0.36852919471795303
000030 38 35 43 e2 2b 64 b1 bf 44 45 84 b0 f3 a3 c6 bf
       -0.06793474458682602 -0.17687841528872117
000040 7e 53 f6 4b 38 16 e7 3f 10 f9 26 ef f4 f7 c9 bf
       0.7214623912465041 -0.20287954022746435
