models/model_cv_digs (22000).npz (npz, 815236 bytes, 4 tensors)

weights_input_hidden f8 [784, 128]
-0.06902519598974637 -0.05053399605355609 0.09722734177482056 -0.021026500565923957 0.057811832768248014 0.011477482443207211 -0.024380522153903104 -0.05734035143574449
-0.0607132544085077 -0.07364624275917621 0.0012478654416852423 0.06637413364572267 -0.05259661619579465 -0.006460958310703039 -0.050005940244044436 0.07690644329004301
-0.009014381333249359 0.00724504849019163 -0.022653433883046716 -0.029287601966847775 0.013604004647140582 -0.028906558629965957 0.055849158437422226 -0.005026689719087614
-0.02384385034246382 -0.02694286997316345 0.001387202454610042 -0.07290939356070118 -0.023066025503198043 -0.0014316267264767742 0.03780156082328812 -0.02605711592372798
-0.003575472362848373 0.10129288094986753 0.015154908285000067 -0.0032450487449018806 -0.06257285899782009 -0.042257488638897216 0.01635629007608595 0.047039186850225505
-0.02609995590635079 -0.06570448527047003 -0.014773310824639984 0.04578911766974087 0.04551388757506119 0.06431492387354366 -0.0033507381078783714 0.027877261162161125
0.0043482468944066035 -0.032957916722591775 0.12543221287174694 0.03096857734087594 -0.06737494816900093 -0.030149595098065387 0.019298239907124048 -0.012826580492912068
-0.0637383901335177 -0.05116148888324025 -0.0010672511736288706 -0.0828414693929023 -0.04122149202274848 0.005512417581645829 -0.01253120105641173 -0.04609494389385191
-0.018120350034420755 0.03391259095386673 0.07811793027544167 -0.01566168311422115 -0.034790776728444064 -0.0050113661093141625 -0.09170183654821921 -0.03154338054962156
0.01563903107847289 -0.07736358988183017 -0.033685380782859896 0.05101259456958517 -0.09546529815410193 0.04805588181532648 0.06865119918780699 0.003329749022680001
0.09555739121782811 -0.1086347577030948 -0.04302793795854186 -0.014918292489568191 -0.031556071367706336 -0.08337198559290118 0.004973210734727895 0.0025905935686436066
-0.01785502284205958 -0.02662432390893922 0.007074048707159639 0.0384068299701052 -0.06541642257983055 0.0397619041019564 -0.02324029327817714 -0.010587819901164393
0.1183399238585876 0.08017481130245536 0.0610050813685461 0.039379264476254804 0.02686923701474137 -0.04555923485519512 -0.01979343897819054 -0.004931107227260148
-0.014262488115662069 0.056461623868709926 -0.008678303346985303 0.005114077842636339 0.03654556050942592 0.015084675163504665 0.06965309875976704 0.11140683816445639
-0.006280907896327341 -0.035834873224989246 -0.09805524928487903 -0.054420114173390606 -0.009546805194954069 0.013380024380277928 -0.02811385910748833 0.017769768090195634
0.028718548665647103 -0.007438975855043908 0.037649336330956365 0.007162128667480151 -0.08094840952228619 -0.02748326828527524 0.018918492676910134 0.0031339796818017577
-0.048998495308713245 -0.028623604623486433 -0.0699698226035376 0.07267683221607951 -0.07789464810384392 -0.016660064050988483 -0.11104364482439978 0.0643942344966832
0.03478735883509145 -0.056968983005545946 -0.04247057720406008 -0.058114083284005226 0.02746581401855086 -0.0013884932703597146 -0.05870662548050919 0.03703568220139062
-0.08269716597095607 -0.04868869498719851 -0.015079775437521923 0.015686426985214413 -0.10007785369541458 -0.0867445295231625 -0.0025173894158205022 -0.11454623497591832
-0.014905938048686822 -0.07286555813035547 -0.11026668598919699 0.0037448125512492786 0.037665848986144584 0.03303655296927799 -0.0981336068291626 0.026098536112557476
-0.0337533180726981 -0.032832462424742206 -0.08691015938226229 -0.04285392714423798 0.0743733281140438 0.015422997223517707 0.056895793732656574 0.0011984884774522767
-0.028883240283365277 0.05522662242329817 -0.0961862320638667 -0.08318450031756398 0.04628593643922786 -0.024191135174476804 0.056513242522247153 -0.029889107170544733
-0.015904188877367356 -0.04360858184589328 0.034691933793866994 -0.036100094754975186 0.0046849906221089 0.07213418397886223 -0.03214630797696185 0.028132863376095125
0.059543036193568356 0.03770402854093171 -0.014009016489831003 0.004011612578045959 0.007170323206234914 0.03694117548231332 0.0029126738473573034 -0.13888774867770037
-0.003694290929218664 0.029759140781416674 0.026854121474107796 -0.05676892272987902 -0.005558977459934398 0.011071355293091363 0.01770440673483652 0.018466040700866836
0.01684995683057137 -0.05659876958132927 0.014410734796173743 -0.03393286156249947 -0.011520978401064232 0.010608407911255483 0.06878327433081749 0.04315429040425485
-0.05677280058514802 -0.02661244097541944 -0.023417405181484507 -0.029592474771165177 0.0038680344718235687 -0.05605949635307854 -0.025663436651552456 -0.021851742113784146
-0.05857167496779985 0.018526215782113095 0.010907826419440558 -0.09007231699234132 0.043210030658126834 -0.002039528794115484 0.02284849840745791 0.10726943413166784
0.020761678777550995 -0.06950673412601047 0.028649502300256702 0.014166278872215513 -0.06138416103524738 -0.039171340400913336 0.014558831926867279 -0.07711824103507528
-0.02757536343465153 -0.05227602676111721 -0.026637004998191646 -0.02936226482360543 0.005101700451036592 -0.06197126120241597 0.021998256063661438 0.019752143216958486
0.08712728628498555 -0.15188039077808504 0.0427059544314331 -0.05346626012558275 0.051333977462762095 0.10173163804043747 -0.10434750154008475 0.09548627685207796
-0.05145170718994121 -0.020887969574617003 -0.03155484327764785 -0.05177241341418477 -0.13521183142666077 -0.06864340651368074 0.029479283462114522 0.0038755710136122007
00000000: 533e 609f a2ab b1bf 2abe c588 97df a9bf
00000010: 9c2a 331d e4e3 b83f 2ab0 1e91 f887 95bf
00000020: e675 1f36 8399 ad3f b435 df9d 8181 873f
00000030: 09de 3d25 35f7 98bf 05ba 50ec b65b adbf
00000040: ad8d 3cc4 ce15 afbf 71ba 1fec 7ada b2bf
00000050: b518 c250 ed71 543f c207 4f2d e5fd b03f
00000060: 39e5 e194 f1ed aabf 841a 534a ce76 7abf
00000070: ba65 e8eb 609a a9bf 3e4c c802 24b0 b33f
00000080: afea 28c8 2176 82bf 3344 2ce5 fbac 7d3f
00000090: d7db ad36 7632 97bf c3e5 80b2 91fd 9dbf
000000a0: 69cc 6e98 6adc 8b3f 858b d24f ae99 9dbf
000000b0: 51e6 fec9 4298 ac3f 15be 35bf dd96 74bf
000000c0: 7cf5 b9b5 856a 98bf a999 9465 e996 9bbf
000000d0: e414 3b4b 59ba 563f 6b16 eaa4 30aa b2bf
000000e0: 4460 bdc4 9e9e 97bf c659 197e ad74 57bf
000000f0: f192 f2e6 b95a a33f c9c8 e172 b7ae 9abf
00000100: e1ca b71b 4f4a 6dbf 374f ff8a 54ee b93f
00000110: 2ce4 a95b 8909 8f3f 6906 7747 5c95 6abf
00000120: 924a 035f c604 b0bf cf28 6e07 c6a2 a5bf
00000130: 1bbc d70b b4bf 903f d7e6 4d32 8515 a83f
00000140: f3e4 2d64 f2b9 9abf 31eb 6f57 02d2 b0bf
00000150: 9386 c336 7841 8ebf 99f7 ced5 ab71 a73f
00000160: 8723 4ca5 984d a73f 517d ae5e f176 b03f
00000170: 4fd2 e7d2 0173 6bbf b660 f953 db8b 9c3f
00000180: 7f74 4da3 77cf 713f 8586 ef2c dcdf a0bf
00000190: 8214 13aa 290e c03f d1e4 870b 3ab6 9f3f
000001a0: 319f f40e 7c3f b1bf a73e bc13 89df 9ebf
000001b0: 93f9 15f5 eac2 933f 3b7e e47d d244 8abf
000001c0: 9a86 1fbd 2851 b0bf 12e9 22b3 d631 aabf
000001d0: d366 ca38 607c 51bf b28b cb39 1935 b5bf
000001e0: 3e93 42c0 fb1a a5bf bad2 c253 3094 763f
000001f0: 5130 bc55 f5a9 89bf ecf1 11a9 c199 a7bf
00000200: 11de 281b 248e 92bf 4893 23ba fd5c a13f
00000210: 98a4 c363 89ff b33f 4a84 1ac3 9d09 90bf
00000220: da90 80c0 18d0 a1bf 65bc c358 cc86 74bf
00000230: 632e f584 c579 b7bf 2d58 bb37 7426 a0bf
00000240: 87b9 179c ad03 903f e490 71a8 19ce b3bf
00000250: 23a2 a1d1 353f a1bf 3f90 b8a2 521e aa3f
00000260: ac89 79ed 6970 b8bf 1ef6 8dd1 c79a a83f
00000270: 94c2 57ff 1f93 b13f da65 0065 fd46 6b3f
00000280: 36f1 2bfe 7276 b83f 5e2e 8bcb 7ccf bbbf
00000290: 3e48 b104 c207 a6bf b0bf d652 7b8d 8ebf
000002a0: e171 070d 1e28 a0bf 022b 86cf dd57 b5bf
000002b0: 806b 6317 ca5e 743f 8017 f254 de38 653f
000002c0: ce33 b44c 9648 92bf 8436 de21 6843 9bbf
000002d0: e49c 8f7d adf9 7c3f f94a 545d 0faa a33f
000002e0: 3c08 9a73 21bf b0bf 083b 7d1b ac5b a43f
000002f0: e71e 51ae 4dcc 97bf f106 b121 11af 85bf
00000300: c0a4 c876 864b be3f ddcb 8120 5686 b43f
00000310: 6046 bcda 0e3c af3f 2bd1 21da 8429 a43f
00000320: b1b5 fcf8 9b83 9b3f b5ba 773f 8a53 a7bf
00000330: e4c7 5834 bb44 94bf c3ec 6204 a432 74bf
00000340: e97f 21c0 a635 8dbf e485 fdb7 89e8 ac3f
00000350: 9205 7b28 eec5 81bf ba48 55d1 7ff2 743f
00000360: 1069 6786 19b6 a23f 4bfa fbd3 b6e4 8e3f
00000370: 73fe 3c15 c9d4 b13f 2f94 7796 2885 bc3f
00000380: 3808 1060 02ba 79bf 5182 1dd1 f258 a2bf
00000390: e532 e118 261a b9bf b914 3d05 f4dc abbf
000003a0: eeb6 bf80 468d 83bf ea55 1079 fc66 8b3f
000003b0: c45b b925 e1c9 9cbf 4c36 38f3 3c32 923f
000003c0: 70eb 3a2d 6568 9d3f dcd9 35e0 5478 7ebf
000003d0: 32df 8318 c646 a33f 285b 5846 0956 7d3f
000003e0: 26ba 8ff3 08b9 b4bf 3cca e3e9 9224 9cbf
000003f0: fc07 598d 5e5f 933f 345a ab87 6eac 693f
00000400: 7fea cead 5416 a9bf 7a8b 0197 814f 9dbf
00000410: 7a03 cad3 8ae9 b1bf 3c81 8be9 f29a b23f
00000420: 36b2 2356 e7f0 b3bf 1538 fef8 550f 91bf
00000430: 490e f336 5b6d bcbf 6dd6 36fb 237c b03f
00000440: 3399 0511 a6cf a13f 9b57 cadd 092b adbf
00000450: db71 4418 b4be a5bf fd9c 480e 21c1 adbf
00000460: 40eb de93 ff1f 9c3f cf59 f64b c3bf 56bf
00000470: 0f9f fe78 cb0e aebf 5d17 ae47 57f6 a23f
00000480: 1d30 5137 a42b b5bf de53 4f81 b9ed a8bf
00000490: 3f73 ae32 25e2 8ebf 8802 924b 1a10 903f
000004a0: 42f9 acc4 b39e b9bf faac 68b5 e334 b6bf
000004b0: 4ab7 ca26 599f 64bf f0fb 19ed e652 bdbf
000004c0: d684 7b23 0187 8ebf c2b6 2c35 51a7 b2bf
000004d0: 7172 2902 703a bcbf 3715 feed 70ad 6e3f
000004e0: 44a4 242b f048 a33f c0b7 26c5 2aea a03f
000004f0: 3743 f8b7 481f b9bf 52c1 4e1c 93b9 9a3f
00000500: 20e8 816a 1d48 a1bf 9a0b b9a0 6acf a0bf
00000510: aea9 3c84 be3f b6bf 12e9 2d2f f3f0 a5bf
00000520: 75ca f163 210a b33f 4551 73a5 1796 8f3f
00000530: 9833 b90a 7221 ad3f a0b7 2d34 d3a2 533f
00000540: 17a2 ad71 9193 9dbf 176c 5af2 a946 ac3f
00000550: a22e 0a31 a99f b8bf e1e5 6554 944b b5bf
00000560: 22dd 8a4e cab2 a73f c2c0 b599 8fc5 98bf
00000570: 5812 d9c0 4def ac3f 856d 3707 409b 9ebf
00000580: 670b 640c 3049 90bf 18c3 b431 dd53 a6bf
00000590: aac8 2822 24c3 a13f 3bd2 b52c b67b a2bf
000005a0: e97b 1098 9130 733f 6ce4 1cc9 6277 b23f
000005b0: d379 e51a 7b75 a0bf c599 9280 dcce 9c3f
000005c0: cdd4 4fc2 6c7c ae3f 5381 0543 f14d a33f
000005d0: 0533 625d c2b0 8cbf 931a 3b0d 7b6e 703f
000005e0: 94ad c2fa a05e 7d3f cc08 2529 f4e9 a23f
000005f0: 48d4 62dd 51dc 673f 9461 31e1 12c7 c1bf
00000600: c206 2257 7d43 6ebf 9129 a721 2e79 9e3f
00000610: 7af6 f995 a57f 9b3f 74a3 1bf5 d010 adbf
00000620: 8be1 3ba6 02c5 76bf 51f2 3f27 94ac 863f
00000630: 5d50 af9f 1a21 923f 135a 9603 c3e8 923f
00000640: 8bf2 1a76 1d41 913f e2f8 b090 83fa acbf
00000650: 8e83 4915 6083 8d3f e85c 57e5 a55f a1bf
00000660: 349c 9a8b 4f98 87bf 35ee 5468 dcb9 853f
00000670: 843d c3d9 c79b b13f 0acd efb3 5118 a63f
00000680: 838e a113 5311 adbf 94e7 9fae 4a40 9bbf
00000690: 6389 a575 bbfa 97bf 9341 665d 7d4d 9ebf
000006a0: b711 cd31 dbaf 6f3f c6f3 ee8e d4b3 acbf
000006b0: 7e4c 7c14 8447 9abf 9d12 f596 4d60 96bf
000006c0: 27d3 ea48 1bfd adbf 7c7b 9c4b 89f8 923f
000006d0: 467f efad d756 863f 19ce c1b7 fa0e b7bf
000006e0: f755 1209 a01f a63f c80b 0aaf 33b5 60bf
000006f0: b4e2 b0c5 9865 973f 74b8 7477 0276 bb3f
00000700: 2645 70ad 8c42 953f 8e48 ec7d 31cb b1bf
00000710: 9082 b48d 4b56 9d3f 288c b2c3 3503 8d3f
00000720: d40e 47a8 be6d afbf 85c0 ec13 440e a4bf
00000730: 946a f357 05d1 8d3f 92b2 2b63 05be b3bf
00000740: a831 8250 b73c 9cbf 318e 9b62 ecc3 aabf
00000750: 7c8e 5225 bb46 9bbf cf91 9d3c 2411 9ebf
00000760: 4984 7549 85e5 743f 0800 5078 b2ba afbf
00000770: 9a28 73f9 b586 963f ba2b 92e4 e739 943f
00000780: f7e8 2e4d f94d b63f 69d5 a50f d170 c3bf
00000790: f043 410b 8edd a53f 8f8c 5bfd ed5f abbf
000007a0: 9a98 c074 7248 aa3f 0629 5aaa 150b ba3f
000007b0: 7fb2 8892 84b6 babf e5e5 4be4 c971 b83f
000007c0: 6388 68cf e057 aabf d9b0 cfe8 a763 95bf
000007d0: a8d8 d0d7 f427 a0bf 3ad8 e5ec e981 aabf
000007e0: 3e40 010d 9f4e c1bf 61f2 0f42 9d92 b1bf
000007f0: 0c66 8439 d12f 9e3f 9b9f 3758 a9bf 6f3f

weights_hidden_output f8 [128, 10]
-0.24448726058956222 -0.03831533306717 0.02520255298561769 0.10911782888598341 -0.04235340573056709 0.052716511561451546 0.09356774925823544 -0.25843826747590337
0.12328774358742567 0.13206639918451146 0.07271712953795109 0.12628452935242898 -0.0421005690688471 -0.050919165043884426 0.11537683489137189 0.25505625481213523
-0.6665183088767352 0.32418113496070106 -0.47783756939073274 0.19712107050802705 0.07403988043390455 0.11422698664670465 0.09918111524273678 0.12280133640862308
-0.00021746017397053708 0.00736045993206196 -0.5396952697882088 0.13444143648638485 0.08137245972012785 0.11414993642919603 0.008700249558579632 0.10394684094751598
-0.09991625618319552 0.08173041745717087 0.29915551379944116 0.045403279277039785 0.12673330550265527 -0.10173525944339923 -0.025187172979065708 -0.10569274244184959
0.03803740192086045 0.13421544269022395 0.2123051489604104 0.21758799722153888 -0.007750894781693548 0.04263112394461013 -0.2593134094922933 0.2883260240731448
0.07264398750399274 -0.4542865175358086 0.1583807834079049 -0.07030196065700556 0.12960403118258546 -0.06035342204515502 0.1824886064187475 -0.2993016830811091
0.07713286874248816 0.1478200696748061 0.08130193872464261 0.17642008657706212 0.10193527323984267 0.01125761826378801 0.04454763858613202 0.14829107190978347
-0.123918419314948 0.1658873216464178 0.12919538033830225 -0.2221066143732195 0.016600260971003027 -0.41286409637008475 0.2686006734405262 0.01271058597894016
0.084761758941787 0.006871996907312564 -0.003316664393989545 -0.4083230061264327 0.14038274952278101 0.0445507181108376 -0.03913275152551062 0.022278502389388468
-0.020739487247629494 0.0430903746405415 -0.11851759190921067 -0.3501233817374963 0.1007433606804743 0.0439146650037771 0.1443308068379911 0.0413517345384636
0.020440078710369194 0.08705227033181781 0.14524581930532512 0.03041124304371115 0.033014707176743784 0.1795444583490874 -0.14772210032763 0.1350612894377952
0.14598184723203114 -0.3900232490042481 0.14153698931281672 0.023392881032828435 0.045361694570459576 0.41737942492756 -0.12063687549168096 -0.04303261541409891
0.057138484524322186 -0.0791647863553401 0.03308095605207448 0.135091971265802 -0.45122745730919966 0.07397899875978038 -0.41289903847526155 0.1718641022510132
0.11673758601425478 -0.03564492854427066 0.06634087066345416 -0.40452176887962965 0.16125858599955128 0.08073650833909295 0.17758102557216576 -0.011801447606885592
-0.07753128143823888 0.2562597120096278 0.06212839810850464 -0.2253976309276133 0.14193661520954845 -0.07716850291226081 0.04000822029090304 0.13799484041199542
-0.10606393068517961 0.09748183015466509 -0.02675973034729262 -0.0006448081440924359 -0.6169423580422058 -0.006089094950991372 0.03294175316576382 0.09034880561224656
0.10736239276627814 -0.027769863349174008 0.01292611143195791 0.057591261450810886 0.016131169381646528 0.19291061483440217 0.01941978365029424 0.0058702455751957
0.03744829004092791 0.03378375529266097 0.17618562739688243 0.006503088562639562 -0.3678157513538618 -0.32678460401303056 -0.04424133274024333 0.13731971028686416
0.17418586567112598 0.1530523038792808 -0.24233639412894714 0.0021776614107551617 -0.09985757052384303 0.22084613051005594 0.11953112298308334 -0.5517088885836176
0.15436883667381185 -0.34745722268054074 0.13072708429417715 -0.06936619726663548 0.15982949995071852 0.0007158276826933797 0.11269765055592353 -0.1832936905418305
-0.050794053311905785 0.16478478548658385 0.16156209311671008 -0.05142390817064315 0.14948059221539453 0.17911100446571637 -0.5082651275098841 0.15652372311900123
-0.19864899174710354 0.13505403287962034 0.08095704879611654 0.07237619476577486 -0.1696030716930779 0.1406057407129406 -0.15062162959271122 -0.03901952659885933
-0.36092308184351596 0.2867733257776922 0.23319385524799327 0.16055794288244876 0.14541942318766415 0.1294594870045367 0.08700018478922827 0.07856040642187676
0.15152527918087277 0.22162547210625094 -0.591263087774393 0.21081720957522615 -0.3662432393834676 -0.05226198588127391 0.11382029882036303 0.21253760127199298
0.13597153525716288 0.03196082820671061 0.09337959465186478 -0.0007572377079462327 -0.4833529680710667 -0.11570393757927579 -0.08661737209839536 0.035770899060707455
0.0022753378303905693 0.020683520716257443 0.08440763383261621 0.1711419843789821 -0.1478768295477954 -0.2970138214855516 0.14784885021278488 0.034248289931631634
0.0693276712299208 0.06356338012143609 -0.04095686912125691 -0.05397327558836031 0.04503912597315421 0.16179148879058147 0.1591895932835296 0.1327560838840496
0.19944605469162574 -0.3244643082421803 -0.5424958148226007 0.15590521928353362 0.06820447624654288 0.14827064938657308 0.019145071272371063 0.12866454328471788
-0.28530695634779796 -0.2561343403902153 -0.16021723389932838 0.12342174264858968 0.13097603074385336 0.05394307117052727 -0.012099621387958285 0.015277084242025982
0.14622353827426196 -0.019892797101083198 -0.09755249102915423 0.07437728479964414 -0.24233993955444758 0.13124770319100512 0.1490506857294511 -0.23652206263195058
0.09077247048376565 0.10436616202775324 0.1221484000875979 0.16925031816478828 0.5871622566351102 0.33786219761985903 -0.9588550966083437 0.22620242842607063
00000000: 8ea9 42ca 5b4b cfbf 68ed ea3c 119e a3bf
00000010: 414f 65b3 b2ce 993f 87cf 7962 25ef bb3f
00000020: ac58 f978 58af a5bf 3435 3b9a a8fd aa3f
00000030: 5242 0657 0ef4 b73f 8c02 b6a8 408a d0bf
00000040: f8a3 b41a c98f bf3f 48f0 b240 8de7 c03f
00000050: 8a78 39fd 969d b23f 8d9b c769 172a c03f
00000060: 345e 96ae 348e a5bf d6ca 34a9 1312 aabf
00000070: 1b0e 9314 5689 bd3f 3abc 4378 d752 d03f
00000080: 1cf2 5934 1e54 e5bf 57ba 283b 62bf d43f
00000090: 3e55 5507 e494 debf 3f9d 9763 433b c93f
000000a0: 0a39 1011 47f4 b23f 9bdd f7d3 fa3d bd3f
000000b0: 392e 59fe ee63 b93f 9db6 c78b e86f bf3f
000000c0: 4ab4 b7ab c080 2cbf b64d 116b 0026 7e3f
000000d0: e97a b103 2f45 e1bf 28d8 7782 6035 c13f
000000e0: c803 4b55 d3d4 b43f d1ca cd23 ee38 bd3f
000000f0: c7b0 91ba 6fd1 813f 5360 649a 429c ba3f
00000100: e644 a59c 1c94 b9bf 5d25 11de 48ec b43f
00000110: 82f2 0b2b 5d25 d33f 5e88 403f 193f a73f
00000120: 2c54 3905 cc38 c03f 58d3 286c 520b babf
00000130: 2327 e590 aaca 99bf fa58 36f8 ad0e bbbf
00000140: 1dc0 8c6a a379 a33f 9680 7cbc f82d c13f
00000150: ef57 c7ab d02c cb3f 78c9 086a ecd9 cb3f
00000160: fc3e a2f9 66bf 7fbf 7484 4426 bfd3 a53f
00000170: 04c1 4b45 9798 d0bf 1eb6 fefe ee73 d23f
00000180: 8ba7 94de cb98 b23f 301f f5c1 0713 ddbf
00000190: bea1 864e d245 c43f 18d4 dd2d 4fff b1bf
000001a0: b0f2 ad69 dd96 c03f ce70 c5cb a4e6 aebf
000001b0: 8306 3b62 c95b c73f d526 1e3f c227 d3bf
000001c0: f115 b2cc fabe b33f cc0d 799e c4eb c23f
000001d0: f679 ec2f 34d0 b43f 3d5d 1af3 ee94 c63f
000001e0: 12bb df18 6e18 ba3f 7cc9 30f2 3b0e 873f
000001f0: 76d4 aeb5 f2ce a63f 4216 12ac 33fb c23f
00000200: 4b68 5416 1eb9 bfbf 476d a5b6 cb3b c53f
00000210: fc73 ac66 7989 c03f 4ea8 7a52 fd6d ccbf
00000220: 8eef e6a7 a8ff 903f e988 e687 5d6c dabf
00000230: a814 07e1 c030 d13f c787 bdf8 0108 8a3f
00000240: bc3d 9b56 f2b2 b53f 1018 9a9f cf25 7c3f
00000250: 9de8 53a3 8c2b 6bbf ac1d 61d1 f621 dabf
00000260: 52bb 0fdb 0ff8 c13f 0746 990a 5acf a63f
00000270: fb55 0240 3509 a4bf a745 aafc 2cd0 963f
00000280: d685 db6d bb3c 95bf b9ff b40b f10f a63f
00000290: 1b30 403d 2b57 bebf 7928 88e6 6b68 d6bf
000002a0: b969 691f 51ca b93f d714 03a4 fb7b a63f
000002b0: de54 968f 6e79 c23f 8b7e f3f6 0d2c a53f
000002c0: 94d4 5a76 3eee 943f 2622 1ebe 0e49 b63f
000002d0: 4507 e63d 6a97 c23f c8ba 36f9 1f24 9f3f
000002e0: 2be6 38bf 4de7 a03f 5cc8 6414 50fb c63f
000002f0: 6cdc e6ca 8ee8 c2bf 49a3 8b36 b049 c13f
00000300: 41eb d57d 88af c23f 48c9 c912 24f6 d8bf
00000310: baec 2252 e21d c23f 1f1a fbab 4df4 973f
00000320: 00b0 57e5 a539 a73f fd93 0531 58b6 da3f
00000330: 35ab edea 0ee2 bebf 37d4 baf7 5e08 a6bf
00000340: 88fb bf64 4141 ad3f 6a19 64b8 2444 b4bf
00000350: cc67 bab0 fcef a03f 1df7 4497 b14a c13f
00000360: e0d0 0c21 e9e0 dcbf d59a 43a4 49f0 b23f
00000370: 2045 b316 f06c dabf df22 4395 a4ff c53f
00000380: 912c 25b2 83e2 bd3f 2a57 bb54 0d40 a2bf
00000390: 6740 e31d b7fb b03f c8ea f645 afe3 d9bf
000003a0: 829c 8810 1fa4 c43f dfdd e8d6 25ab b43f
000003b0: e27d 9c9c f9ba c63f 31e1 227c 5b2b 88bf
000003c0: 9bb7 310e 17d9 b3bf 5a47 9722 8f66 d03f
000003d0: 6acb 0e1c 4bcf af3f 7f09 b75e d4d9 ccbf
000003e0: 7f08 37a0 fa2a c23f cd18 4aa4 50c1 b3bf
000003f0: 75f1 701b f57b a43f 8d0a 4b9f d0a9 c13f
00000400: 90fb 9379 0127 bbbf 7bf0 77b8 91f4 b83f
00000410: 80fe c31a e766 9bbf 3ea1 0ef2 0a21 45bf
00000420: 62de 69e6 fdbd e3bf 50f4 d3fa e0f0 78bf
00000430: 192b 0ad1 bddd a03f b056 566d 1921 b73f
00000440: 7160 c00d 1a7c bb3f 6aab 98fb b36f 9cbf
00000450: 93ed ea4e 0179 8a3f 97e8 ee10 9a7c ad3f
00000460: 6afa c273 b084 903f d7eb e186 4bb1 c83f
00000470: 3392 b19e c7e2 933f a840 3d0c 660b 783f
00000480: 26a8 081a 6c2c a33f 7f70 3cb8 1a4c a13f
00000490: e6f0 d829 408d c63f de44 318b fba2 7a3f
000004a0: 2c2f c113 4b8a d7bf 2ea0 c4f8 09ea d4bf
000004b0: c068 80ca cca6 a6bf 8f9e 6338 b193 c13f
000004c0: d2d0 3df2 b84b c63f 6796 dec7 3797 c33f
000004d0: e00a b503 e104 cfbf 1c80 4f11 e3d6 613f
000004e0: 686d a807 4490 b9bf 3f92 fe9d af44 cc3f
000004f0: f105 1178 9799 be3f f521 2c66 99a7 e1bf
00000500: 208e 84a8 5bc2 c33f 9b00 0b38 bd3c d6bf
00000510: bd59 df43 aabb c03f fe44 b5ac fbc1 b1bf
00000520: 25b8 9c05 4b75 c43f 207b 4d3e cc74 473f
00000530: 3946 79d3 c0d9 bc3f f75b 38eb 2a76 c7bf
00000540: 00a1 9c9b ad01 aabf 5189 45f8 aa17 c53f
00000550: 67d3 1a11 11ae c43f 639d a607 3c54 aabf
00000560: 9fd5 7917 2e22 c33f dc58 4401 1ced c63f
00000570: 6745 8b3a b543 e0bf 0511 ec27 f808 c43f
00000580: a2f5 7785 546d c9bf a797 3457 7349 c13f
00000590: 58c2 f5e4 99b9 b43f 6226 870d 3f87 b23f
000005a0: 6988 1caf 8db5 c5bf bff7 fe70 5eff c13f
000005b0: b9e0 95ce 9147 c3bf 8185 4b0d 5efa a3bf
000005c0: 76ec 3820 5d19 d7bf 5224 e581 7e5a d23f
000005d0: 7f8a f5d6 4bd9 cd3f 0d86 e5a4 298d c43f
000005e0: 66a8 6589 1a9d c23f b8b3 6be3 2092 c03f
000005f0: cc6a 6ae4 a445 b63f 6ea9 57e8 881c b43f
00000600: e8af 4c2b 2e65 c33f 9015 5435 395e cc3f
00000610: fa55 2a91 a0eb e2bf 22a0 47ee 0efc ca3f
00000620: 301e e27b 8770 d7bf 6a40 5e40 15c2 aabf
00000630: 97ed 0dbd 5323 bd3f 7516 519f 6e34 cb3f
00000640: 08e7 8ee8 8367 c13f 4b42 cd6f 2b5d a03f
00000650: 23bc 24a1 b9e7 b73f 564c 7098 2bd0 48bf
00000660: 7d8b 9249 41ef debf d9e1 ebf3 c59e bdbf
00000670: 0f96 6d5c 8e2c b6bf b77f 3a33 9050 a23f
00000680: ec41 34b2 baa3 623f bd7b 2b94 0f2e 953f
00000690: 3a05 d81a bd9b b53f b8ac f004 fbe7 c53f
000006a0: ae39 5fc1 a0ed c2bf 2563 6f42 4602 d3bf
000006b0: 7222 350c b6ec c23f 9e8b 66ea fd88 a13f
000006c0: f9ed a350 75bf b13f cc43 d88e b045 b03f
000006d0: 593e d87a 4cf8 a4bf 131f 059b 62a2 abbf
000006e0: c4b3 304a 5e0f a73f a437 9060 95b5 c43f
000006f0: 2616 8218 5360 c43f 6142 50bf 26fe c03f
00000700: cabe 1bc5 7287 c93f b4a4 27f2 05c4 d4bf
00000710: 7c28 dc2e 205c e1bf 2c9b 0cc5 b3f4 c33f
00000720: 2672 eb3a d975 b13f c037 095b 88fa c23f
00000730: fa49 fafb c39a 933f 9404 c86a 1478 c03f
00000740: 2572 b51b 7842 d2bf c6f1 d649 8164 d0bf
00000750: 9735 ed91 ff81 c4bf 5c80 4a3c 9198 bf3f
00000760: 2568 4d94 d2c3 c03f d8e2 0b1d 6d9e ab3f
00000770: 82fa 3db1 afc7 88bf f2f7 9489 9749 8f3f
00000780: cd8c 65f1 73b7 c23f cb84 e603 c75e 94bf
00000790: aa11 9d36 33f9 b8bf aa9d c7c5 630a b33f
000007a0: f552 73c1 fe04 cfbf a1b3 7088 b9cc c03f
000007b0: 47c2 53c6 1714 c33f 4eb2 e4dd 5a46 cebf
000007c0: a5da 1a58 dd3c b73f 65de b7a4 bdb7 ba3f
000007d0: 838c a217 1e45 bf3f 737c ad92 fea9 c53f
000007e0: fc2f 3680 08ca e23f 383f 55c4 889f d53f
000007f0: eb24 31e2 f0ae eebf 08d1 2e80 33f4 cc3f

bias_hidden f8 [1, 128]
0.11404204454780355 0.8491529301637869 0.27836899074085425 -0.029654301864918586 -0.052175869645551855 -0.38579667565097564 0.13803414829808713 0.06871740940609156
0.050783629496153934 -0.2982615951738534 0.21707655251943084 0.1531383956218928 0.3015982071206677 0.06252146485654289 1.0790783606746253 -0.5374314329357712
0.12189827488689166 -0.02036025794978979 -0.009902789438099182 -0.044123751416886285 -0.005526739741138119 0.3225025580859122 -0.3540283346154715 0.6230781991523519
-0.03216804526753809 0.6009637920773918 0.7831411761305743 0.411559455433079 0.26117395337033994 -0.020256445401692347 0.159770164962963 -0.4458844196743703
-0.33009885070243283 0.775245011736107 -0.31772117426273 0.3514786339086698 0.9367645526772991 -0.3446648346624173 0.3898609309181638 -0.016261602190087786
-0.14686904069863058 -0.03863934393977026 0.40217080706514885 0.11614690598225771 -0.19595013710742418 0.82117689807246 0.3068726974775711 -0.4905301227519412
0.12933437257571978 0.5970187014895791 0.5901116625091506 -0.37790447699331814 -0.20886264496316118 -0.30129653711920285 0.012968863556031602 0.29820729773472454
0.5134936183203889 0.01748528882320939 -0.14723188285612063 -0.32520441299885505 -0.5179116795905485 0.3815022386977425 0.5788788256146362 -0.6772135309650104
0.2444775426310679 0.45222820933636265 0.46221806157787476 -0.5940256116220615 -0.2938359387227737 0.576115840815214 0.4307625032157364 -0.07856161133581191
0.055002737693829726 -0.13399952834907974 0.12269530931657582 0.1913950935967858 0.7397524116192381 0.6937990339324487 0.4937420793222362 0.13264944904594833
0.6165962412262541 -0.08874574594197919 0.16503483387927056 0.34158077436984907 -0.019199170578180866 0.4093386684284501 0.7326318748674102 0.43338958771885366
-0.1581329459337661 0.14766969418047762 0.21281370225915086 0.06303007949015832 -0.10900358528551275 0.07744352628780818 -0.020025299506167386 -0.20862946462437604
0.08310862259322256 1.0895775902154188 0.21748368525462666 -0.5805211470447975 -0.23616702095697897 0.2470859159980425 -0.013104954494487443 -0.5834829272662014
0.14185605172141616 0.2952725639349163 0.28717878197605384 0.3270518338215721 0.39092578561154745 0.02212613483175714 -0.15344211284335338 -0.3413006920141042
0.08680089960000714 0.14439467405059153 -0.20883647389722376 -0.36705000782618286 -0.05128593346757766 -0.206108122045376 0.22918107386243156 -0.18058066101063258
-0.3139326247642116 0.3201269418618994 -0.6598062018346774 0.05008742766985484 -0.2030359038129487 0.11945841203158458 0.2670190938070284 0.08688292864101628
00000000: 99a8 b303 dc31 bd3f a764 0bc4 422c eb3f
00000010: b1f5 dc2b ccd0 d13f e33a c882 b25d 9ebf
00000020: dd37 89ab cbb6 aabf b8e4 348a e4b0 d8bf
00000030: a8f3 555c 1aab c13f 3ca4 10d2 7697 b13f
00000040: 0661 b7d7 4f00 aa3f e02a 3bcd b716 d3bf
00000050: 2552 e61a 2ac9 cb3f c09d 7af8 099a c33f
00000060: 6364 0791 624d d33f 825b db1e 6801 b03f
00000070: 70b3 ceab e743 f13f 56a6 8967 a332 e1bf
00000080: f9f8 13b0 b934 bf3f 1f40 21c8 51d9 94bf
00000090: fbdb 34e6 e947 84bf afed 9f6a 6397 a6bf
000000a0: 582b 11e7 34a3 76bf c8bd f6c4 e1a3 d43f
000000b0: 8bf8 c175 66a8 d6bf b7b7 06b1 41f0 e33f
000000c0: 39f7 cc7c 5478 a0bf 6cae 216b 183b e33f
000000d0: a537 7415 7e0f e93f 0b75 5c78 fd56 da3f
000000e0: 99ba 12f5 12b7 d03f 1d48 220a 1bbe 94bf
000000f0: d73b b248 5973 c43f f007 13ce 5e89 dcbf
00000100: 66b4 0dee 5620 d5bf 1f66 79a0 cece e83f
00000110: 0d21 2d31 8b55 d4bf 015a 783d a07e d63f
00000120: 5ba2 b9a7 f9f9 ed3f 8134 3d18 fd0e d6bf
00000130: 3506 1243 7bf3 d83f a613 59a6 e1a6 90bf
00000140: b739 4ccf 9acc c2bf b9d3 1e3d 89c8 a3bf
00000150: 200c f09f 2abd d93f beb2 b9ba cdbb bd3f
00000160: 09f5 42e3 e414 c9bf 4d76 2ec6 1447 ea3f
00000170: e1e4 ec61 cda3 d33f 7809 bb74 d864 dfbf
00000180: 040f 3b5a 078e c03f acf0 bff6 c61a e33f
00000190: 35e1 6eda 31e2 e23f b7b0 6c42 962f d8bf
000001a0: e785 bcda 02bc cabf 3bcd 5445 7148 d3bf
000001b0: 5d2d b766 6b8f 8a3f 50bf cc0f d415 d33f
000001c0: 3e81 2c2b 8a6e e03f d48f a0de a9e7 913f
000001d0: 4bd4 e58c 7ed8 c2bf d213 962b 26d0 d4bf
000001e0: ccd9 c183 bb92 e0bf 8daf a35d 886a d83f
000001f0: 7493 0be3 2c86 e23f ade8 fcb5 bbab e5bf
00000200: 207b 1a45 0a4b cf3f 9669 5b96 4ef1 dc3f
00000210: 373d 8610 fb94 dd3f 9ee6 dcff 4102 e3bf
00000220: 9e0a cd40 35ce d2bf cc48 e07c 8a6f e23f
00000230: 52e6 e9e3 9c91 db3f 448b 681f 9d1c b4bf
00000240: 16c2 2b9f 5129 ac3f 0e28 f883 e526 c1bf
00000250: ea25 e3b4 f568 bf3f 8e78 ce69 a27f c83f
00000260: 1556 e13f 0dac e73f 748f 1708 9a33 e63f
00000270: 5346 d660 7899 df3f d40c be3a a8fa c03f
00000280: bde7 5c0a 28bb e33f 63dc 7a8c 0ab8 b6bf
00000290: 552b 1b87 dc1f c53f 4718 b79b 75dc d53f
000002a0: 7c75 f986 f2a8 93bf 3cdb 78d0 9a32 da3f
000002b0: 9101 d266 b871 e73f 497b 6bae a7bc db3f
000002c0: 1e53 9a4b b33d c4bf d1c7 8e2d d7e6 c23f
000002d0: 7cff abb9 7a3d cb3f 1c13 1342 bd22 b03f
000002e0: b5b1 f2b1 a8e7 bbbf e26b b1c4 56d3 b33f
000002f0: 81e9 e219 8381 94bf 7097 c5cb 5eb4 cabf
00000300: 05b2 0d50 9b46 b53f 1be0 46e9 e86e f13f
00000310: d784 ca61 81d6 cb3f b633 a615 a193 e2bf
00000320: 55b5 b38f b83a cebf 0fc4 41e4 82a0 cf3f
00000330: 7a50 c137 c5d6 8abf ee3e 4c63 e4ab e2bf
00000340: 9d0b 71cf 5628 c23f 106b 60e5 bee5 d23f
00000350: 144e 2c1d 2361 d23f 1612 97d0 6aee d43f
00000360: 4e57 1796 ed04 d93f b406 f5c5 3ba8 963f
00000370: 5fe4 3ebc fda3 c3bf 3060 93db ded7 d5bf
00000380: 00a0 0b71 9538 b63f 82c6 6151 867b c23f
00000390: 4ade cc50 27bb cabf 3b0a e750 bf7d d7bf
000003a0: 5ae5 f95d 2642 aabf a1fb cf3d c061 cabf
000003b0: 87f7 8c30 ce55 cd3f 5655 aa60 441d c7bf
000003c0: 649f 20dd 7817 d4bf ea61 77b6 f57c d43f
000003d0: 477e 52e5 211d e5bf 1eca 902f 0fa5 a93f
000003e0: 5d2c 659b 14fd c9bf 3862 e894 d394 be3f
000003f0: 72c2 d340 d716 d13f a507 18a9 f53d b63f

bias_output f8 [1, 10]
-0.5173041101363661 -0.37852291941012456 -0.34397634871603333 -0.17033633014875138 0.42674573611009964 -0.09373339340979672 -0.0804719281505873 -1.0460467704538274
1.948153436871665 0.2554926274444438
00000000: 09e8 6359 c18d e0bf 95c9 e931 b839 d8bf
00000010: 7e4d 1560 b503 d6bf 349f a7b3 94cd c5bf
00000020: 8338 1359 cd4f db3f 4af9 3c63 e9fe b7bf
00000030: 2520 a7eb ce99 b4bf 40f8 d289 9bbc f0bf
00000040: c642 2ff0 a22b ff3f 488d cfbf fd59 d03f
