models/model_cv_digs (12000).npz (npz, 815236 bytes, 4 tensors)

weights_input_hidden f8 [784, 128]
-0.06909425571329576 -0.05058455532756138 0.0973246177513411 -0.021047537584297844 0.057869673519463746 0.0114889656668795 -0.024404914871602817 -0.05739772046978528
-0.06077399803270347 -0.07371992584102013 0.001249113931330133 0.06644054098082258 -0.05264923912169926 -0.00646742250089336 -0.05005597119809786 0.07698338820322462
-0.009023400223727135 0.007252297162776507 -0.02267609864855699 -0.02931690421896397 0.013617615456738891 -0.028935479648140937 0.05590503553254445 -0.00503171892324105
-0.023867706119899773 -0.026969826320411637 0.0013885903509665448 -0.07298233942476232 -0.02308910306671368 -0.0014330590693269313 0.03783938129308621 -0.026083186073857793
-0.0035790496237223988 0.10139422449921491 0.01517007077402416 -0.00324829541687455 -0.06263546315681054 -0.04229976726544012 0.016372654547852434 0.04708624956686527
-0.026126068917892434 -0.06577022262222515 -0.01478809152532225 0.04583492969189457 0.045559424229445505 0.06437927096881986 -0.003354090522081599 0.027905152367996542
0.004352597316366984 -0.0329908911254168 0.1255577078279137 0.030999561409218147 -0.06744235681924808 -0.030179759774496214 0.019317547800334164 -0.01283941348947538
-0.06380216040666217 -0.05121267596395779 -0.0010683189586594216 -0.08292435230098642 -0.041262734134452334 0.005517932756631143 -0.012543738525784895 -0.04614106189520908
-0.018138479448557995 0.033946520508466915 0.07819608728161558 -0.01567735263157176 -0.034825584908102135 -0.005016379982192778 -0.0917935842555629 -0.03157493970869855
0.015654677932456788 -0.077440992170276 -0.03371908301363483 0.05106363268150937 -0.09556081120559763 0.04810396173549924 0.0687198847274747 0.003333080437298948
0.09565299640845432 -0.10874344680172479 -0.04307098741979604 -0.014933218244437616 -0.031587643223949455 -0.0834553992825584 0.004978186433145972 0.0025931854580705615
-0.017872886796283134 -0.026650961550781106 0.007081126294424506 0.03844525601181521 -0.06548187172480092 0.03980168589562932 -0.02326354519663947 -0.0105984130172705
0.11845832297805911 0.0802550262185418 0.061066116965678534 0.039418663438899014 0.02689611969219887 -0.04560481687954306 -0.019813242318178666 -0.0049360408011098755
-0.01427675773811336 0.0565181137356291 -0.008686985991365062 0.005119194478626329 0.03658212435063712 0.015099767384275323 0.06972278670017427 0.11151830073018801
-0.006287191946039056 -0.035870726023418405 -0.09815335358304292 -0.054474561509416895 -0.00955635677562098 0.013393411097570628 -0.028141987029619304 0.017787546747021633
0.028747281579812073 -0.007446418551999337 0.03768700450011639 0.00716929437876442 -0.08102939842355987 -0.027510765301151978 0.01893742063293412 0.003137115229152716
-0.04904751831389041 -0.02865224254611666 -0.07003982742621905 0.07274954540246541 -0.07797258171615593 -0.016676732448682657 -0.11115474401511612 0.06445866094225519
0.03482216359514645 -0.05702598048539146 -0.04251306902575862 -0.05817222643692752 0.02749329357142985 -0.0013898824581776786 -0.058765361472027586 0.03707273640946115
-0.08277990450343514 -0.048737408037086864 -0.01509486275611575 0.015702121258813283 -0.10017798160972943 -0.08683131744375283 -0.0025199080644766926 -0.11466083850884026
-0.014920851442935368 -0.07293846013705903 -0.11037700783243112 0.0037485592370185145 0.03770353367621961 0.03306960604768467 -0.09823178952406646 0.02612464770359516
-0.03378708827474629 -0.03286531131051472 -0.08699711301556284 -0.04289680250763477 0.07444773864494322 0.015438427935582888 0.05695271798661804 0.0011996875654337491
-0.028912137971529417 0.05528187667100361 -0.096282466409896 -0.08326772642816377 0.04633224552866801 -0.02421533841046255 0.056569784033640345 -0.029919011228747544
-0.01592010102178657 -0.0436522122414826 0.034726643081146924 -0.036136212907602605 0.004689677956241834 0.07220635424557047 -0.03217847036506087 0.028161010312000915
0.05960260901418635 0.03774175142965955 -0.01402303251386564 0.004015626197299846 0.007177497116156985 0.03697813513639065 0.0029155879781729297 -0.13902670590035734
-0.003697987068094122 0.029788914808219002 0.02688098902846347 -0.05682572004937527 -0.005564539218088026 0.01108243218646192 0.017722119997612286 0.018484515978590726
0.016866815216032737 -0.05665539666256358 0.014425152739460979 -0.03396681139784795 -0.011532505142451757 0.010619021625670154 0.06885209201169455 0.043197466281158496
-0.056829601784439424 -0.026639066728383773 -0.02344083430044442 -0.02962208204858811 0.0038719044411510647 -0.05611558389133123 -0.025689112925484973 -0.021873604786505383
-0.05863027594130101 0.018544751265018745 0.010918739702137553 -0.09016243436501607 0.043253262303166146 -0.0020415693431160837 0.02287135833506722 0.10737675722376853
0.0207824508416682 -0.06957627562856972 0.028678166133518083 0.014180452237297796 -0.06144557590166878 -0.03921053133547526 0.014573398041365761 -0.07719539785194728
-0.02760295259174495 -0.052328328937223056 -0.026663655327466135 -0.02939164177592605 0.0051068047034436865 -0.062033263462682016 0.022020265323621432 0.019771905240528527
0.08721445715379911 -0.1520323471419807 0.04274868174809849 -0.05351975313042765 0.05138533711834072 0.10183342056634824 -0.10445190123799375 0.09558181089276607
-0.05150318463413735 -0.020908867992703955 -0.03158641390518669 -0.051824211725027707 -0.13534711089331103 -0.0687120842567775 0.029508777491608313 0.0038794485232513816
00000000: 094c a140 29b0 b1bf 7510 a105 38e6 a9bf
00000010: 3c74 5622 44ea b83f 92f3 5756 7c8d 95bf
00000020: a680 6406 18a1 ad3f 78d3 6ede 8687 873f
00000030: c8d7 f01c 9afd 98bf 1cbb 90e8 3b63 adbf
00000040: 53c9 fefb c41d afbf 6efc 8c1e 4fdf b2bf
00000050: bb86 fade 2977 543f 6c24 a44e 3f02 b13f
00000060: 1ebc 5f50 d7f4 aabf e68e 1782 957d 7abf
00000070: badb 87ae efa0 a9bf 0a0a abee 2eb5 b33f
00000080: 3084 e046 dc7a 82bf 62f4 28b2 95b4 7d3f
00000090: 78bc 6238 6738 97bf aa95 5c23 4005 9ebf
000000a0: fd21 4a68 8de3 8b3f 86a0 212b 43a1 9dbf
000000b0: b186 96b6 959f ac3f 77dd 7cc3 239c 74bf
000000c0: 48ae dca4 c670 98bf 3691 1968 fa9d 9bbf
000000d0: cabc 4689 2bc0 563f 2ad2 0379 f8ae b2bf
000000e0: ad14 437a aba4 97bf b6f2 8075 af7a 57bf
000000f0: 2632 4ff2 ae5f a33f 519b a6fc 8cb5 9abf
00000100: 6b71 b5a2 cf51 6dbf 8b37 3ace f8f4 b93f
00000110: a1cb d16e 7c11 8f3f 07c3 a952 2b9c 6abf
00000120: 660c d4b1 e008 b0bf db23 11aa 50a8 a5bf
00000130: 85b1 533f fec3 903f 1343 f65b b01b a83f
00000140: 1133 4dce cac0 9abf 7c8d 363b 51d6 b0bf
00000150: 0aa9 c50b 3849 8ebf 2911 1508 ad77 a73f
00000160: 241c 2e9a 9053 a73f 95f5 59ef 287b b03f
00000170: 348b 34a3 097a 6bbf 89e4 3d13 2b93 9c3f
00000180: 2cf4 0572 07d4 713f f72c e69c 2ee4 a0bf
00000190: aed8 7064 4612 c03f ea90 c559 59be 9f3f
000001a0: 9b61 e7fc e643 b1bf 0f2e ee64 71e7 9ebf
000001b0: 2c58 2ab0 fac7 933f 8504 4ce8 8c4b 8abf
000001c0: c65a 5ca0 5655 b0bf c8ca cf40 8c38 aabf
000001d0: a10d 4ebf da80 51bf 63ba 2cc5 873a b5bf
000001e0: ec51 4d9b 6320 a5bf 783b b3cb f899 763f
000001f0: e50e e715 88b0 89bf d36d af1f cd9f a7bf
00000200: 4c76 1fc0 e492 92bf 1031 cb36 7061 a13f
00000210: 2bb9 8ca5 a804 b43f 9ca1 5c53 b90d 90bf
00000220: 0b1e 7db8 a8d4 a1bf 3638 7c3f 0e8c 74bf
00000230: 353a 5cca c87f b7bf 9514 d82a 972a a0bf
00000240: 614c ffa6 c707 903f 88ba bd40 2cd3 b3bf
00000250: 15df 96ad a043 a1bf af9a c330 0325 aa3f
00000260: fd42 e85e ac76 b8bf df8b ec1c 15a1 a83f
00000270: e848 7d59 a097 b13f ddee 23ef f94d 6b3f
00000280: 24b6 56fb b67c b83f f2ef aa4b 9cd6 bbbf
00000290: 19b8 bf84 660d a6bf c501 df9f 4e95 8ebf
000002a0: 5e8b 356d 412c a0bf a0dc 9742 555d b5bf
000002b0: 0fb1 c7be 0164 743f 571a 84d7 4d3e 653f
000002c0: f2bf 1921 454d 92bf cdfa 11c1 634a 9bbf
000002d0: a085 a75d 1901 7d3f caa1 83ba 18af a33f
000002e0: 81f4 8981 6bc3 b0bf 37aa 7ef6 e260 a43f
000002f0: 8dfd 3b17 66d2 97bf 05b1 63ea 9eb4 85bf
00000300: 8e38 21df 4853 be3f 24c1 f2e8 978b b43f
00000310: 1fc9 85de 0e44 af3f 93ea a4dc ae2e a43f
00000320: c682 de09 a88a 9b3f 3b4e 13ba 8359 a7bf
00000330: b21f 232f ec49 94bf 00f4 ff5c d037 74bf
00000340: 16f9 9ffc 213d 8dbf d194 4034 f1ef ac3f
00000350: 35aa de85 7bca 81bf a38a e14d ddf7 743f
00000360: cf8b 6867 e4ba a23f c2c9 bd78 a0ec 8e3f
00000370: 97c9 a940 5ad9 b13f 9aa9 8a9e 768c bc3f
00000380: 47ac ab3c 99c0 79bf 0908 4fd6 a55d a2bf
00000390: cac3 a103 9420 b9bf a334 4bf8 16e4 abbf
000003a0: 15c5 8f7e 4892 83bf 79e7 2a35 016e 8b3f
000003b0: b526 bfc7 40d1 9cbf 7ad6 370e e636 923f
000003c0: 18d1 ef68 ed6f 9d3f f65c 73c2 2280 7ebf
000003d0: 4cd9 9f07 b64b a33f d568 46ce 8c5d 7d3f
000003e0: fb65 3eb8 57be b4bf 4e88 0635 c82b 9cbf
000003f0: 1dfc 27c9 5464 933f f60c 04ea 01b3 693f
00000400: 8e5b 379e c11c a9bf 0441 c572 0357 9dbf
00000410: 5f8d 3650 21ee b1bf c36d 4dd6 b69f b23f
00000420: b6a0 74d8 02f6 b3bf 2b8b e291 b413 91bf
00000430: bd15 5726 a374 bcbf 5ae1 b0e0 5c80 b03f
00000440: 005d a2eb 35d4 a13f c507 6a62 8232 adbf
00000450: d687 3ce2 45c4 a5bf 5d0a 2a04 c0c8 adbf
00000460: c895 feb2 3327 9c3f 2187 00ed 96c5 56bf
00000470: 7ee8 5153 7e16 aebf bb5a e79c 32fb a23f
00000480: bcb6 9b56 1031 b5bf 87e1 380b 1cf4 a8bf
00000490: d641 002f 0eea 8ebf 7641 2385 3714 903f
000004a0: 1e07 cba2 43a5 b9bf e883 b0c4 933a b6bf
000004b0: 4832 3a57 a1a4 64bf 1a04 87a7 695a bdbf
000004c0: 209b cec7 d28e 8ebf cdc5 e84c 18ac b2bf
000004d0: 72e1 dee6 aa41 bcbf a049 906a 4cb5 6e3f
000004e0: b37e 2aa8 e04d a33f 39cd eed8 7fee a03f
000004f0: abf4 6ef3 b725 b9bf 299e 066e 6bc0 9a3f
00000500: 2e8e 558e 8a4c a1bf 2ec7 80da b8d3 a0bf
00000510: dc8d 3f5b 7145 b6bf 371c bfd7 91f6 a5bf
00000520: 66be bdca 010f b33f ad0a aeb8 2e9e 8f3f
00000530: be77 571a e828 ad3f cd21 f9b6 daa7 533f
00000540: 103e 2ebc 249b 9dbf 3218 baf8 e74d ac3f
00000550: ffa1 68bc f7a5 b8bf ac3c d2a1 0851 b5bf
00000560: 737c 972e dcb8 a73f 6656 23da e7cb 98bf
00000570: 8387 bbf8 b6f6 ac3f 4846 06db 16a3 9ebf
00000580: aa4a f3e4 5b4d 90bf db4f f32f 9559 a6bf
00000590: 30b2 aac8 b0c7 a13f 8065 4719 7280 a2bf
000005a0: 5a9a 36d7 7b35 733f 5351 0c9a 1d7c b23f
000005b0: 16dc b44b b279 a0bf 01dc 3f69 3dd6 9c3f
000005c0: e0c4 f1b0 3b84 ae3f 9415 2b08 e352 a33f
000005d0: d368 4d90 1bb8 8cbf caba 0b73 b072 703f
000005e0: 68b1 18b6 2666 7d3f 19de 2752 ccee a23f
000005f0: 02c3 7960 6ee2 673f 276b 8e89 a0cb c1bf
00000600: 3483 97b0 3d4b 6ebf a3dc 893b fc80 9e3f
00000610: 9ea8 0ba3 b086 9b3f 5310 5ec2 4218 adbf
00000620: bf0d 589f d7ca 76bf 596e 68de 62b2 863f
00000630: 7add 3857 bf25 923f 4b16 71de 9aed 923f
00000640: 034f f6ce 8845 913f 1f80 9da7 ef01 adbf
00000650: 7adb 0b3a ef8a 8d3f fed0 3410 1964 a1bf
00000660: 0819 6ca3 5a9e 87bf ac3b c8f4 6cbf 853f
00000670: ab8f 736b 4aa0 b13f df30 e571 fa1d a63f
00000680: e2bd 3702 c518 adbf bcd5 9381 4547 9bbf
00000690: c26f d8c2 df00 98bf eb6d 8d46 4055 9ebf
000006a0: 35dc 55de f8b7 6f3f a4ea 378b 2ebb acbf
000006b0: 2e49 832f 3f4e 9abf c98e d0c4 0866 96bf
000006c0: 135a 729b c904 aebf 3d68 c830 65fd 923f
000006d0: 1047 796f 905c 863f f3ec eca2 e214 b7bf
000006e0: 2c27 13a6 4a25 a63f 3f59 f531 7bb9 60bf
000006f0: 74c0 41e0 966b 973f 036a a00c 0b7d bb3f
00000700: a463 c8aa fe47 953f d8f5 6634 c0cf b1bf
00000710: 4e61 9c26 cf5d 9d3f bc3f d014 a40a 8d3f
00000720: 218e f665 cb75 afbf b142 7d1b 6713 a4bf
00000730: 6184 d55f a8d8 8d3f af02 2ddd 13c3 b3bf
00000740: 024b 9eca f243 9cbf d020 e15a c7ca aabf
00000750: f53d 7e9e b74d 9bbf ea3a d0b0 d718 9ebf
00000760: e27a 0373 dfea 743f d138 aceb d2c2 afbf
00000770: 3c23 a8fd 7a8c 963f 42fc 8c19 163f 943f
00000780: 1cc6 36c9 af53 b63f b157 74c3 cb75 c3bf
00000790: 8942 1cbc 27e3 a53f 5d36 c5ea f066 abbf
000007a0: 539c d5cc 2d4f aa3f 4fe7 f84a c111 ba3f
000007b0: 087c d21b 5cbd babf a87b e0af 0c78 b83f
000007c0: da74 491b a05e aabf 1b72 e660 2269 95bf
000007d0: 21ff 702d 182c a0bf 8ffc fffc b388 aabf
000007e0: a68a 72db 0d53 c1bf 140d b97a 1d97 b1bf
000007f0: 85e9 1589 8c37 9e3f e38b 1511 cbc7 6f3f

weights_hidden_output f8 [128, 10]
-0.2041002412370374 -0.007690350519685426 0.004093027824853252 0.08852846187348838 -0.014619160020961499 0.046623210263811804 0.048031468561845855 -0.21818675987936653
0.1036096097428366 0.10602759268079325 0.08490396206580532 0.08309712296570906 -0.1403492171417196 -0.05392039745151949 0.065704617115779 0.2852778528035478
-0.4640273069372737 0.4065892315179484 -0.6066340811122716 0.19257284584699466 0.054890970076000634 0.11514852071512598 0.09732556921832031 0.12962483831810168
0.013350400291276753 -0.008123305803561602 -0.5103653305422394 0.1275219867386662 0.07181949900411631 0.11667549807856817 -0.040283421097288274 0.09727760640378945
-0.055600079713301366 0.07778645966411984 0.3338833201374554 0.035292478820497415 0.1139145463171242 -0.125429332236012 -0.018856980245346103 -0.08451311773932876
0.029785465413946634 0.11890232049338222 0.22516892576957603 0.21971466471702913 -0.020794652074365833 0.04897558617175469 -0.2158741449341948 0.3301582277585973
0.06035914601452379 -0.5117146962609307 0.10369049894901958 0.054209658060426755 0.07349872635506186 -0.03096389688885762 0.13359786872754256 -0.159886121658563
0.04897220713429272 0.08302406652775599 0.0803433902279177 0.13722837453841394 0.06748833488208128 0.008871493460510355 0.03996801627833572 0.12948537418384204
-0.1137467809486418 0.13862597468768928 0.09577619283041966 -0.19911851750423865 -0.00950773429988214 -0.29915816385605065 0.24757956021021674 0.015254790514173727
0.06794806655388597 0.004957629403916207 0.0011439024483339679 -0.35580210613250557 0.0860644761083686 0.03850366450404714 -0.014620091805372232 0.0384841207241733
-0.01102851700447018 0.016333187893914223 -0.047068729845439396 -0.24458101455357642 0.07222524020398834 0.002660027537651331 0.10623322037926686 0.03345283406501276
-0.0011713009872204483 0.06447942075942094 0.11248628524594154 0.029891138082008894 0.01631262227829291 0.11906138230233537 -0.08883060731688135 0.08443653749583872
0.09729551224173225 -0.23743868731045437 0.11306728847802847 0.050459006233402125 0.02348971082891764 0.3352655901600325 -0.05459520412285102 -0.01097010617803248
0.033202809618891584 -0.047892578571665935 0.004752497208021191 0.08017682071380193 -0.32970847407121556 0.03431673373898803 -0.39018018125037074 0.16361387130616284
0.11012100481104983 -0.05717263046855954 0.055886620808645725 -0.3555502527456476 0.17372980368204005 0.06175292105369856 0.15451688720335946 -0.00715694276536947
-0.03637286951232915 0.24598435747169164 0.03569235446827541 -0.16634418525688235 0.10522864546829815 -0.0397900342185533 0.0257419310756806 0.11540556942365168
-0.11251772774528557 0.07687000219589367 -0.04139409339850636 -0.01955999292118677 -0.3927206896906651 -0.05131970317477192 0.024331080716112986 0.053804992571729
0.07422939467963521 -0.036314293355072746 -0.014080951782980657 0.02561150181913333 0.0140494436526298 0.1815313540012037 0.005826881248526018 -0.00905729402877251
0.02713918109002464 0.03053975040319964 0.18519942635567085 0.02094649351922581 -0.351135742398769 -0.311593725474401 -0.06137483331931372 0.13811489615435038
0.1715460871130269 0.1574968604783581 -0.22349841642976526 0.005893578886349828 -0.09982344454092251 0.2243149843099464 0.11319672567613871 -0.5570289264989429
0.11272372146925008 -0.20834741475726795 0.11230162138456226 -0.010474616823116921 0.10748981551863462 -0.011760517436143198 0.08986430406110606 -0.17630095946399765
-0.06463179795579753 0.12142061348855288 0.14230885828192497 -0.047343145400644986 0.12657013156117095 0.16870579419216328 -0.4798900629079217 0.16157448055949905
-0.17072355895176833 0.11987732356417347 0.08851287814086203 0.06731077795483506 -0.19720291496817996 0.15231090259116734 -0.07674733371912658 -0.04099000468619958
-0.37294240775229204 0.3079409593081731 0.22789231602163698 0.14787566747386688 0.12946248998964546 0.0986188212942284 0.06933570437558419 0.053472525035459295
0.13750374942064 0.1809000514064097 -0.4613929295508215 0.1771967783385101 -0.31162976224058586 -0.03611712284712079 0.09991680030674525 0.1569984960944183
0.16201965197154652 0.03904489639896288 0.09170109060760677 -0.003414309053276469 -0.5263807948939193 -0.13369901041207044 -0.04662476453269971 0.02616711999931374
-0.0025481467494968026 0.026977893856417766 0.06382438224698649 0.19948004957532364 -0.14639968958177277 -0.2873714115718412 0.14450011889805262 0.014269802746938648
0.053398974721299064 0.061246978780933915 -0.021708649274403982 -0.05049281019794318 0.037378730739609414 0.142796440327866 0.1382168190387893 0.12001680635597035
0.20370023047080094 -0.27473711627347824 -0.5112664368840745 0.15236873305652615 0.054212865294137665 0.1411592407825914 0.00977357517016553 0.118568874907206
-0.23791463852077005 -0.23444232901564943 -0.1618294319833355 0.11465171685933508 0.09878774901983806 0.0217468946563263 0.003645786451838023 0.024438741965349932
0.11568581788541488 -0.023779662527018162 -0.0683313969111394 0.0444632798634987 -0.14914366676140475 0.0959974064741465 0.10566883990502357 -0.19450352862981965
0.09496920710023073 0.0788040382314205 0.16109451866946045 0.03885834443429258 0.6335088158329983 0.19867263414112316 -0.3711306996113357 0.03155096468548942
00000000: 3001 9cea f41f cabf c913 a1bf ea7f 7fbf
00000010: 2dca 63ca d9c3 703f 5706 8320 cda9 b63f
00000020: eeeb 7a71 a6f0 8dbf e49c a256 ffde a73f
00000030: 56d0 4da5 9497 a83f 1811 0d33 8bed cbbf
00000040: 1795 65cd 2886 ba3f 33a1 09d3 9f24 bb3f
00000050: f99a 5f1c 44bc b53f 7a87 8761 da45 b53f
00000060: 2a4a d290 f6f6 c1bf 877f 484f 749b abbf
00000070: 775e b58d 04d2 b03f 241e 040a fe41 d23f
00000080: 62c7 ef96 9fb2 ddbf 839f 11d7 8e05 da3f
00000090: db84 60e0 8b69 e3bf c957 811d 3aa6 c83f
000000a0: 30ef a452 ab1a ac3f 937c a79a 5f7a bd3f
000000b0: 0c76 db18 54ea b83f 1cab a9f4 8b97 c03f
000000c0: 79c8 1d65 7457 8b3f 4ff8 17a6 f3a2 80bf
000000d0: e31d 76ac e954 e0bf 5321 48f5 a352 c03f
000000e0: 9f12 703f c362 b23f 2af1 7d08 72de bd3f
000000f0: 8821 5e50 07a0 a4bf ff2e 236a 2fe7 b83f
00000100: 3d18 0c18 9d77 acbf 843a 543c d0e9 b33f
00000110: b1e5 2a25 585e d53f a959 a814 db11 a23f
00000120: 7a81 f8f2 8029 bd3f 4ed6 f47f 110e c0bf
00000130: 6100 d285 3e4f 93bf 7efe c5d4 a6a2 b5bf
00000140: b76a 65bf 1480 9e3f b705 f0e9 6170 be3f
00000150: 6cbd 20da 55d2 cc3f afa3 b431 9c1f cc3f
00000160: 4549 5d7a 314b 95bf c1fa d1f9 5313 a93f
00000170: a1ac 4594 c3a1 cbbf a99f aef9 4f21 d53f
00000180: 5632 4bdc 64e7 ae3f 3c58 aa7f f75f e0bf
00000190: 9657 e4e5 758b ba3f 7e66 fe48 5ec1 ab3f
000001a0: ea1d fe01 d0d0 b23f 6939 faf1 ffb4 9fbf
000001b0: 2903 8026 bc19 c13f 91cc cdff 2577 c4bf
000001c0: ee04 1c98 e212 a93f 1284 84b2 1041 b53f
000001d0: 488a 7a69 6291 b43f 9fe4 5c0a b390 c13f
000001e0: c816 2e5f ea46 b13f 1d8f 3cb2 372b 823f
000001f0: 5557 9a15 b076 a43f c207 b70b fa92 c03f
00000200: 0a1f 3350 821e bdbf aa72 d4f5 7ebe c13f
00000210: ac29 f1df c984 b83f f6b6 5a30 b77c c9bf
00000220: 7233 047f ca78 83bf 1ef6 8548 6825 d3bf
00000230: 9b66 21e1 afb0 cf3f e3f7 ec52 e73d 8f3f
00000240: 28e5 ac63 0b65 b13f 0bf6 7c82 734e 743f
00000250: 3904 bfe6 dfbd 523f 57f8 6b32 76c5 d6bf
00000260: dd99 3b4e 5208 b63f 295f a497 c0b6 a33f
00000270: 6a46 5981 23f1 8dbf 82ed d9cf 30b4 a33f
00000280: 8a52 dc7e 1e96 86bf 1909 60af a5b9 903f
00000290: 6d6a b37e 6419 a8bf 4574 5d41 6e4e cfbf
000002a0: 2733 9f74 5a7d b23f 9643 fb68 7bca 653f
000002b0: 2018 47af 1932 bb3f d015 89d8 ba20 a13f
000002c0: d2c2 c4db ca30 53bf 993e 6d2b b981 b03f
000002d0: 9a3d 61b4 e6cb bc3f d381 0252 c89b 9e3f
000002e0: e600 ca8c 41b4 903f 5c80 3487 ce7a be3f
000002f0: 9b50 4f49 9abd b6bf a3d1 2107 a29d b53f
00000300: ee34 20d3 5be8 b83f 70db 6612 6464 cebf
00000310: 16b2 4252 faf1 bc3f 6b4b 1f4b c3d5 a93f
00000320: 8cf6 35cf af0d 983f df88 4dce fd74 d53f
00000330: 01c2 7310 e7f3 abbf ed78 25ba 7e77 86bf
00000340: b59b e56a f5ff a03f dd71 5f45 6085 a8bf
00000350: 8f13 53c1 5a77 733f d7ef dcd6 7786 b43f
00000360: 5565 5692 f119 d5bf e19e 3a82 f691 a13f
00000370: e921 814b b6f8 d8bf 3a49 37a1 4cf1 c43f
00000380: 4a20 44e2 e330 bc3f 7a71 2d24 bb45 adbf
00000390: a36d 50d1 2b9d ac3f 4122 e8d8 55c1 d6bf
000003a0: 88d2 9338 c73c c63f 9059 b730 149e af3f
000003b0: 55ec 9b98 35c7 c33f ea9d dd31 9950 7dbf
000003c0: 28c5 08fa 769f a2bf 0b91 5559 6a7c cf3f
000003d0: 9924 51ae 4446 a23f 016f c729 c44a c5bf
000003e0: 1983 e3b6 43f0 ba3f fece 59ff 5b5f a4bf
000003f0: 097a 6cc0 175c 9a3f 5a6a 732a 388b bd3f
00000400: 30e0 e238 f6cd bcbf 3f8d 79a1 c0ad b33f
00000410: 98ce c94a 9b31 a5bf 923e a0e7 8807 94bf
00000420: 2ec6 abf5 5522 d9bf 6959 8d7d 9346 aabf
00000430: fae3 ce2f 3fea 983f e108 eaf6 538c ab3f
00000440: 6a08 8d96 b200 b33f 10be ac7c c997 a2bf
00000450: ce52 3c5b 79d6 8cbf e9c5 dbca e639 9a3f
00000460: 2ccd 1e68 f4c5 8c3f 551f 515e 6b3c c73f
00000470: e8c9 6686 eddd 773f 7292 266d a18c 82bf
00000480: d833 e39c 5fca 9b3f 77c7 d6f4 cf45 9f3f
00000490: a7c0 b763 9db4 c73f f817 8662 ff72 953f
000004a0: 1acd 830c 0279 d6bf 6449 23cf 26f1 d3bf
000004b0: 72cc ceab 856c afbf 3964 09b9 bfad c13f
000004c0: b51f f4e0 38f5 c53f a415 7d6c db28 c43f
000004d0: 5606 a39a 989b ccbf b51b 2c89 dd23 783f
000004e0: a065 ad7d 078e b9bf aa96 ce78 5ab6 cc3f
000004f0: a915 cbea 75fa bc3f 75a5 c753 2ed3 e1bf
00000500: a49f 3139 76db bc3f b157 4bca 20ab cabf
00000510: 926c 228f ccbf bc3f 0c1f 8c45 b773 85bf
00000520: 643c 4eda 7384 bb3f 5d9d 2dee e515 88bf
00000530: 232f 05d7 5801 b73f 865d 93a3 0791 c6bf
00000540: ef77 80a2 b58b b0bf fc5b fedb 6b15 bf3f
00000550: 7040 203a 2d37 c23f 7fff 5e5a 5c3d a8bf
00000560: a152 da37 7333 c03f f1bb 59c6 2698 c53f
00000570: a05a 77cf 84b6 debf ab84 effa 78ae c43f
00000580: a662 2d03 45da c5bf 8079 3dc0 47b0 be3f
00000590: 46cc e3ac c7a8 b63f 56fd fb75 473b b13f
000005a0: f76a 3bf3 f13d c9bf e905 ba74 ec7e c33f
000005b0: 19fc 6098 b6a5 b3bf 6a23 2e53 a4fc a4bf
000005c0: 189b 25d5 49de d7bf 46f5 54ff 4db5 d33f
000005d0: dd4b 294e 932b cd3f b253 d601 97ed c23f
000005e0: 7f39 4814 3a92 c03f 4991 3a44 153f b93f
000005f0: 7dfe bc16 fcbf b13f c00f 8634 c060 ab3f
00000600: 4365 6b0d b999 c13f d24f 519e bb27 c73f
00000610: b5b0 c135 7687 ddbf b4d1 f54f 62ae c63f
00000620: 0b26 52f5 bdf1 d3bf 7472 e88a f17d a2bf
00000630: 6370 a3bd 2594 b93f 3494 1fd7 8618 c43f
00000640: d377 4359 0fbd c43f 1bf0 3752 b1fd a33f
00000650: dfcd 2a01 b979 b73f 3cbf 1c37 53f8 6bbf
00000660: d1fa 6989 1cd8 e0bf a41b 9d96 0c1d c1bf
00000670: f10a b47d 33df a7bf 1a9f 82b2 8dcb 9a3f
00000680: 483e 8bde d9df 64bf f626 50cf 17a0 9b3f
00000690: 872e 7072 cb56 b03f 5db3 90f0 8f88 c93f
000006a0: 61fa 729b 39bd c2bf 1669 a00f 4b64 d2bf
000006b0: 31b6 77da fa7e c23f b0a1 f280 7c39 8d3f
000006c0: 20c5 2244 1c57 ab3f d592 af95 c35b af3f
000006d0: a412 b2ca ca3a 96bf 4373 f790 31da a9bf
000006e0: e26a 2f14 4e23 a33f 55c1 985c 2747 c23f
000006f0: 16ae c3b6 16b1 c13f 11ee 44e2 6bb9 be3f
00000700: faa5 0762 d912 ca3f 8515 59fc 4a95 d1bf
00000710: 9eb4 3e6e 4b5c e0bf ee92 b492 d180 c33f
00000720: a9ea ebe6 c9c1 ab3f e63e 5889 8111 c23f
00000730: 8251 c40d 2b04 843f 7eca 0ca0 875a be3f
00000740: f2da d7a3 fc73 cebf f0cb f5cb 3402 cebf
00000750: 0608 f3aa d3b6 c4bf 1152 579e d059 bd3f
00000760: 0c21 4967 274a b93f 249a 5a65 d144 963f
00000770: 3fe4 85b2 c4dd 6d3f 6a7a fc35 7806 993f
00000780: 58ca 6df4 959d bd3f c92e 7423 b259 98bf
00000790: 8ef9 059b 2a7e b1bf 5af3 c519 e4c3 a63f
000007a0: 1fa8 92c1 2317 c3bf c3a9 4e39 4993 b83f
000007b0: 8c2c 99f3 1c0d bb3f 73f9 35db 7de5 c8bf
000007c0: e95e 9fe6 e64f b83f bb26 ff5e 802c b43f
000007d0: 5c06 a0c4 be9e c43f 4e42 0bad 3de5 a33f
000007e0: 8f5f b747 b445 e43f a986 1fd9 1a6e c93f
000007f0: 8cd3 57fa 9ac0 d7bf bb7d f6b2 7227 a03f

bias_hidden f8 [1, 128]
0.12202561433801128 0.45317271039326984 0.25276464588962916 0.01629114005176269 -0.07536682714700112 -0.27570647424110906 0.14846351318328346 0.030404593028815274
0.1011317750464607 -0.1728974425383285 0.2763289011191664 0.15486996486196297 0.2932661232470637 0.14112771856411255 0.8101445211144684 -0.44348786780895344
0.1547866273314935 -0.0049683621034290375 0.02249018424805671 -0.051011697847667785 0.046706260007289134 0.27847415969177447 -0.1853865911732493 0.4653605065600743
0.00543012627431451 0.08256100267565432 0.18971157472891848 -0.09393935937507246 0.26349762580176395 -0.004471013360625854 0.1982624094470213 -0.30262397701588184
-0.14306665448027772 0.6643411675064222 -0.16090101467915852 0.1470534624309699 0.5199095140620604 -0.23173748208752604 0.27005578564628496 -0.047203374069108066
-0.10768364814179476 0.10227358252415814 0.2676738812317147 0.1480627116940055 -0.10226215637711106 0.6020682943543422 0.329812152225626 -0.2666475576946537
0.16219129942572583 0.4614937351837064 0.5482879697853792 -0.2604932341688272 -0.0831977060423852 -0.2005350768299414 0.12331733791071979 0.20141179082926408
0.3902038174153582 0.025564199521001262 -0.0950649398929341 -0.17838176617089188 -0.3582134183037674 0.34164341086220534 0.400492182167223 -0.431384014424648
0.22847122626854857 0.2807676037784113 0.4016017530887037 -0.4050012161812545 -0.12901546344678264 0.45291571920087664 0.2788609802989247 -0.036517602203304717
0.03721813645022219 -0.007202466824807451 0.11022183134352653 0.24208774259998575 0.40107608684690677 0.31634448130291937 0.45973490540189926 0.14252966206508277
0.44090102608704085 -0.0021553846563516998 0.11821159067692771 0.3355967706044734 0.020584283509656257 0.328817028312788 0.63478718119706 0.3479094286223541
-0.08397291646487971 0.23078141438656516 0.13522498646711487 0.01907097079389716 0.02469163568854807 0.04096737701200265 -0.05514206948567859 -0.0860827843689087
0.10134691741218489 0.4239546458956716 0.1772205958374339 -0.5637485090637394 -0.08035951526341463 0.10405406568356428 0.004870056693928919 -0.39676597448466383
0.026578727426507572 0.2566612666436689 0.2701248940231921 0.2661182675771007 0.3109167225795171 0.04277079798157682 -0.07201306579093894 -0.25519560383133194
0.1606004926499766 0.05561497709971547 -0.10507552228750015 -0.15241707797162338 0.06662624111670083 -0.07653673517074312 0.18678752108870836 -0.058373480604543185
-0.2035939216008349 0.25739079234070134 -0.4975977165745887 -0.01694233877877528 -0.05184553293423953 0.22171607117108075 0.19770875577963432 0.10588084993649469
00000000: 3727 db16 123d bf3f 9f0a a51c c800 dd3f
00000010: 2595 ebc3 4b2d d03f c18f f2e6 9fae 903f
00000020: 2db6 cc89 3d4b b3bf 504e 8ac4 2ca5 d1bf
00000030: 71bf e236 da00 c33f 03eb d3b2 6122 9f3f
00000040: d435 69a2 c5e3 b93f 00d0 a1de 8021 c6bf
00000050: a2c5 4f6a 5faf d13f 927e 1b6d c7d2 c33f
00000060: e8bb 1746 dfc4 d23f cc5e e51b 7910 c23f
00000070: 120c e733 b4ec e93f ea61 1af0 1a62 dcbf
00000080: 909a 1f57 0cd0 c33f b58c fb8b b459 74bf
00000090: 8040 4eb7 aa07 973f 9f36 f08b 341e aabf
000000a0: 1be3 7f06 e2e9 a73f 6e10 2a48 85d2 d13f
000000b0: 205f 1a71 bfba c7bf 00a2 216f 77c8 dd3f
000000c0: 9169 2e6c e63d 763f 35ba 6ac6 b722 b53f
000000d0: 1a12 9108 7848 c83f 77b8 52ec 680c b8bf
000000e0: 2a1a 5925 25dd d03f 1b33 9f82 3250 72bf
000000f0: 6ff1 4ca2 a960 c93f dc31 11f5 305e d3bf
00000100: d209 1215 0250 c2bf 0773 7a68 4842 e53f
00000110: 8858 f889 6798 c4bf 4ac9 f3d9 a5d2 c23f
00000120: 5ed3 f846 19a3 e03f 3a62 69e5 92a9 cdbf
00000130: 7e91 dc0f 9848 d13f 277d c667 0a2b a8bf
00000140: 283e 15d3 2791 bbbf c49e 2ffc 992e ba3f
00000150: f38c 78a1 9121 d13f 63cd 3d0c b8f3 c23f
00000160: cc14 4249 da2d babf 9bbb 46ba 2444 e33f
00000170: da79 e86d a41b d53f fdd5 f6ea c010 d1bf
00000180: 9b57 5d3b afc2 c43f da10 fb04 1d89 dd3f
00000190: 0f97 6036 938b e13f 8666 65d0 ebab d0bf
000001a0: 61e4 8de2 714c b5bf afbc 5726 22ab c9bf
000001b0: f337 5b9d b991 bf3f 50fb 518f dcc7 c93f
000001c0: 41b1 a46e 19f9 d83f 9381 9063 802d 9a3f
000001d0: 8a1b d607 2d56 b8bf bd0e f4b5 36d5 c6bf
000001e0: 5a98 26f9 f7ec d6bf 1503 2353 7cdd d53f
000001f0: b98f 2df6 a9a1 d93f c625 7eb2 cb9b dbbf
00000200: 5d41 738e 8b3e cd3f c14a 00af 18f8 d13f
00000210: 6010 e2d6 d7b3 d93f 7ead 9538 8aeb d9bf
00000220: d152 1726 9483 c0bf 31f9 7336 92fc dc3f
00000230: a2eb a0b9 dbd8 d13f 6410 6266 6fb2 a2bf
00000240: 9e58 be6d 410e a33f 32bf 6877 5580 7dbf
00000250: fcf8 ec78 7f37 bc3f 235d 9d2c bbfc ce3f
00000260: 88c4 0d09 3bab d93f f2d4 5dec fc3e d43f
00000270: cff8 e1f3 4b6c dd3f 6cc5 a376 693e c23f
00000280: 8a44 f4ef b837 dc3f 33a3 7f53 2ba8 61bf
00000290: d42d f763 1d43 be3f 61ec 98e0 6a7a d53f
000002a0: 2438 f1e1 0b14 953f 472a be93 560b d53f
000002b0: 2e2a e534 2d50 e43f b0cb 79e8 2544 d63f
000002c0: e165 f7c1 3f7f b5bf 574f a8d1 3e8a cd3f
000002d0: f738 3d67 0d4f c13f 3777 732f 5787 933f
000002e0: 4878 119f c348 993f 385c f010 adf9 a43f
000002f0: 8345 26d2 943b acbf 00f3 9c77 8509 b6bf
00000300: 85f3 d51f dff1 b93f a5fc c6aa 1222 db3f
00000310: 2553 a61b 2aaf c63f e31e 3350 3a0a e2bf
00000320: 3d91 faf1 7092 b4bf 5372 2089 49a3 ba3f
00000330: 7873 aee3 9ff2 733f dff0 241d 9d64 d9bf
00000340: 5fbc 4334 7437 9b3f 8b9b 9860 236d d03f
00000350: 9b90 6aec b949 d13f 2328 07ea 1408 d13f
00000360: c48b d040 0fe6 d33f 0401 1cd5 0de6 a53f
00000370: 7aef 74c2 726f b2bf 7d77 22f1 1f55 d0bf
00000380: 069a d393 8e8e c43f 2844 9ff7 9079 ac3f
00000390: 1fbe d5bb 3ae6 babf 77b8 9e1e 6782 c3bf
000003a0: ebd1 a6d6 6a0e b13f 913e 8056 e997 b3bf
000003b0: ad3e 304b a7e8 c73f 72e7 4cfc 20e3 adbf
000003c0: 1051 7899 5d0f cabf 0d45 d93a 1779 d03f
000003d0: fd22 d017 a4d8 dfbf 44ef e31b 5559 91bf
000003e0: 3ee1 ca68 7f8b aabf 0db5 5635 3161 cc3f
000003f0: ac6a 1a40 854e c93f 4efb bfe3 011b bb3f

bias_output f8 [1, 10]
-0.4227748598005651 -0.05057299187458941 -0.37788725033017745 -0.2558024961559518 0.42106834183507186 0.2434919458647898 -0.04237684479095588 -0.4512233605950105
1.1268187054850414 -0.19074118963736536
00000000: bb85 1a49 be0e dbbf 8010 5304 b4e4 a9bf
00000010: 2295 6f01 4e2f d8bf 0d66 ce6e 115f d0bf
00000020: 5901 64a1 c8f2 da3f 0312 2a7c be2a cf3f
00000030: c83a f8f4 6ab2 a5bf 2198 3cf2 d7e0 dcbf
00000040: d944 090d 7307 f23f 1e0e bf11 356a c8bf
