models/model_cv_digs (10).npz (npz, 815236 bytes, 4 tensors)

weights_input_hidden f8 [784, 128]
00000000: dfbc 6f85 e7cc b23f 8b9a c437 eccc bfbf
00000010: 8225 22e1 173c b6bf 073a 69f6 397f af3f
00000020: 78d7 480c a073 b93f c6c4 2ba4 6a82 b43f
00000030: cf57 4750 9f59 94bf 35b4 7085 e7f5 84bf
00000040: d709 e234 4552 b9bf 0c4c d201 2240 8d3f
00000050: 3088 d49d 9725 a53f 716e b53d 49d7 b1bf
00000060: 851b 6624 cc8d 78bf c7dc 5acd 7f05 62bf
00000070: b5cf 79f5 6f1d 98bf 4ccb e4ed 7364 913f
00000080: 5d3f 95d8 2c81 b4bf 9e6a e18e 732a c0bf
00000090: 5539 f019 c5f4 923f 89f5 e782 b679 90bf
000000a0: d1e3 e707 2c61 93bf 7822 24a6 197b a8bf
000000b0: fba4 09cc 2f74 983f fde0 95de f7f4 7f3f
000000c0: d52e 59d5 5704 a2bf d693 af77 83e6 92bf
000000d0: 3417 b31e 7433 a33f 7834 c480 e5ac b13f
000000e0: 2ddf 1d0b 3ed4 913f 0b6b c992 5bd2 a13f
000000f0: a24b c794 90f7 a13f 6101 d496 4e27 973f
00000100: 0a54 79c3 c4bf 763f 3552 9717 47e6 483f
00000110: 5d76 6886 7573 9a3f 57b0 2378 e5e4 b23f
00000120: 514a 9f60 142a 7e3f 5a24 6ad4 aba5 aabf
00000130: 0051 5cb1 ea20 b03f 4390 14d1 73c3 a93f
00000140: aeb0 4488 620e a5bf 5bda b130 47d4 87bf
00000150: 1a6a 402e 5d38 96bf 62c1 3a9e 8a9f a23f
00000160: 7a20 4eb7 f4d3 79bf cd25 9cd1 3c52 b7bf
00000170: 1be6 6bba 9ac6 ad3f 688d d5f5 93ec 563f
00000180: 3fa7 50a9 cfa0 b23f 5a5f 1170 f6ee b2bf
00000190: 1e81 935a ebe2 b23f 653e bb03 339d 903f
000001a0: 5064 5c48 388c acbf 36ac f43a 648e aa3f
000001b0: 2d0a bef2 a02b b13f 372a 5122 82e1 b13f
000001c0: 459e 15b1 cf42 9fbf 8fbd ac54 6d96 b7bf
000001d0: fe66 d352 6b48 c43f 4c1e ce48 51cd 95bf
000001e0: c0b9 ffc1 e286 983f 0a9c 1428 7d19 af3f
000001f0: 5b0f 2f51 7f01 85bf bc70 6cb6 002f a2bf
00000200: bb3d 2d64 150c adbf f9e4 ceb3 2a19 a03f
00000210: 487c b2ef 52c3 883f 59ea 3a44 c405 afbf
00000220: 7bec f67a 3b20 b1bf 72e4 6ca1 fc66 ad3f
00000230: 04a1 a90a 944a b03f d75e 5324 f65e a8bf
00000240: f6b4 1f70 389e 993f 3299 cafa cc79 88bf
00000250: 630f d332 71bf 7ebf b3a5 f738 f4af 823f
00000260: afa2 2828 0a0b b0bf a90f 83a3 93b4 743f
00000270: 3a91 62a4 a741 923f 0daa f0f9 ca49 a4bf
00000280: 1253 6756 d208 adbf f36a dbea c0ee aabf
00000290: 0649 63a2 29b3 b43f f675 1102 aef4 643f
000002a0: fe87 6378 f2bf b13f 2a20 c3bc d6a5 54bf
000002b0: 3fbd 93c3 8454 9b3f 5f43 6cd3 37ce acbf
000002c0: 2ca7 e756 55bf 9fbf 20f8 dc6e 7bbd 92bf
000002d0: caac 8143 ed3c 813f ab5e 5905 adf6 903f
000002e0: 25c6 a434 6de7 abbf efee 51c2 bf4c a33f
000002f0: b775 9f32 779b 9cbf 3299 e862 052c a03f
00000300: 4a8b f2eb f8f5 99bf 06b3 456c d910 84bf
00000310: 2e55 c80b bd9e 9ebf 51bd 7bef 575b 8a3f
00000320: 5627 1f37 339e 92bf 6204 aa89 cc38 9bbf
00000330: bc67 2a63 ac5f 8f3f e601 808b 94c6 85bf
00000340: 7874 8592 3d28 9bbf 77df ada1 fcc7 a8bf
00000350: ae0b 7206 9bc8 a63f b5c9 23e8 0b65 7c3f
00000360: 87a0 a366 4058 a13f 0ce7 7f7a fd2f b83f
00000370: c7c0 b875 73a2 933f d82d f926 33a5 883f
00000380: ebec da86 d1dc a83f 39f9 84e1 2228 9d3f
00000390: 2f16 e2c4 723f 923f 12e3 bb9e bd96 9abf
000003a0: b123 116e 3e6b a2bf eacb 52ac a795 a23f
000003b0: 18ff 22a5 1e9a 9cbf b889 5a3a a9a7 943f
000003c0: 858e 0d5f 321f 5b3f 52ad 1f9f b52b b13f
000003d0: 70ad ab43 b7ab b6bf 3c1b dce4 8da7 aa3f
000003e0: e491 4437 1375 973f bf7d 8785 e70f b0bf
000003f0: 3782 037b d754 c23f 9082 48f4 c0c9 91bf
00000400: 25df de9f 05c5 aebf 31f9 96dc 903f 823f
00000410: ce7f 8856 ec23 9e3f 439c d465 4fcc 823f
00000420: 57d7 0594 60a2 b93f 4fab e366 29de 6c3f
00000430: 2da9 1f32 751d bfbf c322 5714 f974 5dbf
00000440: 8e00 049a 2b54 843f f3d0 bbf3 5052 88bf
00000450: 1523 967c 7497 943f 2f6a 8049 d7a7 a33f
00000460: 3403 73d0 7d00 c13f 802b 213f 69f1 b5bf
00000470: 93dc 1e73 d129 a53f 03e8 2510 a73e b03f
00000480: 6c4f 51d9 4d3a a8bf 9420 b50e a9b4 64bf
00000490: a4b8 592c cbf1 4bbf 2eb1 d33c 2d24 7fbf
000004a0: ad61 480e 469c a33f 9352 d5d4 432f 863f
000004b0: 6c24 4959 0b78 90bf 565f 7ebb 0709 b33f
000004c0: df62 2731 ee1e 923f 7acc cb31 d7d1 99bf
000004d0: a166 0afc d1cd 81bf cfc3 dd83 9d6d 913f
000004e0: 3cb7 491f 95d3 aebf 6a59 0bc5 8696 a63f
000004f0: 5313 f83e 7670 98bf 0dce 5ec5 fc95 a53f
00000500: 2df7 f5c3 48ed 893f a634 4484 f395 90bf
00000510: 41fe 422c 565a b7bf 5c10 4708 67fe aa3f
00000520: 8f7b 04ab 174b 5c3f c5bc 9c00 98f4 b0bf
00000530: e0c9 09ea 8804 ac3f e72f 0e56 3d45 663f
00000540: 3063 f756 ba47 b03f ad50 8bff 36ae 94bf
00000550: 2b6a 32de af19 883f 0591 7d39 172e 623f
00000560: c3d6 a37d c043 a8bf d792 35ea 0e10 7c3f
00000570: 6f56 cc55 127d a73f 7664 38c2 bf16 9fbf
00000580: f3fe 4bba 82bc b1bf 1f9a 2735 e9fc a83f
00000590: 374e d311 52fe 9a3f 9c3a 9c42 c79d 66bf
000005a0: 2631 3224 b646 94bf e61c c91c fb43 973f
000005b0: 2234 0567 0d95 983f 1370 6e48 6f4d 5dbf
000005c0: 01dd 3a26 6a7a 8dbf d59b 60d2 74b5 62bf
000005d0: 0963 a546 d10a 9fbf 27a9 097e 8ea7 b3bf
000005e0: b3e4 d44d af67 853f 81f0 5fa5 1fe7 993f
000005f0: 311b 81c9 c6f9 9abf 1901 2166 5f73 b3bf
00000600: 489d 4010 6157 9fbf a579 cc23 8b62 adbf
00000610: 2415 3719 438c a33f dfe0 8696 c5c9 b0bf
00000620: c7a7 bc8f 3507 b13f 6352 224c 415a 853f
00000630: dc87 abe1 0186 8c3f bba0 0843 7d9b 953f
00000640: d40f 6dd9 a53d 923f 6248 f062 e633 783f
00000650: 8874 07ef fd70 b9bf 6016 4b37 718a 9d3f
00000660: d01c 54d1 659a b8bf 5836 606c 4fbf ae3f
00000670: ef34 d0b7 4240 533f 2d34 16b6 d5ea 9bbf
00000680: 4fa1 23b7 8e03 9fbf 5c8f de30 30ee b13f
00000690: 9e0e 3e8b 3d20 9a3f 3502 eab0 1b45 7fbf
000006a0: a613 0c62 8135 a4bf fb99 4c1f 2e06 7a3f
000006b0: d0ab 4edf d14a a8bf 1927 1ca7 6e48 a1bf
000006c0: e2ed 9cd7 1fcd a6bf 10e4 78a3 bb24 adbf
000006d0: 7435 2129 3d5e 9cbf 3e64 88bd acbe b8bf
000006e0: bffe d56e ac80 92bf 41ef d9e8 e814 aa3f
000006f0: 5b54 0e38 3861 a73f 6809 d629 efe6 9c3f
00000700: ed52 2f3f 9b7f b9bf d966 7269 960e abbf
00000710: 7676 8e74 c7fd a33f 1cd0 dc20 b01e a2bf
00000720: 3706 ffb1 98fb b23f cde9 f093 9dc9 99bf
00000730: ebe2 5116 2566 b7bf ca85 adab 1d4f 91bf
00000740: 5318 ce8c 980a 6cbf a2a1 7a36 106c ae3f
00000750: 5c87 d34a ec4c a03f ce3b 1d6d 0ef6 b03f
00000760: c5ed 20db 7f2c 913f e77a 3e11 1cdc 9c3f
00000770: 28b4 d7d7 8b8e ae3f d33f 194b ca16 acbf
00000780: a203 5cfe b892 b2bf f391 3ddc eff7 993f
00000790: 78c4 35ee d5b7 7abf e82d 44b0 d7ef 933f
000007a0: d576 876e 187b b73f a681 070f 08c4 983f
000007b0: 0516 8530 61dc 863f f4f9 74d3 8e35 8f3f
000007c0: 2f00 7de0 a701 813f 1765 eba2 404a aebf
000007d0: 26d0 4402 6cbd 99bf 0b51 19bc f7d0 97bf
000007e0: 7877 ee40 0ea2 933f cfe3 ed4c d9bb a73f
000007f0: 4d34 00a7 40d9 98bf 7ed1 00fa 82fa b0bf
0.07343909270979364 -0.1242206226494124 -0.08685445066853073 0.06151753552386557 0.0994205503455684 0.0801149988945041 -0.01987313201410484 -0.010234650382779356
-0.09891159573638873 0.014282479935252133 0.041302431122190675 -0.06969125515518627 -0.005994603567507255 -0.002199887860878744 -0.02354979453816926 0.01698475970733719
-0.08009605682059147 -0.12629551388348131 0.018511848171379814 -0.016089298000215222 -0.01892536924603744 -0.047814179926779 0.023880717113944332 0.007801979293951653
-0.03518938521719198 -0.01845746438984349 0.03750193476439137 0.06904444116317332 0.017411202839382845 0.03480802695113113 0.03509189430373928 0.022610881763286076
0.005553978545852276 0.000759873116460036 0.025831066444985108 0.0738051813420396 0.007364348983133499 -0.052045221023100566 0.06300227003186265 0.050319308540821804
-0.04112537301475193 -0.011635357068582033 -0.021699386547064582 0.036373454871297964 -0.006305652544036028 -0.09109859578543152 0.05815585637715178 0.0013991780209260066
0.07276628383320104 -0.073958780632322 0.07377501450855958 0.01622466764712129 -0.05575729258834683 0.0518676111190292 0.06707197119070747 0.06984723413294423
-0.030528302367569777 -0.09213908498053612 0.15846005958774606 -0.0212910366713273 0.023952048388247382 0.06074133981956471 -0.01025676218512899 -0.03551485277987029
-0.05673281524525061 0.03144200749324883 0.012091300907114313 -0.060590871170877754 -0.06689807655395612 0.05742635221981453 0.06363797436063484 -0.04759949868610896
0.025017625659462937 -0.011951066402002473 -0.007506792241830459 0.009124668110376577 -0.06266845207631876 0.005055023874039146 0.017828578384652995 -0.039625494966760134
-0.05670792870265563 -0.052602795285300895 0.08085880484148697 0.0025580786319057093 0.0693351310651735 -0.0012602421802956434 0.02668960040767598 -0.05626081901403412
-0.031003316334966488 -0.018300942079115257 0.008416989920269197 0.01656599373958893 -0.054500019718386285 0.03769492384978245 -0.027936804260993955 0.03158585388546199
-0.025352372552002657 -0.009797762505252116 -0.029902414173269047 0.012869536395980903 -0.018181610335694508 -0.026583858396865508 0.015319201256079988 -0.010632668025210412
-0.026520692890120462 -0.04840077851889551 0.04449924901657397 0.006932302962228955 0.03387643101615461 0.09448227158273087 0.019174388942872846 0.012033843638298444
0.048559711181462926 0.028473420157063976 0.017820161120218166 -0.025965655148840368 -0.035974455772311294 0.036298026834081856 -0.02793167002596339 0.020170826136231418
0.0016553871066315184 0.06707320341927428 -0.08855767633547429 0.05205958765696159 0.022907543419153145 -0.06274268159858475 0.14321416384247396 -0.017371191892495974
-0.060096908345654655 0.008910304767479534 0.029433911115233795 0.009178753180618787 0.10013393033827121 0.003523903716190636 -0.12154324029657877 -0.0017979080597447107
0.009926167142566802 -0.01187575572792141 0.020109005073695025 0.03838989994274688 0.13282749822794815 -0.08571489135026233 0.04133467226295653 0.06345600265731836
-0.047319824960736806 -0.0025275518325181354 -0.0008527986580711033 -0.007602860173602273 0.03830164837217196 0.010832338268906205 -0.01608293278176058 0.07435653998834132
0.01769611525546366 -0.025214540876686155 -0.00869335222641904 0.017019711659887634 -0.06020799643452654 0.0441171756298669 -0.023866508096051686 0.04215993794732862
0.012659615020989523 -0.01619701857366764 -0.09122217732055395 0.05272218681378213 0.0017268878110099117 -0.06623220457980768 0.05472209793960636 0.0027185628864056957
0.06359448073579865 -0.020195826861553346 0.011767744034206626 0.002219243393414174 -0.04739190610591273 0.006851251851320148 0.04587609574643358 -0.030360218266740145
-0.06928269432318838 0.04880455755101231 0.026360781038262195 -0.0027607814598760837 -0.01980099292681916 0.022720264083798812 0.02400608960424589 -0.0017884814021504921
-0.014393643657383938 -0.0022837907481689603 -0.030314702927486645 -0.07677546097844311 0.010451669275982267 0.025295729130434545 -0.026343446778152205 -0.07597919696218404
-0.030606762520759362 -0.0573924523543952 0.03817948992540668 -0.06557879376385099 0.06651625403597371 0.01042605413048498 0.013927473735240108 0.021100957123196134
0.017813292880660317 0.00590887064665155 -0.09938037000343247 0.028848427772365404 -0.09610592232285176 0.060053331355544415 0.0011749888938113425 -0.027263011206333388
-0.030287008216789698 0.07004071419811225 0.025513612388307842 -0.00763426606010902 -0.03947071382393767 0.006353550114715829 -0.04744582987708379 -0.03375573911587377
-0.04453372485155761 -0.05692087526808376 -0.02770324290786648 -0.09665946604981543 -0.018068975701224895 0.050940779136878785 0.04566360172535929 0.028224694183799498
-0.0996033696422491 -0.05284566914742834 0.039045556047523286 -0.03539038087038213 0.07415155740366051 -0.025183164744001552 -0.0914023570529811 -0.016903365710623487
-0.003423021268136353 0.059418207788726876 0.03183687604338445 0.06625452197952983 0.016771314382123998 0.02818340163468749 0.059681291673634285 -0.05486137549144101
-0.07255130968043358 0.02535986692181953 -0.0065229756031480665 0.019469614156191556 0.09172203730073687 0.02418530074817373 0.011162528317650642 0.015238872364190727
0.008303939379061457 -0.05916025151027265 -0.025136649740673665 -0.023258086066861455 0.019172880852799307 0.04635504783704613 -0.024266252701682856 -0.06632250407785098

weights_hidden_output f8 [128, 10]
00000000: 27c7 807c 402b c8bf e267 ae5e 603f c93f
00000010: 8892 390d 1f01 a2bf 3bc9 5527 5050 c7bf
00000020: 325e 26b3 edac bcbf 21a7 9a9d a468 abbf
00000030: 3e97 c654 d60d a43f 724f a6a3 93f6 a7bf
00000040: afd8 b9d7 6c33 b1bf 2b62 29b4 a901 b63f
00000050: 308d 80f9 7bd4 8bbf ea7f a308 5c1c b1bf
00000060: a056 60cc 5f72 773f 2d81 7354 a826 babf
00000070: c10c c5db 309e a23f 8752 cc9b c364 893f
00000080: f380 965f 641f 62bf 943e 53cf bfcb b0bf
00000090: 120b 70d4 9d3b bd3f fc20 a0d3 0030 82bf
000000a0: 2cd6 1cfc fcc4 aabf 999d 4f47 c6e7 c9bf
000000b0: 59b5 b327 627d 96bf f5d7 5dce c286 b3bf
000000c0: a7d5 9d6e 679a b33f 8a22 2b97 81bb 863f
000000d0: 34a7 abe1 df9b cbbf 4ae8 7a97 7bb3 ab3f
000000e0: 8026 5d01 9f23 673f 1ba2 87c1 5f22 b63f
000000f0: 3ea7 6ed3 2b33 babf 0f02 6dda 97fa bebf
00000100: 0f8d 9782 e837 bdbf c2b8 2958 e08c d1bf
00000110: f8fa 33a4 4f35 d13f 4393 8c3b 527a cabf
00000120: 4e55 590c 9176 b5bf 5014 1398 cac8 d83f
00000130: 113f c645 eb98 c2bf 6962 47a9 d58b b23f
00000140: 0947 958c 2f55 a7bf 019b b50e 3321 71bf
00000150: fb0c 1442 ad1d 8b3f 8de0 4398 7cc4 abbf
00000160: f219 b4ef 3752 b2bf 0d99 b8f4 845b 803f
00000170: dd51 b8be 2c23 b2bf 0461 9a11 3137 c1bf
00000180: da67 e4e4 acaa b4bf 510d 8040 5e40 9dbf
00000190: 3234 6f25 33d9 9a3f ea5c 73e8 94f1 89bf
000001a0: cecb 1ee8 74fe c43f 39f4 a59f 0bdd a7bf
000001b0: de7c c1d2 9367 9cbf 7695 202d 581a 70bf
000001c0: bc66 da3a a10e bbbf 71d1 ec72 d6f0 c63f
000001d0: 0cfc 0612 df43 8bbf 88e0 2826 ca73 56bf
000001e0: 3603 e119 fba8 91bf 0dc7 6894 8390 a9bf
000001f0: 4c78 299e 17ea a3bf 2cb7 e527 5d44 a5bf
00000200: 423c 5d13 0a38 c2bf 6bdd d5ad 8d32 c1bf
00000210: d9c9 70d4 6f6d ac3f f798 1066 3beb d03f
00000220: e8dd b475 abad cabf 0279 a754 a0ce c03f
00000230: a217 376d 8802 a8bf f856 b1db 89d3 cbbf
00000240: 162d cc84 eafa afbf a1ff 6807 0edd cebf
00000250: 9632 18ca 524b d13f fcc0 1049 1bd0 6b3f
00000260: f5b9 dedc c59f a9bf a429 818d 4363 ba3f
00000270: 645e 27dc 3b69 c43f 8ace 022a 59f3 c23f
00000280: d91f 3d99 bc1b b33f d4f9 66a3 c7c5 c6bf
00000290: 2ed6 caad 8daf cdbf 68ae ec5a 3a12 ae3f
000002a0: f770 585d 702b 8b3f 6b2c 2f03 dc02 b73f
000002b0: a296 ba58 d8c5 823f 85f7 8ea5 ff7d c73f
000002c0: 1d8b cd03 ef04 ae3f e268 fc8b e521 98bf
000002d0: 184d de0c 6f3d c63f 91a6 9241 b463 adbf
000002e0: 738c 9d22 1128 ae3f 8f30 04e7 e672 b3bf
000002f0: 2841 9865 2b69 57bf 873b 68ad 64b6 b43f
00000300: 05de ac03 6784 b4bf c8b6 0ffc ddcf acbf
00000310: dd09 7964 dc44 b53f 2500 70c5 dcc2 a13f
00000320: 30e7 909b b7c0 bb3f 54fd 6031 82c8 b63f
00000330: bba6 02dd 013e a83f a444 5bd7 d381 ae3f
00000340: a5f7 ab71 8a9b 9b3f 905e 98b5 cb52 b2bf
00000350: ed96 a8b4 da6c bcbf 0635 21f1 0293 a4bf
00000360: 556b 4817 4c5f c7bf 4e2e b536 322d a83f
00000370: 824b 8bb4 be30 a93f 827c d71f 5e66 a23f
00000380: d8a0 c4f2 de99 abbf dab6 1639 e390 88bf
00000390: 997d 8e42 2aaa c03f 41f4 858d 7f31 aa3f
000003a0: 73ca 9bc0 d009 ca3f 023c 63f0 b689 6a3f
000003b0: 3e6e 0fd6 61de 92bf 7fb8 478b c368 c83f
000003c0: 5146 37cf 4d69 9dbf 7409 ce55 bc26 983f
000003d0: 431d a384 07c6 b8bf ede3 b2f3 eeaf 92bf
000003e0: ee36 0b3a 8e62 bbbf 3d07 89e0 1dbf bbbf
000003f0: 987d 40a1 8453 a7bf 5457 27e4 0812 5f3f
00000400: 579a 425e 89f9 b1bf a230 3945 6fdc 913f
00000410: 3340 2e07 ec1c d23f 6e58 4a90 6708 adbf
00000420: b09e 2094 658a 97bf ca4b 0dbc 82b8 95bf
00000430: 9ecd a1c2 dda9 87bf 00f5 62d7 29b1 b3bf
00000440: 1fa4 4113 84a6 8ebf 3bf9 5cc2 e747 b3bf
00000450: 41ee 3ed3 3c93 b8bf d0ef 41d2 30a5 7fbf
00000460: e49f a684 64c8 943f 3dd4 79f2 74e5 89bf
00000470: da14 8a67 3060 a4bf 3110 6396 0c72 bbbf
00000480: dba9 963b acd9 b93f 6dff 1107 babd b3bf
00000490: 71ae f369 a002 c33f eeb6 b534 dc59 9d3f
000004a0: c199 36a3 e7d3 993f ec35 7937 960c c1bf
000004b0: ff74 0549 a7ff 96bf d785 fbcd 8ff8 b13f
000004c0: 0091 048c d0d0 9fbf 12bd 28de a145 a2bf
000004d0: 2ed6 34f6 5c15 9f3f c7f5 68e9 4554 b5bf
000004e0: d43b e54d 1201 bb3f fdca 2c85 e485 83bf
000004f0: beba 6631 307c 9f3f efbb 954c 0755 c13f
00000500: ed3b 7d31 f182 b3bf 67e2 927a 1a4a c43f
00000510: 4a62 370f a2ac ad3f 60a8 b6f0 2c2e a9bf
00000520: 603c cdf9 dca6 91bf e3bf 96dd f4f4 c13f
00000530: a7db 4a5b 90d5 913f 1511 f60b 10ad c43f
00000540: 1dde 6707 e7d2 bdbf c1fc 8fc4 11d7 90bf
00000550: daa0 6c2e 91e2 9f3f f7dc 6c18 e840 b7bf
00000560: f416 f9d1 0851 b13f 5ad8 28db 827c 9c3f
00000570: 7eba f6f3 616f a1bf c67d 8516 d9c2 a5bf
00000580: 9732 50f4 065e c5bf 0417 9e38 cb97 8d3f
00000590: 3aa4 6967 3e5b b2bf 463f f642 e7b2 a6bf
000005a0: 7b93 2f87 98a6 c63f 24eb 1168 8497 a7bf
000005b0: 869c 65cb e848 b43f 08d0 ae61 a1d4 b33f
000005c0: 4c90 e888 f533 adbf bbf7 bb06 bee8 c83f
000005d0: 27ac 534c 6118 d03f b2dc 0eee e421 c3bf
000005e0: ad49 d570 b455 c03f fee8 fb20 1a62 d2bf
000005f0: 41a4 b6a4 3698 983f 5709 48c2 c7ff 8c3f
00000600: 1080 7ec9 7929 babf c49a 954c 73d8 b73f
00000610: 8f91 97ac 0641 b0bf 089f 9577 ff22 af3f
00000620: 34d2 3376 0ce0 c2bf 83e3 ac2f 0523 b1bf
00000630: 3d5a 4bb6 f73a a3bf 9bcc 8a23 deef d2bf
00000640: ab49 9e86 bcd8 a0bf 4b43 b1ac 62a2 c63f
00000650: 67c7 e963 7b4b c0bf 1674 9a59 4292 ca3f
00000660: 5d7e 9dce 800a b4bf 8a7b 59fe 57a6 babf
00000670: f05e 5988 c4fd 923f 4cd9 e3d3 b953 b43f
00000680: 71b3 e45f 2e3f b63f f991 8f30 89b1 85bf
00000690: f196 69b2 0601 9b3f 8d4f d3bc 82ab 973f
000006a0: 4222 e5fc e94f a5bf b868 417a cf37 a13f
000006b0: e146 8483 6f5e a43f d248 9e73 6f3e b13f
000006c0: cb5f 319d 158e ad3f 5f91 828b 74dc b6bf
000006d0: 6224 015c 1c20 b03f 8df9 41d3 a795 70bf
000006e0: 2aa3 247e e3a1 a4bf 9cda 3e62 75bb c53f
000006f0: 4167 5efd ba0f d63f c503 dd07 f9cc b8bf
00000700: 0a85 1a2a 6f71 b6bf 5129 9780 130b cbbf
00000710: beb7 e17b 6a0c 9c3f dfd5 1e4b dfd8 a5bf
00000720: 52e9 0841 1bc5 b63f d7d3 76c8 c797 c0bf
00000730: 2332 f727 86af c9bf a91b a7ee f243 a2bf
00000740: f478 0d8f f0bf bf3f 5626 456c 7d79 af3f
00000750: e1a9 fd5c f0b8 a9bf 2b08 6136 54ea a6bf
00000760: d297 e298 a7f9 afbf 44f1 6625 416d c13f
00000770: c0d0 64e5 7d95 56bf 4826 d783 ade2 c63f
00000780: 426c ae97 1b15 a6bf 75d2 0f5b 5ce3 b0bf
00000790: 9d21 7b5b ec55 94bf 79f6 e857 98ff c3bf
000007a0: d288 9f25 c6db b6bf 4786 d931 0a5a a23f
000007b0: e775 db0b 99c3 8abf 1e93 765d 3d89 b63f
000007c0: 0677 3f59 9814 bc3f e24b 8e0d 4c31 ab3f
000007d0: 42c2 fd4c 27df b83f 3752 050b e497 aabf
000007e0: 6187 7db1 118a c23f ff90 0fd5 098c a13f
000007f0: f99a dfeb af5e c5bf beb4 7457 1ef2 c53f
-0.18881994323015158 0.19724659560307517 -0.03516480480610534 -0.1821384613099982 -0.11201367973114243 -0.05353273795965508 0.039168069695092886 -0.04680310604740513
-0.06719093577143796 0.08596287392118344 -0.01358887534303807 -0.06683898173241656 0.005724310123715576 -0.10215236722752215 0.03636315043197547 0.012399223510820135
-0.002212234536912766 -0.06560896693849322 0.11419092594591643 -0.008880621393487768 -0.05228415086314117 -0.20238569719297742 -0.021962674782959855 -0.07627503908392426
0.07657476854895738 0.011099827218815212 -0.2156944133669697 0.05410371994135284 0.002824602658539288 0.08646200632905059 -0.10234331046981723 -0.12101124842320864
-0.1141343420818439 -0.274223409744888 0.26887885127500466 -0.206857947422714 -0.08384043265808325 0.3872553334334201 -0.14529171854928127 0.07244620688232718
-0.045571790610337067 -0.004182052081296518 0.013240197733927142 -0.05423344954209695 -0.0715670547689127 0.00798705932454571 -0.07084922462701777 -0.13449681624911858
-0.08072929943264687 -0.028565857588558178 0.026219176444829802 -0.012667811721640072 0.16401540121077435 -0.046608317602455825 -0.027738866556657686 -0.003931374014461189
-0.105691983097496 0.1792247830541203 -0.013313048112534552 -0.0013703798400808449 -0.017246173338438107 -0.04993067919384773 -0.0388953571862066 -0.04153720008876713
-0.14233518548505414 -0.13435526836449738 0.05552243679302977 0.264357423470201 -0.20842498061550363 0.1313057340002573 -0.04689432461923039 -0.21739314295944445
-0.06246121283592225 -0.24112105714629897 0.27022237525742676 0.003395131389446358 -0.050047095500634166 0.10307714657498096 0.15946148156830298 0.1480514006740246
0.07464197865658607 -0.1779107616293475 -0.23191996561006206 0.05873281822127013 0.013266446922948634 0.08988738134137157 0.009166422088422724 0.18353267272862808
0.058631390775891946 -0.023566805523935204 0.17374981048906402 -0.05740130711030845 0.058899436450496355 -0.07597201480911252 -0.0014288829610258989 0.08090810044835282
-0.08014530029037566 -0.056273400325023426 0.08308198407124885 0.03468980703473815 0.10840938137053224 0.08899701791323383 0.04734807799225168 0.059584255255353186
0.02696052855298316 -0.07157586272694005 -0.1110359850941582 -0.04018410867193194 -0.18259574066982034 0.04721981923884454 0.0492000193968556 0.03593725336735877
-0.0539083167407754 -0.01199510114642115 0.13019302606424502 0.051158891702450145 0.20342454342570057 0.003239495566141227 -0.01842644566555251 0.1906971387938405
-0.028722015163856366 0.023585264908896744 -0.09677168834888498 -0.018249257682985066 -0.10697258870206003 -0.10838495952432665 -0.04555906742484267 0.001896389658772664
-0.07021387625955221 0.017442453956662114 0.28301525784718534 -0.05670474659307066 -0.022988879362087544 -0.021211664893893624 -0.011554462911795235 -0.07692204960308757
-0.014966041410120976 -0.07531593795008444 -0.09599666745537495 -0.007725897510791627 0.020295687290541667 -0.012644685411240636 -0.03979636444004493 -0.10720900222355635
0.1009776730994995 -0.07711374924292409 0.1485176579802672 0.02866310188021875 0.025222415291546122 -0.13319661816278427 -0.022459615547053776 0.0701990011107435
-0.03107000212288913 -0.035687502259287865 0.030354931380506205 -0.0833171553467401 0.10548509980911486 -0.009532723726441978 0.030747178092208165 0.13540736426827446
-0.07621676882011715 0.1585114573006365 0.057957710607017335 -0.04918041647336291 -0.01723809504192919 0.14028797931450673 0.017416244098707925 0.16153145393412474
-0.11649936610034968 -0.016445424673290136 0.031137722452655982 -0.09083414646453379 0.06764273763937095 0.027818722368657546 -0.034052907019362685 -0.042502197264862526
-0.16693198136672002 0.01444968000920311 -0.07170476937030026 -0.04433367435842554 0.17695910073157592 -0.046077859596115794 0.0792375084471236 0.07746323237262243
-0.05703704162832021 0.19460273102589362 0.2514880414370872 -0.14947187065056294 0.12761550435477656 -0.2872376749143227 0.024018148234663753 0.014159737221238684
-0.102195369427591 0.09314652080284264 -0.06349221910165269 0.06081388792773451 -0.14746242305376855 -0.066940616740693 -0.03755926227829718 -0.29589036436954935
-0.032903567726992954 0.17683061058280666 -0.12730352762769856 0.20758847594416413 -0.07828526539150844 -0.10410070380883787 0.018546171972359582 0.07940255568596405
0.08690156785151061 -0.010592529100855496 0.02637110198920473 0.023115198874463828 -0.04162532054994418 0.03362892501236686 0.03978298645428225 0.06735893795692796
0.05772464317186595 -0.08930138021475419 0.06298997160151168 -0.004048972670828721 -0.04029761233170455 0.16978328034538925 0.3447101091675116 -0.0968776363561253
-0.08766836908263911 -0.2112755182154822 0.027391113101138613 -0.042670228881813925 0.08894510591281815 -0.12963197029389903 -0.20066906882711164 -0.03567465937845011
0.12402251713271878 0.061473769632880135 -0.0502390969766855 -0.04475653804594545 -0.0624515890242915 0.13614668203616465 -0.00137841505563778 0.17879265725632565
-0.04312978960589266 -0.06596924994648552 -0.019859021266513833 -0.15623764317017555 -0.08929098528418258 0.035843199334305846 -0.013068385767321678 0.0880316117459867
0.10968925646690417 0.05311048188664082 0.09715505246800496 -0.051940084786711464 0.14483853498955582 0.03427153325881881 -0.1669521238065597 0.17145137090975554

bias_hidden f8 [1, 128]
00000000: 4c3c 05ff b627 a23f 7096 4c5b a06f 633f
00000010: 882b 6d2c 7797 923f efbc 0c59 56ba b03f
00000020: e73e bd2d 086d 7c3f 9955 af72 3814 453f
00000030: c77d c316 a0ad 8a3f d53e dd4d 4bb7 923f
00000040: cc6d c5d3 ca26 793f 2e53 ee2a 8225 82bf
00000050: 4b79 9dee 1705 84bf 2c30 ebc2 cc4d 853f
00000060: ea47 c49d 743c 59bf 1ef7 4f25 f924 92bf
00000070: ab53 235c f50b 74bf 19f7 7939 9c96 613f
00000080: b926 d1a5 fdd8 a13f ccfd c95f 9a65 7cbf
00000090: 001f 96c3 a93a 8c3f f0e4 c54f c871 8b3f
000000a0: 2f98 34db 0a7e 863f c89d 4999 d63a 833f
000000b0: ca08 5b94 e3b3 923f 692e b06a e9d3 803f
000000c0: 9992 4646 8f22 64bf 94e4 7617 0e9d 83bf
000000d0: d8aa 4caf eba4 843f 1eed 9fd9 d836 883f
000000e0: 32cd 80bb f0e8 6fbf 8016 b1f4 0d29 5c3f
000000f0: 2e60 f0fc 2e2e 9a3f 8ead 6973 0b47 9f3f
00000100: ecf9 2a83 2969 713f 8c89 a3ce 84f1 763f
00000110: db15 7007 2cc2 9a3f 2bda c66e 9d2e 53bf
00000120: db36 5ee5 8a6c 5bbf 5423 d5df e15f 643f
00000130: 0a63 9808 f314 963f eda2 a9a5 5002 603f
00000140: ebfa eb08 d98c a83f 8971 f602 b89e 913f
00000150: b389 0449 3ef4 73bf 3ddd 750f 44d9 a13f
00000160: 67f6 d1f7 0470 86bf fd9a a255 d7eb 95bf
00000170: f075 5fa2 1983 963f 0094 a7e7 a44c 383f
00000180: 8052 05dc 18cb 8d3f aac4 debe fec4 913f
00000190: 46c2 4481 5cf6 80bf 640d 6523 865b 75bf
000001a0: fc6c 847b 836c 8b3f d212 4206 a6d5 69bf
000001b0: 9b3e 6e41 3ea1 7abf cd62 754f 7b16 7d3f
000001c0: 10b2 e6e2 2162 6fbf 728a 9fcd 8343 673f
000001d0: f194 ec0d b94d 78bf c0c3 2831 2abf 59bf
000001e0: c682 371b ef85 7abf a70f 4372 db54 683f
000001f0: 3da4 9fe3 a32c a03f 6904 3017 4498 a23f
00000200: 35e7 60fa c068 9e3f a434 b5b6 3231 8b3f
00000210: fcb3 1c3e 1d35 683f ce8d 759a ba21 a23f
00000220: e8a5 3482 f0bd 9b3f d038 f252 0c7d 7ebf
00000230: 76bf f38d f3b7 8e3f d905 2b39 8ffb 85bf
00000240: 12ab 5ea6 eb81 74bf 185c e900 7564 9c3f
00000250: 0061 a48b dd64 61bf 3f33 41f6 a611 7e3f
00000260: dfa7 70e6 636b 853f 880c ffeb 20c7 7c3f
00000270: 64b4 6548 500d 963f 2866 2be1 ff8d 723f
00000280: 2bb8 db05 a213 7abf f20e 00f1 c910 8f3f
00000290: 706c 1126 1fa1 3d3f ee4f bedb 7c06 9b3f
000002a0: dc01 1305 d5ea 543f e903 cdbc 0a22 68bf
000002b0: 1ad2 cd96 8222 983f 3bff 0cf9 9bae 5cbf
000002c0: 4763 36a3 5301 a63f 0066 6edf 5001 3bbf
000002d0: ec48 a66e 58a5 653f 1e9f cc3c ab69 a23f
000002e0: e0f4 4b3b b3c5 903f 1a57 acb7 93a3 80bf
000002f0: 0478 026b b035 673f 811b bed8 4561 84bf
00000300: 72b8 bbfc ddbe 743f 3452 80bb b436 9dbf
00000310: 607c ecdb cdc1 873f 6e2d c918 43ee 863f
00000320: 5cc1 4a04 31d7 903f 62eb 75b1 1611 933f
00000330: 2c56 9f28 2984 7ebf c0e6 eab9 7145 533f
00000340: 9217 66f1 12cf 9f3f 8860 7f72 e3dc 6f3f
00000350: bcc5 9e72 3af0 78bf 6634 2409 3692 9a3f
00000360: 282c 7d10 45f8 833f a693 8272 83a5 953f
00000370: dd41 6d13 ecf2 8d3f f46d eda4 c768 813f
00000380: 44be b087 479e 813f 1e7f 68b9 ca7d 7fbf
00000390: b48f a4a6 482d 6bbf 3404 e671 c010 6b3f
000003a0: 0f28 5375 e488 873f 5265 d6ad e51e 803f
000003b0: 23f7 66be f71f 983f 5445 53f4 3562 5b3f
000003c0: 1647 71ff d148 903f 3265 db34 d617 903f
000003d0: e864 b6c0 17d6 983f 1a89 f46c 46bf a13f
000003e0: debd 0402 846a 8abf 84c3 85fa 5e77 80bf
000003f0: 01d2 378e b377 923f 829a 57d7 f7b9 a13f
0.03545925009768122 0.0023725635495733186 0.018155920111250917 0.06534328149858813 0.0069399184684042275 0.0006432796120587225 0.01302647656888113 0.018277336718994192
0.006140510839340373 -0.008860604224346948 -0.009775340051132139 0.010402297686049243 -0.0015402926283667414 -0.017719166662565226 -0.004894216954387891 0.002147011877069793
0.03485863350995317 -0.0069328336945768225 0.013783766061137737 0.013400616583327779 0.010982594313258513 0.009389568856206135 0.018264347009570504 0.008216689651838043
-0.0024578855829580745 -0.009576902476384576 0.010080186164107927 0.011823362485293528 -0.0038952543073037743 0.0017187725341200333 0.025566801250619324 0.030544451636541896
0.0042506810738687055 0.005601424005563859 0.02613133235356267 -0.0011707818440364153 -0.001673827782244278 0.002487126503784168 0.021564290427792655 0.0019542288912827084
0.04794958337696705 0.017207026654078503 -0.00487160043874939 0.03486073197103188 -0.010955847561713484 -0.021407475091701923 0.021984482322173038 0.00037077928541712213
0.014547533239843036 0.01735303916911294 -0.0082823969792979 -0.005214237191754154 0.013390567023228155 -0.003153633371825706 -0.006501429735081078 0.0071015183269415695
-0.0038309728472170138 0.002839810779719892 -0.005933497303691513 -0.0015714561492467943 -0.0064753856745205 0.0029701505719419044 0.031590577636798824 0.03631794722606047
0.029696479112522673 0.013277431679535497 0.0029550143380192555 0.03541358123291226 0.027091749140856353 -0.007443473950060134 0.014999296922240762 -0.010733717853670765
-0.005006714351035739 0.027726963215482042 -0.0021232916889283304 0.007341053195045798 0.010458736867878514 0.0070258413324523275 0.02153516237142518 0.004529952554287266
-0.006366379644289248 0.015168740908854759 0.00045210848299399083 0.026391936218331517 0.0012766914626781622 -0.0029459199635373146 0.0235691456359338 -0.0017506144688041586
0.042978871987719595 -0.00041206573899330023 0.0026423194114580852 0.035962439700879964 0.016379166120704336 -0.008124498408089976 0.002833218161028663 -0.009951158215484092
0.0050648375870264595 -0.028528999275368075 0.01160012080577938 0.011196636384872529 0.016445890318835907 0.018619875508629653 -0.007450257087801709 0.0011762247665231679
0.031063362106145194 0.003889507515833005 -0.006088474570718313 0.025948375995586657 0.009750880780890439 0.02113919626630758 0.014623493521555392 0.008500632973372092
0.008602675274317247 -0.007688323871235329 -0.003317491432555964 0.0033038862886205726 0.01149157031104056 0.007871431701277718 0.023559447284916445 0.001671364488448586
0.01590278741452441 0.01571592996228794 0.024254199158893736 0.03466243820209254 -0.012898474990463645 -0.008040182133045588 0.018034749560642997 0.034621949231042684

bias_output f8 [1, 10]
00000000: 31f9 4561 aa57 c1bf b997 c223 a9d4 bb3f
00000010: 4aa0 8bf4 c5ca a2bf 4751 f1bd 8aee 94bf
00000020: 6a5f 0cdb c332 aa3f cb9e c53b 3cf5 a43f
00000030: 3a90 e540 60d2 983f 90c0 3599 9625 6b3f
00000040: 0edc 96e1 cd4f 96bf 83d8 d67b 0091 8cbf
-0.13548784017252438 0.10871369479227057 -0.036703287221656014 -0.020441215365580658 0.05116855668001004 0.0409334967578708 0.02424002071474283 0.0033138219238751446
-0.02178880395305432 -0.013948444155954092
