models/model_cv_digs (1000).npz (npz, 815236 bytes, 4 tensors)

weights_input_hidden f8 [784, 128]
000000 c8 79 93 15 25 b5 b1 bf eb e9 74 1e 84 ed a9 bf
       -0.06917030121574108 -0.050640228956087295
000010 99 a4 00 3e 49 f1 b8 3f 03 6c 8b ea 8e 93 95 bf
       0.09743173373921578 -0.02107070261522993
000020 57 bb a7 29 71 a9 ad 3f 36 b8 02 07 28 8e 87 3f
       0.057933365187514844 0.011501610483119245
000030 8a 62 49 ab a4 04 99 bf 25 7a ec 9d 83 6b ad bf
       -0.024431775049694106 -0.05746089270381941
000040 c9 95 1c 61 89 26 af bf ab 7d 55 5d a0 e4 b2 bf
       -0.06084088621563983 -0.07380106238041743
000050 bc 0f 02 08 ee 7c 54 3f 29 06 4f 23 0a 07 b1 3f
       0.0012504887127144778 0.06651366579082975
000060 93 29 fc a8 6f fc aa bf 94 75 c7 40 0c 85 7a bf
       -0.052707185152104284 -0.006474540580226135
000070 dd 7a 0e 42 28 a8 a9 bf f2 b3 0b 70 bc ba b3 3f
       -0.05011106306414146 0.0770681165265186
000080 7d 45 60 38 11 80 82 bf d4 7e 49 53 f4 bc 7d 3f
       -0.009033331425629449 0.007260279079303895
000090 6d 88 d5 15 f2 3e 97 bf ba 64 da 7e b5 0d 9e bf
       -0.022701056082390304 -0.02934917055845141
0000a0 d0 d4 f8 02 69 eb 8b 3f 31 c4 8c 5a 9c a9 9d bf
       0.013632603076170119 -0.028967326189732915
0000b0 d9 b3 e9 4b a6 a7 ac 3f b5 4c 94 57 f2 a1 74 bf
       0.05596656490965985 -0.005037256859640117
0000c0 72 2b 87 85 a9 77 98 bf 85 d4 71 68 c2 a5 9b bf
       -0.02389397504320407 -0.026999509453578447
0000d0 64 79 65 86 94 c6 56 3f 4a 21 2e 19 3c b4 b2 bf
       0.0013901186408343475 -0.07306266417265764
0000e0 f3 36 e7 d8 54 ab 97 bf 01 60 d6 ff 4c 81 57 bf
       -0.02311451505538904 -0.0014346363017008203
0000f0 fa 7a a3 5c 24 65 a3 3f b7 0d 2d 80 13 bd 9a bf
       0.037881027515814084 -0.0261118933660904
000100 63 f9 5c 6f 12 5a 6d bf 25 b3 2e 0f 49 fc b9 3f
       -0.0035829887446247473 0.10150581951775146
000110 64 66 f1 5d 3d 1a 8f 3f b1 76 70 af aa a3 6a bf
       0.015186767033969768 -0.00325187050795147
000120 b6 92 a6 43 65 0d b0 bf 4b 02 74 cd 6a ae a5 bf
       -0.06270440007808528 -0.042346322612506336
000130 19 20 a6 89 b7 c8 90 3f 0c 82 5c 43 7b 22 a8 3f
       0.016390674377845558 0.047138072941610515
000140 99 9e aa 7c 54 c8 9a bf 21 38 3e af 0f db b0 bf
       -0.026154823407209624 -0.06584260967630985
000150 42 13 c6 8d c0 51 8e bf c4 20 58 b9 49 7e a7 3f
       -0.014804367376891062 0.04588537585738231
000160 ef 41 c7 1e 23 5a a7 3f a2 aa 43 b4 cd 7f b0 3f
       0.04560956717216757 0.06445012713417467
000170 fc 11 30 83 c7 81 6b bf ec 3b f8 28 38 9b 9c 3f
       -0.0033577820518095863 0.02793586492594706
000180 ad fb 18 62 0d d9 71 3f b8 22 fc f8 f0 e8 a0 bf
       0.004357387807941854 -0.033027201074280865
000190 92 95 14 9c cd 16 c0 3f 66 b6 5f fd 4a c7 9f 3f
       0.12569589730371128 0.031033679690088432
0001a0 dd f5 37 51 c4 48 b1 bf 90 b1 83 7b 26 f0 9e bf
       -0.0675165842330538 -0.030212975777361317
0001b0 e4 6e 47 7d 8d cd 93 3f dc ed 18 8e f5 52 8a bf
       0.019338808795381093 -0.012853544615714911
0001c0 03 3e 3c bd f0 59 b0 bf c1 c1 f8 8b ef 3f aa bf
       -0.06387238140109024 -0.05126904090537066
0001d0 82 5d 0e 40 c9 85 51 bf 8e 2c de f9 82 40 b5 bf
       -0.0010694947561427919 -0.08301561928071718
0001e0 24 e9 71 72 57 26 a5 bf 15 94 9c 05 57 a0 76 3f
       -0.04130814811738251 0.0055240058225409965
0001f0 71 d7 4e 0e c5 b7 89 bf 92 f9 28 1f 75 a6 a7 bf
       -0.012557544230599156 -0.04619184499141506
000200 cb a1 1c 77 20 98 92 bf eb 78 85 dd 55 66 a1 3f
       -0.018158442754755016 0.03398388222807277
000210 78 dc 6e 8b 4c 0a b4 3f e5 f5 bc 42 3f 12 90 bf
       0.07828215030791508 -0.015694607208606732
000220 08 d0 00 d6 ae d9 a1 bf 86 44 72 4b d8 91 74 bf
       -0.03486391413062512 -0.005021901036472381
000230 cf 41 7a c4 67 86 b7 bf af 47 58 3c 25 2f a0 bf
       -0.09189461275878517 -0.03160969125396151
000240 80 72 a2 e9 4b 0c 90 3f 33 e7 3d 35 c2 d8 b3 bf
       0.015671907553598263 -0.0775262241349111
000250 f9 0d 18 ee 7d 48 a1 bf cb 94 d9 fa 60 2c aa 3f
       -0.033756194414333814 0.05111983358509916
000260 0f 3c f2 e8 90 7d b8 bf 5b 62 e7 99 05 a8 a8 3f
       -0.09566598593868057 0.04815690520962753
000270 04 8a c2 44 95 9c b1 3f d1 b7 02 65 ab 55 6b 3f
       0.0687955181952376 0.0033367488432167543
000280 1d 9b 24 39 9d 83 b8 3f 02 4f dd 40 74 de bb bf
       0.0957582726010568 -0.10886313041310916
000290 9c 41 59 23 9d 13 a6 bf 4c 05 0f 92 ec 9d 8e bf
       -0.04311839157583394 -0.014949653823239338
0002a0 a2 82 cf f6 cf 30 a0 bf d6 49 94 45 5a 63 b5 bf
       -0.031622408750768174 -0.08354725073539923
0002b0 26 3a 0c 82 c0 69 74 3f af 96 67 1c 4a 44 65 3f
       0.004983665451403973 0.002596039531669834
0002c0 50 2e 32 3a 6d 52 92 bf ea 1d 3d 34 14 52 9b bf
       -0.01789255778980553 -0.026680293739699858
0002d0 3c ac 9c 6c 45 09 7d 3f d1 33 dc 84 a4 b4 a3 3f
       0.007088919819390912 0.038487569063455525
0002e0 4b 0a 84 a2 24 c8 b0 bf 0a 9d b3 d8 a0 66 a4 3f
       -0.06555394141836605 0.03984549184115778
0002f0 7f 8e 45 58 1c d9 97 bf 43 e0 5f 85 bc ba 85 bf
       -0.02328914917724356 -0.01061007768656464
000300 3d 2e 2a 37 d4 5b be 3f bb 2a 91 d3 61 91 b4 3f
       0.11858869883342833 0.08034335532390006
000310 0a 5c 5e 0d de 4c af 3f 66 3c b5 99 5e 34 a4 3f
       0.061133326656254 0.03946204782789024
000320 e3 dd 8c 98 6a 92 9b 3f 5b 50 d2 eb 17 60 a7 bf
       0.026925721703461646 -0.04565500978165523
000330 92 11 f8 98 a3 4f 94 bf 32 89 aa ac 82 3d 74 bf
       -0.019835048877227708 -0.004941473433662845
000340 1f 7f c4 f5 5e 45 8d bf fd 52 b2 6d 18 f8 ac 3f
       -0.014292470813017709 0.05658031786984983
000350 31 5b 5b c5 7e cf 81 bf 40 4c 03 ba c5 fd 74 3f
       -0.008696546933988 0.005124828691083272
000360 4c 6b 78 63 2b c0 a2 3f dc 6b 3c 05 57 f5 8e 3f
       0.03662238682973981 0.015116386267939257
000370 c1 19 b7 b0 61 de b1 3f c7 4c a6 d0 81 94 bc 3f
       0.06979952396714052 0.1116410383604488
000380 91 0e fa bb da c7 79 bf 8a 68 b8 8c d2 62 a2 bf
       -0.006294111662672145 -0.03591020553376818
000390 02 a3 c8 6c a8 27 b9 bf ff 2f bc b9 f2 eb ab bf
       -0.09826138168194734 -0.05453451649927387
0003a0 de f8 9d 2a cc 97 83 bf 79 48 39 b1 bb 75 8b 3f
       -0.009566874552316692 0.013408151956501012
0003b0 38 cc 9a 5b 5f d9 9c bf 5a a2 ae d9 07 3c 92 3f
       -0.028172960249048112 0.017807123814835492
0003c0 f4 b8 db b1 38 78 9d 3f 97 7d 90 bd ba 88 7e bf
       0.028778920989616943 -0.007454614119552081
0003d0 c3 31 5d d1 25 51 a3 3f 04 aa a6 e9 d2 65 7d 3f
       0.037728483016141755 0.007177184941989715
0003e0 be 87 5e ef 2f c4 b4 bf 25 12 95 29 b8 33 9c bf
       -0.08111857980705303 -0.027541043794615434
0003f0 91 80 ba 82 cb 69 93 3f 8c 6c 01 95 3f ba 69 3f
       0.01895826325801459 0.00314056795472834
000400 2f 3b b3 f3 d4 23 a9 bf 55 76 ab b6 47 5f 9d bf
       -0.04910150027136805 -0.028683777355459423
000410 30 d2 ef 9a 2e f3 b1 bf 86 1a 09 2a f6 a4 b2 3f
       -0.07011691362988226 0.07282961393603146
000420 07 5b d0 9d a2 fb b3 bf 6c 11 ca 51 84 18 91 bf
       -0.07805839875105046 -0.016695086948418078
000430 f2 73 e4 a1 a7 7c bc bf 19 a4 e2 1c 03 85 b0 3f
       -0.11127708151293783 0.06452960448463364
000440 65 9a cd e8 3b d9 a1 3f 61 a0 4b 5d bc 3a ad bf
       0.034860489052154255 -0.05708874358043726
000450 73 64 34 e6 67 ca a5 bf 05 f7 cc 53 24 d1 ad bf
       -0.04255985913386775 -0.05823625109631617
000460 54 fc 30 5d 22 2f 9c 3f 35 a8 06 71 01 cc 56 bf
       0.02752355283541548 -0.001391412170145501
000470 d2 d0 87 8a f8 1e ae bf ce 4c 46 b7 8b 00 a3 3f
       -0.05883003893896589 0.03711353885878453
000480 a4 ca 7c e0 08 37 b5 bf 9e 4f e2 ec 23 fb a8 bf
       -0.08287101250315715 -0.0487910486855576
000490 29 0e 05 02 c4 f2 8e bf ab 73 d8 48 bf 18 90 3f
       -0.015111476241720006 0.01571940309633006
0004a0 34 92 7d 6e 7d ac b9 bf af 0b db 1d d7 40 b6 bf
       -0.10028823802492398 -0.08692688444993622
0004b0 c9 27 bc 4f 72 aa 64 bf 3f 8d 9c e0 ae 62 bd bf
       -0.0025226814885898935 -0.11478703483276308
0004c0 ba 49 53 e6 6e 97 8e bf 96 83 a7 1d 5b b1 b2 bf
       -0.014937273410770103 -0.07301873659117883
0004d0 2d af 03 06 a1 49 bc bf 6b fb 43 60 f3 bd 6e 3f
       -0.11049848934970603 0.0037526849210957522
0004e0 2b b0 2c 0e 51 53 a3 3f 72 12 33 1d 45 f3 a0 3f
       0.03774503038434348 0.033106002630607714
0004f0 21 61 5b cf cd 2c b9 bf 81 a1 84 01 f5 c7 9a 3f
       -0.09833990394998128 0.026153400628716298
000500 9c eb c4 51 6a 51 a1 bf b9 5c 57 93 76 d8 a0 bf
       -0.03382427452239442 -0.032901483045571785
000510 9f ff 23 c4 b7 4b b6 bf cd 76 94 07 c2 fc a5 bf
       -0.08709286249722802 -0.042944014954839106
000520 80 1e f1 79 60 14 b3 3f 21 6a 22 4c 17 a7 8f 3f
       0.0745296762189529 0.015455419550837015
000530 75 04 97 60 1f 31 ad 3f 08 0b f1 76 64 ad 53 3f
       0.05701540044857093 0.0012010079478989594
000540 29 b0 3f 32 7c a3 9d bf 8a ec a0 8a e1 55 ac 3f
       -0.02894395882314896 0.05534272019618765
000550 bc fd c1 99 e9 ac b8 bf 7d 6e aa 2d 0a 57 b5 bf
       -0.09638843540050507 -0.08335937132727085
000560 ad 7b 8a 3d 8b bf a7 3f 9c 84 ec 67 e4 d2 98 bf
       0.0463832390425901 -0.02424198993970049
000570 00 a7 ac 1a e0 fe ac 3f c6 02 4f af b8 ab 9e bf
       0.05663204503646391 -0.029951940250387186
000580 54 68 46 c2 f3 51 90 bf 37 0f 86 45 e1 5f a6 bf
       -0.015937622768980766 -0.04370025609662636
000590 14 c8 c5 3e b3 cc a1 3f 0d 28 a3 9d a8 85 a2 bf
       0.03476486340777299 -0.03617598461421787
0005a0 f7 c6 b6 5d e5 3a 73 3f 64 00 15 e6 52 81 b2 3f
       0.004694839440547708 0.0722858249400829
0005b0 ff 1c 10 a7 56 7e a0 bf 87 f4 cd 64 5d de 9c 3f
       -0.03221388615934905 0.028192004468554657
0005c0 be 90 99 d3 d4 8c ae 3f 20 0c 7e d7 54 58 a3 3f
       0.059668207960187555 0.037783290200444464
0005d0 ff 56 71 0e 33 c0 8c bf 36 29 fa d4 52 77 70 3f
       -0.014038466337449316 0.004020045816682851
0005e0 40 c8 de 3d 6f 6e 7d 3f 1f 75 27 ee 21 f4 a2 3f
       0.007185396707358349 0.037018833467053584
0005f0 3d 7a ea 25 29 e9 67 3f 34 06 9a 1b a4 d0 c1 bf
       0.0029187968896871295 -0.13917971942650953
000600 99 32 71 c4 c6 53 6e bf 57 28 ed 73 94 89 9e 3f
       -0.00370205709217537 0.02982170064505171
000610 41 d6 a1 13 72 8e 9b 3f 9d 04 f6 57 75 20 ad bf
       0.026910574386837863 -0.0568882627367284
000620 a5 2a 3e 9e 43 d1 76 bf 1b f8 4e f9 c7 b8 86 3f
       -0.00557066357931527 0.011094629569807826
000630 0b 9e 94 4d dc 2a 92 3f c6 a5 60 24 f0 f2 92 3f
       0.01774162505640046 0.018504860134418676
000640 fd f9 ff 98 66 4a 91 3f 6c 27 f3 f2 1b 0a ad bf
       0.016885378921864803 -0.056717751891098483
000650 6f 4e f8 1e 42 93 8d 3f 18 42 c4 76 ff 68 a1 bf
       0.014441029138686915 -0.034004195449714725
000660 dc cd 82 3a 02 a5 87 bf 5d e6 1c 9b 8d c5 85 3f
       -0.011545197878468132 0.010630708976907483
000670 5f 97 ac c7 41 a5 b1 3f d7 06 3e bc 35 24 a6 3f
       0.06892787098749185 0.04324500964049854
000680 a9 7d 82 bc f7 20 ad bf 5a ed d5 13 f5 4e 9b bf
       -0.05689214874405064 -0.026668385825798203
000690 e9 3f 1c 1c a3 07 98 bf d3 8c 6c 2c cc 5d 9e bf
       -0.023466633406371704 -0.029654684268405184
0006a0 5a 43 fa b5 e8 c0 6f 3f d0 25 18 e7 46 c3 ac bf
       0.0038761658796108546 -0.056177344999081336
0006b0 0f 75 cd 97 a8 55 9a bf 39 39 81 5c 58 6c 96 bf
       -0.02571738649873106 -0.02189767899135939
0006c0 ef 9c 8a d5 3e 0d ae bf 81 aa a9 e9 be 02 93 3f
       -0.05869480473239174 0.018565161716120663
0006d0 04 8e 18 5c dd 62 86 3f ea 4f 7e 7e 63 1b b7 bf
       0.010930756924671499 -0.09026166761606161
0006e0 f3 ad ec ff 87 2b a6 3f bf 27 10 86 31 be 60 bf
       0.043300867071902525 -0.0020438163051083864
0006f0 5d a3 b9 29 30 72 97 3f df 0c 65 c5 c9 84 bb 3f
       0.022896530672741878 0.10749493664939135
000700 d8 fb a7 aa fd 4d 95 3f 65 14 e3 ef c4 d4 b1 bf
       0.02080532411673261 -0.06965285164467756
000710 43 0e ae 54 15 66 9d 3f 6d ad 04 d4 d2 12 8d 3f
       0.028709729474498024 0.0141960593178598
000720 9b 1f 43 98 a8 7e af bf da 7b d8 28 0f 19 a4 bf
       -0.061513203226751766 -0.03925368665317537
000730 a1 a5 e0 2a 11 e1 8d 3f d3 8c bc 48 a5 c8 b3 bf
       0.014589437600153245 -0.0772803595141796
000740 e2 a0 46 8e e9 4b 9c bf 60 90 90 d9 53 d2 aa bf
       -0.02763333254702694 -0.052385921772185595
000750 d3 c5 ad 01 69 55 9b bf 54 2b 76 91 52 21 9e bf
       -0.02669300148722249 -0.02942399037196293
000760 46 c1 11 36 c4 f0 74 3f ee 7c 0b d2 c5 cb af bf
       0.005112425279648674 -0.06210153759979585
000770 ee 11 71 6a d5 92 96 3f 18 42 c5 75 ca 44 94 3f
       0.022044500943836746 0.0197936663037713
000780 a7 82 81 35 fa 59 b6 3f 3e 35 bf 68 47 7b c3 bf
       0.08731044584556945 -0.15219967474551227
000790 65 5e 97 73 52 e9 a5 3f 07 ea 54 69 a9 6e ab bf
       0.04279573117281358 -0.053578657253144306
0007a0 ac df 5a 78 97 56 aa 3f e8 f9 08 a8 19 19 ba 3f
       0.051441892091531244 0.10194549896639382
0007b0 c5 1e 9c d2 e4 c4 ba bf 88 c5 2e 9d f1 7e b8 3f
       -0.10456686155168445 0.09568700873821545
0007c0 81 f2 f3 20 0e 66 aa bf 9d ed 19 b7 2a 6f 95 bf
       -0.051559869310925606 -0.02093188040315185
0007d0 32 b2 6b ab a6 30 a0 bf a9 69 b2 dd 2d 90 aa bf
       -0.031621178079010895 -0.05188124972592629
0007e0 48 1f a7 74 ef 57 c1 bf 30 bc 1e 41 12 9c b1 bf
       -0.13549607463778046 -0.06878770913930121
0007f0 58 d4 90 10 10 40 9e 3f f9 c7 e3 5d bf d0 6f 3f
       0.029541255007832085 0.0038837182647677407

weights_hidden_output f8 [128, 10]
000000 e8 4c f8 87 80 e7 dc bf 92 eb d7 1b 6a 5b c6 3f
       -0.4516297653037342 0.1746647487596787
000010 a6 4f 89 5e 08 b6 79 3f 75 34 c7 5b 5f 2e c9 3f
       0.0062771155285935906 0.1967276762137861
000020 44 f1 a3 96 41 fb c1 bf 24 ed 91 18 44 ce be 3f
       -0.14048023086059847 0.1203348693833744
000030 0a da 8a 31 91 71 7c 3f 8f 53 e3 dc 16 46 da bf
       0.006944243585783836 -0.4105279118642153
000040 37 f4 e0 d8 b1 a9 d1 3f 82 23 9c f4 b0 44 c6 3f
       0.27598234347880485 0.17397129005282969
000050 31 3d 47 3f d4 07 97 bf 06 3a 85 52 88 21 c3 bf
       -0.022490803110312988 -0.14946083096806734
000060 43 72 ff f4 c1 c6 bf bf 8d 68 e7 8d 86 94 a1 3f
       -0.12412655097382079 0.034336285421617686
000070 c9 52 25 04 aa d5 a3 3f 72 36 48 5c d2 d3 7b 3f
       0.038739502912596153 0.006793805809605412
000080 b8 f9 93 1f 77 30 b5 bf f0 f0 1d 9c 27 e6 ad 3f
       -0.08277077218006113 0.05839656620716649
000090 be c2 24 d3 29 69 ab 3f 48 d2 45 bc e0 87 a4 3f
       0.05353670790134889 0.0400991658997652
0000a0 ae 43 47 49 21 a5 af bf 73 cf 82 77 23 0a cb 3f
       -0.06180671710502082 0.2112469037580201
0000b0 ad f5 dc 15 a1 fa cd 3f a0 0b 26 22 17 54 c8 3f
       0.234211097407678 0.19006623427784763
0000c0 1b 6e 28 8c 38 82 b4 bf 84 b0 e8 f6 f7 f3 c5 bf
       -0.0801120130712935 -0.17150783115483048
0000d0 60 3b 00 a4 c2 dd da bf a5 dd a6 0b 8b cc c5 3f
       -0.4197851754733417 0.17030466145454884
0000e0 6f 58 5c 10 bf 17 9b 3f 75 00 58 f1 e5 e8 bb 3f
       0.026457772611216897 0.10902249471837584
0000f0 d5 fc 12 ed d4 8c a9 bf b5 ad 18 bf 34 97 94 3f
       -0.04990258592578704 0.02010805527076594
000100 b2 e9 89 58 e8 78 90 3f bb ef 91 51 e9 79 c6 3f
       0.01608622589490389 0.17559544070161145
000110 ac 66 cd ad 83 82 d5 3f bb 53 d5 cd 73 6c 98 3f
       0.3360909650124124 0.02385121291930024
000120 09 42 e4 e6 de d8 a2 3f fa 9d 65 c8 e7 be d0 bf
       0.03681084221364379 -0.2616519410134682
000130 a9 84 ad 13 39 a8 b0 3f 05 35 d5 7e cf e4 9c bf
       0.06506687860884831 -0.028216592899572585
000140 55 4d 17 19 05 c6 bc 3f e2 7d f4 3a 4c 67 99 bf
       0.11239654409955809 -0.024808112238245424
000150 2c fe c8 58 cf df da 3f 84 20 75 f9 5d f4 d5 3f
       0.41991027517721835 0.3430399833782831
000160 c4 f6 62 cb 70 d0 cc bf 94 3b 09 26 2a e6 b9 3f
       -0.22511110239968535 0.10116828373541714
000170 4b 4f ce 67 6a 07 d2 bf cc 9d 2a 6b 2d 7f e1 3f
       -0.2817026151399104 0.5467745869727252
000180 80 a8 57 5f df a9 b4 bf ab 34 c3 32 d6 07 e4 bf
       -0.08071704938598323 -0.6259566298919216
000190 0f 92 5d 18 74 8b c0 3f 7a db 69 98 5a 36 a1 3f
       0.1292557829830376 0.03361781225696965
0001a0 05 2d 74 3c 62 c5 bc 3f 76 71 87 cd 55 2a b7 bf
       0.11238683677600043 -0.09048973338889774
0001b0 3f ea a3 a1 fe 17 cf 3f 59 5e 21 f9 18 d5 d4 bf
       0.24291975872604785 -0.3255064423478636
0001c0 29 d5 29 b3 4d ea a3 3f f5 45 75 e0 31 f8 ab 3f
       0.03889696895650225 0.054627951287908795
0001d0 a3 27 33 3c 81 f3 a3 3f 65 26 26 a6 0d 89 d2 3f
       0.038967169378863596 0.2896150705861145
0001e0 72 9e 84 e1 23 31 c4 3f cc fb f9 2b f5 01 9d bf
       0.15774963866828134 -0.028327780541527223
0001f0 e0 d6 ab 4b a8 c9 b0 3f f5 65 a1 83 92 8a d6 3f
       0.06557704780047002 0.3522077832654696
000200 06 88 9f 78 30 05 d0 bf dc 7c 67 33 9c 9f d4 3f
       -0.25031673221212747 0.3222418310160273
000210 34 8c 49 0a a4 5b c6 3f b2 ea 07 65 a8 ef d7 bf
       0.17467165472325663 -0.37400255075742017
000220 92 81 7c 92 63 cd c3 bf 05 65 50 98 30 05 da bf
       -0.1547054734483138 -0.4065667617265521
000230 a9 bc 11 bf 8b 0b c5 3f 2c 87 e5 ec 1b 3b af 3f
       0.16441485242419177 0.060997841518441426
000240 42 36 c6 56 9c 38 bd 3f c4 b0 02 75 62 a6 9c bf
       0.11414506071579303 -0.02797845687079882
000250 69 1d 97 d1 02 62 bb 3f 7d a6 de 17 d4 01 e2 bf
       0.10696427933645726 -0.562723204250872
000260 79 d1 b6 7a e4 25 ba 3f f6 26 75 d0 a4 12 b5 3f
       0.10214069362593205 0.08231573190019134
000270 0c f2 a4 b9 2f 0e 87 bf 28 8c 76 78 5d c3 b9 3f
       -0.011257527211108197 0.10063728514664716
000280 ff b3 b2 91 dc 4c 88 3f 58 fd 8c 3c 1e c0 b3 3f
       0.011865351864196681 0.0771502397374112
000290 2b 7e 77 46 6b 9a c9 bf d9 26 51 e2 f1 e6 dd bf
       -0.20002499523887826 -0.4672207555891937
0002a0 cd b1 38 19 0c e3 cf 3f bc 21 b8 d3 66 d1 bd bf
       0.24911643249050855 -0.11647646588256227
0002b0 f2 89 c1 42 39 bb be 3f b9 f3 fe d3 d5 af c6 3f
       0.12004430656228474 0.177241066468836
0002c0 8a 47 84 a5 2b 24 b1 bf 6e 20 a0 cb 07 78 ca 3f
       -0.066958167943339 0.2067880386605369
0002d0 be 1e c7 64 f7 7f c2 3f 25 1b 24 14 cc 4f a0 3f
       0.1445302240447201 0.0318588041864614
0002e0 dd 89 cb e9 e9 28 a9 bf a2 4e 1e 6f 67 49 c4 3f
       -0.049140271939694925 0.15849011350348002
0002f0 3b 59 69 04 37 70 c9 bf 7b d7 47 8b f5 06 b4 3f
       -0.19873702731519835 0.0782311883011441
000300 c2 c3 3d 6c 07 e0 bb 3f 05 0f e4 61 03 33 c4 bf
       0.10888716118439759 -0.15780679969622483
000310 42 1a 69 f2 6a b3 c1 3f 4e a9 5b 43 13 be a5 3f
       0.13828789555027937 0.04246578404657218
000320 dc fb 90 df fe eb b7 3f f4 49 cb a0 52 5d b4 3f
       0.093444757062556 0.07954899240147723
000330 e5 98 db d4 47 22 ba bf 49 8f 28 85 a2 40 b3 bf
       -0.10208558031772304 -0.07520499945581806
000340 c3 3b b4 43 dd 68 ce 3f 03 fa bf 03 04 96 98 bf
       0.2375752049051397 -0.024009764412761935
000350 18 56 d3 8c 9b e4 ae 3f 03 18 09 c8 6f dd c1 3f
       0.06033788770734477 0.13957021014556412
000360 57 64 a5 b3 94 09 de bf 0a c8 a4 fc 2c 6b c0 3f
       -0.4693347696643903 0.12827074371449526
000370 0f 84 92 15 30 f2 ce bf 9a 43 e8 8d b1 21 c9 3f
       -0.24176598599754626 0.19634074620310288
000380 c8 cd 7c 14 3a 1c c0 3f aa 0a 1f 09 26 da d4 bf
       0.12586141586653654 -0.3258147324633379
000390 db a4 27 13 50 85 b9 3f fc 24 15 bc 7a b8 de bf
       0.09969044177673274 -0.48000973098221755
0003a0 db 7c 41 c2 72 8f c1 3f e9 b0 5e a2 dc 61 c2 3f
       0.137190193988295 0.14361150673119674
0003b0 bd e5 e0 6c 2c e9 ce 3f c1 fb 7f fe ea 59 8a 3f
       0.24149089161237028 0.012866817371102958
0003c0 61 dd b4 43 8e 0f ac bf af 16 72 7c e1 ec ce 3f
       -0.054806180729822136 0.24160402847717452
0003d0 5e 45 ac 4f a5 ae 6c bf 4e 40 04 52 ef 14 df bf
       -0.0035012463316738537 -0.48565276154932213
0003e0 ee c2 47 20 40 87 d0 3f e8 2d b2 b1 8d 4f ab bf
       0.2582550349462015 -0.05334131998196395
0003f0 d3 05 eb 6c e3 b3 ad 3f 25 0b d9 b5 e0 2f d4 3f
       0.05801306442800649 0.31542222746445453
000400 7e 5d e5 eb f4 8a cf bf 22 28 61 0a e5 3c cc 3f
       -0.24642812269551578 0.22060835844814713
000410 2d 0f 9d 8d 3c 79 b3 bf 0b 12 79 45 5f 65 a5 bf
       -0.07606867272721436 -0.04178903315599677
000420 a4 69 9f 94 c4 9e d9 bf c8 83 ce 95 5d e7 d1 bf
       -0.4003154231446848 -0.2797464335399664
000430 48 c2 30 23 d8 bf c2 3f 94 c3 e6 00 66 b6 d1 3f
       0.14647962301525497 0.2767577179720828
000440 63 be e1 0d e2 58 d4 3f 05 99 20 71 9c 17 d1 bf
       0.3179249892773212 -0.26706610725013064
000450 3b e7 c1 9b 81 26 c5 bf ac 21 a1 10 c1 79 bc 3f
       -0.16523761849730953 0.11123282104484272
000460 52 03 17 6f af cb d3 3f 5a 08 68 31 8c 3c d1 3f
       0.30930696343061925 0.26932053398934885
000470 a0 2a 44 e5 4a f4 ce 3f 65 54 d7 75 6a af 93 3f
       0.2418302173103557 0.019223845903827547
000480 b8 90 02 3d 3d 2d c4 bf 2e 49 de 60 8d de b3 3f
       -0.1576305911922924 0.07761462798069793
000490 99 8a 9b 50 fa c4 8f 3f 89 78 5b 1c 4c cc be 3f
       0.015512424073169927 0.1203048295242032
0004a0 3c 7c d4 2b 30 18 e4 bf dc 2f 55 b6 1f 5b de bf
       -0.6279526573233691 -0.47431176000531905
0004b0 34 f7 3b 4a 8b 20 aa bf 36 d4 2d 1d f9 7b a8 3f
       -0.05102954178981492 0.04782083970250321
0004c0 83 7f ff 5b e0 92 d4 3f 0d f1 cd ce 64 c4 d2 3f
       0.3214646242540697 0.2932369250845717
0004d0 91 4f 96 b7 0a 0e cc bf 33 00 a5 9a cf 82 b1 bf
       -0.21917852367607485 -0.06840226674557996
0004e0 29 5d 0e ab 12 3a cf bf d2 8e a3 ea 56 54 e2 3f
       -0.24395974495266984 0.5727953512946107
0004f0 67 16 7d 5b d9 58 b0 bf b7 c8 1e 50 de 0b e7 bf
       -0.06385572894677126 -0.7201987805222164
000500 ef d0 c7 53 52 e1 b2 3f 76 8f c8 3e a3 77 c2 bf
       0.07375063462660923 -0.14427605214688882
000510 1a 8c a8 58 3f 42 d7 3f 64 b6 94 eb 66 db 87 3f
       0.36341842325254137 0.01164894491611363
000520 f9 0b 2e f5 ea 2a c7 3f a0 f9 6d 22 a8 1e ad bf
       0.18099724742577886 -0.05687451763423046
000530 d8 21 a5 a6 d6 c8 cd 3f 3b 39 b7 a0 83 91 da bf
       0.2326916040131113 -0.41513148016828766
000540 03 64 95 f2 de a9 c9 bf c4 07 cb 6b 7c 46 9b 3f
       -0.20049654812717685 0.026636070326965258
000550 62 c6 ee cc 96 9f 72 3f 02 9f e1 2e 35 6c ad bf
       0.004546727242016853 -0.05746618459016696
000560 30 8a 31 a5 00 a3 ca 3f 81 67 b5 11 ef 8b d1 3f
       0.20809944215859977 0.2741658852515841
000570 c3 44 31 61 b4 63 e5 bf 44 dd cc ee 94 ee d7 3f
       -0.6684209726610323 0.37393687553727184
000580 d1 56 b5 c4 9b 27 d0 bf d3 32 7a c3 48 83 c5 3f
       -0.25241750917244327 0.16806897682945152
000590 a6 10 81 02 6d a3 b7 3f 8d aa b9 a6 e3 88 a1 3f
       0.09233743010651327 0.03424750719280665
0005a0 d3 fc 6d e2 92 c2 c5 bf 5c a7 8c 5c 8c 7e cd 3f
       -0.17000042015204161 0.23042444724097322
0005b0 3a f4 7d 85 76 32 a2 3f cb ff d5 77 39 00 d3 bf
       0.0355412519411193 -0.2968887014649197
0005c0 82 b8 4f 1a 0c de ce bf c7 f1 5a 6d 8b d5 e3 3f
       -0.24115134510742925 0.6198174606175194
0005d0 94 b7 62 82 04 54 cb 3f 16 f9 be ab 64 af 9a bf
       0.21350151411519092 -0.026059697134536007
0005e0 13 e0 7f 0e 5c 3d b2 3f 0b b4 b9 2d 33 9e ae bf
       0.07124877313606275 -0.059800719577516835
0005f0 31 6f e0 b3 22 da ad 3f 19 8b 7d b6 ea 42 96 bf
       0.05830486722717721 -0.02173964251359015
000600 81 37 aa 07 eb 65 d3 3f 0e 3c 24 2c 4c 2d d6 3f
       0.30309558628584204 0.34651474295327567
000610 47 20 f7 bb 9f 43 cd bf 82 20 81 cc 6c ad d7 3f
       -0.22862621953959403 0.3699600216973594
000620 91 dc 35 d4 04 dd e2 bf dc a9 9a 9a f8 88 d1 bf
       -0.5894798416837991 -0.27398505304395626
000630 1c 36 2e f9 47 d2 6c bf 74 ef 20 52 2e 11 bb 3f
       -0.0035182386140551036 0.10573091034978949
000640 66 90 20 14 d4 8c d2 3f 15 96 c8 e1 30 1f c4 3f
       0.28984548535868837 0.15720187210642736
000650 0e 6e db 96 70 17 ce 3f 54 ad 2e 4a 86 84 b8 bf
       0.23509032598563845 -0.09577216445057007
000660 7f 16 f5 17 dc 61 e8 bf c3 f8 c9 98 d4 39 c5 bf
       -0.7619457691113921 -0.16582734547040986
000670 22 6c 4d 26 7c e5 a6 bf 17 e8 a8 45 7a 6e b1 3f
       -0.04471958129462218 0.06809200478247167
000680 7c e9 5b 84 e0 fe b6 bf 03 18 e4 6f dc d6 a4 3f
       -0.08982661467954317 0.040701759966438565
000690 4a a3 6d b3 0e 09 c4 3f 3c 1c f9 1a 46 aa db 3f
       0.15652641068597922 0.432267690983682
0006a0 69 9e 2a 4e ad 9b d4 bf f0 f9 bb 42 e0 aa d8 bf
       -0.32200176843114164 -0.38542944447536254
0006b0 1e ca f7 3c 83 cc d1 3f ed 78 78 9a 77 f5 a1 3f
       0.2781074614896698 0.03507589111926444
0006c0 9b e8 3d 5f a3 43 c7 3f 40 02 80 20 5a ca ab 3f
       0.1817516531990052 0.05427819868782935
0006d0 b1 39 59 fb b0 f3 ac bf 94 50 72 92 c5 f7 d5 bf
       -0.05654671734065476 -0.34324778844280357
0006e0 52 d9 27 c7 67 1f a8 bf 59 26 18 86 3c b0 ba 3f
       -0.04711460405444491 0.10425165437495688
0006f0 39 b3 f4 fa 09 20 94 bf a0 44 10 5c 89 2c cc 3f
       -0.01965346903050433 0.22010914798059833
000700 9c fd f6 9a fb d7 d7 3f bd 10 be 11 af b3 d7 bf
       0.3725575459793278 -0.3703420327440304
000710 d8 63 31 3e 1b b4 d6 bf 50 01 da 5a 3e b4 b2 3f
       -0.3547428233483152 0.07306279867225851
000720 92 d2 bb 4b 1f b8 bf bf 93 a2 ad 24 df 63 d6 3f
       -0.12390323256460992 0.349845681971183
000730 0a f5 ee 08 15 a7 91 3f d9 0c 13 f1 46 3d d3 3f
       0.017238930387738306 0.30061505834983177
000740 d8 33 18 43 2d 9f d5 bf 74 fe 96 c2 84 f6 cb bf
       -0.3378403811664703 -0.21846065045791685
000750 26 5b 3a ae a6 ea da bf f8 8c bb 73 d9 f7 da 3f
       -0.4205719663090569 0.42137752820981644
000760 a0 04 37 68 12 05 95 bf d0 bb 1b 11 78 63 aa 3f
       -0.02052716027333601 0.051540138328952545
000770 31 9a 64 b3 d9 df c2 bf 94 54 4c a9 8a 7a bc 3f
       -0.14745637187407248 0.11124483712440486
000780 c2 93 f5 64 60 f1 c5 3f f8 44 74 cd d9 6e 7b bf
       0.1714287274327529 -0.006697512427551226
000790 6f e8 8d 77 b5 46 d7 bf 3c 8a 07 3e 1a 51 b0 bf
       -0.36369072604396185 -0.06373752607718414
0007a0 04 99 da b2 9c 02 cb bf 07 02 97 a0 11 59 c5 3f
       -0.211017215090756 0.16678066579153514
0007b0 cc 02 4f 26 f4 2b d2 3f e5 c6 fa d3 f7 30 d2 bf
       0.2839327215297487 -0.2842387743104225
0007c0 72 d3 e0 3a 23 50 c1 3f de f4 d6 72 2a 67 d1 3f
       0.13525810599244498 0.271921741626853
0007d0 71 85 cb bb 57 08 ae 3f eb b6 a3 90 15 ff 9c 3f
       0.05865739982051366 0.02831681914624699
0007e0 18 d7 b6 ae a7 70 93 3f f6 c8 91 62 da 4c a3 3f
       0.018984432257375422 0.0376957173656524
0007f0 9e f2 6a 3c 32 f3 99 3f a7 26 e4 d7 aa 2c 80 3f
       0.02534178251038332 0.00789769622180654

bias_hidden f8 [1, 128]
000000 dd f1 b8 6b 2f a8 50 bf 4f d4 56 c2 d1 cf b3 3f
       -0.0010166609853420252 0.07738982195481124
000010 e6 d9 37 cc ce c5 b6 3f c5 33 16 a3 7e 9a 98 3f
       0.08895580755038388 0.024026850418113605
000020 69 10 04 81 7f fc 96 bf ed fb 6d 30 6b e9 c2 bf
       -0.022447578668121446 -0.1477483736489086
000030 66 f6 7c 65 d1 08 c1 3f 7c 19 d9 7e 33 42 af 3f
       0.13308160262561158 0.06105194972456027
000040 bd 74 ed cc 13 f7 a9 3f 2b 79 ab 0f b3 19 a8 bf
       0.05071317555005226 -0.04707107130319551
000050 c0 88 17 6c 02 7e b9 3f 60 87 a5 79 e9 75 c7 3f
       0.09957900179827828 0.18328588905120125
000060 86 be 2c 29 a9 53 bd 3f 29 35 07 62 80 24 c0 3f
       0.11455781226390557 0.1261139372494793
000070 da da eb 53 72 37 c4 3f 52 39 51 bd 66 ca bc bf
       0.15794209573478818 -0.11246339914325645
000080 3e 0c 48 92 39 f3 bd 3f 91 c0 00 b2 1e ba 90 3f
       0.11699256726574078 0.01633499108737674
000090 b9 92 da c6 ac bf 51 3f 30 14 4b 80 20 38 9d 3f
       0.0010832965157671472 0.028534419851684756
0000a0 d6 4c 64 ab 1e dc c0 3f 6a 37 e6 71 c4 01 af 3f
       0.13171752327671155 0.06056035890934093
0000b0 c9 d4 79 42 69 7e 8b 3f 89 89 6f dc 9e a4 c0 3f
       0.013424703923400465 0.1300238205286173
0000c0 85 53 5e 22 f2 d6 a2 bf bf 72 c4 a6 21 ad c2 bf
       -0.036796156592720876 -0.1459085525792911
0000d0 da e2 6d 14 87 a0 62 bf d4 fc 0f dc a4 79 b2 bf
       -0.0022738111760499504 -0.07216863987558791
0000e0 33 f7 9f 32 24 04 c1 3f c3 c9 a3 c5 75 8e a2 bf
       0.13293888542096396 -0.03624313390345748
0000f0 9f 5d af 04 1c 51 a4 3f f3 95 2d bc e2 91 bd bf
       0.039681315967466484 -0.11550728887740273
000100 57 2e 6c b9 b6 07 6a bf 3c 39 a3 73 0e 43 d1 3f
       -0.00317750633565143 0.2697178010247574
000110 8c 1f 4e 52 d8 14 97 3f f3 dc 8a 0f fa 75 a2 bf
       0.022540454886921732 -0.03605634155013062
000120 3f 17 48 26 6d ad 78 3f 38 b7 1c b8 85 d4 b3 bf
       0.00602476727045148 -0.07746158356596033
000130 73 fe 83 93 bb 89 c4 3f 01 5f 9d a5 16 26 b5 3f
       0.1604532690325758 0.08261243384674445
000140 c6 9f 76 ec 02 bc 87 bf 14 05 1b 2c f5 87 c7 3f
       -0.011589072076119932 0.18383659986106038
000150 2d 6c 12 fd 93 91 bb 3f 06 2e ce dc b0 bc c1 3f
       0.10769009521975255 0.13857088834298298
000160 1f 4e a6 8f 27 b3 ad bf b0 c6 4c 90 dd 0c c7 3f
       -0.05800746563468472 0.18008012338537105
000170 47 b4 88 a2 3e 55 bc 3f 22 69 f0 87 03 91 ae bf
       0.1106757304011846 -0.05970011743939298
000180 cf 54 98 83 e9 7d b8 3f 13 54 97 8a 20 b5 b8 3f
       0.09567126715440398 0.09651378043720653
000190 88 07 7b 45 34 8f cc 3f 7b c9 22 0e bc 6d a0 bf
       0.22312024490934967 -0.03208720848614895
0001a0 19 d6 30 ba ad 91 96 bf c7 3b 03 e6 16 b8 a3 bf
       -0.022040094842131184 -0.03851386602183698
0001b0 45 b5 2d a9 12 45 be 3f 94 9f 70 14 e2 ec 97 3f
       0.1182414687188685 0.023364574906878113
0001c0 73 61 a5 b2 6b e0 bd 3f ce de 8e 9e a6 93 7a bf
       0.11670563804125837 -0.006488467080025108
0001d0 47 2a b3 ef d2 00 bf 3f d7 a3 8f 67 7e 2a 96 3f
       0.12110632278487642 0.021646475859515703
0001e0 06 f6 7e 7e 8d a0 bc bf 83 b7 11 c8 03 5e ba 3f
       -0.11182483995704481 0.10299705156805143
0001f0 97 bd f4 2c df a7 87 3f 91 a4 00 23 c5 39 90 bf
       0.011550658759545125 -0.01584537531031011
000200 90 93 71 4e c7 57 83 3f 45 2d f3 97 c0 e7 ad 3f
       0.009444768029604395 0.058408754871914804
000210 57 20 d6 24 2f 34 bf 3f 22 c2 0f db 7d c3 c0 bf
       0.12189001702620438 -0.130965930904055
000220 cc c9 58 b7 6b 38 8d 3f 33 d4 73 ab a9 47 c1 3f
       0.014267770321656402 0.13499947425558076
000230 f3 a0 1a 54 23 12 59 3f 9b 75 cf 2c 3e f0 8f 3f
       0.0015302033429325762 0.015594945662025952
000240 7f ae 53 fc 83 d0 a6 3f 16 9a 91 e4 52 9c 5a bf
       0.044559597541447886 -0.0016241845608192577
000250 26 fd 63 73 08 7f 76 bf b9 6c 7d 85 08 6d bf 3f
       -0.005492241869659941 0.12275746592551941
000260 91 89 d9 00 bb f9 b2 3f c1 89 92 c5 b7 0a 9a 3f
       0.07412308474298458 0.02543151038538283
000270 16 b9 27 84 98 93 b7 3f 87 3f 2f 0c 9c f9 8c bf
       0.09209588266796617 -0.014147967454760891
000280 24 d2 a9 e8 6d 98 b6 3f b5 85 bf 7a 75 8f b6 3f
       0.08826338701494102 0.08812650915890326
000290 a2 48 86 2e a8 22 b0 3f 4b c0 74 e4 f4 b0 a8 3f
       0.06302882324078721 0.04822507179994825
0002a0 16 3a 92 ab fe 00 b7 bf ce 49 a6 8d fa ea b0 3f
       -0.0898589295268056 0.06608549078217793
0002b0 41 5e af 76 84 cb c2 3f d9 c8 1a af 87 65 c6 3f
       0.14683585925262047 0.17497345018416047
0002c0 d9 e2 b0 5a 0a e8 93 3f 29 f8 68 b9 08 80 d0 3f
       0.01943985155614567 0.2578145800251855
0002d0 af 97 c7 41 0f 9b 8d bf 56 9c e3 61 82 45 99 3f
       -0.014455908961234913 0.024679219460179112
0002e0 6e 65 6a 42 15 1a a3 3f cd 6d 35 45 8a a4 95 3f
       0.03730837283837728 0.02113548324028418
0002f0 14 23 d9 eb 27 6c 9e 3f ab 6a 4b 66 f8 4f a4 bf
       0.029709457178145618 -0.039672625052579256
000300 85 c6 2b 23 1c 55 b2 3f 86 df 7e 15 da f5 b7 bf
       0.0716111741892523 -0.0935951521377075
000310 51 4f c7 50 d4 ec 90 3f db 28 59 06 95 37 bf bf
       0.016528432302791277 -0.12194186596858307
000320 97 af df 63 83 90 b5 3f 31 ae 3a 72 12 ea a3 3f
       0.08423634708714044 0.03889520306014694
000330 7b e3 23 1e 6c 47 94 bf 4a 1d 31 60 d3 66 c2 bf
       -0.01980370458565826 -0.1437629909216674
000340 c4 66 fd 13 92 d0 ba bf 18 10 f4 4e 79 b6 b1 3f
       -0.10474503505738669 0.06919058015415691
000350 65 9b 1e 7c 62 65 c2 3f 9a 1d 6b 5a 04 c8 b4 3f
       0.14371901569867443 0.08117701728325813
000360 47 6e 33 95 c8 e4 a5 3f 25 f9 fa 46 dd 08 a8 3f
       0.0427611047868735 0.046942629732699616
000370 f3 a3 f6 d3 1e 73 b8 3f d1 7f 4a 3e a8 f3 aa bf
       0.09550659823311473 -0.05264020691288319
000380 b7 1b a8 b8 c3 14 ce 3f 16 61 b3 bc 5f 0d a4 3f
       0.2350086833614264 0.03916453531718582
000390 27 f5 8b fe bf 92 c0 bf e9 5f 53 96 c3 27 9b 3f
       -0.12947845391310261 0.026518875169898513
0003a0 c4 4e f3 7f 62 9e b3 3f e3 b5 8a 91 f7 6f bc 3f
       0.07663550971784178 0.11108348181979681
0003b0 d7 97 cd 38 c9 86 c0 3f af 58 d3 07 ef 8b b0 3f
       0.1291133429869535 0.06463521901182177
0003c0 b5 3f 1a 67 1f 84 b7 bf 6a ac 9e 11 b3 00 b3 3f
       -0.09185978190566753 0.07422942333384844
0003d0 96 12 d0 37 81 a3 b4 bf b9 eb 75 d6 7f 64 99 3f
       -0.08061988461128985 0.024797437157285638
0003e0 fc 9b 68 f1 f5 dd 91 3f 0b 45 5c 43 c4 1d 7f 3f
       0.017448275432027302 0.007596747067297525
0003f0 a1 29 29 88 4a 27 c5 3f eb 64 b6 f9 cc 38 b3 3f
       0.1652615704391112 0.07508545967575102

bias_output f8 [1, 10]
000000 bc c9 0c 1d 73 9e cb bf 53 97 f7 6a 15 ee c4 3f
       -0.21577299993948695 0.16351573679929263
000010 7a 5b 11 0c 12 24 bc bf e1 52 2d 3f b8 30 ab bf
       -0.10992539209961008 -0.053106076919595464
000020 c9 52 f7 fd 31 e4 bd 3f 7e 5e d5 17 73 17 d4 3f
       0.11676323366493614 0.3139312489269982
000030 2e 01 42 0b 3e d8 ad bf b6 da e8 04 0f e0 cd 3f
       -0.058290423273322 0.233400227925548
000040 b8 10 e6 71 04 db cb bf 47 7a ef 76 65 21 c6 bf
       -0.21762137948474503 -0.17289417560000883
